ConvLSTM/Original/0.73_95_A_S.pt (torch, 84919 bytes, 7 tensors)

conv_lstm.conv.weight f4 [40, 13, 3, 3]
-0.060564417 -0.014229414 0.08242644 0.019022558 0.067013144 0.058057953 0.0030302068 0.080121845
0.008730998 -0.03706947 -0.006364948 -0.036686193 0.02599248 -0.05671284 0.069154985 0.01718189
-0.020553486 0.040791128 -0.07369958 0.08793366 0.050212696 0.0920218 0.08913396 -0.016326496
0.025945244 -0.08258742 -0.006002355 0.028550707 -0.074324906 0.0068261754 -0.04405303 -0.042524897
0.077283174 -0.058896977 -0.05644339 -0.08915787 -0.029357981 0.03388327 -0.07018629 -0.07964711
-0.076923214 0.059524868 -0.038517583 -0.043622207 0.03473444 -0.037645757 -0.06045442 0.014661275
-0.039403573 0.024056073 0.049174976 0.062067278 0.08448665 -0.036638882 -0.018167606 -0.088631205
0.025342971 -0.09883198 -0.041990113 -0.021076486 0.06948343 0.05806956 0.011474502 0.07348573
0.02823112 0.057402413 -0.03382911 0.081182085 0.07885102 -0.074624844 -0.07180093 -0.057433896
0.06190499 -0.06373555 -0.009144444 0.04718662 -0.08463606 -0.06799717 0.041553535 -0.00791327
-0.066916555 -0.056449078 0.029569818 -0.09601166 -0.03943879 -0.08807646 -0.08887752 -0.060724486
-0.046875406 0.051279806 -0.01230997 -0.055066023 0.048971552 -0.017230423 0.06851251 -0.094319746
-0.01911498 0.057027597 -0.03544601 -0.008074931 0.039801996 0.0338 0.09454889 -0.0683514
0.04115982 -0.06605185 0.043792203 0.019302664 -0.022346083 0.06390433 -0.08534122 0.038275655
0.075919546 0.08723605 0.038147386 0.056460887 0.06505397 -0.004152163 0.049855217 -0.031142633
0.034536656 0.07985283 -0.0035866685 -0.059313923 -0.012660984 0.08603544 0.018507725 -0.022704773
-0.086511455 -0.04458974 -0.05236568 -0.09089099 0.03236255 -0.049020927 -0.06627207 0.05771706
-0.004737512 0.036377516 0.048888307 -0.09241853 -0.053505506 0.02876118 -0.029260505 0.005137106
-0.007370231 0.053649437 -0.048653718 0.03252745 0.0051049753 0.012207641 -0.054652184 -0.06794198
-0.08912237 -0.011154363 0.011057827 0.082523204 0.022492964 -0.04153347 -0.0017493934 0.057855204
-0.07459556 0.066928335 0.0039453832 -0.04757837 -0.0393498 0.010469806 0.045518816 -0.076335125
0.05016861 -0.059041653 -0.08542809 -0.05442907 -0.019028105 -0.016349273 -0.002326356 -0.03748118
0.003914296 -0.064706706 0.030956922 0.015918793 0.0802967 0.013334722 0.020268302 -0.08879203
0.020943385 0.04463297 0.05673366 -0.022719968 0.07265421 -0.065827005 0.08517096 0.028482806
0.015202322 -0.089674145 0.081597485 0.06601523 -0.09031964 0.032145593 -0.018931478 -0.042294823
0.033231728 0.057945002 -0.0396952 0.05790531 0.08293828 -0.054157823 0.040023044 -0.06526124
0.066817485 -0.06302381 -0.03903826 -0.060911234 0.07081811 0.06636308 -0.053188212 0.065684125
-0.084968 0.03572138 -0.056728844 0.010926788 0.0028455914 -0.024401598 -0.081779435 0.01585655
0.019467091 0.07504498 -0.06957603 -0.026376689 0.051677905 0.07832951 0.07677977 0.04059281
-0.0399745 0.059177533 -0.054400124 -0.061485637 -0.029417712 0.007353375 0.016421285 -0.047784183
0.05568719 0.0642691 -0.014438932 0.057063907 0.00032675063 0.050083444 -0.087664574 -0.014564044
-0.021032022 0.0367285 0.051460285 0.062093176 0.01915018 -0.09037628 -0.009516885 0.08434051
00000000: 6512 78bd 7d22 69bc 32cf a83d 32d5 9b3c
00000010: 303e 893d 2dce 6d3d 6f96 463b ec16 a43d
00000020: 760c 0f3c 28d6 17bd 0e91 d0bb 4344 16bd
00000030: 2eee d43c b94b 68bd 21a1 8d3d 09c1 8c3c
00000040: c95f a8bc 9914 273d ceef 96bd 9016 b43d
00000050: d4ab 4d3d ed75 bc3d de8b b63d 25bf 85bc
00000060: 1f8b d43c 9823 a9bd 67af c4bb 2ce3 e93c
00000070: a837 98bd 1cae df3b f370 34bd 962e 2ebd
00000080: a446 9e3d f53d 71bd 2f31 67bd 6798 b6bd
00000090: 2680 f0bc 2fc9 0a3d d4bd 8fbd 061e a3bd
000000a0: eb89 9dbd 59d0 733d 9dc4 1dbd 33ad 32bd
000000b0: b345 0e3d 7032 1abd 0e9f 77bd d835 703c
000000c0: a465 21bd 3e11 c53c b36b 493d 423a 7e3d
000000d0: 5607 ad3d a712 16bd 3bd4 94bc 4784 b5bd
000000e0: 109c cf3c 6c68 cabd d3fd 2bbd 98a8 acbc
000000f0: 544d 8e3d 59da 6d3d 8dff 3b3c b07f 963d
00000100: f344 e73c cb1e 6b3d 6590 0abd cb42 a63d
00000110: a57c a13d e9d4 98bd 5e0c 93bd ce3f 6bbd
00000120: 1690 7d3d c987 82bd 94d2 15bc c246 413d
00000130: ac55 adbd 1a42 8bbd 0a34 2a3d a9a6 01bc
00000140: 8c0b 89bd 2637 67bd 673c f23c c3a1 c4bd
00000150: 928a 21bd 6e61 b4bd 6b05 b6bd 3dba 78bd
00000160: 6d00 40bd c60a 523d c2af 49bc e98c 61bd
00000170: 6596 483d d126 8dbc 4950 8c3d b62a c1bd
00000180: 0597 9cbc c595 693d d62f 11bd b74c 04bc
00000190: 6b07 233d de71 0a3d d9a2 c13d d2fb 8bbd
000001a0: 3397 283d 3146 87bd 745f 333d 9f20 9e3c
000001b0: 220f b7bc 46e0 823d 61c7 aebd efc6 1c3d
000001c0: b57b 9b3d d0a8 b23d 6f40 1c3d 8843 673d
000001d0: 043b 853d de0e 88bb fc34 4c3d d61e ffbc
000001e0: 4f76 0d3d e189 a33d 500e 6bbb 28f3 72bd
000001f0: 0470 4fbc 5933 b03d 839d 973c 5cff b9bc
00000200: eb2c b1bd bba3 36bd 657d 56bd 0e25 babd
00000210: 988e 043d 2bca 48bd a7b9 87bd b968 6c3d
00000220: 223d 9bbb 9700 153d 1b3f 483d ed45 bdbd
00000230: 9728 5bbd 919c eb3c bab3 efbc 2b55 a83b
00000240: fb81 f1bb 83bf 5b3d 1f49 47bd 813b 053d
00000250: a347 a73b 8f02 483c f8da 5fbd 2a25 8bbd
00000260: ca85 b6bd cac0 36bc e32b 353c ed01 a93d
00000270: 2a43 b83c 001f 2abd e74b e5ba 94f9 6c3d
00000280: 8fc5 98bd b911 893d 4648 813b 89e1 42bd
00000290: 422d 21bd 8d89 2b3c f071 3a3d 9755 9cbd
000002a0: 9a7d 4d3d a9d5 71bd ecf4 aebd 04f1 5ebd
000002b0: d4e0 9bbc e9ee 85bc c775 18bb de85 19bd
000002c0: 7f43 803b f384 84bd 5f99 fd3c 2168 823c
000002d0: 9972 a43d e179 5a3c b609 a63c 99d8 b5bd
000002e0: 7691 ab3c 10d1 363d 8e61 683d 3a1f babc
000002f0: bbcb 943d 4fd0 86bd 1d6e ae3d c654 e93c
00000300: 2913 793c 14a7 b7bd 951c a73d fe32 873d
00000310: 81f9 b8bd 19ab 033d 3016 9bbc 563d 2dbd
00000320: fe1d 083d bd57 6d3d 6f97 22bd 1e2e 6d3d
00000330: 8cdb a93d 98d4 5dbd 34ef 233d afa7 85bd
00000340: 9bd7 883d a112 81bd 95e6 1fbd 0f7e 79bd
00000350: 1609 913d 5ee9 873d e2db 59bd 6685 863d
00000360: b403 aebd 9550 123d 815c 68bd 4506 333c
00000370: 1a7d 3a3b dce5 c7bc fa7b a7bd 98e5 813c
00000380: 7379 9f3c 2fb1 993d e17d 8ebd ed13 d8bc
00000390: 36ac 533d 396b a03d b63e 9d3d a544 263d
000003a0: 4dbc 23bd 2464 723d aad2 5ebd 5dd8 7bbd
000003b0: 6afd f0bc 95f4 f03b ee85 863c 59b9 43bd
000003c0: 4018 643d 859f 833d 4591 6cbc d8bb 693d
000003d0: ba4f ab39 4c24 4d3d 7c89 b3bd 079e 6ebc
000003e0: 594b acbc a070 163d 05c8 523d 6a55 7e3d
000003f0: d7e0 9c3c 3317 b9bd b5ec 1bbc b8ba ac3d

conv_lstm.conv.bias f4 [40]
-0.010925133 0.027021889 -0.028151622 -0.029052548 0.016741466 -0.07183185 0.09163065 -0.0390714
0.069569044 -0.039864175 0.07032071 -0.085954815 -0.008506018 0.046805467 0.010566461 0.09008509
0.04197073 0.0938404 -0.07059132 0.07642032 -0.013802772 0.0663149 0.0063280375 0.030507484
0.07387771 0.06276228 0.068063475 0.016297663 0.022009669 0.08475649 0.029593727 0.08707875
-0.049778845 0.028831987 0.07666903 0.020113604 -0.060091436 -0.06202239 0.06953008 -0.025615837
00000000: 54ff 32bc 025d dd3c 3b9e e6bc 9cff edbc
00000010: 6625 893c 941c 93bd daa8 bb3d 5509 20bd
00000020: 377a 8e3d 9e48 23bd 4e04 903d 1409 b0bd
00000030: d35c 0bbc 17b7 3f3d f31e 2d3c 887e b83d
00000040: 80e9 2b3d 652f c03d 2f92 90bd 4282 9c3d
00000050: 0625 62bc 1bd0 873d 6d5b cf3b d5ea f93c
00000060: 324d 973d 8389 803d dd64 8b3d ad82 853c
00000070: 9f4d b43c d094 ad3d 8b6e f23c 5856 b23d
00000080: e7e4 4bbd 0f31 ec3c a704 9d3d 49c5 a43c
00000090: 7022 76bd 310b 7ebd c965 8e3d 4ed8 d1bc

conv1.weight f4 [20, 10, 3, 3]
-0.08404978 -0.0090477755 -0.042638823 -0.008756967 0.058772393 -0.06378404 -0.0324351 0.004820117
0.054848745 0.02263988 -0.10419719 -0.031661373 0.030544125 -0.05135706 -0.024886984 -0.03627421
-0.03997627 0.022592211 -0.07665709 -0.06772843 -0.033515643 -0.08710625 0.014068266 -0.03655658
0.0018635717 -0.025672587 0.076992154 0.06204392 0.06201568 -0.056924537 -0.040149815 -0.069783896
-0.07898143 -0.053927932 -0.03719791 -0.06266431 -0.0052346834 0.07419729 -0.03033293 -0.036995992
-0.05323952 -0.05124125 -0.022968866 0.011834901 -0.009584972 0.075675346 0.07632623 -0.0187081
0.007710166 0.057629425 -0.04723359 0.06489215 -0.08706015 0.076646395 0.013258761 0.02993349
0.02903607 0.063262135 -0.09603625 -0.025169367 0.008005114 -0.10216633 0.0626591 0.030816726
-0.014693345 -0.101334326 -0.00232466 0.03787477 0.08254393 -0.049808767 0.013419482 0.06642019
-0.085995205 0.06312849 0.06719802 -0.062529504 0.0053766607 0.06861839 -0.020303855 -0.06871848
0.101698294 -0.05735026 -0.023076596 -0.085546635 -0.080666214 -0.069832176 0.0010840399 -0.074601576
-0.08254934 0.08870877 -0.02291554 -0.021440307 -0.018516041 -0.054065198 0.07139909 -0.07170106
-0.029719977 -0.04248928 0.03639486 -0.028008217 -0.07370871 -0.011768478 -0.039889723 -0.013897721
0.075799786 0.041038837 -0.005393326 0.056711927 -0.019203326 0.06064051 -0.018514069 0.06727556
0.07994906 -0.017847994 0.058376174 0.06592348 0.037188627 -0.0041624215 0.038631227 0.008556355
-0.0306441 -0.018348804 0.029384093 0.089788705 0.056722343 0.08241411 0.021701362 0.002947174
0.09836102 -0.009427878 -0.10016956 -0.010670104 0.04261799 -0.07412751 -0.0776582 -0.0375918
0.06161403 -0.014918249 0.0001706682 0.09131841 0.0739134 0.01255703 -0.08353136 -0.037382465
0.012289994 0.05615305 0.09553635 -0.05126571 0.014792604 -0.008209376 -0.06823406 -0.061184946
-0.048757132 0.03604503 0.009522046 0.023486014 0.09626935 -0.072366 0.047318127 0.021793041
0.056206733 0.046837725 -0.0972058 -0.04235866 0.016155172 -0.046552017 0.08888932 -0.045047365
0.059667367 0.104773805 -0.018840903 0.032447603 -0.07310247 -0.030869592 -0.008952138 0.04243649
-0.101238705 -0.08728072 -0.08962434 0.02439708 0.020848133 0.008330686 0.09826215 -0.0066324607
-0.030769104 -0.065540165 0.04157379 0.03631832 0.09070333 0.06387886 -0.07397341 -0.021688432
0.039852757 -0.00020438213 -0.1011717 -0.10069877 -0.068312034 0.08426839 0.06933011 0.05266246
0.0074352245 -0.07810913 -0.014556506 -0.0041625095 -0.023256186 -0.043315202 0.0035057096 0.0065603084
0.018721642 -0.06102623 0.05213402 0.0020247842 0.0064370884 -0.087606035 -0.019174902 0.033742666
-0.023266125 -0.09889882 -0.059520777 -0.041041818 0.055356745 -0.050591744 -0.024439001 0.069228984
0.0891373 -0.03433973 -0.0059296326 -0.0046960013 0.056068357 0.008790517 -0.0031770647 -0.031870957
-0.059888273 -0.082736276 0.07395077 0.098844856 0.03860387 0.07725581 -0.06824114 0.069826595
-0.030981453 -0.0001989286 -0.08524816 0.07270996 0.07393907 0.09373715 0.06784118 0.020117974
-0.051556833 0.085085206 -0.05514334 -0.036518518 0.051411435 -0.09897178 -0.10523228 -0.025294768
00000000: 4b22 acbd 1f3d 14bc 0ca6 2ebd 6279 0fbc
00000010: 52bb 703d 35a1 82bd abda 04bd 12f2 9d3b
00000020: 14a9 603d 4577 b93c 5665 d5bd 5baf 01bd
00000030: ac37 fa3c c85b 52bd cadf cbbc 4494 14bd
00000040: 28be 23bd 4d13 b93c 64fe 9cbd 34b5 8abd
00000050: b347 09bd c364 b2bd 967e 663c 5abc 15bd
00000060: 1743 f43a 514f d2bc 10ae 9d3d c421 7e3d
00000070: 2704 7e3d b429 69bd 2274 24bd dcea 8ebd
00000080: 04c1 a1bd 89e3 5cbd d65c 18bd 2556 80bd
00000090: b587 abbb c0f4 973d c47c f8bc 1c89 17bd
000000a0: af11 5abd 58e2 51bd 3429 bcbc 2ce7 413c
000000b0: 490a 1dbc adfb 9a3d ed50 9c3d bb41 99bc
000000c0: 8fa5 fc3b d50c 6c3d 0278 41bd 2de6 843d
000000d0: 984c b2bd c9f8 9c3d 463b 593c 1437 f53c
000000e0: 0ddd ed3c 948f 813d a7ae c4bd fd2f cebc
000000f0: e227 033c 953c d1bd 6a53 803d 5c73 fc3c
00000100: 5bbc 70bc 5f88 cfbd 5359 18bb 9322 1b3d
00000110: cb0c a93d 4704 4cbd 63dd 5b3c 4f07 883d
00000120: 411e b0bd 8249 813d 1e9f 893d 780f 80bd
00000130: b32e b03b cc87 8c3d 4554 a6bc 46bc 8cbd
00000140: 3247 d03d 1be8 6abd 210b bdbc 1333 afbd
00000150: 5434 a5bd 2c04 8fbd 5816 8e3a b6c8 98bd
00000160: a10f a9bd f2ac b53d 5fb9 bbbc 95a3 afbc
00000170: f4ae 97bc 7873 5dbd b039 923d 01d8 92bd
00000180: 4f77 f3bc 3d09 2ebd c712 153d 7d71 e5bc
00000190: 98f4 96bd 93d0 40bc 6863 23bd 44b3 63bc
000001a0: eb3c 9b3d 5718 283d 7fba b0bb c44a 683d
000001b0: 4b50 9dbc 2f62 783d d1aa 97bc c5c7 893d
000001c0: 55bc a33d f535 92bc db1b 6f3d e402 873d
000001d0: 1a53 183d ec64 88bb c73b 1e3d f42f 0c3c
000001e0: 5609 fbbc 3b50 96bc e9b6 f03c 24e3 b73d
000001f0: b055 683d bbc8 a83d 0ec7 b13c 6025 413b
00000200: 8171 c93d 6377 1abc b325 cdbd a9d1 2ebc
00000210: 3490 2e3d 2ad0 97bd 430b 9fbd dcf9 19bd
00000220: fe5e 7c3d ac6b 74bc 65f5 3239 2605 bb3d
00000230: e95f 973d 00bc 4d3c 7d12 abbd 5b1e 19bd
00000240: f95b 493c be00 663d 90a8 c33d fefb 51bd
00000250: ae5c 723c 9e80 06bc 4dbe 8bbd 119d 7abd
00000260: 8fb5 47bd f4a3 133d 5b02 1c3c be65 c03c
00000270: dd28 c53d a034 94bd a7d0 413d 5287 b23c
00000280: 0839 663d ead8 3f3d d613 c7bd 4680 2dbd
00000290: da57 843c 54ad 3ebd 9b0b b63d 9683 38bd
000002a0: c565 743d a693 d63d 3d58 9abc c7e7 043d
000002b0: bfb6 95bd 3ae2 fcbc fdab 12bc e3d1 2d3d
000002c0: 3d56 cfbd 3cc0 b2bd f78c b7bd 63dc c73c
000002d0: b4c9 aa3c 6e7d 083c ab3d c93d 1d55 d9bb
000002e0: 7d0f fcbc ec39 86bd 4749 2a3d 85c2 143d
000002f0: abc2 b93d ebd2 823d 5f7f 97bd f0ab b1bc
00000300: a53c 233d 694f 56b9 1c33 cfbd 283b cebd
00000310: 2ee7 8bbd e894 ac3d f2fc 8d3d 97b4 573d
00000320: 2fa3 f33b aef7 9fbd 697e 6ebc a965 88bb
00000330: c283 bebc 486b 31bd 0cc0 653b dbf7 d63b
00000340: 215e 993c a4f6 79bd 7b8a 553d 3eb2 043b
00000350: 36ee d23b cb6a b3bd af14 9dbc c035 0a3d
00000360: 9a98 bebc 778b cabd 0fcc 73bd 771b 28bd
00000370: c1bd 623d 4a39 4fbd 4d34 c8bc edc7 8d3d
00000380: 9e8d b63d d1a7 0cbd 5d4d c2bb eae0 99bb
00000390: efa7 653d 1a06 103c 4d36 50bb 1f8b 02bd
000003a0: 684d 75bd a371 a9bd 8073 973d 2c6f ca3d
000003b0: 171f 1e3d 4b38 9e3d 03c2 8bbd 3f01 8f3d
000003c0: d1cc fdbc 7d97 50b9 9696 aebd f6e8 943d
000003d0: 5e6d 973d 43f9 bf3d 51f0 8a3d 73ce a43c
000003e0: 422d 53bd 2741 ae3d fcdd 61bd 7194 15bd
000003f0: cc94 523d b7b1 cabd 0684 d7bd f936 cfbc

conv1.bias f4 [20]
0.07683039 -0.081984 -0.06815664 -0.03974386 -0.014994701 -0.031808395 0.09800917 -0.064785175
-0.085830316 -0.06471966 -0.06432504 0.10168508 0.030875154 0.034655128 0.041809063 0.061738778
0.05599049 0.1054173 0.06495323 0.09444669
00000000: 4059 9d3d 3ae7 a7bd b595 8bbd 75ca 22bd
00000010: 56ac 75bc 8549 02bd 08b9 c83d 17ae 84bd
00000020: cec7 afbd be8b 84bd d9bc 83bd 4440 d03d
00000030: e4ed fc3c 89f2 0d3d fb3f 2b3d cde1 7c3d
00000040: 4956 653d 06e5 d73d 3306 853d 446d c13d

conv2.weight f4 [40, 20, 3, 3]
0.04304404 -0.01963526 -0.022882672 0.050556265 -0.02724452 0.010478352 -0.05141703 0.010312819
0.067845866 -0.052196935 -0.03900508 0.020510804 -0.051410884 0.0029500292 -0.06252889 -0.0059919595
0.04909374 -0.04423704 -0.015936507 -0.06605885 -0.063218206 -0.0075437482 0.014694933 0.040134057
-0.055418994 0.006511636 0.03329746 0.062260572 -0.01936917 -0.03167083 -0.060656823 -0.008335139
-0.024734937 -0.016540302 -0.018489895 0.050731618 -0.019973755 0.029736439 -0.03754418 -0.017078184
-0.008774101 0.061362166 0.06814139 0.019733585 0.05237226 0.07009994 -0.009109859 0.024962943
0.026691692 0.035658967 -0.0621658 0.07422368 0.016641514 -0.0091071315 -0.052157857 0.019209972
0.052159704 0.04063138 -0.00040341204 0.051550373 -0.029124089 -0.05711694 0.033459652 0.030746276
0.021836825 0.056188636 -0.02871706 -0.02182378 0.055686586 -0.06416834 -0.049583517 -0.014757024
-0.031008126 -0.030716108 -0.0719185 0.01414789 0.030495033 -0.029389555 -0.037801463 -0.025059242
-0.020286474 0.049334645 0.071664765 0.030064858 -0.058386475 -0.007332286 0.030743191 -0.05625116
0.06551911 -0.028702611 0.024451857 -0.06663142 -0.018179948 -0.009405963 0.06698654 0.046568118
0.047172576 -0.05326207 0.057533823 -0.013408159 0.06368954 -0.043591395 0.070426464 -0.025035998
0.015391419 -0.016607067 -0.038784686 -0.023310225 0.017624686 -0.062399823 -0.045337588 0.040213298
0.014485728 0.03163114 0.06561401 0.062001646 -0.057296406 -0.023262175 -0.010335654 0.038462006
0.036990017 -0.005706865 0.004853277 -0.07073679 -0.005770999 -0.059105422 -0.059453063 0.0056714835
0.014117724 -0.040015742 0.011187767 0.06544337 -0.016963137 0.014704662 0.021480318 -0.018393055
-0.07197769 0.05359799 0.01752765 -0.071828164 0.032230474 0.006381057 -0.03605004 -0.018401895
-0.03857448 -0.071694344 -0.04598388 -0.072029464 -0.022353852 0.033270493 -0.05157131 -0.015365038
0.010497758 -0.07060662 -0.04438946 -0.058992136 -0.02723127 0.0373315 0.00062857533 0.055148765
0.01600999 0.05356076 0.054706257 -0.0024653166 0.018164247 0.07079605 0.070830405 0.027621515
0.05689077 -0.014042954 -0.025176218 -0.009516257 0.059937812 0.013641408 -0.028585201 -0.015822731
0.07095899 0.0091216685 -0.016295511 0.022047585 -0.055916946 -0.032590862 0.028091611 0.010279267
-0.050921265 -0.05032842 -0.0014104404 0.0383205 0.0010378695 0.06715026 -0.054788787 0.055584732
-0.04196778 0.04999768 -0.0047930432 -0.059456006 0.03276904 0.0032804126 0.07328702 0.012005955
-0.059020694 -0.019751275 0.048027463 0.06817274 0.03643514 0.06369335 0.04970337 -0.05237838
0.056781765 0.05350409 -0.043746684 0.06231565 0.048253957 -0.03351895 0.0348941 0.037296653
0.046520375 -0.05051628 0.036168862 0.011154686 -0.025265649 -0.05514946 -0.036481485 0.047153484
0.030210506 -0.06174435 -0.061559733 -0.021648616 -0.05665311 0.019580819 -0.0538122 0.07088287
-0.06871249 -0.06666194 0.031773154 -0.030806694 -0.039745264 -0.009397034 -0.030091949 0.0375347
0.010027048 -0.07286577 -0.037046183 0.015683098 0.0615843 0.007427812 -0.004025377 0.06390778
-0.026428072 -0.041971166 -0.0037616338 -0.04415415 -0.052657843 0.062136292 0.034808643 -0.0049038082
00000000: f34e 303d 20da a0bc 7174 bbbc 1614 4f3d
00000010: e62f dfbc 65ad 2b3c aa9a 52bd 19f7 283c
00000020: c6f2 8a3d 74cc 55bd cac3 1fbd 4606 a83c
00000030: 3894 52bd 4755 413b 260f 80bd 3358 c4bb
00000040: 8416 493d e631 35bd 478d 82bc dd49 87bd
00000050: 8c78 81bd 8c31 f7bb 04c3 703c 9c63 243d
00000060: 07ff 62bd 905f d53b eb62 083d f104 7f3d
00000070: 18ac 9ebc 46b9 01bd 4a73 78bd 1b90 08bc
00000080: eca0 cabc 877f 87bc 1f78 97bc f5cb 4f3d
00000090: 00a0 a3bc d599 f33c edc7 19bd 8ce7 8bbc
000000a0: 3fc1 0fbc e556 7b3d b78d 8b3d 54a8 a13c
000000b0: 4b84 563d 8f90 8f3d 8541 15bc 167f cc3c
000000c0: 89a8 da3c 230f 123d 91a1 7ebd 9602 983d
000000d0: c953 883c 1436 15bc 7aa3 55bd 3b5e 9d3c
000000e0: 6aa5 553d 176d 263d 0c81 d3b9 7c26 533d
000000f0: a495 eebc 74f3 69bd fd0c 093d 9ddf fb3c
00000100: 24e3 b23c 0e26 663d 0a40 ebbc c9c7 b2bc
00000110: 9e17 643d b16a 83bd 1618 4bbd 72c7 71bc
00000120: c104 febc 59a0 fbbc 024a 93bd 8dcc 673c
00000130: b8d0 f93c 5dc2 f0bc b5d5 1abd 0a49 cdbc
00000140: d22f a6bc 2013 4a3d fac4 923d 944a f63c
00000150: a826 6fbd ac43 f0bb 25d9 fb3c 9e67 66bd
00000160: e22e 863d bd21 ebbc 434f c83c 0e76 88bd
00000170: 1dee 94bc 781b 1abc 3d30 893d 36be 3e3d
00000180: 0838 413d 5429 5abd 96a8 6b3d e5ad 5bbc
00000190: a96f 823d e48c 32bd c03b 903d 4b18 cdbc
000001a0: 4a2c 7c3c 8b0b 88bc b1dc 1ebd 16f5 bebc
000001b0: a561 903c f596 7fbd e8b3 39bd b3b6 243d
000001c0: 8c55 6d3c a78f 013d a360 863d 70f5 7d3d
000001d0: a3af 6abd 5190 bebc e056 29bc 568a 1d3d
000001e0: d882 173d a700 bbbb 3d08 9f3b 73de 90bd
000001f0: a61a bdbb 8718 72bd 0e85 73bd dad7 b93b
00000200: 074e 673c 8ce7 23bd e54c 373c 2c07 863d
00000210: 47f6 8abc d3eb 703c 7ef7 af3c 08ad 96bc
00000220: 0a69 93bd 9189 5b3d 2596 8f3c a51a 93bd
00000230: 1a04 043d 3018 d13b 35a9 13bd 92bf 96bc
00000240: 4600 1ebd 7cd4 92bd 9859 3cbd 2f84 93bd
00000250: 6d1f b7bc a446 083d 703c 53bd a4bd 7bbc
00000260: cafe 2b3c 349a 90bd b9d1 35bd bda1 71bd
00000270: 1d14 dfbc eae8 183d fac6 243a ace3 613d
00000280: 6227 833c 8762 5b3d ab13 603d 2691 21bb
00000290: 30cd 943c 85fd 903d 880f 913d 8446 e23c
000002a0: 4c06 693d 6b14 66bc 5b3e cebc 13ea 1bbc
000002b0: 5a81 753d 3680 5f3c 832b eabc ac9e 81bc
000002c0: f252 913d 0d73 153c 2a7e 85bc 239d b43c
000002d0: 2b09 65bd ff7d 05bd 6120 e63c 5f6a 283c
000002e0: d192 50bd 2c25 4ebd 87de b8ba f5f5 1c3d
000002f0: 1f09 883a 1386 893d 356a 60bd d1ac 633d
00000300: 68e6 2bbd 5eca 4c3d f60e 9dbb 2488 73bd
00000310: d438 063d 31fc 563b 8117 963d a0b4 443c
00000320: afbf 71bd 6dcd a1bc 72b8 443d 269e 8b3d
00000330: 033d 153d a971 823d c395 4b3d b68a 56bd
00000340: ff93 683d 1b27 5b3d b92f 33bd b23e 7f3d
00000350: f1a5 453d 2b4b 09bd 1eed 0e3d 60c4 183d
00000360: 268c 3e3d 29ea 4ebd cd25 143d 25c2 363c
00000370: e8f9 cebc 66e4 61bd 9c6d 15bd 0324 413d
00000380: 067c f73c a5e7 7cbd 0f26 7cbd 7058 b1bc
00000390: 170d 68bd f467 a03c 2e6a 5cbd 0a2b 913d
000003a0: 22b9 8cbd 0e86 88bd 9124 023d 525e fcbc
000003b0: eecb 22bd 04f6 19bc 6483 f6bc fcbd 193d
000003c0: 7d48 243c a63a 95bd bdbd 17bd d779 803c
000003d0: d23f 7c3d 0165 f33b 4fe7 83bb 15e2 823d
000003e0: af7f d8bc f5e9 2bbd be85 76bb fbda 34bd
000003f0: c0af 57bd a082 7e3d 8293 0e3d 20b0 a0bb

conv2.bias f4 [40]
-0.04780667 0.051605765 0.0640876 0.06394077 0.03396464 0.07101793 -0.06347636 -0.033558793
0.028975382 0.019737942 -0.058923166 0.018290825 -0.052986536 0.03232051 -0.05796349 -0.05273143
0.071047924 -0.0049215876 -0.05113126 0.039613225 -0.004723871 -0.004810594 0.024712466 0.06300188
0.075176015 0.07471391 -0.0001474166 0.03264958 -0.011419345 0.040228385 -0.028971056 -0.015542727
-0.048607703 0.04211071 0.059665408 0.017948885 0.05434706 -0.018393151 -0.039173324 -0.048735864
00000000: edd0 43bd 9160 533d 5c40 833d 61f3 823d
00000010: 821e 0b3d d971 913d e5ff 81bd f274 09bd
00000020: c85d ed3c 77b1 a13c 6b59 71bd a4d6 953c
00000030: 6908 59bd 8362 043d 206b 6dbd e9fc 57bd
00000040: 9381 913d 4545 a1bb 036f 51bd 7a41 223d
00000050: b4ca 9abb 30a2 9dbb cc71 ca3c 2107 813d
00000060: e2f5 993d 9b03 993d d893 1ab9 91bb 053d
00000070: 3418 3bbc 85c6 243d b554 edbc eca6 7ebc
00000080: df18 47bd 487c 2c3d b763 743d 8a09 933c
00000090: 069b 5e3d 3cad 96bc 3574 20bd 429f 47bd

fc1.weight f4 [1, 6760]
-0.003215992 0.008305433 0.003153265 0.008915805 0.009124175 -0.0028436268 0.0043038456 0.011558232
0.006351303 -0.008566469 0.008514167 -0.003837304 0.0049452097 -0.0061969017 -0.0021603967 0.009729901
-0.008648783 -0.0041561113 0.0056362865 -0.0032146724 -0.009308663 0.0019370128 0.0071840184 -0.0102212615
0.011731775 0.0011903223 -0.0054346584 0.010966794 -0.010825909 0.006329186 -0.0042571314 -0.0054412466
0.0067389035 -0.009174488 0.002092469 -0.011925425 -0.0055410285 -0.005291542 0.0065593915 -0.0069531137
0.007356066 -0.00847718 -0.0040214453 -0.0059546605 0.0036167633 -0.00929308 0.0031252806 -0.002709401
-0.0066078254 -0.0030303719 -0.003908514 0.0050889496 -0.0027745217 -0.007035981 0.011431713 0.010187198
-0.0046638735 -0.0069464818 0.0018289796 -0.0013966961 0.0016270105 -0.002165432 0.008028223 0.001187885
0.005340895 0.007985087 0.0013171708 0.0032007808 -0.004819792 -0.00079714245 -0.0011209723 -0.00017387439
-0.011179831 0.0120711075 0.000837554 -0.012017435 -0.009093686 -0.006832449 -0.011925074 0.0053280243
0.005749264 -0.0050053545 -0.0039598695 -0.011978244 -0.001948306 -0.0023122036 0.010794096 -0.007893426
-0.01067159 -0.005377953 0.001184946 0.011697706 -0.011106505 -0.003761602 -0.00691826 -0.0051349853
0.010202758 0.0058066524 -0.0026332468 -0.0054461705 -0.011079648 -0.0012636884 0.00072076055 0.006947578
-0.004905967 -0.00957603 -0.0059896754 -0.0012006353 -0.0018195915 0.000685125 0.0052887336 -0.0085964035
0.0028044838 -0.0014729563 0.008327712 -0.009171056 0.0028798494 0.008473689 -0.008685012 0.0029473435
-0.008442883 0.0017582435 0.0021195242 -0.00632878 -0.0076133544 0.01077571 -0.0004931139 -0.004794057
-0.002771577 0.0016814164 0.006003187 0.00089300814 0.00972048 0.0036593408 0.004722055 0.00015465602
0.0053145476 0.000983483 0.009714097 0.0019028778 -2.3246177e-05 0.0095846 0.006972631 0.009413074
-0.004903134 0.0015628194 -0.0055052014 -0.0077359546 -0.008689487 -0.0094745895 0.0053192293 0.0022057886
0.0028420158 -0.0074991505 -0.01056311 -0.007449419 -0.0015212668 0.0020365946 -0.001199084 0.008665707
-0.008487679 -0.010775844 0.007698621 -0.002137658 0.007520052 0.006149334 -0.0020554953 -0.0006468608
0.006273114 -0.009589565 -0.009118788 -0.006253926 -0.012112387 0.0105007645 0.0032274937 0.0017469126
-1.2273366e-05 0.0032483607 -0.0004370029 0.0020168861 0.0009986911 -0.00091063743 -0.0036643299 0.0046400633
0.006569277 0.005215972 -0.0007784243 0.0076578734 -0.008722844 0.006620251 0.006430074 -0.009838401
0.0025226967 0.0007460583 -0.0033466723 -0.0064071296 0.0017648725 -0.0067925826 0.0011582825 -0.0055848877
0.00071828265 0.009992314 0.011681138 -0.004582398 -0.004230385 -0.0077166026 -0.0002788251 -0.004613066
-0.009857235 0.012051283 -0.0036455393 0.010644651 0.003916642 0.007965048 -0.0007467296 0.007480822
-0.01156598 0.0009724421 0.0070980946 -0.011628243 0.0012051881 -0.01009393 -0.011229193 -0.0017214466
-0.007862482 0.00695004 0.007084753 0.0037899504 0.010536276 -0.0036210592 0.0032845167 0.012116455
0.0046398155 0.0023571288 0.008111354 -0.0044436418 0.00025992715 -0.0059389262 -0.008797007 -0.0040815272
-0.0071277684 0.0026972278 -0.0107913315 0.011480851 -0.007838315 -0.0013691538 0.011065106 0.010093053
0.009075456 0.0043195887 -0.0019143132 0.004714359 0.01094561 0.0045932145 -0.010326557 0.011279123
00000000: 64c3 52bb 8313 083c 02a7 4e3b 9913 123c
00000010: 907d 153c 245c 3abb 4607 8d3b bd5e 3d3c
00000020: 971e d03b 605a 0cbc 017f 0b3c 477b 7bbb
00000030: 6d0b a23b 610f cbbb 7195 0dbb 2a6a 1f3c
00000040: a0b3 0dbc fd2f 88bb 99b0 b83b 41ad 52bb
00000050: 5d83 18bc 5de3 fd3a ea67 eb3b 1477 27bc
00000060: a136 403c 9704 9c3a 3815 b2bb 11ae 333c
00000070: 275f 31bc 0f65 cf3b 687f 8bbb 7c4c b2bb
00000080: 05d2 dc3b 9750 16bc ce21 093b dc62 43bc
00000090: 8491 b5bb ac64 adbb 2af0 d63b f2d6 e3bb
000000a0: 270b f13b dfe3 0abc 54c6 83bb 501f c3bb
000000b0: 3807 6d3b 0142 18bc 82d1 4c3b 3590 31bb
000000c0: 7586 d8bb 3499 46bb fe12 80bb 34c1 a63b
000000d0: c0d4 35bb 168e e6bb 144c 3b3c 35e8 263c
000000e0: 68d3 98bb 509f e3bb 5fba ef3a 5811 b7ba
000000f0: 6a41 d53a ece9 0dbb cf88 033c ceb2 9b3a
00000100: ad02 af3b e2d3 023c eba4 ac3a 31c4 513b
00000110: 59ef 9dbb 53f7 50ba 97ed 92ba 0d52 36b9
00000120: 9c2b 37bc e5c5 453c 4c8f 5b3a c7e4 44bc
00000130: affd 14bc bde2 dfbb 6361 43bc b596 ae3b
00000140: 5264 bc3b f503 a4bb cbc1 81bb 6640 44bc
00000150: 4d5e ffba 5788 17bb b8d9 303c 6e53 01bc
00000160: e5d7 2ebc 8a39 b0bb 3150 9b3a bca7 3f3c
00000170: 0ff8 35bc 3685 76bb 92b2 e2bb 6143 a8bb
00000180: 7829 273c bb45 be3b 8d92 2cbb ca75 b2bb
00000190: 6987 35bc 59a2 a5ba 6cf1 3c3a 82a8 e33b
000001a0: 3cc2 a0bb c8e4 1cbc 0a45 c4bb a35e 9dba
000001b0: 5c7f eeba f699 333a 1d4d ad3b eed7 0cbc
000001c0: 6ecb 373b 3610 c1ba f570 083c 3242 16bc
000001d0: dbbb 3c3b 3ad5 0a3c 954b 0ebc 3828 413b
000001e0: 0554 0abc dd74 e63a b7e7 0a3b a861 cfbb
000001f0: 7279 f9bb 9b8c 303c 5044 01ba 7717 9dbb
00000200: 59a3 35bb f962 dc3a 62b6 c43b c318 6a3a
00000210: a642 1f3c 8dd1 6f3b 78bb 9a3b 292b 2239
00000220: a825 ae3b 37e8 803a e027 1f3c fc69 f93a
00000230: c900 c3b7 ba08 1d3c ab7a e43b 4b39 1a3c
00000240: 78aa a0bb 84d7 cc3a fa64 b4bb e47d fdbb
00000250: 5a5e 0ebc 4f3b 1bbc ee4c ae3b fe8e 103b
00000260: 1d41 3a3b 6fbb f5bb e510 2dbc 411a f4bb
00000270: 3e65 c7ba 6378 053b 952a 9dba 9cfa 0d3c
00000280: e80f 0bbc 2a8d 30bc b744 fc3b f317 0cbb
00000290: c56a f63b 5a80 c93b 7db5 06bb 1892 29ba
000002a0: b28e cd3b 8d1d 1dbc f866 15bc bced ccbb
000002b0: 0973 46bc 660b 2c3c 5c84 533b a9f8 e43a
000002c0: b5e9 4db7 73e2 543b 891d e5b9 bc2d 043b
000002d0: 83e6 823a d8b7 6eba 4125 70bb ac0b 983b
000002e0: 1743 d73b bfea aa3b 2c0f 4cba e6ee fa3b
000002f0: 42ea 0ebc b1ee d83b 5fb3 d23b 3f31 21bc
00000300: d453 253b 2093 433a d853 5bbb e6f2 d1bb
00000310: 4b53 e73a 5094 debb 83d1 973a 6f01 b7bb
00000320: 224b 3c3a cdb6 233c 3e62 3f3c f127 96bb
00000330: 0b9f 8abb 8edb fcbb 452f 92b9 3429 97bb
00000340: 3d80 21bc bf72 453c 00ea 6ebb e766 2e3c
00000350: 2d57 803b d57f 023c 2dc0 43ba af21 f53b
00000360: 3c7f 3dbc 7ceb 7e3a 2297 e83b 6384 3ebc
00000370: 67f7 9d3a 0361 25bc a6fa 37bc 2aa2 e1ba
00000380: a4d1 00bc 29bd e33b 3727 e83b d160 783b
00000390: 58a0 2c3c 4b4f 6dbb 0c41 573b 1884 463c
000003a0: 9809 983b 0f7a 1a3b 7ce5 043c f89b 91bb
000003b0: d546 8839 539b c2bb 5221 10bc 55be 85bb
000003c0: 0e90 e9bb f9c3 303b 20ce 30bc 2e1a 3c3c
000003d0: 476c 00bc 2e75 b3ba 6b4a 353c 555d 253c
000003e0: 39b1 143c 568b 8d3b b1e9 faba e97a 9a3b
000003f0: 3755 333c ad82 963b b830 29bc 12cc 383c
