ConvLSTM/Original/0.73_128_A_S.pt (torch, 84929 bytes, 7 tensors)

conv_lstm.conv.weight f4 [40, 13, 3, 3]
00000000: eaf1 4ebd 3456 c33c 3b7f 253d a8e6 a53c
00000010: 0c97 e8bb 0ed7 303d fa8c 713d 5fa9 243c
00000020: 17e8 afbd bc1c e6bc bd6a afbc c8a2 7e3c
00000030: ae74 2cbc 2e6e 4ebd a539 8cbd b68e 81bd
00000040: 9e1f 963c 3776 663c e041 a93c 7077 933d
00000050: 3509 71bd f48a 803c 172b f0bc c229 b6bc
00000060: 2afe d9bc 892e 723d 71fb 7fbd 8008 bbbd
00000070: bc90 7d3d 3c2a fd3c aa66 aebd 83f6 83bd
00000080: 0d5e 703d 573f 0bbd ced3 1c3d 5336 c6bb
00000090: c868 4bbc 5920 b73d fa41 f8bb 52d8 a53d
000000a0: d0a6 10bd 21a6 8a3d 9028 71bd f145 743d
000000b0: d59e ddbb 751c 85bd 265e b9bc 3ddd a23d
000000c0: 6405 34bd 8351 2dbd 445d a9bd e43b 203b
000000d0: b4c0 8c3d 0f83 9c3d df40 b5bd ff22 473a
000000e0: eb73 86bd 12db 7b3d 45c4 51bd 1bab 0e3d
000000f0: e850 27bd b345 bdbd 73fd 273d afae 0fbd
00000100: cc10 253d 535f fcbc 211c 67bd f6e8 a23d
00000110: 7b6f 8e3d b6f0 b0bd 332b 283d 2914 a1bd
00000120: eb24 533d dd4c 4c3d ba6d 463c b289 a63d
00000130: 1068 3e3c 3a08 ac3d 9b94 3a3d dd84 86bd
00000140: 8933 653d b302 b9bd 2e15 89bb 6ec3 be3c
00000150: c88c 5d3d 8d6c 6ebd 5eb3 cf3c a023 a6bd
00000160: a53c 8abd 935f 70bd 368e 9bbd 60cd 34bc
00000170: 90c6 263b 1931 6d3d 2689 4c3d e6d2 833d
00000180: 5feb a03d 3830 8ebd 736a 8a3d 9a87 5cbd
00000190: 7df9 4f3d c806 babd d436 8e3d ec29 3fbd
000001a0: 8571 d53b 3ebd 8fbd 4452 273c 7ee7 853d
000001b0: e480 93bc 1dfa b33d 6314 6b3d d61b a9bc
000001c0: 93ee 36bd 2486 91bc e2ae 9ebd 5e7d a33c
000001d0: 105c 9cbd a5cd 66bd 3db2 483d 81f4 b0bd
000001e0: 680d 8fbd c175 be3d 9a4e 573d 8844 b0bd
000001f0: 9a9a 803d dd0a fe3c edbc 95bd 4832 e3bc
00000200: fb39 993d 1081 973d 4f4d fa3b 110f bd3d
00000210: 086f 93bd 951d dd3a f67a 5bbd 16a4 c13c
00000220: a0cd 993c e706 2d3d 12dd 98bd 5af7 713d
00000230: d7a0 94bc ed59 cf3b e3b0 18bd 3f2b 19bd
00000240: 6556 c2bd 4ff2 c13c 6c12 b1bd 7791 523d
00000250: 564f 853d 1beb 85bd 27e9 433d 7baf 92bd
00000260: b045 8e3d b7bb 82bd c47a 9e3a 297a 8abd
00000270: 6bb2 903d bf0a a5bb f504 66bd 8a4e a3bd
00000280: cacf 05bd 17ef 3cbd 592e 0d3d 65fc 5bbc
00000290: bbb7 7ebd 463f df3c 0843 97bd 6ea4 33bd
000002a0: 62f2 6d3d 7791 2cbd 8d6f 43bd cf77 5a3d
000002b0: c495 14bd 6af7 8e3d 3fd3 813d 7a27 1d3c
000002c0: 7f54 ed3a 47d9 aebd 942e a7bc 7122 ec3c
000002d0: 4de5 f33c 2b4f ba3c c848 4e3d a506 6c3d
000002e0: 3460 90bd 2bca bcbd 67f7 c3bd d108 f53b
000002f0: 270f 9abb 23be 8ebc 3753 8c3d ce4a 5fbb
00000300: f5f5 8fbd 4dad 3fbd 9876 1d3d ff65 d73c
00000310: 454c 453d 8c61 963d 236b 463c 11b4 393d
00000320: 540e 85bc 9f93 8ebd cc0c 68bd c47a 18bd
00000330: 3200 b23d 3c41 2bbd 09e8 bbbc d0ee abbc
00000340: f704 b23d c4f6 493d 112b adbc 06cd 03bd
00000350: 907e 883d 711b 87bc 3e23 663c 1ca2 abbb
00000360: e892 993d b62f 1bbd 8fb0 b43c 39f0 78bc
00000370: 0796 3f3d 2ecd deba 9299 193d 86ec 823d
00000380: 1294 1e3d 5929 8abc beae a03d a804 bb3d
00000390: 60d7 a03d d14c 5a3d 67fb 5dbd 7630 5abc
000003a0: 86b9 b4bd 445d 74bd bda7 6bbc 9895 b5bc
000003b0: 2626 a13d 4260 b7bc 0eb7 7ebc 1837 8fbc
000003c0: bb23 0c3d a052 aebc bfda 9fbc ab5a 00bd
000003d0: bbcc 4d3d e1dc 9fbc b02a a03d 3f87 463d
000003e0: 9969 d6bb e2d1 64bd 4098 e43c 2dab 3dbc
000003f0: febb 49bd bc30 933c 47ef d13c ba5b b93d
-0.050523676 0.023844816 0.04040454 0.020251587 -0.0070980843 0.043173842 0.058972336 0.010050147
-0.085891895 -0.028089873 -0.021413201 0.01554174 -0.0105258655 -0.050398044 -0.06846932 -0.06326048
0.018325623 0.014066271 0.020661294 0.07200515 -0.05884667 0.015691258 -0.029317422 -0.022236709
-0.026610453 0.05912641 -0.062495653 -0.091324806 0.061905608 0.030903928 -0.08515675 -0.06443503
0.058683444 -0.033995952 0.03828793 -0.0060489564 -0.0124151185 0.08941717 -0.0075762244 0.080979005
-0.035315335 0.06769968 -0.058876574 0.059637014 -0.006763319 -0.064995684 -0.022627901 0.07952354
-0.043950453 -0.042314064 -0.08269742 0.002444976 0.06872693 0.07642185 -0.08850264 0.00075964624
-0.06565078 0.06148822 -0.051212568 0.034831148 -0.040848643 -0.0924181 0.041013192 -0.0350787
0.040299222 -0.030807173 -0.05642331 0.0795459 0.06954857 -0.08639662 0.041056823 -0.07865173
0.05154888 0.04987799 0.012111122 0.08131732 0.01162149 0.084000066 0.045551877 -0.065683104
0.05595735 -0.09033718 -0.004183433 0.023286548 0.054089338 -0.05820899 0.025354084 -0.08112264
-0.06749848 -0.058684897 -0.07595484 -0.011035293 0.0025447942 0.05790815 0.049935482 0.0643671
0.078573935 -0.06942791 0.06758585 -0.053840257 0.05077504 -0.09083325 0.069440514 -0.04667084
0.0065137767 -0.07018517 0.010212485 0.06538294 -0.018005796 0.0878794 0.05739249 -0.020643156
-0.044661116 -0.017764159 -0.077482 0.01995724 -0.07634747 -0.05634846 0.048998106 -0.086403854
-0.06984979 0.092998035 0.052565195 -0.08606821 0.06279488 0.03101104 -0.07311425 -0.027733937
0.07481762 0.073976636 0.0076386104 0.09231389 -0.07198912 0.0016869778 -0.05358406 0.023637813
0.018774807 0.04224291 -0.07464041 0.059073783 -0.0181431 0.0063278587 -0.037278067 -0.03739476
-0.09489135 0.023675112 -0.08646092 0.051408257 0.06509273 -0.065389834 0.047829773 -0.071623765
0.069468856 -0.0638346 0.001209103 -0.067615815 0.070652805 -0.0050366814 -0.05615707 -0.079739645
-0.032668866 -0.04612645 0.03446803 -0.013426875 -0.062186938 0.02725185 -0.07385832 -0.043857984
0.058092482 -0.042130914 -0.047713805 0.053336915 -0.03627564 0.06980784 0.0633912 0.0095919315
0.0018106847 -0.08537536 -0.020407952 0.028825017 0.029772425 0.022742828 0.05036238 0.057623524
-0.07049599 -0.09218248 -0.095686726 0.0074778576 -0.0047015133 -0.017424649 0.068518095 -0.0034071687
-0.070293345 -0.046796132 0.038443178 0.026293753 0.04816844 0.07342824 0.012110504 0.04533774
-0.016242184 -0.0696175 -0.05665283 -0.037226453 0.086914435 -0.04181026 -0.022937791 -0.020987898
0.08692353 0.0493076 -0.0211387 -0.032177947 0.06664765 -0.016492577 0.014046488 -0.005237831
0.07498723 -0.037887298 0.022056846 -0.015193992 0.046773937 -0.0016998404 0.03749997 0.063927695
0.03871543 -0.01686542 0.078458294 0.091317475 0.078535795 0.053295914 -0.054194834 -0.013317218
-0.08824448 -0.059659258 -0.014383254 -0.022166058 0.07868604 -0.022384766 -0.015546573 -0.017482325
0.034213763 -0.021279633 -0.019513486 -0.031336468 0.050244074 -0.019514503 0.07820642 0.048468824
-0.00654335 -0.055864222 0.02790463 -0.011576456 -0.04925155 0.017967574 0.025626792 0.090506986

conv_lstm.conv.bias f4 [40]
00000000: 68fb b7bd 1191 6cbd 4321 b73d 17e9 1dbd
00000010: b4bf 8bbd 996c c0bd 27f7 17bc 487f 32bd
00000020: 16b8 a03d c0c8 ec3c e8c5 77bb 56b2 663d
00000030: 2855 43bc 5be7 70bd 04bd 95bd 7ddf b13c
00000040: 94b9 933d 0def 303d 61b3 083d 5385 98bc
00000050: 500d 543c 5300 6fbc ac49 6cbd 1702 99bd
00000060: ca5c b03c 2df3 7e3d 1b5e 94bc f1c8 a83d
00000070: affa b23d 3395 873d eb37 34bd cde4 00bc
00000080: 73b5 56bc 9efe 473d 65b9 2c3d 630f 443c
00000090: fc1e 37bd a0cb 1ebd f4b6 4fba f3a4 b3bd
-0.08983499 -0.057755534 0.08941891 -0.03855237 -0.06823674 -0.09395713 -0.009275234 -0.043578416
0.078476116 0.028904319 -0.003780717 0.05632242 -0.011922158 -0.058814388 -0.073114425 0.021713013
0.072131306 0.043196727 0.033374194 -0.018618261 0.012942627 -0.01458748 -0.057687446 -0.07471102
0.02152862 0.06224363 -0.01811128 0.082414515 0.0873922 0.06620254 -0.04399864 -0.00786705
-0.013104784 0.048826806 0.042168994 0.011966559 -0.044707283 -0.03876841 -0.00079236855 -0.08771696

conv1.weight f4 [20, 10, 3, 3]
00000000: 0ec5 08bc e165 133d 7381 c33c 0e47 3f3d
00000010: 3b5a 863d 9363 af3c cf26 b83d 397f 84bb
00000020: 1782 edbc 6ca9 2e3d b059 3a3d ef4c acbd
00000030: 4e74 c0bd 41c5 c13d d63e a63d 95dc 32bd
00000040: 6b87 a0bd c0ad 8bbd 42b9 843d 3a90 503d
00000050: 6747 693b d400 bb3d 0d00 713d 76da 2ebd
00000060: d1ae d7bc 20e4 a53d 8f48 c3bd 82c9 d63d
00000070: cec2 7b3c 275a ccbd a3a0 a3bd 9d6e a93d
00000080: c367 b6bd 4204 a1bd c78b 493d c556 263d
00000090: e3c2 b73a b019 3c3b 39c1 da3c 6564 083d
000000a0: 4b37 e43a 1155 4cbd 80ad a8bd 03d3 ae3d
000000b0: cdc9 bebc b97e d93c d0e4 7abb 90f9 623d
000000c0: d174 a7bd ea55 9bbd 2229 803d 1c4b d03d
000000d0: 54fa 5fbd 3d71 b13d a1a9 56bd 201a da3b
000000e0: b35c 47bd 3877 b23c c506 1abd 7a9f 61bd
000000f0: 5ec2 7dbd d136 aabd f84f aabd 2661 353d
00000100: 589b 1f3d 6724 cd3d c4db 88bd 088b cc3d
00000110: ec91 1fbd 6d8c 5b3c 9666 583d 63f2 f6bc
00000120: 8b6c d43d 4659 c13d 3def d33d 3ba9 c03c
00000130: 26eb ff3c 6ff2 47bd d2f2 983c de56 583c
00000140: 2906 3ebd 822d 723d cf35 743d 46c4 2d3d
00000150: 59eb 80bd 575c 91bd 71bc 8fbd 4e94 b03d
00000160: 2579 ba3d 7365 423c 73c3 943d c815 373d
00000170: 788b 593c 74cb 543c 9870 6cbd d45c a7bd
00000180: ba41 6cbd adb0 d63c 2f38 ad3b b1fb a63c
00000190: 8643 a9bd db79 2c3d 58c6 d9bc 4ec3 c63d
000001a0: 538d 263d 955c f5bc 0f05 9abd 0b6f c4bc
000001b0: a352 44bd 0035 23bd 17f5 cfbd aedc 82bd
000001c0: c8ae 003c 3330 043d 77d0 bb3d a3bf c33b
000001d0: fc60 b73c 6a46 bf3d 3cbe 0c3d 192a 87bd
000001e0: a627 c4bd 003d b03c 87ad 2abd b3a7 693d
000001f0: b8de bbbc b505 b23d a4cf 1b3c 9b56 353d
00000200: d5d8 aebc 5067 b03d a273 a7bd 4add 9bbc
00000210: 4128 223d 1a64 8ebc 36c3 6fbb 9c6c 82bd
00000220: 2aff 1d3d 9295 403d 724d 7b3b 4b43 123d
00000230: 072a e33b 7550 b23d f308 40bd fb1f 6c3d
00000240: 10b1 10bd b7ce d6bb 03fb b9bd 35c7 a03d
00000250: 6c72 bc3d fe37 4cbd e2ca 8cbd 188f 903d
00000260: 17b9 81bc c34e 82bd 93db 9fbd 6a8c c4bd
00000270: 4717 00bd ba11 ba3b 5fd5 2bbd e0af a23d
00000280: 8ac3 43bc cd4d aa3d 5102 e93c 3b7f 3bbd
00000290: f04f 893d 3b60 583d 4625 32bd d711 81bc
000002a0: 8130 86bd 6b17 18bd c61b 9c3d 0ca8 d7bb
000002b0: 8eb7 b7bd 80ec 98bd cb18 abbd 33e8 cfbd
000002c0: 51af b3bd f170 91bd e52b 2a3d ad4d aebc
000002d0: d918 b4bd b573 d33c 7e95 1fbd d078 de3b
000002e0: 315b bdbc be33 cf3d a295 01bc df45 753d
000002f0: 4a5c 82bd e6e5 aebc e73d 5abd 0b3e 1c3d
00000300: 5b9f a4bd 2414 50bc 7eb2 bfbd 7729 2c3d
00000310: ca56 523d 90a0 34bd 0b0c e1bd b649 853d
00000320: a12a 5dbd aa41 9cbd 256a afbd be75 073c
00000330: 7cfa 68bd f381 933d d7a6 a63c 0f6e e8bc
00000340: df5a a13d 43a8 8a3d 9098 583b c6e9 0fbd
00000350: 95bc 7abd 92ce 753d ea00 7b3c 8b85 9d3d
00000360: 163e 21bd 38da a63d 2c86 8cbc fcbb dcbc
00000370: 8a41 87bd 6e7a 503d d687 71bd 0d5b aa39
00000380: 109d b1bb bebd 903d c700 debd b67d c13d
00000390: 483f b63c ceac 013d eddd 983d 4c5c 663d
000003a0: 1e29 693c 575f b33d 5cdf b7bd b522 a63d
000003b0: 7d07 b83b bfd8 8e3d 2a8a 81bd d916 a63c
000003c0: f1ea d03d 9a43 193d 5291 a23d 31c6 9b3d
000003d0: 5526 32bd 31b9 c43c a7f0 7ebd 0599 c73d
000003e0: b36c b83c c7d6 193d 5bc5 cb3d 35ed c03d
000003f0: cecf f1bc 5ec4 d53d 0756 bd3d 3b03 67bd
-0.008347763 0.03598583 0.023865437 0.046698622 0.06560179 0.021409785 0.08991777 -0.0040434864
-0.028992696 0.042642042 0.04549569 -0.084131114 -0.09397183 0.09461451 0.08117454 -0.043667395
-0.07838329 -0.068202496 0.064806476 0.050918795 0.0035595538 0.09131017 0.05883794 -0.04268881
-0.026328476 0.08100152 -0.09535324 0.10487653 0.015366269 -0.09978133 -0.079896234 0.08273051
-0.0890651 -0.0786214 0.049205568 0.040610094 0.0014019873 0.0028701834 0.026703464 0.03329887
0.0017411498 -0.049885813 -0.082362175 0.08536341 -0.023289585 0.026549684 -0.0038283356 0.055413783
-0.08176578 -0.07584746 0.062578455 0.10170576 -0.05468209 0.086641766 -0.052407864 0.0066559464
-0.04867239 0.021785364 -0.037604112 -0.05508373 -0.06195294 -0.08311237 -0.08316034 0.0442821
0.038966507 0.10016709 -0.06682542 0.099874556 -0.03895752 0.013400179 0.05283221 -0.030144876
0.103722654 0.09440856 0.103483655 0.023518195 0.031240057 -0.048815187 0.018670473 0.0132043045
-0.046392594 0.05912543 0.05962163 0.04242351 -0.06294889 -0.070976906 -0.07018364 0.08622037
0.09105138 0.011865008 0.072638415 0.044698507 0.013277881 0.01298796 -0.057724565 -0.081720024
-0.05767987 0.026207292 0.0052862386 0.020383688 -0.08264832 0.042108398 -0.026583835 0.0970522
0.04066212 -0.029951373 -0.07520496 -0.02397873 -0.04793037 -0.039845467 -0.10154169 -0.063897476
0.007854171 0.03227253 0.09170621 0.0059737726 0.022385113 0.09339602 0.03436111 -0.06599826
-0.09577875 0.021513462 -0.041669395 0.057044696 -0.022933349 0.08692495 0.009509955 0.044272047
-0.021343628 0.08613455 -0.08176352 -0.019026417 0.03958917 -0.017381717 -0.003658486 -0.06368372
0.03857342 0.04701764 0.0038345722 0.035708707 0.0069325003 0.08706752 -0.046883535 0.057647686
-0.03532511 -0.006555404 -0.0908108 0.07850496 0.09201512 -0.049858086 -0.06874634 0.07058543
-0.015835328 -0.06362679 -0.07805552 -0.09597094 -0.0312722 0.0056783827 -0.041951533 0.07943702
-0.011948476 0.083156206 0.028443487 -0.045775633 0.067047 0.052826148 -0.043492578 -0.015755577
-0.0655222 -0.037131708 0.07622485 -0.006581312 -0.08970557 -0.07466984 -0.08354338 -0.1015171
-0.08773673 -0.0710162 0.041545767 -0.021277273 -0.08793802 0.02581201 -0.038960926 0.0067893043
-0.023114773 0.10117291 -0.00790921 0.059881087 -0.06365259 -0.021349858 -0.05328169 0.038145106
-0.08038207 -0.012700114 -0.093602166 0.04203173 0.0513523 -0.044098437 -0.10988625 0.065082
-0.053995732 -0.07629712 -0.08565167 0.008267818 -0.056879506 0.0720252 0.020343227 -0.028372793
0.078786604 0.067703746 0.0033049919 -0.035135053 -0.061215002 0.060011454 0.015320042 0.07691487
-0.03936585 0.08147091 -0.017153822 -0.026945107 -0.066042975 0.050898008 -0.058967434 0.00032492765
-0.0054203346 0.070674405 -0.10839992 0.094478056 0.022246972 0.03165894 0.07464204 0.056240365
0.0142309945 0.08758419 -0.08978149 0.081120886 0.005616127 0.06974935 -0.06325181 0.020274566
0.102010615 0.037417985 0.07937874 0.076061614 -0.043493588 0.024014087 -0.062241223 0.09745983
0.02251277 0.037558343 0.09949752 0.09420244 -0.029518034 0.10437845 0.09244924 -0.056399565

conv1.bias f4 [20]
00000000: ef2c cb3b 0e63 dfbc 624f 7d3d 25ca 373d
00000010: baba d03d 50f0 5fbd 24e0 ba3d d7b7 83bd
00000020: eefd 913d a913 213d 8c73 abbd 0633 45bc
00000030: 64f3 adbd 25b6 713c 6a7e 8fbc f058 ae3d
00000040: 15f8 173d b645 013c fb17 5bbc 6898 8dbd
0.006200425 -0.027268913 0.061843283 0.044870514 0.10191865 -0.05467254 0.09124783 -0.06431549
0.07128511 0.03932539 -0.08371648 -0.012036091 -0.08493689 0.014752899 -0.017516334 0.08513057
0.037101824 0.007890156 -0.013372417 -0.06913835

conv2.weight f4 [40, 20, 3, 3]
00000000: f6a6 283d 9e15 4bbd c718 a0bc 2a72 af3c
00000010: c267 383c c999 963d 714b 6bbd 7080 203d
00000020: 8d0f 73bc 84f3 5039 0e17 f13c 7e6d f93c
00000030: 2cec ddbc 9bc5 283c 5b28 ebbc 5683 c7bc
00000040: 88f9 5c3d a626 aebb bb6b 03bc 55de 0fbd
00000050: b996 cbbb cfe1 153d 86e0 0abd 44b9 22bd
00000060: 7351 8ebd cca7 59bd 1d4e a7bc 7084 21bd
00000070: 1173 8a3d 3b07 4abd 13f0 6b3a f746 95bd
00000080: 14a6 5c3d 00f9 96bd 07e3 81bd 14c8 5d3c
00000090: b1a3 373b 20e8 47bd 283c 633d e9cb e8bc
000000a0: 133f bb3c 7003 cbbc 69fd 0dbc d18f 913d
000000b0: f307 243d c6b6 1ebd e958 953d 4f58 373d
000000c0: dc78 04bd 153e e63c 48d0 8abc d5f8 29bd
000000d0: df5d 323d 719d 89bd 3a3f 093d 15b7 f63a
000000e0: 12bb 02bd 3d98 81bd 303f 233d 8870 74bd
000000f0: c74a 4f3c 83a2 58bd 3652 d9bc b284 f1bb
00000100: 658a 603d f2c5 e33b 8ae1 9b3c fc4e 8cbd
00000110: 0429 7fbd 3c54 0d3d 2bab 763d d262 073d
00000120: 34a9 693b bdbd 733d 68ab 97bd 9b2c dc3c
00000130: 30c5 62bd d004 76bd 2c74 35bd 200f 6bbb
00000140: 58f0 47bc 46b5 7ebc 7a40 6f3d e5d1 aebc
00000150: a72f 80bd d0b9 07bd de25 56bc 6eb1 633d
00000160: e973 02bd e839 70bd 46fe 613c 3ad3 7f3d
00000170: 25d3 6b3d f47c 013d 7d39 81bd 8727 bf3b
00000180: fc0d 4fbd 0917 5c3d 3e7e 173d 1b06 34bb
00000190: 5d9d 6abd 094e a53b fed7 92bc 276b 0dbd
000001a0: 04ca 963d d4f1 2fbd 23fc 65bd c7bb 76bd
000001b0: a4bb 453d 6bb1 81bd acf1 3cbd dcf1 bc3c
000001c0: 7f4c 11bd 5ecd 8cbd d2ad ae3c 4310 613d
000001d0: 9dd8 75bd 7aa1 103d 919b 42bd 21d0 963d
000001e0: 92d6 55bd 5420 bbbc 286d 50bd 0105 64bc
000001f0: f348 af3c be34 54bd 7f25 ba3c cb2a 6fbd
00000200: 42a5 19bd 8edf 883d 58a9 d93c ba94 69bd
00000210: 60f0 4e3d 58b9 75bd 45ca 7d3d 003d 8ebd
00000220: 7963 7a3d 097e 15bd 82e7 84bc 4fbd 3fbc
00000230: 95d6 7f3c 1290 60bd a2eb 90bd 5c3b 803c
00000240: d62b a13c d222 1ebb 045a f53c 22fe 24bd
00000250: d595 673d 97ab 92bd 6245 263c 1727 20bd
00000260: e98d 8ebd 745b 87bb 90bc ecbc ffd7 75bc
00000270: f769 423d 413a 82bd 5429 963c 5576 40bd
00000280: 82b2 823c e1d5 7dbd 4253 3d3d a6f6 2d3c
00000290: 7f28 e73b 86ee 23bb a756 6c3d b124 b3bc
000002a0: 2011 2dbd e781 4d3d 9551 15bb 873c 5dbd
000002b0: 642b 2d3d c56b 5abd e532 30bd 1b37 94bd
000002c0: 3131 113d 9176 833d be2f 92bd 213c 35bd
000002d0: 3cee 183c 9c9b c539 5ea5 09bd 5b57 1c3d
000002e0: 2a1f ab3c ca2c 6abd 3b1b 68bd dedc 8ebd
000002f0: 4069 9cbc 4997 ad3c bc3c 8dbd 9449 6c3d
00000300: ac81 a53c 72f8 06bb 58bb 9abc 2257 7d3d
00000310: ba79 11bd 481c 5bbd 4f44 53bd 11c9 7f3d
00000320: 2cf5 543d cce2 813d 7018 113d 2219 373d
00000330: 36ec 9f3c f9ac 833c 8ae2 7ebd e58b 56bb
00000340: bb0f d03c 2299 7c3d 5040 06bd a5c3 993d
00000350: f6ae 1dbd e21c d7b9 c05f 88bd e069 0dbd
00000360: 8292 adba 0e38 1dba 892f 463d fa7f dbba
00000370: 9f49 9f3c 3847 783c 2e2e 38bd 2169 693d
00000380: 265f 92bd fea9 fabc d5be 043d 19bf 20bd
00000390: a717 f63b c781 463b ecc8 13bd 43a4 47bd
000003a0: fc2f 1a3d 5db3 3ebc ad9f fdbb ac45 2a3d
000003b0: f37c 613d dbde 5bbd cdd7 f13b 94a1 3ebd
000003c0: 831a 4cbd 8cb8 f43c e453 f73c b031 08bd
000003d0: 77a4 8e3d e17d 27bd 1cb6 893c b7da 26bc
000003e0: c077 1cbd 2121 2bbd 3226 2f3d 66b5 62bd
000003f0: fdb6 9dbc 3c6f d23b 2c1f d53c 5b3a 133d
0.04117485 -0.049581163 -0.019543065 0.021416742 0.011255207 0.07353551 -0.057444993 0.039184988
-0.014835251 0.00019927142 0.029429939 0.030447718 -0.027090155 0.010301019 -0.028705766 -0.024354618
0.05394891 -0.005314666 -0.00802129 -0.03512414 -0.006213036 0.0365923 -0.03390553 -0.039727464
-0.06949129 -0.05313854 -0.02042299 -0.039432943 0.067602284 -0.0493233 0.00090003124 -0.07288926
0.053869322 -0.07371712 -0.0634213 0.013536472 0.0028021152 -0.048805356 0.05547729 -0.028417544
0.022857225 -0.024781913 -0.008666375 0.07107509 0.040046643 -0.038748525 0.07292349 0.044761952
-0.032341823 0.028105775 -0.01694502 -0.04149707 0.043546554 -0.06719483 0.033507563 0.0018822873
-0.031916685 -0.06327865 0.039855182 -0.05967763 0.012652106 -0.05288936 -0.026528459 -0.007370555
0.054819483 0.006951087 0.019028444 -0.068510026 -0.062294975 0.03450416 0.060221832 0.033053227
0.0035653831 0.05950712 -0.0740574 0.026876738 -0.055363834 -0.060063183 -0.044300243 -0.003586717
-0.0122032985 -0.015546149 0.0584111 -0.02134032 -0.06259089 -0.03313619 -0.013070552 0.055589132
-0.03184882 -0.058648974 0.013793534 0.0624573 0.05757441 0.031613305 -0.06309793 0.0058335694
-0.050550446 0.053732906 0.03698563 -0.002746946 -0.05727898 0.005044703 -0.017925259 -0.034526017
0.0736275 -0.042955235 -0.05614866 -0.060237672 0.04827465 -0.06332668 -0.046128914 0.023064546
-0.035473343 -0.06875108 0.021323118 0.05494715 -0.06002103 0.035310246 -0.04751164 0.07363916
-0.052206583 -0.022842564 -0.05088535 -0.013917209 0.02139709 -0.05180811 0.022722958 -0.05839042
-0.037511118 0.06683265 0.026570007 -0.057026602 0.05052221 -0.05999121 0.061960477 -0.069452286
0.06113002 -0.03649715 -0.016223673 -0.0117028495 0.015615125 -0.054824896 -0.070761934 0.015653305
0.019674223 -0.0024129641 0.02995015 -0.040281422 0.056539375 -0.071616344 0.010148378 -0.03909978
-0.06960661 -0.004130775 -0.028898507 -0.015005111 0.047464337 -0.06358767 0.018330254 -0.04698785
0.01595426 -0.06197155 0.04622198 0.010617888 0.007054388 -0.0025013997 0.057699826 -0.021868082
-0.04225266 0.050172713 -0.0022784222 -0.0540128 0.04227771 -0.053325433 -0.043017287 -0.07237073
0.035447303 0.06419099 -0.07138012 -0.044246797 0.009334143 0.00037690706 -0.033604972 0.038169246
0.020888884 -0.05717162 -0.056666594 -0.06975721 -0.019093156 0.021190302 -0.0689635 0.057687357
0.020203434 -0.0020594862 -0.01888816 0.061850674 -0.035516478 -0.053493768 -0.051578816 0.06244761
0.051991627 0.06342086 0.035423696 0.044701703 0.019521814 0.01607369 -0.062227763 -0.0032737192
0.025398126 0.061669476 -0.032776177 0.07508019 -0.038496934 -0.00041029515 -0.06658888 -0.0345248
-0.0013242515 -0.00059974275 0.048385177 -0.0016746514 0.019444285 0.015153699 -0.044965915 0.056985024
-0.071470544 -0.030598637 0.032408554 -0.039244745 0.007510144 0.0030289756 -0.036080286 -0.048740637
0.037643418 -0.011639443 -0.007739982 0.04157035 0.0550508 -0.05367933 0.007380462 -0.04654081
-0.04982997 0.029873155 0.03019137 -0.03325051 0.06964963 -0.04089153 0.01681047 -0.010183982
-0.03820014 -0.04177964 0.042761035 -0.055348776 -0.019252295 0.0064219516 0.02601584 0.035944324

conv2.bias f4 [40]
00000000: f6a7 8dbd f99b eb3c d87c 8a3d e3ac eab9
00000010: fc00 72bd 2377 793d 6115 693d dd16 9a3d
00000020: 4ea0 ee3c badf 5d3d 8b55 0c3d c9e9 a43b
00000030: 1f16 473d 57af 103d 9f1d 2dbd 4fe4 8b3d
00000040: 9365 153d f14e 343d 54e0 66bd 2845 5abd
00000050: 01e7 89bd 86b6 5a3d 8eb9 0ebd 3269 573d
00000060: bfe6 cc3c 516b 01bd b9fb 833c 498c 27bc
00000070: fe8d 813d 4965 933d 5364 023d ee58 593c
00000080: 2373 be3c 8cc9 c23c 636a 58bd 9ada 53bd
00000090: 6cc9 bf3b 283d 0e3c 1672 59bd d59a 403b
-0.06916802 0.028760897 0.06762093 -0.0004476077 -0.05908297 0.060904633 0.056905154 0.07523892
0.029129174 0.05416844 0.034261268 0.005032752 0.04860508 0.035323467 -0.042264577 0.06830656
0.03647382 0.044020597 -0.05636628 -0.05328861 -0.067335136 0.053396724 -0.034844927 0.052590556
0.025012372 -0.031596486 0.016111242 -0.010226318 0.06325911 0.07197053 0.031833958 0.013265831
0.02324826 0.023777746 -0.052835833 -0.051722147 0.005852869 0.008681573 -0.053087316 0.0029389162

fc1.weight f4 [1, 6760]
00000000: 2cb6 78bb 66a8 90bb ce07 343c 9ce9 2dbc
00000010: 43f2 9039 9b8b 9339 e204 c33b 1c4a 25bc
00000020: b91e b6ba 48f4 ec3b 47c2 063c 2cc0 4639
00000030: ca31 a23b aabc 3d3c 0048 493b 272a 0fbc
00000040: c2c8 d83a 4537 45bb e367 36bc cc48 f7bb
00000050: 1e8c efbb 1d60 123b e62c 2b3a 8a52 833b
00000060: 43ea 41bb e473 02bc 8c69 f13b 49b8 7abb
00000070: e7fa 8d3b 61ad 2a3c 5cce c23b 93b1 32bc
00000080: 56ac 9cba 2d00 9b3b b9f3 d2b9 b2c3 d93b
00000090: 42c8 cf3b 0742 8fbb 594f 283c 4ce6 9f3b
000000a0: eaf7 173c 4f04 14bc c747 1a3a d3b2 e1bb
000000b0: eae5 ab3a 72b1 913b a1b8 a53a 6786 093c
000000c0: 2d4e 2bba 8217 8fbb fe51 40bc b717 0e3c
000000d0: cc1f 10bc d7ed 33bc cd5d 103c 3129 3c3c
000000e0: 2bee 1ebc 8351 393b 6b68 04bc 5f9b 3c3c
000000f0: 6e32 8bbb 2c14 2fbc 1436 04bb 6968 4439
00000100: 4c01 0fbb d64c f5bb 24e7 453b 3e4f 8a3b
00000110: 99bf d93b 18c9 183c b630 d7bb 688a 323c
00000120: 4798 8bbb 2f58 b4ba 9489 08ba a09e 15bc
00000130: 4b74 11bc dced 803a 7f36 0fbc e44e 163c
00000140: 30a8 20bc 14b6 063c 4580 02bb 0095 d33b
00000150: e2ad a33b 681a 16bc 7275 77bb 23c0 f73b
00000160: 3c20 3ebc bb2a 3eba 7f77 45bc 00d1 86b8
00000170: d2aa 1fbb 5b1e 12bc 8631 a93a 8f84 73bb
00000180: f92d 343c 5c2b 193c 8f72 3039 bd0a ea3b
00000190: bb0e ae3b d4ea 0d3c d199 8f39 b7b7 053c
000001a0: 0359 233b 8f21 3f3c b643 df3b 2efb ebb9
000001b0: e938 8b3b 3d7f 17bc c4d2 1bbc 287e 6438
000001c0: eae3 2b3c 0cfb a8bb 02f8 a53b 34b8 40bb
000001d0: e90e 3b3c f5ad db3b d51e 2bbc 600b 93bb
000001e0: 0d94 213a 7a4e 78bb b8ef baba e7ce 8b3a
000001f0: 7958 f9ba d077 0e3c 193b 3abc 9c7a 16bc
00000200: 0987 88bb 7af9 41bc 8728 36bb f564 aabb
00000210: f9a4 263a 1643 fa3b c03c c8bb bfb9 09bc
00000220: 353d 3cbc 7d9d 1dbc 656f 23bc 9e7a 233c
00000230: ef0c ee3a 2776 13bb 1e87 25bc dd76 61bb
00000240: 6b10 3cbc e97c 573b 0fed 7439 9632 4f3b
00000250: f73e 413c fe5c 413c aa56 edbb f179 3b3c
00000260: f898 17bc 06b2 02bc 480a ddb8 5d06 253c
00000270: c71a bb3a a451 453c 1b5a ddbb 4120 11bc
00000280: d419 6c3b 9550 6e3b bed7 94ba cbfb b5bb
00000290: 808a 0ebc 72d9 84bb c42b 1bbc 5ff6 05bc
000002a0: 1bd4 bebb c74c a8b9 7fb8 a9bb 8521 653c
000002b0: cc2e f2ba d1e5 633c f97f a5bb ee28 8dbb
000002c0: 7d4d 353b b07d 1bbc d29f 013b cf49 193c
000002d0: e922 313c 8cad a43b 9f11 88bb 9369 80bb
000002e0: 67b5 043c 7465 663c 322a e53b e42b d5bb
000002f0: c48f 7639 996c 0fbb 52e3 003b 50b1 b43a
00000300: 93c7 9a3a 386f 3c3c e51c 613c 3bf3 3d3c
00000310: 312d 463c 2060 08bc 1c13 2e3c 9b8e 683c
00000320: c594 6a3b 371c 1abb 68df 1fbc 299a c63b
00000330: 393b 3b3c 8f85 8ebb 10af c63a 09b7 d73b
00000340: d35d 5a3c 8910 6f3a 2b05 5e3c 956a 14bc
00000350: 2817 88bb 6f6f 1a3c 7323 05bc 20df bd3a
00000360: df86 d7bb 8b97 51bb d0b0 b43b 7d2c 2e3b
00000370: 89d5 ecbb b5e2 9cbb 549d debb 8fe2 073c
00000380: e8fc 4b3c 38d1 0abc c3a7 42bb 5b19 003c
00000390: f70a 683c e70d d0bb 32b9 c13b 009d 1e3b
000003a0: 61ef 0bbc c740 4f3c 9e38 183b 5ae8 de3b
000003b0: ba63 40bb 1493 233b eff0 f73b 60d6 c43b
000003c0: 0917 f1ba 740b bcbb 2acb 1dbc 5bc8 efba
000003d0: 3885 18bc 19dc fe3a 9a20 e2bb 9916 8c3b
000003e0: bbbf 0e3c 4848 993b a7df 823b 54b5 a53b
000003f0: 76da 0dbc a0ee 493c b325 093c fc10 9f3b
-0.003795038 -0.004414606 0.010988189 -0.010614779 0.0002764632 0.0002814204 0.00595151 -0.01008847
-0.0013894654 0.007231269 0.00822503 0.00018954341 0.004949783 0.011580626 0.0030713081 -0.008738077
0.0016539323 -0.0030092758 -0.011133167 -0.00754652 -0.0073104044 0.002233512 0.0006529823 0.004007642
-0.0029589094 -0.007962201 0.0073673185 -0.0038256815 0.0043328884 0.010417313 0.00594501 -0.010906595
-0.0011953216 0.0047302456 -0.0004023591 0.006645643 0.0063410113 -0.0043718847 0.010272824 0.0048797484
0.009275416 -0.00903423 0.00058853294 -0.0068877726 0.0013114784 0.004446202 0.0012643525 0.00839386
-0.00065347814 -0.004366816 -0.011738298 0.008672646 -0.0087966435 -0.010981998 0.008811426 0.01148443
-0.009700338 0.0028277345 -0.008081536 0.011511653 -0.004247955 -0.010685962 -0.0020173835 0.00018730912
-0.0021820841 -0.007485966 0.0030197585 0.004220872 0.0066451547 0.009325288 -0.006567086 0.010897256
-0.0042600962 -0.0013759191 -0.0005208489 -0.009132057 -0.008877824 0.0009836513 -0.00874102 0.009174082
-0.009805724 0.008222122 -0.001991288 0.006456971 0.0049950937 -0.009161569 -0.0037759212 0.0075607463
-0.011604365 -0.0007254292 -0.012052416 -6.428547e-05 -0.0024363291 -0.00891837 0.0012908436 -0.0037157869
0.010997289 0.009348717 0.00016827344 0.0071423934 0.0053118146 0.008661944 0.00027389688 0.008161477
0.0024924881 0.011665716 0.0068134917 -0.00045009836 0.0042487276 -0.009246645 -0.0095107 5.447693e-05
0.010491351 -0.0051568802 0.005064965 -0.0029406669 0.011417129 0.006704087 -0.010444363 -0.00448744
0.0006163724 -0.0037888573 -0.0014262116 0.001066652 -0.0019023559 0.008695558 -0.011366629 -0.009184506
-0.004166488 -0.011839265 -0.0027795152 -0.0052000233 0.00063569803 0.007637392 -0.0061107576 -0.008406102
-0.011489202 -0.009620068 -0.009975289 0.009977965 0.0018161813 -0.0022500844 -0.010103015 -0.0034403123
-0.011478524 0.0032880849 0.00023357965 0.0031615845 0.011794797 0.011801956 -0.007242997 0.011442647
-0.009252779 -0.007977014 -0.00010540016 0.010072318 0.0014274948 0.01204339 -0.006755126 -0.008857788
0.0036026137 0.0036363949 -0.00113558 -0.0055536977 -0.008700013 -0.004054242 -0.009470884 -0.008176415
-0.005823625 -0.0003210066 -0.0051794644 0.013985042 -0.0018477081 0.013909773 -0.005050656 -0.0043078577
0.0027664595 -0.009490415 0.0019779098 0.009355976 0.010811546 0.005025571 -0.004152491 -0.0039188354
0.00809989 0.014062274 0.0069935555 -0.0065054763 0.00023513945 -0.0021884798 0.0019666743 0.0013785753
0.0011808745 0.011501126 0.013739799 0.011593635 0.012095735 -0.008323699 0.010624673 0.014194156
0.003579424 -0.0023515353 -0.009757854 0.006060858 0.011427694 -0.0043494175 0.0015158374 0.006583099
0.0133280335 0.00091195904 0.013551037 -0.009058614 -0.004153151 0.009425982 -0.0081261275 0.0014486052
-0.006577357 -0.0031981196 0.0055142418 0.002657681 -0.007227604 -0.004787768 -0.0067936573 0.008293762
0.012450434 -0.008472733 -0.0029702045 0.007818545 0.0141627705 -0.0063493135 0.0059119696 0.0024202466
-0.008540959 0.0126497215 0.0023227106 0.006802601 -0.0029356317 0.0024959492 0.0075665633 0.006007001
-0.0018393706 -0.00573867 -0.009630958 -0.0018293964 -0.009309106 0.0019444256 -0.006900859 0.004275155
0.008712704 0.004677806 0.0039939466 0.0050570164 -0.008658042 0.012324959 0.008370805 0.0048543196
