ConvLSTM/Original/0.73_107_A_S.pt (torch, 84929 bytes, 7 tensors)

conv_lstm.conv.weight f4 [40, 13, 3, 3]
00000000: bcb7 4a3c e8c7 b53c 7ef5 313b f857 a93d
00000010: 5896 89bd 247b 9cbd 0194 f93b a585 bd3d
00000020: 23b2 a4bc eab8 b63d 79ca 423c 92ee b53c
00000030: 22c5 bdbc 4aa7 c33d 732f 163d 3e39 e23c
00000040: 1c4a 413d f5c8 29bd 3988 fb3b c1d1 c43c
00000050: b182 6a3d d6f2 15bd c6cc 283d 7239 bbbb
00000060: f662 96bd 5a78 3bbd 20d7 833d 3fe9 1f3d
00000070: 8424 203d e3e6 b9bd dd0b a7bd 79f3 173c
00000080: 6094 9bbd 5a22 a13d 39ee 86bd 31cc 3dbd
00000090: 8f22 b1bd 8027 a1bd f65a 27bd 02ac 293c
000000a0: 35f5 7dbc 4d4b c23d 50a2 853d c62f fabc
000000b0: fce3 f73c 80ae b8bd 4e10 813d fc2b 49bc
000000c0: a725 e9bc 5ef4 8e3d 6a3d c2bb b390 c1bc
000000d0: 59e9 a53d 1036 833d 674e a53c 54f1 3ebd
000000e0: 5224 c3bc 6439 00ba aee6 b5bc 34c9 ac3c
000000f0: 5f16 50bd c8e1 04bd 1a19 5b3a 8d56 30bd
00000100: ab0c fbbc 6e3a 14bd 4e56 103d 879c b43c
00000110: 2d49 fc3c 2ba5 433a 13c7 003b de2d a73d
00000120: 40db 843c 9dff 95bd 3c1c b8bc 03ad 35bd
00000130: 031b 213d f3fd 503c 9c7c 293d a39f 51bd
00000140: fd26 aa3c 5b75 bd3b b7e2 5dbd 76cb 4a3d
00000150: dc15 bb3d 76b6 e03c f11a 5f3d 4351 4c3c
00000160: e854 883c 4ba6 8ebc 83cf 75bd 4298 adbd
00000170: f4fb 243d 3f53 9dbd 55ec a13d 59eb 083d
00000180: 9d3c bcbd b2df 01bd f084 a4bb 17cf ad3d
00000190: 306d 9b3c 2901 5d3c 66fc f4bb eab4 4d3d
000001a0: ae16 583d fe6f 31bd ab9c b73d f65f 8fbd
000001b0: 5fc6 b53d 1354 30bd 6c98 35bc c36d adbd
000001c0: d74b ebbc 5ebd b0bd 615f dbbc 89c6 a43c
000001d0: fc46 b8bc 785a 983c 53d6 cbbc b95f c23d
000001e0: c73f 883d 3f7e 9e3d dbc7 693d 0ad3 78bd
000001f0: d57b b53d 9b3e 2bbd 6227 a63d 65a0 7bbd
00000200: abb7 f83b 8d18 9cbc 85bf aabd ca99 853c
00000210: 1266 4b3c 7da1 973d 87d0 9d3d 05a7 b039
00000220: 2fca 8c3d 163a 2fbd f1d5 233d f478 6ebd
00000230: d54b 25bd 7d9a 323d 39b6 8abd 3734 903d
00000240: 043a 54bd 07f5 b33c c0be 3abc 99f4 b9bc
00000250: 2bda a73c cc09 a3bb ae6a c3bd b8e1 93bc
00000260: fb7c babd 1cb3 8b3d d498 1c3d 1311 0c3d
00000270: 3fd6 963c b77c 733d 52a3 933c 7f47 30bd
00000280: 9eca fdbc 255e 1bbd 6ef1 c1bc 1fc9 7f3d
00000290: d676 1b3d 69bb 9e3d 3e81 52bd 4a34 833d
000002a0: e515 d63c 1f25 2d3d bfcc 143d f6df 9ebd
000002b0: 29bc 873d 0679 663d 295d b23d 71e0 b9bc
000002c0: 3f1c 35bd e660 a8bc 0509 303d 77e8 babd
000002d0: 80c3 98bd 78a3 3dbd aec9 b13d 5efa af3c
000002e0: 7291 95bd a64b 4d3c 6506 9c3d 86c6 c3bc
000002f0: 37e0 623d ad1e ab3c e403 19bd 01c7 0a3d
00000300: a9af 643d a98e b4bd e404 9b3d 0fff 5fbd
00000310: 8e25 52bc 55bc a0bd 96d1 f0bc 0f99 3abc
00000320: 3798 f8bc a316 2abd aecf 83bd dbdd bb3d
00000330: 4739 cfbc b211 523c 6997 bb3d 25c0 963c
00000340: 5253 febc 553a 9b3d 3ccc b1bd 25e3 d1ba
00000350: 3ce6 3e3d cf2f c1bd fc38 5e3d 944d cd3c
00000360: 11ea f9b9 faa1 1bbd 4b7e 0fbd 709b 9c3d
00000370: 5e86 773d b23b 14bd 3f25 b13c 6ca2 56bd
00000380: 48c7 83bd 1dea a5bd a898 163d 09df 563d
00000390: 4dd0 9c3c 58cb a8bd 80f3 abbd fbdb b53d
000003a0: 1ebc 41bd 7544 73bd 3d45 853d 7d6a 00bc
000003b0: ffb2 ab3d e9c3 a33d db39 c13d 95e6 783c
000003c0: ea4d 803d b977 48bd c65e 873c 2996 6f3d
000003d0: 4e0f 0bbc c4f3 1abc 0ed2 9ebd eee5 3cbd
000003e0: d889 aebd 8a3f 9cbd de62 b83d a3b8 1a3d
000003f0: 0b5d b33d 6119 b03d ffb1 8e3d 87e1 333c
0.012372907 0.02219005 0.0027154381 0.08268732 -0.06718129 -0.07640675 0.0076165204 0.09254006
-0.020104473 0.08921988 0.011889094 0.022208486 -0.02316529 0.09553392 0.036666345 0.027615186
0.047189817 -0.041451413 0.007676151 0.0240258 0.057253543 -0.03660854 0.041210912 -0.005713635
-0.07343094 -0.045769073 0.06437516 0.0390408 0.039097324 -0.09077241 -0.081565596 0.009274357
-0.0759666 0.0786788 -0.06588406 -0.04633731 -0.0864917 -0.07868862 -0.04085823 0.010355951
-0.015500356 0.09487019 0.06525099 -0.030540358 0.030260079 -0.09017658 0.06301938 -0.012278553
-0.028460337 0.06980203 -0.0059277313 -0.023628568 0.08101148 0.06406796 0.020178987 -0.046616867
-0.02382103 -0.00048913644 -0.022204723 0.021092035 -0.050802585 -0.032441884 0.00083579274 -0.04305129
-0.030645689 -0.036188535 0.035238557 0.022047294 0.030796612 0.00074632716 0.0019649907 0.08163045
0.016217828 -0.07324145 -0.0224744 -0.04435445 0.0393324 0.012755859 0.041378602 -0.051177632
0.020770544 0.005781812 -0.05417129 0.04951044 0.09135029 0.027430754 0.054469053 0.012470546
0.016642049 -0.017413279 -0.06001235 -0.084763065 0.040279344 -0.076818936 0.07906405 0.03342757
-0.091912486 -0.031707473 -0.00502073 0.08486765 0.018972963 0.013489046 -0.0074763773 0.05022136
0.052756004 -0.043319695 0.08965429 -0.07000725 0.08875727 -0.04304893 -0.0110837035 -0.08468201
-0.028722687 -0.08629869 -0.026778879 0.0201142 -0.022494785 0.018597826 -0.024882471 0.09490914
0.066527896 0.07738923 0.057075363 -0.060748138 0.0886151 -0.041807752 0.081129804 -0.06143226
0.0075902543 -0.019054675 -0.08337311 0.016308684 0.012414472 0.07403848 0.07705789 0.00033693775
0.06874501 -0.042780004 0.039998952 -0.05822082 -0.040355522 0.043604363 -0.067730375 0.07041209
-0.05181314 0.021967424 -0.011398017 -0.022699641 0.020489773 -0.004975533 -0.09541832 -0.018051967
-0.091058694 0.06821272 0.038231686 0.03419597 0.018412707 0.05944511 0.018022213 -0.043036934
-0.030980404 -0.03793158 -0.023674693 0.062447663 0.037955128 0.077505894 -0.051392786 0.06406458
0.026133487 0.04227173 0.036328074 -0.07757561 0.066276856 0.05626776 0.08709175 -0.02269003
-0.04421639 -0.020554017 0.04297735 -0.091263704 -0.07459164 -0.046298474 0.086810455 0.021481689
-0.07303132 0.012530243 0.07618407 -0.023898374 0.05538961 0.02088865 -0.037357226 0.03388119
0.055831585 -0.08816273 0.07569292 -0.054686602 -0.012826337 -0.078484215 -0.029396813 -0.011389031
-0.03034602 -0.041525494 -0.06436096 0.09173175 -0.025295867 0.012821602 0.091597386 0.018402169
-0.03104559 0.07579485 -0.08681533 -0.0016013129 0.046606287 -0.09432947 0.054253563 0.025061406
-0.00047667374 -0.03799627 -0.03503255 0.07646835 0.060430877 -0.036189742 0.021624206 -0.05240099
-0.06434494 -0.08101294 0.036766678 0.052458797 0.019142294 -0.0824191 -0.08396053 0.088798486
-0.047298543 -0.059391458 0.06507347 -0.007837889 0.0838375 0.07996351 0.09434863 0.015191694
0.06264861 -0.0489423 0.016524684 0.058492813 -0.008487536 -0.009457532 -0.077549085 -0.046117716
-0.08522385 -0.076293066 0.090032324 0.03777374 0.08757981 0.08598591 0.06967544 0.010979063

conv_lstm.conv.bias f4 [40]
00000000: 7b55 913d 3d1f 113c bb92 ac3d 91cf abbd
00000010: 3d3e f53b dc34 ba3d 6a9c 98bb 17df 0cbc
00000020: 1fe0 43bd 8abc 13bd 71cc adbd 5223 853b
00000030: b5a9 98bd e154 9f3d 262a 17bd 7ced 00bb
00000040: 47f2 4c3c 3675 7c3b 8e84 3cbd 27cc 3dbd
00000050: 1294 ecbb 1fc1 7bbd c25f 80bd dc68 803d
00000060: e6ea 463d f2c9 9d3d 9939 99bd b1ff 563d
00000070: e4e9 1bbd f7d4 81bd 3c9c b0ba f1d6 bf3d
00000080: e7d5 a6bc 4b9b a8bd f7f8 8e3c b191 6dbc
00000090: c04a a3bd 6397 9dbd 2a6a 09bd dcb4 71bd
0.07096382 0.008857545 0.08426424 -0.083891995 0.007484226 0.090921134 -0.004657318 -0.008598111
-0.04782116 -0.036068477 -0.0848626 0.0040630484 -0.07454244 0.07779861 -0.03690543 -0.0019672802
0.012508935 0.0038522012 -0.04602485 -0.046337273 -0.0072198 -0.06146347 -0.06268264 0.0627
0.04856386 0.07704534 -0.07481689 0.05248994 -0.038064852 -0.06339448 -0.0013474296 0.09367169
-0.020365668 -0.08232745 0.0174527 -0.014500068 -0.07973242 -0.0769489 -0.03354851 -0.05901037

conv1.weight f4 [20, 10, 3, 3]
00000000: 3312 cdbd 467c 86bd cee5 383c 6780 ed3c
00000010: 8597 8c3d a370 7c3c 33b5 7e3d 9057 21bc
00000020: 35bd a5bc e216 aabd 4018 433d 0278 a23d
00000030: 95d7 a73d 85fb 29bd c98d 8b3c 8ce3 723d
00000040: 3571 823d 4d84 a53d f7d0 d3bd 7474 fcbb
00000050: 76d0 bfbc 1b9f 7c3d f784 1dbd dd6d 983c
00000060: 4325 7ebd 7122 f33c 62a7 913d 7f82 d9bd
00000070: 7f54 b1bd 71f7 00bc 258b b33c 548e 9c3d
00000080: 12fb a9bd 83fc 393c dd31 83bd 01bd 953d
00000090: 48e9 cd3d fce6 d2bd c3b8 e83b c414 643d
000000a0: a353 0abc 7f1b d03d 698b 4e3d e20e fd3c
000000b0: e073 b83c ec45 98bd 0a0a f03c 1aa1 aabc
000000c0: bfe5 d6bd af1c 89bd f656 21bd d1ca 923d
000000d0: 5a60 113c 4fd7 b2bc 3bd6 b7bd dd86 a43d
000000e0: 1afe 5c3d b0a7 b9bd f1ec bebd 36c9 f93c
000000f0: a367 94bd 2bba c83c c0c7 c7bd f7bc 8bbd
00000100: 9b84 cfbc 663a 4cbb 0582 71bd f8e4 c83d
00000110: 6719 57bd 6166 a6bd e066 aa3d ea7b efb8
00000120: 57fc ee3c cde1 433d bb00 7abd 369c 903d
00000130: a41b b93c 626b a6bd 645b c23d 1b5c 95bb
00000140: 50ab d43d 8271 87bc 8b51 9cbd 101e 833d
00000150: d49c c6bc 7b32 953d bde1 433d db46 52bd
00000160: 21fc acbd 18b9 b93d 786e 8fbd 65f8 913d
00000170: 9441 06bc addf b7bd fc32 ad3d e66b 80bd
00000180: 1c7f 823d 687e 50bd 4367 473d ef54 e8bc
00000190: a17d 8bbd 13ba d2bc 3c16 a53d b9a6 8c3d
000001a0: 5104 62bd da9b 843d a194 4abd 56dd c5bd
000001b0: be1a 19bd 9b2f d93d 990e 88bd 958f 5e3d
000001c0: 8044 99bd 99fc 85bd 9c40 dd3c 01ba 663d
000001d0: ad9e a93d 6b99 0fbd 4333 353d 5362 913d
000001e0: 9245 b03d 4db2 843d e2f5 6b3d 1fae 94bd
000001f0: ef6d 3fbd e6ad 633d 6dbf 21bd a685 2b3b
00000200: 86a3 363d 4e99 953c b443 b23d 5a61 c9bd
00000210: 4d43 93bd 5d6a 2a3d cd7a 313c b500 b8bd
00000220: bc43 9abc 1f48 b43c 878b acbd 43bb 643d
00000230: 10c5 cd3d fa6e 083d c13c 183d f61c c23a
00000240: 3509 c9bd 7844 ff3c a40d e0bc 782d a5bc
00000250: 6e55 113d 00d6 95bd 2164 d7bc 628f 7cbd
00000260: 607d c03b 682c 643d b293 28bb 1ed5 aebc
00000270: 67f0 2cbd 931b 233d eafd 4ebd 58a6 c03d
00000280: f709 e13c 3a39 633d 3d4b d5bd cd0b 8a3d
00000290: 0b35 6e3d 4e91 453d 626b e7bb b05c 4dbc
000002a0: bbde 5cbd b3d8 ca3d 3d17 f23c fd09 213d
000002b0: b2fe 8f3d 955e bcbd 4db6 4fbd bb68 31bd
000002c0: 8967 8c3d 9998 2ebd 3994 d93c 1f6c d8bd
000002d0: d160 15bd a9eb 893d af4f 163d f89e 953d
000002e0: 35a2 073d b512 9c3d eb5f cc3d ae1a c0bd
000002f0: 935c aabc e600 b8bd bf2d ebbc 31ca c2bd
00000300: 73b9 c2bd 9e05 c93d 4584 053d 2331 3a3d
00000310: 0aac 5d3b e876 203b 9266 faba ca78 103c
00000320: 3178 cf3d 1eb8 18bc 9004 b2bd e953 c33d
00000330: f91d b8bd 41f6 c6bd 65e4 a63d ac4e a53c
00000340: 99f5 cbbd 69e1 613d 368a 24bd b30e 0dbd
00000350: fca0 6e3c 7f1c 07bd e6df c33d 22e9 ae3c
00000360: c6dd 183d c5f3 bb3a 9825 793d 83d5 9d3c
00000370: 6562 c0bc 544b 63bb 1d85 39bb ffc4 eabc
00000380: 139b 7cbd 7787 bd3d 13ea 7b3d 219a a6bd
00000390: 3a2a 1bbd 8059 82bc fb0d 053d c806 8f3d
000003a0: 1093 933d efc9 3ebc 1b87 a4bd 15e1 d4bd
000003b0: 43d4 61bd 90cc c739 103f 523d e9d4 273d
000003c0: 7bcc bdbd b8d9 893d 74d9 a9bd 4a21 5cbd
000003d0: b163 df3c df14 e0bc c5eb c83d fa68 a73d
000003e0: 11e4 4b3d f2b4 943b 839d 133d 46aa c73c
000003f0: 7f02 eabc e9d6 babc e3ad bfbd 7c03 98bd
-0.10013237 -0.06566672 0.011285258 0.028991891 0.068648376 0.015407714 0.062184524 -0.009847537
-0.020231823 -0.08305146 0.04763055 0.07933046 0.08195416 -0.041499633 0.017035382 0.059299037
0.06369249 0.08081875 -0.10342591 -0.007704312 -0.023414832 0.061675172 -0.038456883 0.018607074
-0.062047254 0.029679509 0.07112004 -0.10620593 -0.086586945 -0.007871495 0.021916935 0.076443344
-0.08299841 0.011351707 -0.06405995 0.0731144 0.100542605 -0.10297963 0.0071021034 0.055683866
-0.008442792 0.101614945 0.05042592 0.030890886 0.022516191 -0.074352115 0.029301662 -0.020828772
-0.10493039 -0.06694924 -0.039389573 0.071675904 0.00887307 -0.021831183 -0.08976408 0.08033536
0.053953268 -0.09065187 -0.09322537 0.030491453 -0.0724633 0.024502834 -0.09754896 -0.068231516
-0.025331786 -0.0031162738 -0.058961887 0.09809297 -0.05251446 -0.08124996 0.08320403 -0.00011419489
0.02917306 0.047822762 -0.061035853 0.07061045 0.022596188 -0.081259504 0.09490088 -0.004558099
0.10384238 -0.016533617 -0.076327406 0.06402218 -0.024244703 0.07285019 0.047822703 -0.051337104
-0.08446527 0.09068507 -0.07003492 0.071274556 -0.008194346 -0.0897821 0.0845699 -0.0627058
0.063719004 -0.0509018 0.048682462 -0.028360812 -0.06811071 -0.025723493 0.080608815 0.06867737
-0.055179898 0.06475039 -0.04945815 -0.09661357 -0.03737902 0.10604783 -0.06643409 0.05433615
-0.074837685 -0.0654232 0.027008347 0.05632973 0.08282218 -0.03505842 0.04423834 0.07098832
0.086070195 0.06479321 0.05760754 -0.072597735 -0.0467357 0.055585764 -0.0394892 0.002617219
0.04458954 0.018261578 0.087043196 -0.098330215 -0.07190571 0.041605342 0.010832501 -0.0898451
-0.018831126 0.022007046 -0.0842505 0.05584265 0.10047352 0.03330896 0.037167314 0.0014809656
-0.09816209 0.031160578 -0.027350254 -0.020163283 0.035481863 -0.07316208 -0.026292862 -0.061660178
0.005874321 0.05570641 -0.00257228 -0.021341857 -0.042221453 0.03982122 -0.05053512 0.094067276
0.027470572 0.055474497 -0.10414741 0.06740532 0.058156054 0.048234276 -0.0070623616 -0.012534305
-0.05392335 0.09904613 0.029552097 0.039316166 0.07031001 -0.091977276 -0.050710965 -0.04331277
0.06855685 -0.042625997 0.026559936 -0.105674975 -0.036469284 0.06734402 0.036697086 0.073057115
0.033113677 0.076207556 0.099792324 -0.09380089 -0.020796096 -0.08984546 -0.028708337 -0.09511221
-0.09508028 0.098155245 0.032596845 0.045457017 0.0033824467 0.0024484936 -0.0019104055 0.008817861
0.101303466 -0.009321241 -0.086922765 0.09537489 -0.08990092 -0.09714938 0.081490315 0.020179115
-0.099589534 0.05514661 -0.04017087 -0.034437846 0.014564749 -0.03298616 0.095641896 0.0213514
0.037320875 0.0014339617 0.060826868 0.01926685 -0.023484418 -0.003468235 -0.0028308101 -0.028658388
-0.061671328 0.092543535 0.061502527 -0.081348665 -0.037882067 -0.015911818 0.032484036 0.06983715
0.07205784 -0.011644824 -0.08033582 -0.103944935 -0.05513407 0.0003810865 0.051329672 0.04097453
-0.09267517 0.0673098 -0.08293429 -0.053742684 0.027269216 -0.027353702 0.098105945 0.081743196
0.049778048 0.004538172 0.036038887 0.024373185 -0.028565643 -0.022807555 -0.09359338 -0.074225396

conv1.bias f4 [20]
00000000: 54dd 2e3b 1aec 463d bf0a 4c3d ab1a 1abd
00000010: 23f0 cdbd b04f 733d 5e1c 96bd eab0 2f3d
00000020: 2ed9 91bc f1fe babd e3ba 363d cf6c 90ba
00000030: dff5 27bd 796a d93c 985e da3d 8df5 98bd
00000040: c9ca 6e3d daf7 9f3d 7ecb cdbc 3a40 28bd
0.0026682215 0.048565008 0.049814936 -0.03762309 -0.10055568 0.059402168 -0.07329629 0.042893328
-0.017803755 -0.091306575 0.044611823 -0.0011018756 -0.041005965 0.026540028 0.106625736 -0.0746871
0.05829886 0.07810946 -0.025121447 -0.041076876

conv2.weight f4 [40, 20, 3, 3]
00000000: d9f1 923d ce6d 523d 1fa3 45bd f137 fcbb
00000010: c7d0 5abd c1ba 3d3c 747a 273d 0ee6 e8bc
00000020: cf7f 0e3d 349f 5d3d 3f88 50bd 598b 893c
00000030: b182 1bbd a8a6 893b 0fe1 dbbc fd7e 4dbd
00000040: b7d7 473b 21aa 4e3d dd0b f8bc 0407 71bb
00000050: 8180 733d 0b1b 89bd 1bc8 183d edb0 193d
00000060: a5d3 1f3d 19c0 813d 6e2a d9bb 636a 913d
00000070: 9d81 a23c 523a 67bd 615f 963d 2fd5 1fbd
00000080: 27d1 2b3d 99b8 07bb 3a2a 853c 6e99 683d
00000090: 3194 77bc 9786 88bd 5c4a 7e3d 993f 8bbd
000000a0: cf7b 5c3d fe96 9d3b c165 57bd 7a5e bdbb
000000b0: 0978 5cbc 6aef ec3c 5cbf 91bd d81d d9bc
000000c0: ef48 aa3c 930b 873c a2b9 233d 0390 1e3d
000000d0: e3a1 473c 7be3 00bd 4a04 a43a 7fc9 8a3d
000000e0: 75c7 91bd 993a 95bd 503b 41bd 53a3 773c
000000f0: f833 223c e85f 08bd de89 c8bc c26d 4fbd
00000100: f810 e83c 4f3d 8b3c a36d 9ebb 2f6c 193d
00000110: 9c64 2c3d 05e0 54bd afb5 f2ba 64d5 953d
00000120: 8eb4 c43b aa6e 963d cec8 b2bc 9f44 d73b
00000130: ee86 813d 6ffe d0bb ea2e e9ba 1ba5 3d3d
00000140: 5749 42bd 68b0 f23b 1d4a 62bb 5061 4f3d
00000150: f45e 913b b8c0 20bd bd2f 53bd 5d66 9cbc
00000160: 0159 273d 121f 95bd 04a2 3c3c 6936 173c
00000170: fb7e ecbc d4f6 563c 3789 023a 0793 3c3c
00000180: a24b d2bc 9ff7 4abc 6cfd a73b 7f80 7cbb
00000190: c21c dcbc ce00 763d fff5 ad3a acb2 403d
000001a0: 8a84 86bd c16d 7cbd ca03 61bd 0a3c 903d
000001b0: 8f71 81bb dc54 51bc c707 303d e463 97bd
000001c0: d09c 5fbd 2384 913d abda 72bc a9d7 423d
000001d0: fd74 f1bc 8020 d03b b142 253d ee1c cabb
000001e0: 0e20 3a3d e167 4abc 6268 fcb7 76b9 803d
000001f0: 3842 ec3c be10 35bb b8ce 4bbd aaa0 27bd
00000200: deea 07bd fbce 903c 2333 993d 8724 b0bc
00000210: e05f 3c3c 911a ed39 7591 80bd af90 d0bb
00000220: 6d0b efbc ac87 49bd f557 c4bc b296 ef3c
00000230: 730e 813d a518 fa3c 1c52 913d bc0b 1abd
00000240: 19ec 53bd 1c97 56bd 7cda 0b3d 6cc4 69bb
00000250: dc42 9a3d 38ea fa3b c745 14bd d18b 31bd
00000260: 187f 873d 07bf 893d a11f 983d 13bb 533d
00000270: d57e 513d 9a3a 07bd b9cc aa3b 9a9d 69bd
00000280: dad9 8d3d ff97 65bd a6b4 983d 1a2f 14bd
00000290: 744e 863d 6671 e63c baf3 16bc 871d 70bd
000002a0: 95c1 883d dfe3 fcbc 1eb6 80bd 15f2 403d
000002b0: f86a 65bd 7129 7ebd ea24 4abc 9fec c43c
000002c0: bc43 98ba e85b 963d ef91 5cbd 9770 90bd
000002d0: 16f1 76bd 1de4 513d f7f7 913c 5014 59bb
000002e0: cbfd 743d ed1a 7abd 8e9f e53c 275e 3b3c
000002f0: 7f45 8f3d 2c44 42bd 5b2b 83bd 4bf6 9cbc
00000300: d7c2 0c3d c5a1 9b3c 3d8f 9a3d 9f92 85bd
00000310: a910 87bd d55d 9e3c d3bf 53bd c659 72bd
00000320: 8ee2 a1bc fe27 54bc 4b3b 71bd d049 1abb
00000330: d9b4 ccbb 6792 3f3c 1240 283d ee83 6bbc
00000340: 7130 373d 488b e63c 3098 88bc 300c a43d
00000350: 6dfc 83bc 5f92 37bd 966e 6c3d 50a7 343d
00000360: 5324 5ebd 13bf 743b 0df8 343d 4117 303d
00000370: 4aba a13b 7e9b 4bbd 25f8 343d f06d af3c
00000380: fc7b 1abd 4d5a 0b3d f348 91bc e212 e2bb
00000390: 3ef5 3fbd e7fe 5bbd dd3f 423d 2a41 91bd
000003a0: ae21 af3c 2abd 1d3d e7c4 b1bb a505 893b
000003b0: 1d5c 3fbc c338 873d d2b8 b2bc b1b6 2abd
000003c0: cf23 7a3c e324 873d a15a 5c3c 7fab 363c
000003d0: 0d31 8a3d 5719 75bd e61a 0ebd e0fa 833d
000003e0: 1dba 003d daef 343d d94a 83bd 7e6c 863d
000003f0: cd57 d5bc f12e 793d ca61 f13c fac5 af3c
0.07175035 0.05137425 -0.048251268 -0.0076970984 -0.05342176 0.01158017 0.040888265 -0.028430011
0.034789857 0.054106906 -0.050911184 0.016790079 -0.037966434 0.004200775 -0.026840715 -0.050169934
0.0030493566 0.050455216 -0.030279094 -0.0036777863 0.059448723 -0.06694611 0.03730021 0.037522245
0.0390202 0.06335468 -0.0066273725 0.0710037 0.019837195 -0.056452103 0.07342411 -0.039021667
0.04194751 -0.0020709394 0.016255487 0.056786947 -0.015111015 -0.06666296 0.062082633 -0.0679924
0.05382901 0.0048092594 -0.052587274 -0.0057790847 -0.013456353 0.028922755 -0.07116577 -0.026503488
0.02078673 0.016485011 0.039971955 0.03871156 0.012184593 -0.031466942 0.0012513485 0.067767136
-0.071181215 -0.07286567 -0.047175705 0.015114623 0.009900086 -0.03329459 -0.024479803 -0.050641783
0.028328404 0.016997008 -0.004834847 0.037456688 0.042088136 -0.051971454 -0.0018517281 0.07316092
0.006002969 0.07345326 -0.021824267 0.0065694596 0.06324564 -0.006377987 -0.0017790471 0.046300035
-0.047433224 0.007406283 -0.0034529038 0.050629914 0.004436368 -0.03924629 -0.0515592 -0.01909178
0.040856365 -0.07281317 0.011513237 0.009229281 -0.028869143 0.013120372 0.0004979553 0.011509663
-0.02567083 -0.012388139 0.005126646 -0.0038528738 -0.026869182 0.06005936 0.0013272165 0.047045395
-0.065682486 -0.061628107 -0.054935254 0.070427015 -0.003950305 -0.01277658 0.042976167 -0.073920995
-0.054592907 0.07105281 -0.014822642 0.04756895 -0.02947473 0.0063515306 0.040346805 -0.0061679995
0.045440726 -0.012353868 -3.0089348e-05 0.06285374 0.02884017 -0.0027628387 -0.04975769 -0.040924706
-0.03318297 0.017676821 0.07480457 -0.021501793 0.011497468 0.00045223956 -0.06277744 -0.006364904
-0.029180253 -0.049201652 -0.023967722 0.029246662 0.06301584 0.03052933 0.07095739 -0.037608847
-0.051738832 -0.052390203 0.03414391 -0.0035670055 0.07532284 0.0076573156 -0.036199357 -0.04334623
0.06616038 0.06725889 0.07427908 0.05169208 0.051146347 -0.03301487 0.005212393 -0.057035066
0.069263175 -0.056053158 0.07456331 -0.036177732 0.065579325 0.028130244 -0.009213382 -0.05862191
0.06677548 -0.030870376 -0.06284736 0.047105867 -0.056010216 -0.06205124 -0.012337903 0.024038611
-0.0011616866 0.073417485 -0.05385011 -0.07052725 -0.06028851 0.051242936 0.017818434 -0.003312368
0.05981235 -0.061060835 0.028030183 0.011436022 0.06995677 -0.047428295 -0.06404754 -0.01916041
0.0343655 0.018998036 0.07546852 -0.065221064 -0.065949745 0.019331852 -0.05169661 -0.059167646
-0.01976135 -0.012948988 -0.058894437 -0.002354253 -0.0062471447 0.01169262 0.041076727 -0.014374716
0.04472393 0.028142586 -0.016674131 0.08010137 -0.016111577 -0.044817325 0.05772265 0.044104874
-0.05423386 0.0037345334 0.044181872 0.042990927 0.0049355375 -0.049708836 0.04418196 0.021414727
-0.037715897 0.034021664 -0.01773498 -0.0068992237 -0.04686474 -0.05370989 0.047424186 -0.07092507
0.021378364 0.03851048 -0.005425084 0.004181581 -0.011679676 0.06602623 -0.021816645 -0.041678134
0.0152673265 0.065988325 0.013449342 0.011149286 0.06747637 -0.05983862 -0.03469362 0.06444335
0.03142749 0.044174053 -0.064107604 0.06563662 -0.026042843 0.060835782 0.029465575 0.021456707

conv2.bias f4 [40]
00000000: 4df9 393d 60e4 113c 2b9e 65bd 049a 3fbd
00000010: 6521 823d 6ac9 10bb 6e19 2cbd 66ce 2b3d
00000020: fb0b 323d 0c3e 8abd 1f0c 913c ffc0 a03c
00000030: 95d8 8cbd 3a74 17ba 3df5 bbbc 60d3 853d
00000040: 483e 863d 899b 873d d8ed 7ebd 0e1d f6bc
00000050: f665 733d 203d 0cbd 7ae6 893d 5915 5bbd
00000060: 8bcf 243c 6ce9 01bd 6ef6 183d dce4 69bd
00000070: 1ce7 8cbd d1ed 5a3d f027 aebc 7176 8abd
00000080: c1dc 3ebd 6851 563d bc3e 1fbd 40e4 2d3d
00000090: f73e 3f3c f546 debc 284b c4bb 8094 513d
0.045403767 0.0089045465 -0.056059044 -0.04677774 0.06354026 -0.0022092708 -0.04201644 0.041944884
0.043468457 -0.06750116 0.017705975 0.019623278 -0.06877247 -0.0005777512 -0.022944087 0.06534457
0.06554848 0.06621463 -0.062238544 -0.030043151 0.05942341 -0.03423798 0.06733413 -0.053487156
0.010059248 -0.03171675 0.03734439 -0.057103023 -0.06880018 0.053449456 -0.021259278 -0.06760872
-0.046597246 0.05232373 -0.038878188 0.042454004 0.011672727 -0.027133444 -0.0059904046 0.05116701

fc1.weight f4 [1, 6760]
00000000: 990f c03a 9692 8cbb 24da 01bc 4970 03bc
00000010: 5e99 103c 57d8 9d3b f49d 09bc 8430 513c
00000020: 2c63 df3b c66c 583c e8b0 5bb9 61f1 973a
00000030: 53cd b73b 7f08 aa39 2533 183c 0ef9 b7bb
00000040: af85 d1bb 8e45 223c 24d9 063c 2868 753b
00000050: 205a bf3b b7ef d9bb ce36 293b 882d 3d3c
00000060: f7fd 243c 459a 073c a0e3 17bc aa50 cdbb
00000070: 0400 90b9 b89c 6b3c eecd 1fbb 5223 cd3b
00000080: 3677 f33a ffdd cd3a 2148 783b 0c8a 4a3c
00000090: f043 e53a c06a 49bb 8582 f4bb 0f78 91bb
000000a0: 6328 113c e460 08bb 8613 813b 6968 973b
000000b0: 8d49 2d3c 6351 223c 35c2 3abb 9235 5e3c
000000c0: b095 2d37 bfd2 133c 46d2 03bb fbfd 04bc
000000d0: a2ce c83b 78c7 493c ce9d 5f3c 8fe5 623c
000000e0: 18e5 a33b 06bd ff3b 8d3d 593b ed0a 413c
000000f0: d6b2 0d3c 1121 2f3c 82b5 e7bb 3766 3f3a
00000100: 09a6 4c3c 8c75 9c38 1d8f 203b eb66 80bb
00000110: cf57 7c3a 6f0d 3e3b ee18 223c 4e37 723c
00000120: 44c3 1a3c 7f6f 443b 6104 473c 5493 4e3c
00000130: 066f a43b 6fe8 1f3c dc47 05bc 0511 1b3c
00000140: f326 edba 798e 2c3c bec3 fbbb da25 de3b
00000150: 156e 333c 63a8 e43b 14aa f5bb 8969 e93b
00000160: d20c 823b 52c1 813b c791 c13b 685b 663c
00000170: aa12 503c e4fc 0a3b 4ad3 523c acef 3abb
00000180: fb5b fa3a 49c0 04bc 9ddf 3f3c fe84 5c3b
00000190: 3be6 97bb 9292 433c d814 e73b 3691 b83b
000001a0: 0543 503c 1b51 263b 4dd2 6d3b d915 633c
000001b0: 3d2c 193b ea0a 4b3b 0b97 9b3b daac 123c
000001c0: cd0b c53b e499 09bc ad73 00bb c06e 633b
000001d0: 823d 93bb 3cc0 05bc 570b 843b 0451 023c
000001e0: 551e 863a 8119 8ebb 2154 e73b eec9 aabb
000001f0: b1ae 6e3c 3df3 433a 82e6 3c3b 843b d83a
00000200: ea45 083c 636f 333c f5eb 0a3b d2e8 093c
00000210: 5aac 05bc 209a 263c 8e4c 1cbc c204 9e3b
00000220: f180 deba ee3d 9fbb 19ac 493c bfb0 f9bb
00000230: f052 093c d2dc 17bc 3c74 acbb f477 483c
00000240: dac4 a2ba e516 e73b 67de e93b c08b 7d3b
00000250: 7695 683b a6d5 f43b 5132 413b b1bd dd3b
00000260: 5328 f63b 61b3 b5b9 b839 013c 4319 aabb
00000270: acef 12bc 4b12 683c 3076 70ba 5182 473c
00000280: 3461 d3bb a6b9 273b 912e d9bb 875f 303c
00000290: dc6a 383c 777e 6b3c c137 c2bb 63d0 c9b9
000002a0: 8b3a 1abb 2582 34ba 956e 173c 61b6 4a3c
000002b0: 388c 83b9 61d7 443a 6f0d ae3a 5ccf 773b
000002c0: 1d70 463c 399e 2a3c 7a45 3a3c 8d30 983b
000002d0: e052 393c 6f96 15bb 4f92 653b b5c0 e03b
000002e0: 5ae7 8db8 0027 0f3c 8f3e 9dbb 5502 103c
000002f0: 9d94 7fbb 2857 9fbb b282 2b3c 8491 553c
00000300: 3e1b ed3b 7b92 10ba a1fb d0bb 5c4e 123c
00000310: 1122 0f3b a852 a6bb 4268 743a e9c3 29bb
00000320: 0c4b 0bbc 6625 9a3b 53e5 6239 669e 5fbb
00000330: 4c24 513c 58ab 813b 1992 623c 5ba6 9aba
00000340: 9f12 073c 1c67 cd3a 6d13 353b c0be 023c
00000350: 1ed5 e93b ac9e 6f3c f4c7 dcbb 0d12 dd3a
00000360: f9df 123b f325 253b 94a9 4fbb 8e11 0e3b
00000370: 09e5 bd3b f56b 15bb a70d 16bc 01e3 3d3c
00000380: 0e11 a53b da76 de3b f4d5 09bc 82f0 9fba
00000390: b695 913b fa7e 9439 ebd3 5f3c 0cff 04bb
000003a0: 76c5 35bb d3ba 293c 209b 163b 80b3 3cba
000003b0: 42fd 6b3c a952 673c 28ef 4d3c b844 b93a
000003c0: a00e eaba 32a2 d63b 85a4 f2bb 870d 69bb
000003d0: 3bd4 103c bd9b 693c be5b 493c eb27 cdbb
000003e0: 62ea 523c ee2d 4b3c 9734 603c 80c8 453c
000003f0: 028c feb9 cf8d 0abc 9e6f 923b 41fd 393c
0.0014653086 -0.0042899353 -0.007925544 -0.008022376 0.008825628 0.0048170495 -0.008399475 0.012767915
0.006817242 0.013209527 -0.0002095137 0.0011592322 0.0056091934 0.00032431257 0.009289538 -0.0056144064
-0.00639411 0.009904278 0.008230481 0.0037446115 0.005839601 -0.0066508907 0.002582002 0.0115465
0.010070316 0.008276527 -0.009270579 -0.0062657194 -0.00027465832 0.014380626 -0.0024384218 0.006260314
0.0018574956 0.0015706419 0.003788479 0.0123620145 0.001749156 -0.0030733794 -0.007461848 -0.004439361
0.008859727 -0.0020809704 0.003939095 0.004620601 0.010576618 0.009907099 -0.0028497104 0.013562577
1.0346455e-05 0.009022414 -0.0020114346 -0.008117194 0.006128148 0.012315623 0.013648463 0.013848676
0.0050016753 0.007804516 0.003314826 0.01178239 0.008648595 0.010689036 -0.007071198 0.0007301303
0.012490758 7.4605545e-05 0.0024499365 -0.003918519 0.00096261216 0.0028999706 0.009893639 0.0147836935
0.009445969 0.0029973683 0.01214704 0.012608368 0.005018118 0.009760006 -0.008134808 0.009464507
-0.0018093273 0.010532015 -0.0076832464 0.0067794146 0.010951539 0.006978081 -0.0074970815 0.0071231765
0.0039688135 0.003959813 0.0059072706 0.014059879 0.012699762 0.0021207863 0.012867758 -0.0028524203
0.0019100899 -0.008102485 0.011711028 0.0033648605 -0.0046356 0.011936801 0.0070520453 0.005632545
0.012711291 0.0025377932 0.003628868 0.013860189 0.0023372315 0.0030981847 0.0047482303 0.008952344
0.0060133697 -0.008398507 -0.0019600198 0.0034703463 -0.0044934163 -0.008163508 0.004029672 0.007953886
0.0010232428 -0.0043365364 0.0070595895 -0.00521206 0.014568017 0.0007474905 0.0028823917 0.0016497229
0.00831745 0.01095185 0.002119777 0.008417325 -0.008158768 0.010168582 -0.009539736 0.0048223445
-0.0016975683 -0.0048596775 0.012309098 -0.0076199467 0.00838159 -0.009268956 -0.0052628797 0.01223563
-0.0012418285 0.00705229 0.007137108 0.0038688034 0.0035489476 0.007471758 0.0029479454 0.0067669977
0.0075121312 -0.00034656658 0.007887296 -0.0051909997 -0.008968275 0.014164518 -0.0009172885 0.012177066
-0.0064507965 0.0025592833 -0.0066278656 0.010764963 0.011255946 0.014373413 -0.0059270565 -0.00038492968
-0.002353343 -0.0006885848 0.009242673 0.012372584 -0.00025090738 0.00075089006 0.001327915 0.0037812805
0.012111691 0.0104137 0.011369104 0.0046444596 0.011311263 -0.002282526 0.0035029834 0.00685891
-6.7664965e-05 0.008737326 -0.0047987173 0.0087896185 -0.0038998493 -0.0048626848 0.010468172 0.013035182
0.0072359135 -0.00055149914 -0.0063776528 0.008929815 0.0021840374 -0.0050757714 0.0009323397 -0.0025904125
-0.008501779 0.0047041653 0.0002163847 -0.0034121512 0.0127650015 0.0039571933 0.013828778 -0.0011798845
0.008244186 0.0015670988 0.0027629987 0.007980049 0.0071360013 0.014625233 -0.0067377035 0.0016866341
0.002241133 0.0025199621 -0.003168677 0.0021677944 0.0057951254 -0.0022799943 -0.009158528 0.0115897665
0.0050374335 0.0067890706 -0.008412827 -0.0012202414 0.0044428958 0.00028323365 0.013661365 -0.0020293621
-0.0027736104 0.010359484 0.0022980645 -0.00071983784 0.014403643 0.014118829 0.012569226 0.001413486
-0.0017857142 0.006550097 -0.007404866 -0.0035561041 0.008839662 0.014258322 0.012289939 -0.006260862
0.012873264 0.012401087 0.013684413 0.012071729 -0.0004855097 -0.008456661 0.004468872 0.011351884
