ConvLSTM/Original/0.73_113_A_S.pt (torch, 84929 bytes, 7 tensors)

conv_lstm.conv.weight f4 [40, 13, 3, 3]
000000 5a 3f 9a 3d e2 dd 79 bd 43 fb 1a bd f5 81 c9 3c
       0.075316146 -0.06100262 -0.037837278 0.024598101
000010 df a3 8e 3d c3 6b 64 3d ad b5 5e 3d 9b a4 21 bd
       0.0696485 0.055766832 0.05437248 -0.03946362
000020 6b 92 87 bd 35 b6 a8 3d e1 88 a2 bc e4 2a 74 3d
       -0.06619724 0.08237878 -0.01984066 0.059611216
000030 24 f9 86 3c 26 ed 96 bd ff bc 62 bd 58 8a 09 3d
       0.016476221 -0.07369451 -0.055356022 0.0335792
000040 c8 1a 07 bd 3d 3e 8e 3d a1 75 46 3c 80 a6 79 bc
       -0.032984525 0.06945465 0.012113006 -0.015237451
000050 79 7c 51 3d 9e 21 3a bc 9d 66 9d bd 58 6f 00 3d
       0.051144097 -0.011360554 -0.076855876 0.031356186
000060 b1 07 b8 3d 80 8f ab 3d e4 3b 18 3b 31 7e a9 bd
       0.08985842 0.0837698 0.0023229057 -0.08276022
000070 e3 b3 61 bd bf 22 a2 bd 8d 09 b4 bd 50 9a 55 3d
       -0.055103194 -0.079167835 -0.08790884 0.052149117
000080 76 a8 b0 3d 01 07 59 3d fd 23 3e bc 94 18 a7 3d
       0.086258814 0.052985195 -0.01160526 0.08158985
000090 7a a3 ad 3d c8 6b 22 3c a7 6b 77 3d 2c fb 68 3d
       0.08478446 0.009913392 0.0604054 0.05688016
0000a0 5b 94 1f bd 6c 34 46 3d e3 c3 76 3d 13 89 8c 3d
       -0.038959842 0.048389837 0.060245406 0.06862082
0000b0 1d bd 08 3d 38 ff 7f bd ae 20 82 3d be a1 9c bd
       0.033383477 -0.062499255 0.063538894 -0.076480374
0000c0 43 39 9c bd a3 41 a9 3d 96 2b 59 3c f7 51 bb 3c
       -0.07628109 0.08264472 0.013255021 0.022866232
0000d0 3e b4 9a bd d0 ec 42 bc c5 80 a7 bc 1d 86 ae 3d
       -0.0755391 -0.011897281 -0.020447144 0.08521674
0000e0 0b 8d 63 3d aa 37 a0 3d b0 bc 93 3d f9 19 da bc
       0.05555443 0.07823117 0.07213724 -0.026623713
0000f0 1a 7a 62 bd f1 cb 31 bd 67 a1 10 bd ec 0f 8e 3d
       -0.055292226 -0.043407384 -0.035310175 0.069366306
000100 9c f8 8e bc 13 c6 ad 3d fb 71 b2 bd f9 a4 a6 3c
       -0.01745253 0.08485045 -0.08713146 0.020342337
000110 b5 53 09 bd 22 dd 10 bd 33 49 08 3d 31 38 4b bd
       -0.033527095 -0.03536714 0.033272933 -0.049614135
000120 23 a5 40 bd e8 6d 17 bd 81 15 ab bd 2b 47 4a 3d
       -0.047032487 -0.03697005 -0.08353711 0.049384277
000130 70 04 7c bd d6 40 22 bd 7f f7 8f bd f9 72 6d bc
       -0.06152767 -0.039612614 -0.07029628 -0.014492744
000140 2a 38 a5 3d 07 14 8a bd 52 63 82 3d e8 1b c7 3c
       0.08067353 -0.06742101 0.063666 0.024305299
000150 b7 b9 1c 3d 8d 4c a1 3d 7b a3 1f bc 8a 7f 55 3d
       0.03826305 0.07875929 -0.009743567 0.052123584
000160 66 f6 8f bc 7d 5b f6 bc 5e 75 55 3d b0 33 74 3d
       -0.017573547 -0.030072922 0.052113883 0.059619606
000170 fe f4 6d bd e7 8a b8 3c 0d f2 91 3d 00 2e 81 3d
       -0.05809497 0.022527171 0.07126246 0.06307602
000180 f1 c7 6e 3d 54 ba a8 3d 3e 28 b9 3d 85 d5 95 bc
       0.058296148 0.08238664 0.09040879 -0.01829029
000190 9c 7b 82 3d 51 9f b4 3d c2 c1 90 3c 2a 67 77 3d
       0.06371233 0.0881945 0.017670516 0.06040112
0001a0 05 8b a0 3d 59 68 27 3d c0 f9 87 3d 33 09 6f bc
       0.07839016 0.040870998 0.06639433 -0.014589596
0001b0 73 48 bf bb 70 b8 9c bd 84 73 48 bd e4 32 49 bd
       -0.005837494 -0.07652366 -0.04893829 -0.0491208
0001c0 3a 33 f3 3c af 82 48 bb 12 9f 5d 3d 67 fa 0a 3b
       0.029687513 -0.0030595472 0.05410678 0.002120638
0001d0 5a fd 95 3c fd f9 a5 bd 91 53 36 3d 6e 96 43 bc
       0.018309284 -0.08104322 0.04451329 -0.011937721
0001e0 1d d8 05 bd 2e 5e ac bd 1b 94 0f bd bb 5a e9 3a
       -0.032676805 -0.08416401 -0.035053354 0.0017803529
0001f0 1d 2a ce 3c 46 d4 c5 bd 10 e2 61 bd 32 29 95 bd
       0.025166566 -0.096596286 -0.05514723 -0.07283248
000200 c6 ae ac 3d 92 9d 4c 3d ee 9f bd bc 8e e5 3c 3d
       0.08431773 0.04995496 -0.02314755 0.046117358
000210 42 ed 97 bd 68 51 b5 bd 05 b2 a0 bd 80 3e 88 3c
       -0.074183 -0.08853418 -0.078464545 0.016631365
000220 35 66 36 bd 8e 22 b4 bc a5 f3 67 bb 73 ba b6 bc
       -0.044531066 -0.021989133 -0.0035393026 -0.022305703
000230 5d 86 87 3c ca 47 9a bc 69 e3 82 3d 44 b3 c0 bd
       0.016543562 -0.01883306 0.06391031 -0.09409192
000240 bb 5b 8f 3d e9 0e 74 3d 66 f7 c2 3c f5 32 0c 3d
       0.06999918 0.059584532 0.02379961 0.034228284
000250 ce 76 00 bd 64 00 a0 3c fe e2 c2 3d fa ee 55 3c
       -0.0313633 0.019531436 0.095159516 0.013057465
000260 82 f9 9e ba a3 fa 8e bd 2b b9 af bd 03 ad 12 3c
       -0.0012128802 -0.06981399 -0.0858024 0.008952382
000270 7f 05 22 bd 57 dd 46 bc 1e df f2 3c 39 b2 b5 3d
       -0.039556023 -0.0121377325 0.029647406 0.08871884
000280 84 be b2 bd 5b d2 b7 3d c3 4f 98 bd af 32 d0 bc
       -0.08727744 0.08975669 -0.07437088 -0.025414793
000290 03 27 91 bd a8 f5 b2 bd ef 15 86 bd 0a 46 86 3d
       -0.07087519 -0.087382615 -0.06547152 0.06556328
0002a0 0f d1 bd 3d 7f 18 29 3d bc b1 6a 3d 3e e6 98 bd
       0.092683904 0.041283127 0.057298407 -0.0746579
0002b0 58 63 a2 3d 7a c9 b0 bd 70 ad 96 3d 46 c7 a2 3d
       0.079291046 -0.086321786 0.07357299 0.07948165
0002c0 c7 13 6d 3b 07 08 1f 3d 72 52 29 3d 9d 55 7f 3d
       0.0036175118 0.038826015 0.04133839 0.062337507
0002d0 89 4e 06 3d 8a 57 30 bd cc 34 33 3c 39 c4 bc bd
       0.03278974 -0.043052234 0.010937881 -0.09217114
0002e0 2e 47 8f 3d 49 b8 c2 bc f6 1a 93 bc 6a 2f 98 bd
       0.06995998 -0.023769515 -0.017957192 -0.074309185
0002f0 62 ff 1b 3c 7b 4a 9f bd f7 9b 16 bd 40 0a b6 bc
       0.009521337 -0.07777878 -0.036769833 -0.022221684
000300 f7 8c 84 bd 34 67 b6 3c 26 64 52 3b d5 96 c6 bc
       -0.064721994 0.022266008 0.003210315 -0.024241844
000310 ad d5 99 3d c1 ec 9b bd 6e 6c 45 bd 78 60 4b 3c
       0.075114585 -0.076135166 -0.04819911 0.012413137
000320 b6 04 0f bd 22 bb 38 bd 86 9b 54 3b e0 3a c3 bd
       -0.034916602 -0.04510034 0.0032441332 -0.09532714
000330 1b f6 f6 3b 0a 9f a3 bd 84 a1 81 3d bb 22 27 3d
       0.0075366623 -0.07989319 0.06329635 0.040804606
000340 fd 3e b0 bd bf df aa bc ba a3 21 3d 9f 19 72 bd
       -0.08605764 -0.020858644 0.039462782 -0.059106465
000350 99 32 92 3d 26 ba db 3c 8d 9c 4f 3c cc 7c f3 bc
       0.07138557 0.02682216 0.012671602 -0.029722594
000360 c6 ee b3 bc 6b 80 8d bd 2e 77 35 3d c5 eb 4c 3c
       -0.021964442 -0.069092594 0.04430311 0.012507384
000370 91 72 23 bd 7c b4 06 3d 36 0e a5 bd 5d 6d 3c 3d
       -0.03990418 0.032886967 -0.08059351 0.046002734
000380 5d 82 f7 3b 48 11 04 bd 9a 55 b7 bd ac d4 0a ba
       0.0075533823 -0.032243043 -0.08951874 -0.0005295973
000390 e6 34 95 3d 6c f7 a0 bd a8 36 93 bd b8 c1 c9 bc
       0.0728548 -0.07859692 -0.07188159 -0.024628505
0003a0 ad d5 61 3d a0 7a 9e 3d 74 af be bc dd 38 1e bd
       0.055135418 0.077382326 -0.023277022 -0.038628448
0003b0 f9 d3 86 3d 10 ef 54 bd 55 8d 47 bd f1 a0 a5 bd
       0.06583399 -0.0519858 -0.04871877 -0.08087338
0003c0 17 70 8f 3d be 37 a8 3d 5a 92 9c 3d 4a 7e 85 3d
       0.07003801 0.08213757 0.07645102 0.06518228
0003d0 6b 6f bc 3c 48 ee 52 bd 2c 6f a4 3d e2 b2 a6 3d
       0.023002347 -0.051496774 0.08029017 0.08139588
0003e0 05 17 ac bc 9f 30 be 3d 0f 20 a3 3d 42 e7 9f bd
       -0.02100707 0.092866175 0.07965099 -0.07807781
0003f0 07 d6 9f 39 31 14 d6 3c e1 68 a4 3d 36 64 e0 3b
       0.00030486306 0.026132675 0.080278166 0.0068478836

conv_lstm.conv.bias f4 [40]
000000 02 95 dd 3c 26 eb 7f bd 29 cd 87 3d b5 f5 93 3d
       0.027048592 -0.062480114 0.06630928 0.07224599
000010 82 49 9d 3d 83 61 a6 3d 4e 8c 57 bd eb 4d 31 bd
       0.07680036 0.08124068 -0.05262404 -0.0432872
000020 da 76 74 3d 24 05 7e bc e9 c6 a3 bc 9e be 74 bd
       0.05968366 -0.015504155 -0.019992309 -0.0597521
000030 f5 0c 8d 3d 65 09 85 bd 53 95 70 3a 49 90 8b bd
       0.06887237 -0.064959325 0.00091775245 -0.068146296
000040 3f 6c 8c bb d1 dc 82 bd f1 6f ef 3c c5 c0 38 3d
       -0.004285365 -0.06389774 0.029228183 0.045105714
000050 c0 2b bc 3d eb 5e 84 bd 60 87 b7 3d e7 fc 5d bc
       0.09188032 -0.06463417 0.089613676 -0.013549066
000060 c8 57 15 3d ca 48 b4 3d 4f ef a2 bd 0f 94 5f 3d
       0.036460668 0.08802946 -0.07955801 0.05458456
000070 0b 29 69 3c 37 f6 43 3c dd 47 79 bc a2 33 78 bd
       0.014230977 0.011960558 -0.015214887 -0.060596116
000080 0a 00 87 bd 14 97 f7 bb dc 69 7d 3d 3c d3 a6 bd
       -0.06591804 -0.0075558517 0.061868533 -0.081457585
000090 be 2f e0 3b c0 21 d8 bb 07 04 aa bd 25 4b fb 3c
       0.006841629 -0.00659582 -0.083015494 0.03067548

conv1.weight f4 [20, 10, 3, 3]
000000 22 8a 92 3d 49 a9 89 3d e9 b7 9a bd 8a 22 89 3d
       0.07155253 0.06721742 -0.07554609 0.06696041
000010 18 d6 fb bc 61 8d f9 bc fa 46 71 bd 37 80 0b bd
       -0.030741736 -0.030462923 -0.05890558 -0.034057822
000020 7d e2 dc bb 4a 61 d7 bc fe d1 9b bd 92 89 10 bd
       -0.0067408667 -0.026291508 -0.07608412 -0.035287447
000030 4b 46 b1 3d fa aa cf 3d 21 bd 9b 3d f5 ac 07 bd
       0.086559854 0.10140033 0.07604433 -0.03312393
000040 73 ce 87 bc 5a cf 95 bd aa fc 29 3c 1c 15 b7 bd
       -0.016577935 -0.0731494 0.010375181 -0.08939573
000050 a2 2f 32 bd 25 98 50 3d 8f 31 88 bc 6e 35 d7 bc
       -0.043502457 0.050926346 -0.016625194 -0.026270594
000060 64 45 88 bc e2 e2 1f 3c 91 d1 87 bd 88 4d 01 3d
       -0.01663465 0.009758683 -0.066317685 0.03156808
000070 b5 43 1d 3d f8 f5 c1 bb 1a f9 9d 3d 3e 06 93 3d
       0.03839465 -0.0059192143 0.07713528 0.07178925
000080 c1 ba ed bc 9e 62 01 3d 84 2d 52 3d 2a 2b ce bd
       -0.029019715 0.03158819 0.05131294 -0.10066827
000090 d2 a7 d9 bc da 8f cf bc 98 7a 97 bd 11 8d 2f bd
       -0.02656928 -0.025337148 -0.0739643 -0.04285914
0000a0 78 62 1d bd 05 e3 dc bb c7 5d b1 3d cf 71 31 bd
       -0.038423985 -0.00674093 0.08660465 -0.043321427
0000b0 a5 08 90 3d 46 7b a3 bd a5 a4 88 bd 5e 66 b7 bd
       0.07032899 -0.07982497 -0.066720285 -0.08955072
0000c0 f8 0f 83 3d 59 12 48 bb 26 c7 02 3d b5 09 90 3c
       0.0639953 -0.0030528514 0.031928204 0.017582754
0000d0 7e 2f 85 3d b1 c1 c4 3d f6 0a 39 bc 1a 5d 27 bd
       0.06503199 0.09607256 -0.011294117 -0.040860273
0000e0 ad f1 41 bd 88 89 b9 3d 2c ba dd 3d c7 48 ae ba
       -0.04734962 0.09059435 0.10826525 -0.0013296836
0000f0 e8 6f ba 3d dc af fe 3c 8a 13 c7 3d 19 de 27 bb
       0.09103376 0.031089716 0.09720524 -0.0025614558
000100 d4 ac 07 bd ea d9 d9 3c ee d4 3f 3d a4 66 98 3c
       -0.033123806 0.026593167 0.046833925 0.01860363
000110 59 d1 98 3d c8 ae c1 bd 83 98 ad 3d c0 16 83 bd
       0.07461805 -0.09457165 0.08476355 -0.064008236
000120 b6 71 c8 bd 1c c6 69 bd 3e 3a b6 3d a2 c4 5e 3d
       -0.09787314 -0.057073697 0.088978276 0.054386742
000130 90 57 ae bc f4 be b2 3d 27 90 b3 3d c9 d8 da bd
       -0.021281987 0.08727828 0.08767729 -0.1068588
000140 10 0d 36 3c 15 61 d5 3d 2e ff db 3c cd 9d c0 bd
       0.011111513 0.104189076 0.026855078 -0.09405098
000150 b4 91 9a 3d bf 05 d3 3d 95 f5 55 bc 34 30 51 3d
       0.07547322 0.1030383 -0.01305904 0.05107136
000160 31 5d 92 bb 16 76 de bc df eb 99 bd 29 ea 88 bd
       -0.0044666757 -0.027155917 -0.07515692 -0.066852875
000170 fa 2d a3 bc e7 fc 30 bd c3 79 17 bd 97 fd cd 3c
       -0.019919384 -0.043209936 -0.036981355 0.025145335
000180 8d 2e 6f 3c ba 0c 98 3d c3 93 b8 3d 15 53 a6 3d
       0.014598501 0.074243024 0.09012558 0.081213154
000190 2f b8 bc 3d a8 c7 ac 3d f5 03 d4 bd e6 70 65 3d
       0.09214818 0.08436519 -0.10352317 0.05601587
0001a0 9f 2c a2 bc f1 3b b7 bd 6d 32 14 3c 6c b7 9f 3d
       -0.019796668 -0.0894698 0.009045226 0.07798657
0001b0 43 3f 6b bd cd 13 c6 3d 1e 0d c4 bd 09 37 75 3d
       -0.057433378 0.096717454 -0.095728144 0.05986694
0001c0 bf d3 9c 3d 3b ce 78 bc 39 6b 7d bd d5 af b8 bd
       0.07657575 -0.015185888 -0.061869834 -0.09017912
0001d0 a2 a3 33 bc 02 bf a6 3c 76 24 2c bd 92 45 18 3d
       -0.010964306 0.020354751 -0.04202696 0.037175722
0001e0 b8 4a d4 3c 49 a2 04 3d c4 07 06 3d 7f 88 e5 3b
       0.025914535 0.03238133 0.03272225 0.007004797
0001f0 da 6e 6c bd c7 c1 f5 3c c5 9c c6 3d b4 84 89 3d
       -0.057722904 0.029999627 0.0969787 0.06714764
000200 a1 ac 85 3d ef 57 bb bd 1b 4b ea 3c 96 9e 70 3c
       0.06527067 -0.091476314 0.028600266 0.014686247
000210 c8 fa cf bd b8 a5 b1 3d 8a f8 56 bc 3f 5c c3 bd
       -0.101552546 0.086741865 -0.01312078 -0.09539079
000220 fd ae 38 bd ec 1c 17 bd 32 78 12 bd 88 a5 d6 bb
       -0.045088757 -0.036892816 -0.03575916 -0.0065504946
000230 c5 13 fd bc 4c 95 d6 3c b8 d1 af 3d 90 a3 97 bd
       -0.030893216 0.026194237 0.085849226 -0.07404244
000240 c4 d4 58 3d 32 7e 25 bd 77 b1 76 bd 61 b2 4e 3d
       0.052937284 -0.040403552 -0.060227837 0.050463084
000250 09 1f 40 bd c2 1e 07 3d 04 27 cf bd 7a 39 e6 3c
       -0.046904597 0.032988317 -0.101148635 0.028103579
000260 3a b7 36 bd 91 26 6d bd 4f 75 4a bb 41 1c d3 bd
       -0.044608332 -0.057898108 -0.0030892675 -0.103081234
000270 49 f3 0f 3c 16 c6 23 bd 0c 0b 41 3d 61 57 cc bd
       0.008786031 -0.03998383 0.047129676 -0.09977604
000280 92 35 bc bd 1c 7c b9 bd d6 2e a5 3d ff 8e a3 3d
       -0.09189905 -0.09056875 0.08065574 0.07986259
000290 1a 9c 9b bd ce aa d6 3d 74 5e d2 3d 91 a0 ee bc
       -0.075981334 0.10481797 0.10271922 -0.029129298
0002a0 52 97 c3 bc d3 11 91 bd 31 bc 79 3b c4 73 b2 3c
       -0.023875866 -0.07083478 0.0038106556 0.021783717
0002b0 cc e2 bf bd 91 e2 c8 3c 20 54 7d 3d b5 38 af 3d
       -0.0936943 0.024522098 0.061847806 0.08555738
0002c0 80 72 33 3d da 27 b6 bd 2c 24 e5 3c 95 3b c1 bd
       0.043810368 -0.0889432 0.02797135 -0.094351925
0002d0 85 f9 0d bd 5c ce d2 bd 84 a8 65 bd aa ee c9 3d
       -0.03466179 -0.10293266 -0.056068912 0.09859975
0002e0 71 5a b6 3d 93 7a 81 3d 56 80 93 3b dc 02 34 3d
       0.08903969 0.06322207 0.004501383 0.04394804
0002f0 b9 bc e9 bb 05 8e 23 bd 83 d7 4f bd 55 02 30 bd
       -0.007133093 -0.039930362 -0.050742637 -0.042970974
000300 70 b3 87 3d c4 17 9f 3c 5f f0 f1 ba b3 27 b1 ba
       0.06626022 0.019420512 -0.0018458477 -0.001351586
000310 1a d5 28 bd c9 1b c7 bd 7d 92 5d 3d f1 63 b1 bd
       -0.041218854 -0.097220965 0.05409478 -0.086616404
000320 e9 f2 7a 3d f7 17 71 bd 35 13 9b bc c7 62 f7 bc
       0.061266813 -0.058860745 -0.018930057 -0.030198468
000330 92 ee 83 3d 7c b1 4d 3d 7c 8d 87 bd b5 ed ad bd
       0.06441988 0.05021809 -0.06618783 -0.08492605
000340 a4 bd da bc b8 f1 94 3d a1 66 54 3c 45 75 0f 3d
       -0.026701756 0.07272667 0.012963922 0.035023946
000350 a0 db 49 bc e4 92 d7 3d d1 98 53 3d ce 95 c6 3c
       -0.012320429 0.10526064 0.05165941 0.024241354
000360 18 c0 b8 bd 58 02 34 3d 73 0b 94 bd f1 ff ca 3d
       -0.09021014 0.043947548 -0.07228746 0.09912098
000370 8c 27 88 bc 7d 01 14 bd 36 bd cd 3b af c2 c2 bb
       -0.01662042 -0.03613423 0.006278659 -0.0059436182
000380 e7 b7 4b 3d e0 f9 aa 3d 58 fb 1b 3c 51 93 25 bd
       0.04973593 0.08348441 0.009520374 -0.040423695
000390 ea 26 e7 bc 34 e5 0e bd ec 44 9c 3c 6f bf 9a bd
       -0.028216798 -0.034886554 0.019075833 -0.07556044
0003a0 1c dc 95 bd 35 6e b0 3d 5c 2c a1 bd 42 24 9d bc
       -0.07317373 0.0861477 -0.07869789 -0.019182328
0003b0 42 03 bb 3d 89 e2 1a 3d 39 d1 f5 bc 3e 3e 16 bd
       0.09131481 0.037813697 -0.030006992 -0.036680453
0003c0 1e 99 8c 3d 86 25 a9 3d d3 05 9f bd ad 36 bd 3d
       0.06865142 0.0825911 -0.07764783 0.09238944
0003d0 09 81 a4 3d cb cf 27 3d 3e b1 55 3d 07 db d3 bd
       0.08032424 0.04096965 0.052170984 -0.103445105
0003e0 a4 10 a6 bd 5c 19 cd bd 05 45 9b bd 84 52 87 3d
       -0.08108643 -0.100146025 -0.07581524 0.066075355
0003f0 31 20 0e 3d a3 17 4f bc 6f eb 2e 3d 6d 1a d0 bd
       0.03469867 -0.012639913 0.042704996 -0.1016129

conv1.bias f4 [20]
000000 25 c4 54 bb af 11 13 bd 1b c9 bb bd f4 8a fa 3a
       -0.0032465544 -0.035905536 -0.09169217 0.0019114898
000010 88 db a9 bc 83 c5 bf 3d 2e 0d e2 3c 65 af c8 3d
       -0.020734563 0.09363844 0.027594175 0.09799079
000020 e5 b0 8e bd c1 45 bf bc 3b d7 d6 bd 36 e7 88 3d
       -0.06967334 -0.023348691 -0.10490271 0.06684725
000030 5b bd 34 bd 1a b7 44 bd 75 a5 7f 3d c4 ba 93 bd
       -0.044125896 -0.04802618 0.06241365 -0.07213357
000040 52 3d 6a bd 94 68 83 3d 3b 53 56 bd f7 b9 9a bd
       -0.057187386 0.06416431 -0.05232547 -0.07555001

conv2.weight f4 [40, 20, 3, 3]
000000 77 dd 19 3c f8 21 b2 bc b0 0c 01 3d cc f9 60 bb
       0.00939118 -0.021744713 0.03150624 -0.0034328578
000010 78 b7 c1 3c 0e 70 48 3d 63 a6 5b bd 12 e8 35 bc
       0.023647055 0.04893499 -0.053625476 -0.011102693
000020 77 66 77 bd 39 be 73 bc 20 ca 70 3d 6b 5d 9c 3c
       -0.060400452 -0.014876896 0.05878651 0.019087514
000030 55 b1 28 3d b0 10 a8 bc 97 3e 81 bd 80 0e b3 3c
       0.041184742 -0.02051577 -0.06310766 0.0218575
000040 b4 67 7b 3c fd 87 92 3d c2 63 c1 bc b7 e5 53 3d
       0.015344549 0.07154844 -0.023607139 0.051732745
000050 22 aa 82 bd 64 8b 2d 3a 3c 83 1f 3d d1 6a 30 3d
       -0.063801065 0.0006620197 0.038943514 0.043070618
000060 3a 0b 6a 3d 61 4f 49 bd d3 45 a4 bc cd d7 77 bc
       0.057139613 -0.049147967 -0.020052826 -0.0151271345
000070 e2 eb 7e 3d 9b 24 64 39 a9 78 2b 3d 86 eb 15 3d
       0.062236674 0.00021757411 0.041863117 0.036601566
000080 91 2a cd bc 7e 70 88 bd 98 68 24 bd 65 41 7d 3d
       -0.025044711 -0.06662081 -0.04013881 0.061829943
000090 2f 6c 4d bc d8 4b dd bc c9 96 46 bd d1 03 8f bd
       -0.012538 -0.027013704 -0.048483644 -0.0698315
0000a0 b4 93 84 3d 83 04 29 3d 54 c2 34 3d 7b 31 92 3c
       0.06473485 0.04126407 0.04413064 0.01784586
0000b0 29 57 83 bd 5f 24 06 3d 98 6c 88 bd b8 c1 3e 3d
       -0.06413109 0.03274953 -0.066613376 0.046571463
0000c0 e7 9a 25 bb 2b 2f 93 bd 24 ad 01 bd a0 af 67 3d
       -0.002526933 -0.07186731 -0.03165926 0.056563973
0000d0 aa ce 3e bd b2 ed bf bc bd 2a 1e 3d 89 07 e3 bc
       -0.04658381 -0.023428772 0.038614977 -0.027713554
0000e0 ff 6e 32 3d ee 48 87 3d ee 21 40 bd 79 55 05 3d
       0.043562885 0.06605707 -0.046907358 0.032552216
0000f0 37 f4 09 bd 14 0a a9 3c 51 57 f3 3c bb bd 44 3d
       -0.033680167 0.020634688 0.029704722 0.048032504
000100 4c b1 27 bc fa 8a 82 3c 16 5c c8 3c 13 c6 84 bd
       -0.010235142 0.01593541 0.024457972 -0.06483092
000110 aa 91 8c 3c d5 e1 8a bc f6 c7 11 3d 51 3a 85 bc
       0.017159302 -0.016953388 0.03559109 -0.016263159
000120 ac 8f 8b bd 9b 81 b0 bc ca a5 52 bd ba 91 e4 ba
       -0.068145126 -0.021546176 -0.05142764 -0.001743845
000130 0c 4e 09 3d 11 57 54 bd 05 5c 11 bd 7a 21 13 bd
       0.033521697 -0.051840845 -0.035488147 -0.035920598
000140 ec b1 49 bd 13 12 4c 3d 29 81 e9 bc 32 4e c4 3c
       -0.049241945 0.049821924 -0.028503971 0.023963068
000150 23 23 74 bd c6 db 89 bd 6a fe bf bb 50 75 80 bc
       -0.05960382 -0.067313716 -0.005859186 -0.015680939
000160 a4 0c 17 3d 8d fd c0 3c e7 b0 46 bd dc 75 d4 bc
       0.03687729 0.023558402 -0.04850855 -0.025935106
000170 fc 4d 6f bd f3 1b 82 3b 46 9f a3 3c 0b ed 33 3d
       -0.05842398 0.003970617 0.019973408 0.043927234
000180 b3 44 4e bd 7c f8 27 ba 57 17 2d 3d 6b 1a 5c 3d
       -0.050358485 -0.00064075715 0.042258587 0.05373613
000190 97 e2 6d bd 6e ad 8d 3d eb 58 43 bd 4f e5 83 bd
       -0.05807742 0.06917845 -0.04769222 -0.064402215
0001a0 a2 10 16 bd 14 6f 86 bd 42 a6 1f bd ab dd 86 3c
       -0.036636956 -0.06564155 -0.038976915 0.016463121
0001b0 c6 8e 8c 3d a6 4c 36 3d ac e2 f3 3c c3 84 61 bd
       0.06863169 0.04450669 0.029771172 -0.055058252
0001c0 c7 4f ec bc dd 3c fb 3c 19 69 14 bd 31 7f be bc
       -0.028846635 0.03066867 -0.03623304 -0.023254009
0001d0 56 f4 85 bd 38 2f 36 3d 99 4d 35 3d 8f d5 6c 3d
       -0.06540744 0.044478625 0.044263456 0.057820853
0001e0 a6 c2 ac bc 9d 9d 5f bc a5 45 7e 3d 02 aa 27 bd
       -0.02108891 -0.013648418 0.062078137 -0.040933616
0001f0 80 f7 24 3d 00 85 94 bd d2 28 32 bd 1c 85 a5 bc
       0.040275097 -0.0725193 -0.04349596 -0.020205073
000200 49 89 8e 3b 1b f7 4b 3d ce 4f 2b 3d e5 ab 79 3d
       0.0043498618 0.049796205 0.041824155 0.060954947
000210 50 f1 64 3a 76 d9 59 3c b8 14 e2 bc 27 c8 01 3d
       0.0008733468 0.013296476 -0.02759777 0.03168502
000220 76 24 86 3d 0e 91 bc bc 79 b5 e3 bc 55 c1 86 3d
       0.06549923 -0.023018386 -0.027796494 0.06579844
000230 ba d6 85 3d a0 a9 b6 3b 18 74 49 3d f3 fb 18 bc
       0.065350965 0.00557442 0.04918298 -0.009337413
000240 35 a6 8c 3c f7 be 34 3d 77 85 a4 bc b8 e7 01 3d
       0.017169097 0.04412743 -0.020083172 0.031715125
000250 f1 64 34 3d 0a 61 15 3d c1 3a 26 bd db 2c 67 bc
       0.044041578 0.036469497 -0.040583376 -0.0141098155
000260 fc 9f 7b 3d 6b 86 38 bd 80 3a 75 3d 3d 2c 39 bd
       0.06143187 -0.045050066 0.059870243 -0.045208205
000270 f6 b6 7f bd 97 aa ff 3c f0 02 65 3d 38 b0 82 bd
       -0.062430345 0.031209273 0.055911005 -0.06381267
000280 08 12 9f 3b 94 f1 5b 3d e8 96 55 bd 76 5f 95 3d
       0.0048544444 0.053697184 -0.05214587 0.07293598
000290 59 62 03 3d 7b d6 6b bd 07 28 74 bc 77 a0 8d bd
       0.032076214 -0.05757759 -0.014902121 -0.06915372
0002a0 8b e2 5f bd b1 13 70 3d 40 8b 5f bd 16 d4 aa 3c
       -0.054659408 0.05861253 -0.05457616 0.020853084
0002b0 cc 87 b2 3c cc e0 2f bd 11 5e b3 3c 63 9f 46 bd
       0.021793269 -0.042938992 0.02189544 -0.048491847
0002c0 df ae 29 3d ef b5 79 bd f8 07 80 bc c3 dc 21 3d
       0.041426536 -0.06096452 -0.0156288 0.039517175
0002d0 26 79 94 3d 86 5e dc bc fa 2b 28 bd ce 45 6a bc
       0.0724967 -0.026900541 -0.041057564 -0.014298869
0002e0 33 3c 8a bc 32 8d 6d bd 70 5f d2 bc 22 e6 47 bd
       -0.016874408 -0.057995982 -0.025680274 -0.048803456
0002f0 c1 02 25 3d 2b 8d 97 3d 3e 74 1f bd 5f d3 2c 3d
       0.04028583 0.073999725 -0.038929217 0.042193767
000300 1b ab 6a bd c0 dc 90 3d 0a e7 63 3c 87 df 87 3c
       -0.057292085 0.07073355 0.0139100645 0.016586078
000310 5e d0 01 3c 06 b1 0e 3d a8 62 3b 3d eb e8 1a 3d
       0.007923214 0.03483679 0.045748383 0.037819784
000320 8d 25 95 3d 5a ba 82 bd d2 f5 55 3d eb bc 92 bd
       0.07282553 -0.063832 0.052236386 -0.071649395
000330 7c 81 f7 bc 65 7e 9d 3c 93 07 21 3d 9e fe 3e bd
       -0.03021311 0.019225309 0.039313864 -0.04662954
000340 ac af 94 3d a6 f7 25 3d 53 cd 36 3b 09 62 bd 3c
       0.07260069 0.04051938 0.002789338 0.023118036
000350 28 11 80 3d 62 55 bd bb 5e fc ab bc 9d 96 84 bd
       0.06253272 -0.0057780007 -0.020994361 -0.0647404
000360 a5 c2 5c bd 7a c7 db 3c ff 53 dc 3b 46 3a 96 3d
       -0.053896565 0.026828516 0.0067238803 0.073353335
000370 5c 41 14 3d 31 0c 10 bc 81 61 b2 bc 3b 96 fb 3c
       0.036195144 -0.008791969 -0.02177501 0.030711284
000380 70 59 dc bb 5d cd ac bc b8 35 7c ba 91 7e d3 3c
       -0.006724529 -0.021094019 -0.0009621042 0.025817188
000390 09 15 b6 bc bc 44 eb 3c 48 41 6d 3d 43 c0 1c 3d
       -0.022226827 0.028719299 0.057923585 0.038269293
0003a0 8c 99 3e bd f3 77 06 3d da b4 cb 3c e4 25 44 3b
       -0.046533152 0.032829236 0.02486651 0.002992981
0003b0 79 3c 0c bd ad a9 2a 3c fd 5f 1b 3d 45 f9 42 bd
       -0.03423736 0.01041643 0.03793334 -0.047601003
0003c0 36 a4 d0 3a cb f9 2b bc 35 77 9c 3c 34 6a b2 bc
       0.0015918079 -0.010496567 0.019099811 -0.021779157
0003d0 b4 7d 36 3d c3 4a 65 bd 2d 58 19 bd da bd ad bc
       0.044553474 -0.0559795 -0.037437607 -0.021208692
0003e0 11 00 bc bc ca 4f 88 bd 47 80 80 bd 70 8e 32 bd
       -0.02294925 -0.066558436 -0.06274467 -0.04359287
0003f0 28 35 28 3c 6a 59 09 3d 32 3d 79 bc 26 a3 89 3d
       0.01026658 0.033532538 -0.015212344 0.06720571

conv2.bias f4 [40]
000000 67 dd de 3c c7 0d 83 bc 79 b6 36 3d 65 58 f5 3b
       0.027205182 -0.01599778 0.044607613 0.007487344
000010 46 33 76 3d 40 4b d7 bc 88 bf de 3c c8 33 8c 3d
       0.060107492 -0.026281 0.027190939 0.06845814
000020 84 32 27 3a e2 f9 70 bd 2a 79 17 bd 00 35 dd bc
       0.0006378072 -0.058832057 -0.036980785 -0.027002811
000030 70 98 34 bd 41 25 11 3c 08 b2 81 bc 3c 9f 01 3c
       -0.04409069 0.00885898 -0.015831962 0.0079115
000040 d5 09 b4 3c 11 1d 88 bd 7a 17 50 3d 5c af f8 3c
       0.021977345 -0.06646169 0.05080364 0.030357055
000050 26 c8 97 bd 38 bd 34 3d ef a8 66 3d 10 37 84 3d
       -0.07411222 0.044125766 0.05631345 0.06455815
000060 a4 f6 56 bd 72 b3 17 3d cb 54 9e bc ec 88 5a 3a
       -0.05248131 0.037036367 -0.019327542 0.0008336443
000070 8e b6 5a bd c3 41 40 3d da 30 8d bd 1c 8c 82 bd
       -0.053396754 0.046937715 -0.06894083 -0.0637438
000080 de 2c 39 3c 81 0f 41 3c bb 7e 65 bc e3 c6 31 bd
       0.011302201 0.011783482 -0.014007266 -0.043402564
000090 24 3a 8d 3d b1 4d 0d bd 30 70 c4 3c c9 3f 8c bd
       0.06895855 -0.03449792 0.023979276 -0.068481036

fc1.weight f4 [1, 6760]
000000 fb f9 4c 3c 10 d1 5a 3b 4d 50 ad 39 b5 47 91 39
       0.012510772 0.003338877 0.0003305696 0.0002770998
000010 bc 33 04 bc b9 99 b5 bb df d0 91 ba 3a 01 3b bb
       -0.008068975 -0.005542007 -0.001112487 -0.0028534667
000020 fc 1b de bb b9 35 a9 3b 93 9c ed bb e1 57 83 3a
       -0.0067782383 0.005163875 -0.007251331 0.0010020697
000030 3d e1 b7 bb df 83 0c 3c 0d 39 ab 3b f9 8d 15 bc
       -0.0056115673 0.008576362 0.005225307 -0.009128087
000040 b4 a7 23 3c 16 9f 17 3c e6 44 14 3c 00 99 d0 39
       0.009988714 0.009254238 0.00904963 0.00039786845
000050 2b 0d 41 ba 4f 3b 30 3c b3 98 27 3c 4b ee ca b9
       -0.0007364328 0.010756328 0.010229277 -0.00038705984
000060 85 80 b6 3a 99 e6 54 3c 66 14 46 3c 41 0d 71 3b
       0.00139238 0.012994432 0.012089824 0.0036781582
000070 ef 93 00 3c 91 9d b3 3b 67 60 05 3c e1 33 44 3c
       0.00784777 0.00548143 0.00814066 0.0119752595
000080 a3 7f d9 3b ec 2c e0 3b 93 ae 1f bb a2 6e a9 bb
       0.00663753 0.0068412926 -0.002436553 -0.005170659
000090 a6 2e 9a bb 95 a2 fc 3b 57 c9 05 3c b2 7f fe 3b
       -0.004705268 0.007709811 0.008165679 0.0077666873
0000a0 a7 f9 2b 3c c7 b1 24 3c 98 d2 02 3c 20 3b 08 bc
       0.0104965335 0.010052151 0.00798478 -0.008314878
0000b0 9c 92 24 3c 32 7e 68 3c 0f eb 59 3c 46 e1 77 3c
       0.01004472 0.014190244 0.013300671 0.015129393
0000c0 b4 10 6c 3b 77 07 39 3b ea 5f c2 bb 89 17 0b bc
       0.0036020698 0.002823321 -0.005931844 -0.008489498
0000d0 11 85 ca bb d8 00 aa bb 19 4b 77 3c 25 b9 e9 bb
       -0.0061804135 -0.005188089 0.015093588 -0.0071326667
0000e0 84 8c fc bb b2 f7 1d 3c 4f a3 fc 3a a6 c8 8e 3b
       -0.0077071805 0.009641575 0.0019274744 0.0043574153
0000f0 e0 6d ef 3a b9 66 32 bb 1f 72 b4 b9 0a 19 d2 bb
       0.0018266998 -0.0027221872 -0.00034417302 -0.0064116763
000100 64 f7 aa bb 8e a5 ef 3b 8c e0 42 bb 98 a5 b3 3b
       -0.0052174795 0.007313437 -0.002973589 0.005482387
000110 de 4f 10 3c 3e d4 01 bc c3 39 29 3c 1a 47 be ba
       0.008808104 -0.007924138 0.010328713 -0.001451704
000120 d6 39 51 bb d3 ba 41 3c c0 da b9 3b 73 05 b9 3b
       -0.0031925342 0.0118243275 0.005671829 0.0056464016
000130 1d 6f a8 bb fd d8 9a bb 19 b0 ba 3b 6a 74 45 3c
       -0.005140199 -0.004725574 0.005697262 0.012051681
000140 dc 6c 6f 3b 92 81 75 bb 44 a9 5d 3c 17 a3 45 3c
       0.003653339 -0.0037461263 0.013529126 0.012062809
000150 b4 fb 92 3b 74 9d 2b 3c 68 a6 4a 3c 3a 09 cf 3b
       0.0044855718 0.0104745515 0.012368776 0.0063182386
000160 e2 cb 09 bc e0 35 24 3c e0 72 40 bb 68 81 6d 3c
       -0.008410426 0.01002261 -0.0029365346 0.014496185
000170 25 95 b2 bb 35 00 51 3c 5b fe 8c bb 82 ef 2f 3b
       -0.0054499083 0.012756397 -0.0043027825 0.0026845639
000180 d3 f5 96 bb 4c cd ff bb 80 56 b3 bb 8e 28 45 ba
       -0.0046069412 -0.0078064557 -0.005472958 -0.0007520997
000190 44 3c e0 bb b9 a5 75 bb 03 80 62 bb 50 b0 49 ba
       -0.0068431217 -0.0037482812 -0.0034561164 -0.0007693814
0001a0 79 7e 6a 3c 22 16 b5 3b 83 f7 12 bc 6f 7d 52 3c
       0.01431238 0.00552632 -0.008970144 0.0128472885
0001b0 8d 82 63 3c 0b 74 0e bc 25 3b dd 3b 80 ee 5c bb
       0.013886106 -0.008694659 0.0067514353 -0.0033711493
0001c0 a6 92 5f 3c 4a e4 6d 3c 57 f9 0f bc 86 7d 2b 3c
       0.013645804 0.01451976 -0.008787475 0.010466939
0001d0 61 a8 d9 bb db 93 02 3c 09 6d 9e 3b 09 a3 15 3b
       -0.006642387 0.007969822 0.0048347753 0.0022832772
0001e0 a6 1e 2d bb 66 b0 05 bc e3 af 43 3b dd f3 0b bc
       -0.0026415973 -0.008159732 0.0029859475 -0.008542028
0001f0 7a 47 f5 3b 06 ab 18 bc 6e 43 22 3c 86 1f 04 3c
       0.0074853273 -0.009318119 0.009903772 0.008064156
000200 c8 7e 00 3c 61 cc 2b 3c 0f 98 9f 3b 6f b5 5f 3c
       0.007842727 0.010485739 0.0048704217 0.013654097
000210 39 e2 1c 3c ad 72 60 3c 91 9c 4a 3c 52 bf b0 3b
       0.00957542 0.013699216 0.01236643 0.005393901
000220 9a db e0 3a ed 43 df 3b a9 8f 56 3a 36 cc 01 3c
       0.001715529 0.0068135173 0.0008184859 0.007922223
000230 63 83 19 bc 56 64 38 3c db 60 06 3c 2e 29 da 3b
       -0.009369704 0.011254391 0.008201803 0.006657741
000240 83 72 22 3c 3f c2 81 3a f3 e5 d9 3a f3 dd 18 ba
       0.009914997 0.0009899809 0.0016624316 -0.0005831413
000250 cf 15 3e 3b 09 7f ca bb bb ee 1d 3c 50 28 02 bc
       0.0029004698 -0.0061796946 0.009639437 -0.007944182
000260 b6 35 2f 3c 59 74 09 3c ae 23 1a bb 1d 01 07 3b
       0.010693958 0.008389556 -0.0023519802 0.0020600029
000270 da 35 eb 3a d7 5b 55 3c 2d 96 4a 3b 59 a8 e4 b8
       0.0017945126 0.013022385 0.0030912266 -0.000109032444
000280 a1 34 3c 3b 79 30 97 3b 0e da 92 ba 30 10 af 3a
       0.0028717893 0.0046139327 -0.0011203901 0.0013356265
000290 c9 b9 a6 3b 4b fd 15 bb 58 ce ff 3b 4a f7 b7 3b
       0.0050880653 -0.002288657 0.0078065805 0.005614196
0002a0 dc 64 c2 bb 66 bd b6 bb 17 0c 22 3c cf 76 66 bb
       -0.0059324335 -0.0055767773 0.009890578 -0.003516603
0002b0 8b d0 23 3c c7 83 22 3b 5c 91 bc 3b d6 e8 a0 bb
       0.009998451 0.0024797784 0.005754633 -0.0049105687
0002c0 dc 93 e0 ba 93 3f 8e 3a 8f 8f 7e 3b b9 31 24 bb
       -0.0017133909 0.0010852687 0.0038842892 -0.002505405
0002d0 66 7a a9 3a 1c 96 2c bc 1e b2 62 3a 9a b8 a0 bb
       0.0012930154 -0.010533836 0.00086477573 -0.0049048187
0002e0 89 84 72 3b 1d d7 43 bc e4 4e 14 bc b7 9a 80 3b
       0.0037005267 -0.0119531425 -0.009052012 0.0039246934
0002f0 38 af f7 bb 5c b8 39 3c 11 84 1f bc 37 e2 31 bc
       -0.0075587295 0.011335459 -0.009736077 -0.0108571565
000300 c9 dc 86 3b c4 34 93 bb 57 d7 32 3c c2 ce cd 3b
       0.004115675 -0.004492374 0.010915599 0.006280751
000310 4d e6 df 3b 1b 1b 21 37 54 46 35 3b 08 be 0c bc
       0.006832874 9.602659e-06 0.0027660327 -0.008590229
000320 eb fc 90 3a be 32 37 3c 6f 39 47 bc 02 0c 4d 3b
       0.0011061704 0.0111815315 -0.012159689 0.0031287675
000330 4e 97 d6 3b 26 be 28 bc c8 e2 12 3c 68 32 e5 ba
       0.0065487986 -0.010299241 0.008965202 -0.0017486336
000340 22 15 40 3c ef 45 28 bb c2 80 39 3c 56 6a 0a 3c
       0.011723788 -0.002567645 0.011322202 0.008448204
000350 5e f5 3f 3c 03 fd 02 3b 04 a1 b3 ba f9 09 38 3b
       0.011716215 0.0019987233 -0.0013704603 0.0028082116
000360 66 74 c5 bb 92 4c 29 bc 48 09 e7 3b f6 74 1a 3c
       -0.0060258387 -0.010333197 0.007050667 0.0094273
000370 21 a1 c9 3b ff ff a9 3a 05 c2 57 bb 0d 3c bd 3a
       0.0061532413 0.001296997 -0.003292204 0.0014437452
000380 39 35 e8 bb 64 77 83 3a 54 f2 0e 3c 41 76 73 ba
       -0.0070864228 0.0010030088 0.008724768 -0.00092873356
000390 f9 db 27 bb e0 a1 2c 3b 28 f5 eb 3b 2f f2 c6 ba
       -0.0025613292 0.0026341602 0.0072008558 -0.0015178378
0003a0 08 dd 2d 3c a3 cc 37 3c ad c1 43 3c ab 6b 34 bb
       0.01061178 0.011218223 0.011948031 -0.0027529995
0003b0 3f 76 d7 3a 1b ce fa 3b 4b 6b bb 3a 81 4e 2f bc
       0.0016438438 0.007653964 0.0014298944 -0.010699869
0003c0 69 54 94 3b 9f f2 bd bb ae 62 3b bc 6e 59 fb bb
       0.004526664 -0.005796745 -0.011437101 -0.007670573
0003d0 08 03 25 3c c8 8f b9 3a 84 0f 41 bc 93 97 b4 bb
       0.0100715235 0.001415723 -0.011783484 -0.005511233
0003e0 54 43 aa 3a 9f 64 be 3a a8 63 07 3c 9a 56 07 bc
       0.0012990036 0.0014525837 0.008263506 -0.0082603935
0003f0 cc 84 30 3c f2 6d 01 3c 0b fb f4 3b 51 f5 fc bb
       0.010773849 0.007899748 0.0074762157 -0.0077196737
