ConvLSTM/Original/0.73_59_A_S.pt (torch, 84919 bytes, 7 tensors)

conv_lstm.conv.weight f4 [40, 13, 3, 3]
-0.071493536 0.08685771 -0.07347451 0.083910964 0.06785564 -0.0019055743 0.052156895 -0.022477804
-0.031791028 0.056935128 -0.052784067 -0.022139566 -0.005965661 -0.04375708 0.06332092 0.07088424
-0.013272706 0.05716917 0.060497705 -0.02105068 -0.02911433 -0.0035051692 0.074232474 0.012562069
-0.04822668 0.06463524 0.048063084 -0.08056694 -0.02342403 -0.020467494 -0.07392709 -0.09091529
-0.018623035 -0.088341504 -0.042992793 0.020226026 0.058175255 -0.068542786 0.022118596 -0.056400854
-0.051144533 0.022296665 -0.0785151 0.04298841 -0.0011269541 -0.010552061 0.03471867 -0.03657198
0.045347705 -0.035793852 0.061113432 -0.08643927 0.02893611 0.0069066607 0.014906197 0.012868781
0.013849076 0.07082836 -0.063694015 0.040025197 0.041675024 -0.065007076 -0.049060035 0.08942007
0.05831925 0.010089462 0.0644466 -0.07178168 0.062068675 -0.07620375 0.024518574 -0.046421375
-0.019111602 0.05490039 -0.056155425 0.080872335 0.070334084 -0.038244303 0.09468381 -0.0061171753
0.09007901 0.06755039 0.037285168 -0.09314591 -0.08945223 -0.07360085 -0.024418483 0.04297213
0.080872096 -0.075048916 -0.04186654 0.019041201 0.009045437 0.06621591 -0.09570418 0.023650242
0.06611341 -0.013379912 -0.075533524 -0.029942362 -0.010499026 0.04917918 -0.030561961 0.06254271
0.045534197 0.030371247 -0.031245777 -0.070130214 0.05804538 -0.07354298 0.059956636 0.07356856
-0.018743057 -0.031245228 0.021526456 -0.07482526 0.037931554 -0.028942937 -0.038196377 -0.067565426
0.08656214 0.043026663 -0.07895796 -0.07202172 -0.026609 -0.01656901 0.02311216 0.06724793
-0.07617519 -0.06321147 0.0406581 -0.07738761 -0.070050776 0.010926057 0.02688451 0.049377907
-0.06320695 0.06752068 0.0013022562 0.03260729 0.08678607 0.039642498 0.082245514 0.05608478
-0.0843482 -0.07385455 0.036533725 -0.012892988 -0.005997475 -0.044616863 -0.016211234 0.09603459
-0.03517637 0.03995121 -0.04618998 -0.065924525 0.0125624025 -0.055831425 0.026118932 -0.07696246
-0.026922856 -0.043288622 0.054174893 0.02796875 0.03148947 -0.032245573 0.07087576 0.060577214
-0.04680091 -0.008893507 -0.02737588 0.034261968 -0.020874005 0.05660457 -0.0059271744 -0.081900895
0.04353999 -0.04688726 0.032650106 0.066669345 -0.0076961042 -0.039349217 -0.039308377 -0.0019589113
-0.0063408283 0.019443203 0.0753017 0.053558476 -0.01492588 0.029115308 0.08534641 -0.08839614
0.033473726 -0.0546993 -0.08765645 0.008783858 0.06744027 -0.08839347 -0.079529785 0.09101177
0.01621903 0.09540609 0.07700111 0.028558914 -0.0844977 0.0829166 -0.06632869 0.019948535
0.040221646 0.05217174 0.05462019 0.07540978 -0.023461485 0.08953715 0.04172986 -0.023366336
-0.08479005 -0.0064674625 0.0133029595 0.024256025 -0.017984863 -0.010877645 0.02846527 -0.044702213
-0.06762908 -0.0025713511 0.0794923 -0.05999184 0.047757 0.0014325898 0.06840711 -0.04494761
-0.03954432 0.072696894 -0.032947443 -0.043065958 -0.045515593 0.068033874 0.015989669 0.02440211
0.0067930394 0.043273576 0.050554637 0.08911023 0.0034070706 -0.05681564 0.04584226 0.026830738
-0.039847735 0.07714722 0.002137933 -0.02384783 0.010618854 -0.04528106 0.006527449 -0.06821037
00000000: 346b 92bd 74e2 b13d ce79 96bd 83d9 ab3d
00000010: e6f7 8a3d 77c4 f9ba 78a2 553d 5f23 b8bc
00000020: 4f37 02bd cf34 693d 1b34 58bd 095e b5bc
00000030: 977b c3bb a03a 33bd 66ae 813d c22b 913d
00000040: c475 59bc 382a 6a3d 71cc 773d 7a72 acbc
00000050: 2d81 eebc fbb6 65bb 3207 983d 23d1 4d3c
00000060: 5789 45bd 7b5f 843d ccdd 443d 4800 a5bd
00000070: c0e3 bfbc 72ab a7bc 1667 97bd cc31 babd
00000080: 568f 98bc 64ec b4bd 3619 30bd 0db1 a53c
00000090: 2d49 6e3d 2960 8cbd 0f32 b53c 9504 67bd
000000a0: ee7c 51bd 7fa7 b63c 86cc a0bd 9d14 303d
000000b0: 4eb6 93ba 8de2 2cbc 2a35 0e3d 80cc 15bd
000000c0: 84be 393d 939c 12bd 1452 7a3d 1207 b1bd
000000d0: 6c0b ed3c 4551 e23b 1f39 743c 94d7 523c
000000e0: 3ce7 623c 760e 913d 0272 82bd 76f1 233d
000000f0: 6eb3 2a3d 6e22 85bd 2df3 48bd df21 b73d
00000100: 2ae0 6e3d 454e 253c 94fc 833d 4602 93bd
00000110: b93b 7e3d b610 9cbd 2ddb c83c 5724 3ebd
00000120: ef8f 9cbc 3bdf 603d 3b03 66bd 65a0 a53d
00000130: 510b 903d 0fa6 1cbd 96e9 c13d 9672 c8bb
00000140: 587b b83d dc57 8a3d 55b8 183d 48c3 bebd
00000150: bb32 b7bd 0bbc 96bd 4509 c8bc 8b03 303d
00000160: 45a0 a53d 3fb3 99bd 407c 2bbd 4bfc 9b3c
00000170: 5033 143c 359c 873d 8e00 c4bd 27be c13c
00000180: 7866 873d 6b37 5bbc 52b1 9abd af49 f5bc
00000190: 1b04 2cbc 1c70 493d 145d fabc 6416 803d
000001a0: 1182 3a3d 1fcd f83c 25f7 ffbc 6ea0 8fbd
000001b0: fec0 6d3d b49d 96bd 1795 753d 1dab 963d
000001c0: 0a8b 99bc fef5 ffbc 4058 b03c fc3d 99bd
000001d0: 1e5e 1b3d bd19 edbc ce73 1cbd be5f 8abd
000001e0: 7e47 b13d ba3c 303d b6b4 a1bd 2080 93bd
000001f0: 1efb d9bc bcbb 87bc b655 bd3c 48b9 893d
00000200: bd01 9cbd 0475 81bd 1c89 263d 657d 9ebd
00000210: c876 8fbd 3403 333c e73c dc3c 7d40 4a3d
00000220: a572 81bd 4848 8a3d 78b0 aa3a 398f 053d
00000230: e5bc b13d 2c60 223d 5670 a83d 27b9 653d
00000240: c0be acbd 0e41 97bd 63a4 153d 1c3d 53bc
00000250: 7786 c4bb 2cc0 36bd 6ccd 84bc c8ad c43d
00000260: 1915 10bd e1a3 233d b431 3dbd 7003 87bd
00000270: 89d2 4d3c 7eaf 64bd 5ff7 d53c 7f9e 9dbd
00000280: 528d dcbc 694f 31bd 7ee6 5d3d b81e e53c
00000290: 1afb 003d ef13 04bd 4f27 913d d01f 783d
000002a0: 50b2 3fbd 12b6 11bc 6243 e0bc 4756 0c3d
000002b0: f6ff aabc 32da 673d be38 c2bb a8bb a7bd
000002c0: fd56 323d db0c 40bd 1ebc 053d f089 883d
000002d0: 9a2f fcbb a52c 21bd d201 21bd 1461 00bb
000002e0: b9c6 cfbb 5a47 9f3c c737 9a3d 2260 5b3d
000002f0: ae8b 74bc 3a83 ee3c 19ca ae3d 0909 b5bd
00000300: bf1b 093d 600c 60bd 3a85 b3bd 2cea 0f3c
00000310: 201e 8a3d a307 b5bd 83e0 a2bd 6164 ba3d
00000320: c5dd 843c 4564 c33d c2b2 9d3d 62f4 e93c
00000330: 210d adbd 2ed0 a93d 56d7 87bd 1c6b a33c
00000340: 74bf 243d 09b2 553d 6cb9 5f3d 7170 9a3d
00000350: 4d32 c0bc 415f b73d eeec 2a3d c26a bfbc
00000360: 68a6 adbd 02ed d3bb a8f4 593c 92b4 c63c
00000370: fe54 93bc 2638 32bc ff2f e93c ab19 37bd
00000380: 1d81 8abd 1d84 28bb dccc a23d 01ba 75bd
00000390: d89c 433d bdc5 bb3a 0719 8c3d fc1a 38bd
000003a0: 3af9 21bd 1ce2 943d e6f3 06bd ee65 30bd
000003b0: 8f6e 3abd 5855 8b3d c4fc 823c efe6 c73c
000003c0: 2598 de3b a23f 313d 6112 4f3d 6d7f b63d
000003d0: 2949 5f3b 84b7 68bd 18c5 3b3d 23cc db3c
000003e0: 6137 23bd 5dff 9d3d 901c 0c3b 865c c3bc
000003f0: b4fa 2d3c a278 39bd 36e4 d53b e1b1 8bbd

conv_lstm.conv.bias f4 [40]
0.047636516 -0.06251968 -0.052521892 -0.07437819 0.08090674 -0.07366671 0.03276411 -0.06522579
-0.079698615 -0.054497324 0.08059643 0.047269225 0.04272359 -0.01014439 0.018102076 0.0005247558
-0.05686876 0.02891941 0.06484932 0.033154353 -0.013169308 -0.022622658 0.091903895 0.061888568
0.0041748662 0.0072592 0.046930548 0.02817459 -0.01578888 -0.01069799 0.0035834073 0.085751444
0.035595067 -0.024728661 0.03327247 -0.03583223 0.08083379 -0.048890933 0.02566526 0.048234336
00000000: 821e 433d 510a 80bd 3221 57bd 9853 98bd
00000010: 6fb2 a53d 92de 96bd a933 063d 1995 85bd
00000020: 0739 a3bd 9638 5fbd be0f a53d 609d 413d
00000030: eefe 2e3d a834 26bc ce4a 943c c48f 093a
00000040: 38ef 68bd 66e8 ec3c b8cf 843d dccc 073d
00000050: 15c4 57bc 2753 b9bc 1c38 bc3d de7e 7d3d
00000060: 51cd 883b 95de ed3b 3f3a 403d 66ce e63c
00000070: ae57 81bc 9f46 2fbc 99d7 6a3b 749e af3d
00000080: 22cc 113d c393 cabc b748 083d d1c4 12bd
00000090: 308c a53d dc41 48bd f43f d23c 5e91 453d

conv1.weight f4 [20, 10, 3, 3]
-0.032150175 0.055073995 0.04135437 0.0059019043 -0.08227139 -0.08722546 0.07330308 0.086804844
0.064939484 0.0642564 0.09073568 -0.07982759 0.08475508 -0.06964589 -0.0024912148 0.002258347
-0.074170694 0.07740265 0.09330956 -0.068249024 0.0008381458 -0.04121648 -0.028597401 0.028171489
0.043481376 -0.08935355 0.009419936 -0.06163641 -0.058991667 0.0049152467 -0.030269733 0.0206965
-0.099858284 -0.00496402 0.04694242 0.024226949 -0.03785972 -0.09310595 0.09856467 -0.05747225
-0.098231174 0.0015970547 0.03762438 -0.06165989 0.05934791 -0.106711164 -0.07995796 0.043548856
-0.054188326 -0.018046517 0.0030343898 0.07890216 -0.050023153 0.076619476 -0.0030762474 0.063784756
-0.0050064586 0.039870113 -0.06351669 0.07359514 -0.09274633 0.08424215 -0.07968419 -0.07739825
0.022743927 -0.056400184 0.020549392 -0.0018092301 0.06628179 -0.056167465 -0.046725277 0.026175437
-0.09493038 0.025555572 -0.0028155905 -0.093663536 -0.0836955 -0.04647714 0.056101386 -0.09840861
-0.04551352 0.048560522 -0.08285264 0.017698383 0.010330366 -0.06713772 -0.0874631 0.05186499
0.054147523 -0.022379348 0.0011948909 -0.09028077 0.09609408 0.0668891 -0.019854559 0.049831893
-0.013294439 -0.08352515 -0.04414517 -0.071723856 0.024182973 0.100289665 -0.06587097 0.03238261
0.01176031 -0.06849812 -0.010429206 -0.03443396 -0.06631026 -0.006186037 0.05595681 -0.0519152
0.051393315 0.015397457 -0.094488055 0.0014649418 -0.0073812674 0.05735994 -0.008889309 -0.020162683
-0.03199051 -0.0989706 0.066448055 0.08722933 0.10006119 0.044267096 -0.05104146 1.8069566e-05
-0.05534232 0.039173488 -0.04612291 -0.022317573 -0.08235156 0.029097745 0.084427126 0.09061191
0.047356326 0.017467441 0.057994224 0.08087481 0.027745945 0.09493179 0.01648481 -0.043549076
0.0069761095 0.08692537 -0.10109302 -0.02705131 0.085124776 -0.033357512 0.03157702 -0.08311504
-0.015469534 0.04297511 -0.10436362 0.10136225 -0.031475376 -0.0667269 -0.002483535 0.05073291
-0.09463153 -0.01764933 0.01884877 0.007654937 0.0008252313 -0.09058575 -0.0008448842 -0.060994852
-0.012123686 0.060058903 0.06452558 0.10425483 -0.004948762 -0.09952371 0.0064592417 -0.0017805435
-0.0817618 -0.02630518 0.077790305 -0.0030136218 -0.06662096 -0.10257909 0.10003729 0.08289909
0.010573214 0.07508324 0.020363767 -0.047045063 0.0716921 -0.06101319 0.09517542 -0.06469535
-0.06731303 -0.083340794 -0.094625 0.038395002 -0.012787053 0.015224117 0.0882055 0.06563327
0.043685872 -0.010840115 -0.022385683 -0.06721901 0.07374078 0.06584559 0.09597043 -0.04086972
-0.0268067 -0.009343637 0.012675915 -0.099760555 -0.087361395 0.012704859 0.03443665 -0.06239848
-0.09299877 0.01608136 0.0683107 0.026939875 0.057889406 0.10383675 -0.025031585 -0.056161854
0.040758558 -0.040576555 -0.083411105 -0.049253196 0.014019808 -0.0008421718 0.044473324 -0.0633196
-0.042771682 0.08763828 -0.101282984 -0.024516862 0.033573072 0.0075828573 0.094097294 0.032380313
-0.08810633 -0.06393422 -0.10312625 0.024736611 0.00075026863 0.06892884 0.0011629638 0.058534045
0.06408277 -0.075502396 -0.08467645 0.084626846 -0.031659145 -0.02660715 0.026765322 0.10062915
00000000: e7af 03bd 4595 613d 3363 293d c364 c13b
00000010: e77d a8bd 43a3 b2bd ed1f 963d bdc6 b13d
00000020: fefe 843d dc98 833d a1d3 b93d a67c a3bd
00000030: 1294 ad3d 81a2 8ebd a643 23bb c700 143b
00000040: cee6 97bd 4885 9e3d 1519 bf3d 25c6 8bbd
00000050: 03b7 5b3a 9dd2 28bd 1945 eabc e5c7 e63c
00000060: 8719 323d fefe b6bd 1356 1a3c 7676 7cbd
00000070: 3fa1 71bd 1410 a13b 3bf8 f7bc b58b a93c
00000080: 8082 ccbd 38a9 a2bb b246 403d 9877 c63c
00000090: cb12 1bbd 55ae bebd 46dc c93d 0668 6bbd
000000a0: 6d2d c9bd 4354 d13a 061c 1a3d 158f 7cbd
000000b0: cb16 733d 628b dabd 00c1 a3bd 4960 323d
000000c0: 94f4 5dbd 4ad6 93bc 9ddc 463b 7597 a13d
000000d0: 14e5 4cbd acea 9c3d de9a 49bb 95a1 823d
000000e0: 380d a4bb d84e 233d 0a15 82bd 0cb9 963d
000000f0: caf1 bdbd 2687 ac3d 7731 a3bd f982 9ebd
00000100: 7951 ba3c e103 67bd 3357 a83c b023 edba
00000110: bfbe 873d db0f 66bd 0163 3fbd df6d d63c
00000120: dc6a c2bd eb59 d13c c585 38bb abd2 bfbd
00000130: 8c68 abbd d05e 3ebd 91ca 653d 748a c9bd
00000140: 626c 3abd 66e7 463d a5ae a9bd 33fc 903c
00000150: b240 293c 807f 89bd db1f b3bd 6270 543d
00000160: cbc9 5d3d e554 b7bc e39d 9c3a 20e5 b8bd
00000170: f9cc c43d 27fd 883d 07a6 a2bc 871c 4c3d
00000180: ebd0 59bc 3c0f abbd 91d1 34bd f5e3 92bd
00000190: 5f1b c63c ab64 cd3d 5ce7 86bd a1a3 043d
000001a0: 51ae 403c be48 8cbd 43df 2abc a00a 0dbd
000001b0: accd 87bd 3db4 cabb f832 653d 08a5 54bd
000001c0: cc81 523d 9e45 7c3c f482 c1bd 4a03 c03a
000001d0: 8fde f1bb 42f2 6a3d 77a4 11bc 362c a5bc
000001e0: 7b08 03bd 19b1 cabd eb15 883d 4aa5 b23d
000001f0: e2ec cc3d 6a51 353d da10 51bd 1994 9737
00000200: a1ae 62bd 6174 203d 60eb 3cbd 58d3 b6bc
00000210: efa7 a8bd 655e ee3c 21e8 ac3d bd92 b93d
00000220: b5f8 413d e117 8f3c 5a8b 6d3d b1a1 a53d
00000230: 774b e33c 996b c23d 270b 873c 8460 32bd
00000240: d997 e43b ee05 b23d db09 cfbd b59a ddbc
00000250: e655 ae3d e3a1 08bd e856 013d 3838 aabd
00000260: ee73 7dbc ab06 303d 98bc d5bd 0397 cf3d
00000270: 53ec 00bd 1da8 88bd cec2 22bb 50cd 4f3d
00000280: 2dce c1bd 5495 90bc bc68 9a3c 44d6 fa3b
00000290: 5654 583a 0685 b9bd 387b 5dba bdd5 79bd
000002a0: 6da2 46bc 5300 763d fd25 843d 8e83 d53d
000002b0: 3929 a2bb 16d3 cbbd 0ca8 d33b 2061 e9ba
000002c0: bb72 a7bd f67d d7bc 8650 9f3d 2f80 45bb
000002d0: 9270 88bd fc14 d2bd 5ae0 cc3d 00c7 a93d
000002e0: 463b 2d3c 3ec5 993d ead1 a63c 53b2 40bd
000002f0: 4fd3 923d f7e8 79bd 55eb c23d ff7e 84bd
00000300: 6adb 89bd 94ae aabd c1ca c1bd 1444 1d3d
00000310: ca80 51bc 936e 793c 16a5 b43d bc6a 863d
00000320: f5ef 323d bd9a 31bc 2e62 b7bc 1faa 89bd
00000330: 6805 973d 0dda 863d 258c c43d 0267 27bd
00000340: b999 dbbc 0e16 19bc a4ae 4f3c 434f ccbd
00000350: 88ea b2bd 0a28 503c 720d 0d3d 8c95 7fbd
00000360: 2476 bebd 0ebd 833c 7be6 8b3d 03b1 dc3c
00000370: 711d 6d3d 5da8 d43d 0a0f cdbc f909 66bd
00000380: 72f2 263d 9a33 26bd 71d3 aabd b8bd 49bd
00000390: 56b3 653c 31c5 5cba a929 363d b5ad 81bd
000003a0: 5c31 2fbd b37b b33d 746d cfbd 96d7 c8bc
000003b0: eb83 093d 9e79 f83b 15b6 c03d 38a1 043d
000003c0: 1771 b4bd f2ef 82bd db33 d3bd 6fa4 ca3c
000003d0: adad 443a 902a 8d3d 976e 983a 65c1 6f3d
000003e0: d43d 833d 00a1 9abd d96a adbd d750 ad3d
000003f0: 05ad 01bd 3df7 d9bc f342 db3c a816 ce3d

conv1.bias f4 [20]
0.035532143 -0.06401539 0.031367738 0.0486864 -0.10508535 0.023367086 -0.040978346 -0.08658121
-0.00728289 -0.025918683 0.04549339 -0.03191303 -0.06374083 -0.03194549 0.01057768 0.104803264
0.087170355 0.09361794 0.052722283 0.06723752
00000000: 278a 113d 801a 83bd 757b 003d 646b 473d
00000010: fd36 d7bd 556c bf3c e9d8 27bd 7d51 b1bd
00000020: 4fa5 eebb 6b53 d4bc 4757 3a3d 3db7 02bd
00000030: 8d8a 82bd 46d9 02bd 014e 2d3c 18a3 d63d
00000040: 5f86 b23d c3ba bf3d 52f3 573d d3b3 893d

conv2.weight f4 [40, 20, 3, 3]
0.01197838 -0.03836465 -0.053213373 0.03648212 0.0335769 -0.036627423 -0.051579867 -0.0072562303
-0.041441955 -0.051646095 0.04203178 -0.046646 -0.009580249 -0.06270226 0.05149164 0.019888261
0.042641055 -0.009837418 -0.066582344 -0.05916256 0.023507152 0.06896729 -0.028527386 0.037687596
-0.027510177 0.014193643 0.06708174 0.07111382 0.052478135 0.06143199 -0.0613228 0.04962711
0.04981665 -0.036142968 -0.024292916 0.055421177 0.014697457 0.018791767 -0.040355302 -0.032053273
0.026855778 0.03678523 0.0029580793 -0.01737172 0.02334422 -0.008863269 0.021880472 -0.067988776
-0.028801229 0.0065378207 0.032017373 -0.044357017 -0.01095964 -0.008149367 0.008366628 -0.0024163937
-0.05609511 0.062363952 -0.043501567 0.0068479553 -0.04537232 0.010716515 -0.056487057 0.0122154085
0.039374728 0.036873505 0.009957956 0.070492655 -0.062385507 0.019036219 -0.015556828 0.04173198
0.07121316 0.04073902 -0.06468725 -0.00037454357 -0.033997294 -0.036018576 0.008434938 -0.004455836
0.032729063 0.05588611 0.021700576 -0.047979712 -0.036970265 -0.046373162 0.06599165 0.029199729
-0.019883258 0.039743245 -0.0406705 -0.042970236 0.07355835 -0.007973124 -0.05053207 0.05788574
0.057984862 -0.044779696 0.0076368963 0.0025630996 -0.0038333917 -0.064189896 0.072115734 0.019762276
0.009541969 0.006525462 0.043276154 -0.03446834 -0.018879117 0.022930875 -0.027110316 0.0033237198
0.04065537 -0.06669031 0.03132287 0.04159537 -0.011715867 -0.045846388 0.0038330806 0.022567483
-0.05291233 -0.033139627 -0.07309065 0.026944257 0.055752277 -0.032415777 -0.027814452 -0.039805055
-0.05972203 -0.023242481 0.00076205714 0.020174354 0.031969536 -0.050436687 0.06395629 -0.03630126
0.06495534 0.068005316 0.058894332 0.0014667986 0.00828692 0.06256494 -0.016935319 0.020886846
0.008118538 -0.042744473 0.0069414177 0.061438914 -0.032418355 0.011250931 0.00139818 0.03909927
0.060026787 -0.03666109 0.024823563 -0.067224145 -0.047747195 -0.031829298 0.010026957 -0.07349026
0.058268353 0.019445714 -0.06591349 -0.027717704 0.052429765 0.07052485 -0.02780394 -0.07349319
0.036904477 0.03356049 -0.020961152 -0.0017844661 0.06345351 -0.032381743 0.001495494 -0.059630997
0.06245791 -0.06805591 -0.050312154 0.015119757 -0.0465798 0.021188643 0.050955754 -0.061242554
0.0486812 0.06499919 -0.019662041 -0.032715756 -0.018978108 -0.010869441 0.0024959354 -0.0485717
-0.05923052 -0.018426152 0.057551973 0.03330223 0.028293628 0.07225318 0.015271874 0.011839721
0.07471643 0.02532452 0.060422577 -0.06158454 -0.04879392 0.027341872 -0.037461214 0.003858191
0.04030217 0.056658927 0.069399305 0.0007026447 0.04411913 0.036958702 -0.015090529 0.012714793
0.056436837 -0.0509552 -0.06990716 0.010030158 -0.05980749 -0.042429436 0.07201911 0.07306559
0.0585391 -0.030013492 -0.0291075 -0.0090951985 -0.025126178 -0.055358842 0.07496089 0.07271721
-0.06495177 -0.0041093673 -0.054849304 -0.03253938 -0.027323954 -0.029548522 -0.051384788 0.027542613
-0.00611902 0.01812357 0.048568454 0.040009663 0.04608998 -0.044180237 0.046035416 0.029943876
-0.027145226 0.010561706 0.03219917 0.02830182 0.05141141 0.023824101 -0.07091314 0.03767873
00000000: f840 443c 4024 1dbd 44f6 59bd 476e 153d
00000010: ee87 093d a306 16bd 6945 53bd acc5 edbb
00000020: 0abf 29bd db8a 53bd 8429 2c3d e00f 3fbd
00000030: 7af6 1cbc 0b6a 80bd e6e8 523d b5ec a23c
00000040: 63a8 2e3d 1f2d 21bc 535c 88bd 7154 72bd
00000050: 1292 c03c b93e 8d3d 44b2 e9bc 4f5e 1a3d
00000060: 065d e1bc 748c 683c 2762 893d 1fa4 913d
00000070: 50f3 563d 1ca0 7b3d 9e2d 7bbd cc45 4b3d
00000080: 8b0c 4c3d a60a 14bd f001 c7bc 5101 633d
00000090: 9acd 703c 31f1 993c 9a4b 25bd 4b4a 03bd
000000a0: a600 dc3c 1cac 163d 56dc 413b 234f 8ebc
000000b0: 613c bf3c 3f37 11bc ad3e b33c b33d 8bbd
000000c0: 8ef0 ebbc 373b d63b a624 033d b4af 35bd
000000d0: 1090 33bc ec84 05bc 2e14 093c 5c5c 1ebb
000000e0: fcc3 65bd 5871 7f3d b32e 32bd d064 e03b
000000f0: 53d8 39bd 5294 2f3c f95e 67bd 2323 483c
00000100: 6547 213d ac08 173d b226 233c 745e 903d
00000110: f287 7fbd d8f1 9b3c 11e2 7ebc 27ef 2a3d
00000120: 35d8 913d f5dd 263d c07a 84bd 635e c4b9
00000130: bf40 0bbd 3788 13bd b232 0a3c 4302 92bb
00000140: e90e 063d d5e8 643d 68c5 b13c 6086 44bd
00000150: 226e 17bd c9f1 3dbd a126 873d 4534 ef3c
00000160: 37e2 a2bc d0c9 223d 1c96 26bd 8f01 30bd
00000170: c3a5 963d b5a1 02bc b7fa 4ebd 9919 6d3d
00000180: 8981 6d3d ea6a 37bd ee3e fa3b adf9 273b
00000190: a439 7bbb fe75 83bd 6ab1 933d 7fe4 a13c
000001a0: eb55 1c3c 8bd3 d53b 5642 313d ad2e 0dbd
000001b0: 61a8 9abc 88d9 bb3c 7416 debc c4d2 593b
000001c0: 3f86 263d ee94 88bd 694c 003d e85f 2a3d
000001d0: e8f3 3fbc 6cc9 3bbd 6c34 7b3b 71df b83c
000001e0: 99ba 58bd 6bbd 07bd 8db0 95bd 34ba dc3c
000001f0: 805c 643d 68c6 04bd 22db e3bc a00a 23bd
00000200: 169f 74bd 0467 bebc cac4 473a b044 a53c
00000210: 7df2 023d b396 4ebd 84fb 823d a1b0 14bd
00000220: 4e07 853d 5f46 8b3d 2f3b 713d 9841 c03a
00000230: ddc5 073c 0c22 803d f0bb 8abc e41a ab3c
00000240: 9e03 053c d414 2fbd d574 e33b 5fa7 7b3d
00000250: 1cc9 04bd d355 383c 2343 b73a 8e26 203d
00000260: a6de 753d f029 16bd c95a cb3c d0ac 89bd
00000270: 9092 43bd 705f 02bd 1b48 243c 1082 96bd
00000280: ccaa 6e3d 9e4c 9f3c a7fd 86bd 3d10 e3bc
00000290: 98c0 563d 556f 903d 17c5 e3bc 9983 96bd
000002a0: 2629 173d b976 093d b9b6 abbc bfe4 e9ba
000002b0: eaf3 813d b8a2 04bd 7404 c43a a23f 74bd
000002c0: ded3 7f3d e660 8bbd 1e14 4ebd dbb8 773c
000002d0: 76ca 3ebd ce93 ad3c fbb6 503d 79d9 7abd
000002e0: f065 473d 4c1e 853d 4a12 a1bc f500 06bd
000002f0: fa77 9bbc bd15 32bc d992 233b 1ef3 46bd
00000300: b49b 72bd 71f2 96bc 9ebb 6b3d eb67 083d
00000310: 0ac8 e73c 7af9 933d e236 7a3c 64fb 413c
00000320: ed04 993d 5e75 cf3c aa7d 773d 1240 7cbd
00000330: 22dc 47bd 10fc df3c ee70 19bd b4d9 7c3b
00000340: e313 253d 3113 683d 3921 8e3d b031 383a
00000350: 43b6 343d 0262 173d 443e 77bc b551 503c
00000360: 502a 673d 66b6 50bd 7c2b 8fbd 8855 243c
00000370: b3f8 74bd 7dca 2dbd c17e 933d 69a3 953d
00000380: b2c6 6f3d dbde f5bc da72 eebc 0704 15bc
00000390: 6ad5 cdbc f4bf 62bd 1885 993d c3ec 943d
000003a0: 6f05 85bd dfa7 86bb aaa9 60bd 0348 05bd
000003b0: 7cd6 dfbc be0f f2bc db78 52bd 0ca1 e13c
000003c0: 0f82 c8bb e277 943c b7ef 463d 2ce1 233d
000003d0: d9c8 3c3d 56f6 34bd a28f 3c3d dc4c f53c
000003e0: aa5f debc 010b 2d3c 47e3 033d 38d9 e73c
000003f0: c594 523d c32a c33c e93a 91bd 0355 1a3d

conv2.bias f4 [40]
-0.031098047 0.022779858 0.0063677006 -0.004964249 0.062549345 -0.028295148 0.012594449 0.018860733
-0.06384392 -0.007895821 -0.033408713 0.013572467 -0.020998735 0.007172673 -0.052834243 -0.068313
-0.06780932 0.072744735 0.051714916 0.017415624 -0.009842643 0.043104805 -0.0364454 0.03051624
-0.054806057 0.054133132 0.009770519 0.030864 -0.023948096 0.067874 -0.04007363 -0.02436892
-0.042470936 0.06811307 -0.06424138 -0.0662676 -0.036044326 0.019039419 -0.02395667 -0.004037252
00000000: 55c1 febc d39c ba3c 25a8 d03b 24ab a2bb
00000010: df19 803d 3acb e7bc f358 4e3c d381 9a3c
00000020: 9ac0 82bd 795d 01bc 93d7 08bd 0d5f 5e3c
00000030: 8a05 acbc be08 eb3b b868 58bd b0e7 8bbd
00000040: 9ddf 8abd 31fb 943d 05d3 533d 36ab 8e3c
00000050: 0943 21bc aa8e 303d c647 15bd 32fd f93c
00000060: 517c 60bd b4ba 5d3d 8714 203c 80d6 fc3c
00000070: cc2e c4bc 8601 8b3d 3f24 24bd 54a1 c7bc
00000080: 01f6 2dbd de7e 8b3d fc90 83bd 4fb7 87bd
00000090: 37a3 13bd 8ef8 9b3c c740 c4bc ed4a 84bb

fc1.weight f4 [1, 6760]
-0.006277916 0.0021823351 -0.0056283628 0.011052468 -0.011566789 4.62948e-05 -0.008494543 -0.0072604106
0.0066111996 -0.010400404 0.003997471 -0.0075206985 0.0054920595 0.0055634934 0.011588818 0.008968097
0.003125459 -0.0011727626 0.0026864521 0.0011160818 -0.011250484 -0.0077712275 -0.0008177498 0.007885505
0.01112299 0.009529149 -0.009897185 -0.0018649007 0.008401508 0.008111708 -0.0022115272 -0.008655022
0.0031653035 -0.010700375 0.004814912 -0.012145142 0.005512258 -0.006206355 0.0077863787 0.009904767
0.0039516473 0.012068511 -0.0058786687 0.0001458247 0.009253691 -0.0046816724 0.0009442895 0.0030346315
0.007035642 -0.006901367 -0.00447965 0.011483297 -0.0041453373 0.008346018 0.009750034 0.0005113579
0.0014333784 0.0028061222 -0.0056430213 0.0077622267 0.003967457 0.0014745656 0.007913364 0.0060582194
0.009242338 0.001846806 -0.007602167 -0.00016273338 0.0111381365 -0.011845794 0.00016633928 -0.007627034
-0.004145098 0.0013930743 0.0007386653 -0.0062938593 0.004726068 -0.008576946 0.0020953384 0.008243538
-0.005720446 -0.00055514474 -0.011936396 0.0063808444 -0.0060951873 -0.011359857 0.0007226903 0.0028634844
-0.009125735 -0.007733584 -0.0067095733 -0.011589577 -0.008970374 0.0106506655 -0.006035923 0.0062061436
0.0017358542 0.00024567178 -0.004475786 -0.008187979 0.003214571 0.002149563 -0.005499077 0.004987915
-0.007168403 -0.0074437093 -0.00040538068 0.0038760612 -0.0017349437 -0.0050592804 0.0056271856 0.009248195
0.012042062 -0.0091681685 0.007826519 0.011572418 -0.0034248827 -0.009199247 0.010661941 0.011411163
0.0066696173 0.0040508853 0.011016219 0.009424755 0.009471574 0.00074403425 0.002314886 0.004277691
0.00467701 3.8287395e-05 -0.0029951697 -0.010419513 -0.010882587 0.0043553575 -0.011776839 -0.0121448785
-0.00012659909 0.0020986674 0.00068163365 0.0008010253 -0.005124382 0.002336681 0.0011827262 -0.0022553822
-0.007181474 0.010595299 -0.006650583 -0.003647224 0.0028297193 -0.0017702805 -0.010998028 -0.008496158
0.0037483384 -0.0045098136 0.00050798396 -0.010592383 -0.008250324 -0.003957435 0.009503938 -0.00037197073
-0.0047876365 0.004789243 0.0092744315 0.0031464011 -0.004102845 0.007956587 0.0036071606 0.010998549
0.009249015 -0.007910467 -0.004205993 0.005746365 0.012428686 0.007317062 0.010461715 -0.0004972029
0.006957759 0.0045246696 0.0006062307 -0.007610303 0.008461549 -0.0032996964 -0.00087192195 0.009148754
0.0052952585 0.010292438 -0.009076421 -0.0013248693 0.0031394488 0.013635369 0.0042316434 -0.0020129469
0.0080905575 0.0036133917 0.0084858835 -0.006954604 -0.0024423238 0.0010045896 0.011206239 -0.005251827
0.0087996125 -0.003793647 0.010799968 -0.0008352254 0.0055992343 0.011274641 0.013028949 -0.008671754
0.0012008601 -0.0057922318 0.010273704 -0.007483919 0.0035732647 0.011353658 -0.001344579 -0.002413487
0.007552651 0.0062242434 0.005802605 0.005292448 -0.008125118 0.004773015 0.0030298147 -0.006356123
0.0053028567 0.0071756397 -0.007956543 0.013717755 0.006103297 0.010617122 -0.0054358104 0.012287971
0.01272843 -0.0018776675 0.008492493 -0.003249602 0.0007655102 0.003565471 -0.006276859 -0.007963815
0.013623214 -0.0018799395 -0.00954581 -0.00921102 0.00278637 0.014041163 0.012465709 -0.003589767
0.012432494 0.011176176 0.009851245 0.008633244 0.008239633 0.010407234 0.0032449237 -0.0011040245
00000000: fab6 cdbb 8205 0f3b 216e b8bb 6915 353c
00000010: a182 3dbc aa2c 4238 b22c 0bbc bde8 edbb
00000020: c3a2 d83b 7566 2abc 38fd 823b 3170 f6bb
00000030: bcf6 b33b f74d b63b 07df 3d3c edee 123c
00000040: 80d4 4c3b 62b7 99ba 300f 303b 7e49 923a
00000050: f353 38bc c8a5 febb 435e 56ba 3532 013c
00000060: 343d 363c 2620 1c3c cd27 22bc af6f f4ba
00000070: 7ba6 093c f8e6 043c 45ef 10bb cbcd 0dbc
00000080: fb70 4f3b a050 2fbc 69c6 9d3b 6bfc 46bc
00000090: 2ca0 b43b ae5e cbbb e124 ff3b 9b47 223c
000000a0: d27c 813b 01bb 453c d9a1 c0bb 85e8 1839
000000b0: cb9c 173c b768 99bb 328a 773a abe0 463b
000000c0: 3e8b e63b dd24 e2bb 07ca 92bb 7024 3c3c
000000d0: 9cd5 87bb bdbd 083c 9bbe 1f3c a60c 063a
000000e0: 33e0 bb3a ebe6 373b 18e9 b8bb 475a fe3b
000000f0: 7101 823b 3646 c13a 0ea7 013c 0784 c63b
00000100: 2d6d 173c 8710 f23a 991b f9bb 69a3 2ab9
00000110: bb7c 363c dc14 42bc 5c6b 2e39 33ec f9bb
00000120: 9ad3 87bb d197 b63a fda2 413a b83c cebb
00000130: 22dd 9a3b 5286 0cbc f251 093b e80f 073c
00000140: 9472 bbbb 2287 11ba e090 43bc 6716 d13b
00000150: 23ba c7bb b21e 3abc ed72 3d3a 4ca9 3b3b
00000160: 1b84 15bc 016a fdbb fbdb dbbb 36e2 3dbc
00000170: 7af8 12bc 2180 2e3c fec8 c5bb e85c cb3b
00000180: 9a85 e33a 82cd 8039 9da9 92bb e026 06bc
00000190: 8dab 523b afdf 0c3b 9a31 b4bb aa71 a33b
000001a0: ece4 eabb 5cea f3bb 4689 d4b9 8405 7e3b
000001b0: 0d67 e3ba 52c8 a5bb 4164 b83b be85 173c
000001c0: 124c 453c 1636 16bc cd3a 003c 3d9a 3d3c
000001d0: ff73 60bb 70b8 16bc 6caf 2e3c e3f5 3a3c
000001e0: ce8c da3b 4abd 843b 5f7d 343c 4a6a 1a3c
000001f0: a92e 1b3c 4b0b 433a 58b5 173b df2b 8c3b
00000200: 9a41 993b c796 2038 9c4a 44bb 9bb6 2abc
00000210: e14c 32bc 63b7 8e3b a5f3 40bc 50fb 46bc
00000220: afbf 04b9 cc89 093b a9af 323a e6fb 513a
00000230: 6fea a7bb 0023 193b b505 9b3a 09cf 13bb
00000240: 9252 ebbb e897 2d3c 22ed d9bb 4406 6fbb
00000250: d072 393b c208 e8ba 1331 34bc 7833 0bbc
00000260: afa6 753b 0fc7 93bb 3a2a 053a ad8b 2dbc
00000270: 5e2c 07bc 5fad 81bb 68b6 1b3c 1105 c3b9
00000280: 9be1 9cbb 15ef 9c3b c9f3 173c da33 4e3b
00000290: 2971 86bb 585c 023c 1d66 6c3b 4233 343c
000002a0: 2e89 173c e79a 01bc 6dd2 89bb 014c bc3b
000002b0: b0a1 4b3c f7c3 ef3b 9d67 2b3c b956 02ba
000002c0: eafd e33b ae43 943b 74eb 1e3a d95f f9bb
000002d0: 4fa2 0a3c b83f 58bb b191 64ba a8e4 153c
000002e0: d983 ad3b 9da1 283c 45b5 14bc 3da7 adba
000002f0: 36bf 4d3b e266 5f3c 99a9 8a3b a5eb 03bb
00000300: 428e 043c a7ce 6c3b 6008 0b3c 72e3 e3bb
00000310: 650f 20bb 6fac 833a 609a 373c 8517 acbb
00000320: 402c 103c d69e 78bb 59f2 303c 07f3 5aba
00000330: c879 b73b 46b9 383c 5f77 553c f913 0ebc
00000340: 2e66 9d3a c3cc bdbb 0a53 283c aa3b f5bb
00000350: 6f2d 6a3b b104 3a3c 963c b0ba 982b 1ebb
00000360: 3b7c f73b bdf4 cb3b c723 be3b 466c ad3b
00000370: 371f 05bc f466 9c3b db8f 463b 0647 d0bb
00000380: 96c3 ad3b a121 eb3b 295c 02bc 6fc0 603c
00000390: 2bfe c73b 70f3 2d3c e21e b2bb 7c53 493c
000003a0: e88a 503c 111c f6ba 1924 0b3c 46f7 54bb
000003b0: 85ac 483a adaa 693b 1cae cdbb a97a 02bc
000003c0: e733 5f3c 4d68 f6ba 0766 1cbc d1e9 16bc
000003d0: 889b 363b e80c 663c f93c 4c3c 4c42 6bbb
000003e0: a9b1 4b3c 481c 373c 1e67 213c 7372 0d3c
000003f0: 87ff 063c 1a83 2a3c c9a8 543b eab4 90ba
