ConvLSTM/Original/0.73_74_A_S.pt (torch, 84919 bytes, 7 tensors)

conv_lstm.conv.weight f4 [40, 13, 3, 3]
000000 af d2 ae bd 3d 2b 33 3c 21 55 b0 3d 82 e3 42 bc
       -0.085362785 0.010935602 0.08609987 -0.011895062
000010 fe 97 16 bd 97 71 8e 3d ac 9d b0 3c b0 25 f8 bb
       -0.036766045 0.06955259 0.021559559 -0.007572852
000020 43 39 1f 3c 9b f7 e4 3c 39 35 2b 3d 75 8a 76 bd
       0.009718242 0.027950099 0.041798804 -0.060190637
000030 94 9b b4 3d bd 80 8f bd 62 2c 5a bc 46 9c 15 3c
       0.08818737 -0.07006977 -0.013316246 0.009131497
000040 03 73 6c 3d ad bd 9b 3d 2f 68 38 3d 1a df 8e 3d
       0.05772687 0.07604537 0.045021232 0.06976147
000050 ff 61 92 bd c6 c2 c4 bc 3f a1 e3 bc b7 1a 95 3d
       -0.071475975 -0.024018656 -0.027786849 0.07280486
000060 61 8b 83 3d 9a c8 9b 3d 22 6c aa bd 9a 50 72 bc
       0.06423069 0.07606621 -0.08321406 -0.014789725
000070 ec 3f ac bd dd c1 b6 39 87 dd 48 3c 1c a4 08 bc
       -0.0841063 0.00034858185 0.0122598475 -0.008339908
000080 fe 90 ac bd 7a 2d a5 3d 8d 1d 02 3d 34 e4 b3 3c
       -0.084260926 0.080653146 0.031766463 0.021959402
000090 9d 77 93 3d 2f 84 7e bc f0 a4 5f 3d be 47 95 3d
       0.07200549 -0.015534445 0.054600656 0.07289074
0000a0 5f 19 95 3d 2c bc 89 3b 5a 31 23 3c 63 1d a5 bd
       0.0728023 0.00420334 0.009960497 -0.08062246
0000b0 5e ae 5c 3d ca 85 a5 3d 55 e5 d7 bc 49 7f 0a 3d
       0.053877227 0.08082159 -0.026354471 0.033812795
0000c0 57 ca cb bc c9 55 94 3d e0 32 6e bc 6f 10 06 bc
       -0.024876757 0.07242925 -0.014538497 -0.008182629
0000d0 60 81 6a bd 7d 57 a0 3b 23 0e ba 3d c8 be c8 bc
       -0.057252288 0.004893242 0.090847276 -0.024505034
0000e0 d8 e4 98 bc ce 12 91 bd c9 c5 87 bd 41 33 13 3d
       -0.018663809 -0.07083665 -0.066295214 0.03593755
0000f0 c5 97 63 bd 3f a7 9c bc 78 6b 92 bc 32 75 b9 3c
       -0.05556466 -0.019122718 -0.01787351 0.02263889
000100 88 ba 9d bd 90 b6 b3 3d 9b 1a 92 3b 29 f3 4a 3d
       -0.07701594 0.087750554 0.004458738 0.0495483
000110 74 95 4c 3d 46 5c 84 bd b7 65 a8 3d e1 b6 7d 3d
       0.049947217 -0.06462912 0.082225256 0.061941985
000120 63 20 1e bd cc 6a 72 3d 68 4c a1 bd b0 a8 99 bd
       -0.038605105 0.05918388 -0.078759015 -0.07502878
000130 11 33 3d bd c6 b4 59 bd 74 e1 5e 3d bf f3 56 3d
       -0.04619128 -0.053150915 0.054414228 0.05247855
000140 86 37 94 bd 90 a4 2d 3d 7c f1 a4 bb c4 31 ac bd
       -0.07237153 0.042393267 -0.00503367 -0.084079295
000150 df 38 85 3d 93 db 30 bc 9f eb c7 3d a0 61 d4 bc
       0.06504988 -0.010794538 0.09761738 -0.025925457
000160 a0 48 01 3c 7f ab 50 3d a3 72 a9 3d 89 e0 48 3d
       0.00789085 0.0509448 0.08273818 0.04904226
000170 9c 64 c2 bc 7f 8b 9d bd 1f a9 a9 bd 8d 99 30 bd
       -0.023729615 -0.076926224 -0.082842104 -0.043115187
000180 07 61 bd 3c 6f 3d 9e bd 04 e2 ec 3c 32 60 87 3d
       0.023117555 -0.07726561 0.028916366 0.06610145
000190 3f cb b6 3d a1 f5 0b 3d 87 5a 22 3d 35 64 b0 ba
       0.08925485 0.034169797 0.039637115 -0.0013457598
0001a0 80 96 3b 3d 85 eb 81 3d 6c 49 22 3c 29 d6 99 bd
       0.045797825 0.0634375 0.0099052 -0.07511551
0001b0 0a 5d 0f bd 3e 04 0e bd 0e e3 85 bd 73 fc f1 bb
       -0.03500084 -0.034672014 -0.06537448 -0.0073848306
0001c0 23 40 10 bd 62 b7 5d 3d 49 4f f6 bc 9f ec 42 3d
       -0.035217416 0.054129966 -0.030067103 0.04758894
0001d0 11 27 bb 3a 24 a2 0d bd 90 d3 b5 3d 2c 3a 0c bd
       0.001427861 -0.034578457 0.08878243 -0.034235165
0001e0 b7 ac b2 bd 65 82 67 3c 61 92 c4 3d 56 68 13 3b
       -0.08724349 0.01413021 0.09598232 0.002249261
0001f0 57 66 19 3d d4 32 b1 bd 36 8f 8e 3c 5a 25 6a bd
       0.037451115 -0.08652273 0.017402273 -0.057164527
000200 4f 59 02 3d 9b 21 a2 bd 57 00 8b 3d b6 bc 87 bd
       0.031823453 -0.07916566 0.06787174 -0.06627791
000210 91 cb d4 3c e5 98 22 3d 69 a8 86 3c 66 9f 17 3b
       0.025975974 0.039696593 0.016437726 0.002313578
000220 a7 cf a3 3d 27 e8 ae 3c a5 12 ad 3c a3 89 67 bd
       0.07998591 0.021350933 0.021127054 -0.056527745
000230 d6 d4 6f bb f4 35 55 bd 43 c4 d8 bc 81 31 9b 3d
       -0.0036595366 -0.052053407 -0.026460772 0.075778015
000240 93 6a 38 bd 08 f2 83 bd 20 d6 3b 3d 92 be c6 bc
       -0.045023512 -0.06442648 0.045858502 -0.024260793
000250 1c 67 9c bb ad 80 f4 3c 18 90 84 3d b5 04 6d bd
       -0.004773034 0.029846514 0.06472796 -0.057865817
000260 59 90 4b 3d 51 5c 1c 3d a0 32 10 bb c7 1c 2c bd
       0.049698208 0.038173977 -0.002200283 -0.04201963
000270 68 a6 98 3d 0f f8 01 bd 66 a1 bc bc 6c 5b 82 3d
       0.074536145 -0.031730708 -0.02302618 0.063650936
000280 61 ea 8d 3d 4f 3e 24 3d fd 9e ab bc 98 6d 1e bd
       0.0692947 0.040098485 -0.020949835 -0.038678735
000290 56 e4 f6 3c cc 8f 30 3d 35 42 91 3c 1c 28 ae bd
       0.030138176 0.043105885 0.017731765 -0.08503744
0002a0 11 f8 a8 bd 62 02 b4 3c 2f 4b 96 3b 58 17 95 bd
       -0.0825044 0.021973792 0.0045865993 -0.07279843
0002b0 50 5b a2 3d 2a f7 90 3d 04 1a b7 3d 65 c0 88 3d
       0.07927573 0.07078393 0.08940509 0.06677321
0002c0 98 92 a4 bd 88 4b 2a 3d c1 d1 a6 bc af 56 88 3d
       -0.08035773 0.04157594 -0.02036369 0.066571586
0002d0 2c d7 dc bc fa 5f ba bd 96 ad 9f 3d f7 08 85 3d
       -0.02695807 -0.09100337 0.07796781 0.064958505
0002e0 c8 34 b3 3d 8a ce 17 3d ea 01 40 bd 80 cd b4 bd
       0.087503016 0.037062205 -0.046876825 -0.088282585
0002f0 89 7c 0d bd 7c fe 92 3d d1 2b eb 3c f1 b8 86 3d
       -0.034542594 0.07177445 0.028707417 0.065782435
000300 d2 69 bb 3c 7c b3 53 3c 8c 52 9f 3d a8 40 52 3d
       0.022877607 0.01292121 0.077794164 0.051331192
000310 a1 06 b2 3c c4 cc 25 3d 9d 5e 41 bd 57 dc 9f bd
       0.021731677 0.040478483 -0.04720937 -0.07805698
000320 83 d4 52 3c 31 59 84 3d 4e 46 f9 bc b4 22 8a 3d
       0.01286805 0.064623244 -0.030429032 0.067449
000330 81 06 2b bc 97 76 ef 3c 93 53 8a bd 9f d3 2d bd
       -0.010438562 0.029231353 -0.06754222 -0.042438146
000340 fe b4 be 3d 01 d9 93 3d 54 af 1c bd cc b8 d8 3b
       0.09311865 0.072191246 -0.038253143 0.0066138264
000350 e3 fe 50 bd cb c6 48 3d e3 b2 60 3c f1 37 c6 3c
       -0.05102433 0.04901771 0.013714525 0.024196597
000360 43 56 d3 bc d4 9e 9d bd f9 8a 76 bd 41 78 8b 3d
       -0.025797969 -0.0769631 -0.06019113 0.06810046
000370 4a 9b c0 3c 2b 05 47 bd c5 39 b5 bd 47 44 d6 3c
       0.023511548 -0.048588913 -0.08848909 0.026155604
000380 68 08 b2 ba 73 e2 9d bd 0b 60 70 bd 61 a2 a4 3d
       -0.0013582828 -0.077092074 -0.058685344 0.08038784
000390 94 15 1f bd 57 57 8e bd 1c 0a a8 bb 13 ef 59 bd
       -0.038838938 -0.069502525 -0.0051281583 -0.053206515
0003a0 dd 2c 89 3d 91 d2 40 3d 88 91 be 3d 3d ba 02 bd
       0.0669801 0.04707581 0.09305102 -0.031915892
0003b0 55 37 60 3c e8 cf ac bd af a0 d2 bc a2 aa cd 3b
       0.013685067 -0.084380925 -0.025711386 0.0062764445
0003c0 b2 23 81 bd fe 5d 9b 3d e2 16 97 bd c6 db 74 bd
       -0.063056365 0.07586287 -0.073774114 -0.059779905
0003d0 bb 5f d0 bc 93 71 48 3c 50 b8 83 3d ce cb af 3d
       -0.025436273 0.012234109 0.06431639 0.085837945
0003e0 5e bf 3f 3c 33 4b 39 bd 08 d3 a4 3d 10 60 9b bd
       0.01170334 -0.04523773 0.080480635 -0.07586682
0003f0 96 92 f2 3c 97 bd 9c 3d 9c 49 35 3d fb 22 a9 3d
       0.029610913 0.07653349 0.044259652 0.08258625

conv_lstm.conv.bias f4 [40]
000000 87 72 a0 3c 90 c2 65 3d 5c 25 44 bd b4 fc 98 bc
       0.01958586 0.056093752 -0.04788719 -0.018675186
000010 34 95 23 3d e3 32 07 bd 50 1f a6 3d 62 1f 80 3d
       0.039937213 -0.033007514 0.08111441 0.06255986
000020 62 db a8 3c 0d 38 ad bc 87 87 7a 3d de 3a b7 bd
       0.020612422 -0.021144891 0.061164405 -0.08946775
000030 1b 75 40 3c d7 48 8a bb cf e7 94 3d 8a ec c6 ba
       0.01174667 -0.004220109 0.072707765 -0.0015176695
000040 19 78 83 bc 39 df 46 3d 67 13 8a 3c 4e 0c 45 3d
       -0.016048478 0.048552725 0.016854955 0.048107438
000050 7c ca 4e bd 7e 71 6b bd 91 7b ba 3c 76 05 61 bd
       -0.050486073 -0.05748128 0.022764 -0.05493685
000060 2d aa a5 3d ab a4 7c bd 3e 6d 8b bc c4 d2 4e bd
       0.08089099 -0.061680477 -0.017019864 -0.05049397
000070 cd 3c b7 3d 0f ac 81 bd 58 9b e1 bc 0c 81 8c bb
       0.08947144 -0.06331646 -0.027539894 -0.0042878445
000080 18 71 4c 3c 69 d1 af 3d 0b c4 be bc 63 3c b6 bc
       0.0124781355 0.08584864 -0.02328684 -0.022245592
000090 4c a8 76 3a 46 bf ac 3d ca 19 41 bd 72 73 d5 3a
       0.00094092335 0.0843492 -0.047143735 0.0016285016

conv1.weight f4 [20, 10, 3, 3]
000000 28 76 dd bb 35 9d b5 3c be cc 6f 3d c1 eb 78 bd
       -0.00675847 0.022169689 0.058544867 -0.060771707
000010 61 bf 76 bd 19 6a d1 3d 11 ef cd bd 66 12 f0 3c
       -0.060241107 0.10225315 -0.10055364 0.029305648
000020 fb a8 02 bc 52 28 3f 3d 63 1e 27 bd bd 8a 24 3d
       -0.007974858 0.04666931 -0.040800463 0.040171374
000030 64 2f 97 bd 2e f2 ab 3d e7 40 55 3d 15 d7 89 3d
       -0.07382086 0.083958015 0.05206385 0.06730477
000040 36 b4 32 3d bd 86 98 bc e1 1e 26 bd 19 fb 8c 3d
       0.043628894 -0.018618936 -0.040556792 0.068838306
000050 92 8e 2c bd cc f7 c1 3d 77 42 0f 3d 22 fd 5a 3d
       -0.042128153 0.09471092 0.034975495 0.053464063
000060 bc 22 a1 bd 5d e6 93 bd 18 f1 b4 3d 4b 65 4b bd
       -0.07867953 -0.07221673 0.088350475 -0.049657147
000070 30 e6 62 bd cb a3 be bd 2c 5e 4a bd 10 ed c8 bc
       -0.055395305 -0.09308585 -0.049406216 -0.024527103
000080 be 3d 44 bd bf 2d 7c 3d b5 fb 30 3d ef 26 29 bd
       -0.047910444 0.061567064 0.043208797 -0.041296896
000090 9e 00 14 3c f7 e2 d4 bd 25 34 77 3d 29 cd 82 bd
       0.00903335 -0.103948526 0.060352463 -0.063867874
0000a0 ef 1f b8 bd b1 38 9a 3b 25 c6 e2 bb 97 62 7c 3c
       -0.08990466 0.004706465 -0.0069205933 0.015404365
0000b0 92 61 9d bd 8c a8 b8 3d 12 cf fd bc 71 f2 ae bc
       -0.07684626 0.09016523 -0.030982528 -0.02135584
0000c0 f2 da 94 3d 2c 1d 93 3d 07 b4 7a bc 06 a2 d9 3d
       0.07268323 0.071832985 -0.015301711 0.10626607
0000d0 f4 63 2d 3d 03 f7 93 3d 29 25 b1 3d b4 b0 f2 bc
       0.04233165 0.07224848 0.08649666 -0.029625274
0000e0 41 50 d9 bb 76 82 88 3d 99 75 77 3d 9a dd 9c bc
       -0.0066318815 0.066655084 0.060414884 -0.019148637
0000f0 6c 49 99 bc fa 2e 88 bd 6b 2d 3f 3d 65 06 d0 3d
       -0.018711768 -0.06649585 0.046674173 0.1015747
000100 96 6c 63 bd ee 24 30 3d 81 74 12 3b 0a 46 92 bc
       -0.055523477 0.04300397 0.0022347274 -0.017855663
000110 b9 33 ab 3c 40 e9 e0 bc ef 40 be bc 0f f1 d9 3b
       0.020898687 -0.027454972 -0.023224322 0.006651051
000120 fa 6d a9 bc eb 74 7a bb c5 e0 cd 3d 05 5f a2 bd
       -0.020682324 -0.0038216661 0.10052637 -0.0792828
000130 31 04 ba bd de e2 64 bd 24 f9 1b 3d 8b 4a 9f 3d
       -0.09082831 -0.05588042 0.038079396 0.0777789
000140 f7 e4 bd 3c 43 fd b3 bd 33 fd 92 bd ce 73 32 3d
       0.023180468 -0.0878854 -0.071772 0.04356747
000150 87 5b db 3c 8e 84 91 bd 4a f7 0c 3d e0 75 a0 bd
       0.026777042 -0.07105361 0.03441552 -0.07834983
000160 2d 22 3d 3d f7 2b 47 bc c7 b0 45 3c df f8 d3 3d
       0.04617517 -0.012156478 0.012066073 0.10350203
000170 30 2f 2c 3d db 84 15 bd 61 d3 81 3c af e4 17 3c
       0.04203719 -0.036503654 0.015847864 0.009270831
000180 88 11 02 bd 50 9e eb bc 07 89 3d bd cf 79 83 bc
       -0.031755 -0.028762013 -0.046273258 -0.016049294
000190 88 28 85 3d 5f a9 c9 3c e8 56 21 3d a1 cd 11 3d
       0.06501871 0.024616895 0.03938952 0.035596494
0001a0 4e 22 78 3d e3 a8 06 3d 09 41 c8 bd cf d5 13 bd
       0.06057959 0.032875907 -0.097780295 -0.036092576
0001b0 d1 35 26 bd c9 4e d4 3d 3a 6d 02 3b 70 ab 4d bd
       -0.040578667 0.103665896 0.001990153 -0.050212324
0001c0 9b 77 d6 bd 90 3f 4d 3b 60 65 b7 3d 59 db c6 bd
       -0.10472032 0.0031318404 0.089548826 -0.09709806
0001d0 dc 05 01 3d 31 74 b5 bd e1 8b 96 bd 8d 5a 08 bd
       0.03149973 -0.088600524 -0.073508985 -0.03328948
0001e0 53 0b b5 3d 58 99 99 bb 61 5b 6c 3d 17 18 e2 bc
       0.088400505 -0.0046874695 0.057704333 -0.027599378
0001f0 2f 6a d7 3d d9 63 c2 3d af 1d 1e 3c bc 64 4d 3d
       0.105183 0.09491701 0.009650632 0.050144896
000200 e7 f5 c9 3d ff c0 ab 3c 9e 68 ee bc c7 a2 93 bd
       0.09861355 0.020966051 -0.02910262 -0.07208782
000210 85 19 d4 3d be 05 8b bd f9 8f 9c 3a 34 8b c8 bd
       0.1035643 -0.067882046 0.0011944763 -0.09792176
000220 8e 9d 96 3d f8 13 89 3d 80 ca a2 3b 05 39 c0 3d
       0.0735427 0.06693262 0.0049679875 0.093858756
000230 33 42 c7 3d cf a5 85 bd 8c cb cf bc 93 ae 81 3d
       0.097294234 -0.06525766 -0.025365613 0.063321255
000240 7e 84 a4 3d 97 fc d5 bd bd 3e 5b 3c 23 86 bd bd
       0.080330834 -0.10448568 0.013381657 -0.092541
000250 70 1f ee 3c f8 4f 9f bd 02 63 8f bc f7 20 72 3d
       0.029067725 -0.07778925 -0.017503265 0.05911347
000260 d5 bb 27 3d 55 3e b1 bd 41 a9 d1 bd c4 44 86 3d
       0.040950615 -0.08654467 -0.10237361 0.06556085
000270 72 10 32 bd b6 f0 57 3d bf eb 74 3c d9 f0 34 3d
       -0.043472715 0.052719794 0.014948784 0.044175003
000280 01 ac ac 3a ac f9 54 3b 32 23 85 bd ee a8 b9 3d
       0.001317382 0.003249745 -0.065008536 0.09065424
000290 5e 09 d1 3d a8 2f 9a bd 97 f6 51 3d 6e e9 81 3d
       0.10206865 -0.07528621 0.051260557 0.06343351
0002a0 c9 df 2e bd 67 47 c2 3d 3e e3 87 bd cd a1 34 bd
       -0.042693887 0.09486275 -0.0663514 -0.044099618
0002b0 78 5c 99 bd b2 53 b2 bd 30 ce bf bd 62 44 72 bd
       -0.0748834 -0.0870737 -0.09365499 -0.059147246
0002c0 27 a7 c4 bd ce 1d b4 bd bd ba 8a bd 6a 6d d5 bb
       -0.09602194 -0.08794747 -0.06773899 -0.0065132873
0002d0 6a 4b c4 3d 3d 6d 5e bd ae 45 2b 3d 20 52 37 bd
       0.095846966 -0.054303396 0.0418145 -0.044756055
0002e0 c3 61 b3 3d dc 0f c8 3d 3d eb ca bc af 5e 12 3d
       0.08758881 0.0976865 -0.024770373 0.03573483
0002f0 83 f9 e0 bc 09 e7 d2 3d b9 a9 90 3d b4 09 d7 3d
       -0.027462726 0.10297973 0.07063622 0.104998976
000300 11 fe a7 bd 2b 2d b0 bd 89 a2 a1 3d af 05 7e 3d
       -0.08202756 -0.08602365 0.07892329 0.06201714
000310 7d 7f 9f 3d 78 05 4f bd d5 03 f5 3c 06 ae 84 3d
       0.07787988 -0.050542325 0.029909054 0.06478505
000320 4c d7 f4 3c 7d f6 94 3d 0b a9 43 3d 51 92 5e 3d
       0.029887818 0.072735764 0.047768634 0.054338757
000330 58 00 cc bd ca 73 8b 3d de dd cd bd be 1a db 3c
       -0.09961003 0.068091944 -0.100520834 0.02674615
000340 ee 50 2c 3c 2e bc c4 bd 3d e5 34 3a ca dd ad bd
       0.010517342 -0.09606205 0.0006900614 -0.084895685
000350 37 19 38 3d 14 30 c3 3d 59 93 b8 3d fa fa a7 3d
       0.04494592 0.095306545 0.09012479 0.08202167
000360 23 82 8f 3d 97 dd ce 3d 9b 05 c3 bd e7 b8 ef 3c
       0.070072435 0.10100859 -0.095225535 0.029262973
000370 2a e1 80 bd 3a b5 4f 3c 40 8e ce 3d 83 57 92 bd
       -0.06292947 0.012677485 0.10085726 -0.07145598
000380 16 b4 5e bd ea 64 39 bd a0 4d ca 3c 59 56 9b 3d
       -0.054370962 -0.045262255 0.024695218 0.07584829
000390 27 f7 83 bd f1 66 77 3c e6 3a b0 3d b3 d4 b8 bd
       -0.06443625 0.015100227 0.08604984 -0.09024944
0003a0 9e e5 f9 3b cf 5c a2 3d 24 0b df 3c f9 52 92 3b
       0.0076262495 0.07927858 0.027226992 0.0044654575
0003b0 c9 7b ba 3d fd ee f0 bc b8 fc 13 3d bb 0f 76 ba
       0.091056414 -0.029410833 0.036129683 -0.00093864993
0003c0 3e c6 93 bd 40 61 78 bd 80 38 93 3c 78 2f ca 3d
       -0.07215546 -0.06063962 0.017971277 0.09872335
0003d0 98 d9 9c bd 49 5d d2 bd 82 7b 02 bd 12 63 c0 bd
       -0.0765869 -0.10271699 -0.031856067 -0.09393896
0003e0 be 4f a0 bd 98 00 c1 bd 13 e8 2a bd 97 72 90 bd
       -0.078277096 -0.094239414 -0.04172523 -0.07053106
0003f0 ba 46 d3 3c f6 0d b0 bd 26 a4 a6 bd 1a 1f a5 3d
       0.025790561 -0.08596413 -0.081367776 0.08062573

conv1.bias f4 [20]
000000 74 16 2b ba cb 31 b0 bd 8f 4e bb bd da 32 9f bb
       -0.0006526478 -0.08603247 -0.09145843 -0.004858357
000010 fd f7 d0 bd f6 d3 3b bd f1 d4 cc 3d 9d 29 8f 3d
       -0.1020355 -0.04585644 0.10001553 0.06990359
000020 df a1 e7 3c 1e 54 3e bd 0d 9f 67 3d a5 49 9b bd
       0.028275428 -0.04646694 0.056548167 -0.07582406
000030 31 bc b9 3d 1d 0e 94 bd 0e 92 d5 3c 4f 15 38 3d
       0.09069098 -0.072292544 0.02607062 0.044942196
000040 17 d3 10 3c b6 78 62 bd ce e6 1a 3c 84 16 b0 3c
       0.00883939 -0.0552909 0.009454442 0.021495111

conv2.weight f4 [40, 20, 3, 3]
000000 38 2c 83 bd 53 09 c3 3c e1 cc 96 3d 2a f9 e2 bc
       -0.064049184 0.023808157 0.07363296 -0.027706701
000010 41 8d d8 3b 57 a4 8f 3d 6e 67 2a 3c 1e 00 32 3d
       0.0066086357 0.07013767 0.010400636 0.043457143
000020 ae 53 6b bb 33 ba 6e bd 90 43 1c bd 22 af 1f 3d
       -0.0035908031 -0.058283042 -0.03815037 0.03898538
000030 b0 b8 44 bd 1a 74 81 3d bb 2e 2a 3d 79 8c 8a bd
       -0.048027694 0.06320973 0.041548472 -0.06765074
000040 2a 6f a5 bc 89 bc 4f 3d 94 15 e0 3b d2 cc 5d bd
       -0.020194609 0.05071691 0.00683851 -0.05415041
000050 6e db 9b bc a6 5c 5b bd 05 c4 60 bd a3 18 bd 3c
       -0.01902553 -0.053555153 -0.05487444 0.023083037
000060 47 f0 79 bd ef c0 d9 bc 9e 09 33 3c 9a e3 82 3d
       -0.061020162 -0.026581256 0.010927586 0.06391068
000070 07 5f 7c 3d d5 6a 84 bd 55 99 59 3d 2f 2f 30 bd
       0.061614063 -0.06465689 0.053124744 -0.043013748
000080 29 96 4d 3d d6 27 0c 3a 93 8a 29 bd 60 02 5b bc
       0.050192032 0.0005346512 -0.04139192 -0.013367265
000090 37 1d 16 3c 02 9c 44 bd c2 d5 5e 3d 65 fe 3e bd
       0.009162239 -0.048000343 0.054403074 -0.04662933
0000a0 90 99 bb bc 6a 3e 28 bd f8 ef 2e 3b 60 b6 44 bc
       -0.022900373 -0.041075148 0.0026693325 -0.012006372
0000b0 7f f2 34 3d e6 fd 10 bd 7d 4d b0 3c 49 39 91 bd
       0.044176575 -0.035398386 0.021521324 -0.070910044
0000c0 7c 45 5a bd e9 4b 4d bc a8 cc e0 bc 18 80 3d 3c
       -0.05328892 -0.012530305 -0.027441338 0.011566184
0000d0 ba fe ea 3c 28 68 29 bd cd fa 79 3c 1b 16 93 3d
       0.028685916 -0.041359097 0.0152575495 0.07181951
0000e0 93 15 9c 3d f8 79 87 bd 15 0c fd 3c aa 53 36 bb
       0.076213025 -0.066150606 0.03088955 -0.0027820864
0000f0 da 4b 97 3d 01 8a 6e bd bd 6a 98 3c 5d d3 16 bd
       0.073875144 -0.05823708 0.018605584 -0.036822665
000100 58 1e 8c bd 86 e9 0c bd 5e 55 86 3d ef d7 f4 3c
       -0.06841725 -0.034402393 0.06559251 0.029888121
000110 c6 d4 98 bc 3e 6d fd bb 47 23 64 bd bd 3d d8 bb
       -0.018656146 -0.00773397 -0.055697706 -0.0065991567
000120 2a 10 8f 3d 96 d6 11 ba b2 2a 83 3d 89 cd 5c bd
       0.06985505 -0.0005563287 0.06404628 -0.05390695
000130 57 23 bc bb 09 0e 86 bc 2f 48 90 3d 8e 5b a6 3b
       -0.0057415175 -0.016364114 0.07045018 0.005076832
000140 99 3f 31 3d d9 33 86 bd 6f c2 d9 3c 43 2e 6f bd
       0.043273542 -0.06552858 0.026581971 -0.058393728
000150 8d 16 5f 3d d9 68 8d bd 6b 3f 15 bd 66 a8 62 bc
       0.054464865 -0.06904764 -0.036437433 -0.013834095
000160 40 bd 0b 3d 2a 7e 47 3d 70 42 49 bd c0 f6 8f bd
       0.03411603 0.048704304 -0.049135625 -0.07029486
000170 c1 7e 46 bd 7a e9 4c 3c 8e 5a 16 bd 18 80 9c 3b
       -0.048460726 0.012506837 -0.036707453 0.004776012
000180 88 82 9b 3d 9b ea 79 bd e7 38 52 3d 94 b5 da bc
       0.07593256 -0.061014753 0.051323798 -0.026697911
000190 71 89 c5 3c ce 77 ba 3c c3 18 fc bc d7 88 6a bd
       0.024113389 0.022762205 -0.030773526 -0.057259407
0001a0 c7 02 09 bc a7 00 89 3b 4b 89 17 3d 85 13 93 bd
       -0.008362479 0.004180986 0.036996167 -0.071814574
0001b0 a8 31 ba ba 3f 88 12 bd 83 41 90 bd 3f 14 c1 3c
       -0.0014205473 -0.035774466 -0.07043745 0.023569224
0001c0 74 5f 2a bd 63 17 68 bd 1b fd 91 3c ff e5 ae 3b
       -0.041594937 -0.05666293 0.017820885 0.0053374763
0001d0 b3 fb 60 3d ab a0 d1 bc 83 34 17 3d 3c 34 34 3b
       0.05492754 -0.025589308 0.036915313 0.0027496954
0001e0 2a d4 80 bd 5a 1b 60 3d 81 8e 5e bd b4 5d 94 3c
       -0.06290467 0.054713584 -0.05433512 0.018111087
0001f0 68 92 76 bd e4 c2 22 3c 60 e5 73 3d 3c 01 95 3d
       -0.060198218 0.009934161 0.05954492 0.07275626
000200 75 86 91 3d 0a dc 2d 3d d5 34 91 3d 38 29 6a 3b
       0.07105724 0.042446174 0.07090155 0.0035730135
000210 83 b7 4f bd 7c 3d 13 bc 41 a2 c7 3c 93 3a 90 3d
       -0.05071212 -0.008986827 0.02436936 0.07042422
000220 74 8e 75 bd d3 ab 58 3d 37 c6 3f bd c1 0b a2 3c
       -0.059950307 0.05289824 -0.04681989 0.019780995
000230 af b3 7e bd 0f bd 6c bd f7 0b 81 bd fa 99 3a 3d
       -0.06218308 -0.057797488 -0.0630111 0.045557
000240 f0 70 7e bd 9c 9a 18 3d 42 fa 1f bd a2 e5 cd 3c
       -0.062119424 0.037256822 -0.039057024 0.025133912
000250 4d 54 33 bd ae 1a bc 3c 64 e7 83 3d f3 46 44 3d
       -0.043781567 0.02296194 0.06440619 0.047919225
000260 52 07 90 3d d4 6e 39 bd e2 e0 9c 3c 9a 1b ba bc
       0.07032646 -0.04527171 0.019150201 -0.02271824
000270 f4 ac c8 bc e9 7e 7b bd ed 52 b0 3c e7 2d 72 3d
       -0.024496533 -0.061400328 0.021523917 0.059125807
000280 5b 4d 5d bc bd ac 55 bd 5f d9 ba 3a 4a 65 57 bd
       -0.0135072125 -0.05216669 0.0014255455 -0.05258683
000290 42 8c 4b 3d 4c 85 1c 3c 8d 7c 87 bd 9d 7b 76 bd
       0.049694307 0.009553265 -0.06615553 -0.06017648
0002a0 09 bb 9c bc a7 fe 70 bd ab a7 65 3c 0e c2 7d 3b
       -0.019132154 -0.058836605 0.014017026 0.0038720402
0002b0 ff 1e 61 bd 11 65 83 3d e1 93 bc bc 21 36 44 bd
       -0.0549612 0.06415761 -0.023019733 -0.047903184
0002c0 98 dc 29 3d 2c 60 1b 3d 34 b0 3a ba fb db 4b 3d
       0.04147014 0.037933514 -0.0007121593 0.049770337
0002d0 27 86 30 bc 0b b0 2c bd e7 3f 7c bd 8a 0c ac bc
       -0.010774172 -0.042160075 -0.06158438 -0.021002073
0002e0 c3 1f 8d 3d 4a f9 90 bb 3d e0 18 3d 6e d2 63 3c
       0.06890824 -0.004424249 0.037323225 0.013905151
0002f0 60 a0 85 3c 86 8b d7 bb 6d 37 4a bd a2 01 dc 3b
       0.016311824 -0.006577912 -0.049369264 0.006714062
000300 44 36 90 3d 0e 2b 05 3c 50 eb 7b bd 06 1f 11 bd
       0.070416 0.008127941 -0.06150371 -0.035429977
000310 d5 46 e7 bb 38 33 14 ba 9e 20 5f 3c fd 51 8e bc
       -0.0070580044 -0.0005653384 0.013618616 -0.01737308
000320 62 f9 96 3d 38 5c 18 bc 6a 9d 52 3c 37 47 9b 3c
       0.07371785 -0.00929933 0.012854913 0.018954856
000330 34 0a 7d bd 60 8a e8 bc 0d 8e 8e 3d 33 2a 6a 3d
       -0.06177731 -0.028386295 0.06960688 0.05716915
000340 62 9e 38 3d 8b 17 08 bd 78 15 f9 bc 4e 48 80 bd
       0.04507292 -0.033225577 -0.030405745 -0.06263791
000350 4e 0c 0c bd df d0 76 3d 11 eb 54 bc f7 3e 18 3d
       -0.034191422 0.06025779 -0.012995497 0.037169423
000360 4a 14 53 3d c2 11 90 3d a7 01 84 3d c0 ee e6 3c
       0.05153302 0.07034637 0.06445628 0.028190017
000370 bb 8a d1 3c f9 e8 79 3d d2 0a 24 3d b8 b0 9b bb
       0.025578847 0.061013196 0.04004938 -0.004751291
000380 8a bb 83 bc 25 a6 ce bc c1 93 80 bd 75 72 08 bd
       -0.016080637 -0.025225708 -0.06278182 -0.03331228
000390 a5 d3 27 bd 06 97 82 bd 9b 46 46 bd e0 09 64 bd
       -0.040973324 -0.06376462 -0.04840718 -0.05567348
0003a0 a5 d3 40 3d 27 cb 48 3d bd 80 4f 3d 04 9f 39 bd
       0.04707684 0.049021866 0.050659884 -0.045317665
0003b0 f7 b6 12 3d 91 47 23 3d e3 42 94 3c 71 db 37 bd
       0.03581902 0.039863173 0.0180983 -0.04488701
0003c0 68 98 79 bd 24 18 f8 3c 6d 48 6d 3b e6 d4 17 3c
       -0.06093636 0.030284949 0.00362065 0.009267068
0003d0 af 33 a8 3c 34 68 00 3d 22 23 12 3d 50 67 bf 3c
       0.020532457 0.031349376 0.035678037 0.023364693
0003e0 d0 2e 66 3d cc 2b e7 3c b1 88 f0 3c 3d 6d 92 bc
       0.056196988 0.028219126 0.029362055 -0.017874354
0003f0 0c df 96 3d 1f 18 6e 3d 3e d5 dc 3b c4 67 8a bd
       0.073667616 0.058128472 0.0067392876 -0.06758073

conv2.bias f4 [40]
000000 fe c6 38 3d 50 b6 40 bd c5 74 8b 3b cc 72 2d bb
       0.04511165 -0.047048867 0.0042558634 -0.002646613
000010 27 f3 0b bc 76 de 39 3c fe 68 0d bd a0 0f 08 bd
       -0.008541859 0.011344543 -0.034523956 -0.033218026
000020 a5 66 dd 3c a0 4d c7 3b 6c f4 64 bd f9 9a 6a 3d
       0.027026484 0.0060822517 -0.05589716 0.0572767
000030 08 0c 42 bd 16 c0 ab 3c b9 fe c0 3c 92 43 a9 bc
       -0.047374755 0.020965617 0.023558961 -0.020662103
000040 e4 68 1d bc c6 88 62 3d a5 85 85 3d 35 18 18 3a
       -0.009607527 0.05530622 0.06519631 0.0005801947
000050 65 55 e1 3c 4a 52 6a bd d2 ca 2c 3d f2 8e 25 bc
       0.02750654 -0.057207383 0.042185612 -0.010104882
000060 76 df 78 bd 68 a5 5c bd 4f 75 3a bd cc 0e 6d 3c
       -0.060759984 -0.05386868 -0.04552203 0.01446886
000070 71 1f f3 3a 0b 86 90 bc af 56 d2 bc bf bd 11 bd
       0.0018548799 -0.017642042 -0.0256761 -0.035581347
000080 ef f2 72 3c 29 c5 2f 3d 01 34 9a 3c 90 4e 10 bd
       0.014828428 0.042912636 0.018823626 -0.035231173
000090 b9 6e d7 3c a0 7d e6 bc 4d 93 04 3c 4f 9a 1a 3d
       0.026297914 -0.028136075 0.00809176 0.037744816

fc1.weight f4 [1, 6760]
000000 fa 9a 09 3c 47 f7 1a 3a df 79 0e bc 28 98 bf 3b
       0.008398766 0.0005911481 -0.0086960485 0.005846996
000010 c4 e2 a0 3b 72 cb 0a ba a0 9e 82 3b c2 a7 a8 ba
       0.004909845 -0.0005294598 0.0039861947 -0.0012867379
000020 e4 68 34 3c d6 39 d9 bb 53 88 5b 3c 6f 6f 38 3c
       0.011011336 -0.006629209 0.013399201 0.011257037
000030 b3 91 c7 3b 8d 1e 0a 3c 62 90 dc 3b 92 8b d2 3b
       0.0060903667 0.008430135 0.006731079 0.0064253295
000040 22 36 3e b9 0a 0a 50 3c 83 aa 9b 3b 82 7c 2e 3b
       -0.00018139978 0.012697706 0.004750551 0.0026624505
000050 61 ba 4e 3b 20 83 4e 3b 56 f6 52 3c b5 29 b6 bb
       0.0031544196 0.0031511262 0.012876114 -0.005559171
000060 5a 12 2f 3c 06 90 b4 3b ec d0 2d 3b b6 20 20 3c
       0.010685528 0.005510333 0.0026522232 0.009773424
000070 f6 ab 9a bb 63 4b 3e 3c dd 3a 8b 3b c2 c7 f8 3b
       -0.0047202064 0.011614653 0.0042489604 0.0075921724
000080 68 b3 59 bb f2 c3 b5 3b 67 6c f1 bb 96 85 ce bb
       -0.0033218507 0.00554704 -0.007367659 -0.006302546
000090 3a 46 5d 3c 96 b1 8b 3b c7 86 6f 3c b2 3f 37 3c
       0.013505513 0.0042631133 0.014619536 0.01118462
0000a0 1f a7 14 b9 9e d5 e3 3b d4 ec 26 3b 84 b9 82 bb
       -0.00014176637 0.0069529554 0.002547075 -0.0039894003
0000b0 ea c2 6d 3c 8e c8 e5 3b 1a c8 da 3b fc fa f1 3a
       0.014511803 0.0070124334 0.006676686 0.001846164
0000c0 ed ce c6 bb 5d aa 6a 3c 43 c4 34 3a ff 7e f2 bb
       -0.006067148 0.014322844 0.00068957004 -0.007400393
0000d0 25 4c f9 3a af 2a b7 3b c7 e1 a6 bb fa 69 0d 3c
       0.0019019885 0.005589805 -0.0050928327 0.008631224
0000e0 35 d7 74 3c 30 a3 d4 b9 de bc b9 3b 50 09 6e bb
       0.0149438875 -0.00040557375 0.0056682667 -0.0036321469
0000f0 17 09 39 3c 0d ff 10 3c 5c ed 19 3c 01 1a 23 3c
       0.011293671 0.008849871 0.00939497 0.00995493
000100 41 f2 27 bb fc f8 cc bb a9 00 a3 bb 1e 46 e9 ba
       -0.0025626572 -0.006255267 -0.004974444 -0.0017797386
000110 8b 6d 78 3b 82 58 0b 3c 33 a2 04 3c f7 aa bc ba
       0.003790709 0.008504989 0.008095312 -0.0014394213
000120 a1 fe 04 bc 43 03 3e bb 7b 2f c4 3b 12 9c da bb
       -0.008117349 -0.0028993643 0.0059871054 -0.006671437
000130 f0 e0 28 3c a4 2b 21 3c ca 9e e7 3b 32 80 b8 bb
       0.0103075355 0.009837065 0.0070684897 -0.0056305164
000140 5f 8e f9 bb d3 74 12 bb 5b b3 4a 3c 97 c1 45 3c
       -0.007615849 -0.0022347465 0.012371863 0.012070081
000150 a6 b8 16 3c 6e 63 20 3a e0 95 b0 3b 93 21 0b bc
       0.009199297 0.0006118332 0.0053889602 -0.008491891
000160 e0 97 35 ba 18 9c 90 bb 6e b2 d4 bb e8 61 ce ba
       -0.0006927233 -0.004413139 -0.006490997 -0.0015745731
000170 c7 83 5c 3c 99 0e a5 bb 25 12 63 ba d6 e4 83 3a
       0.013459153 -0.0050371406 -0.00086620665 0.0010062705
000180 70 c7 92 3b 2c f6 27 3c f8 de cb b9 10 9f c0 3b
       0.004479341 0.010251563 -0.00038885302 0.0058783367
000190 e9 e2 49 bb 29 d6 a4 3b d2 53 57 3c c6 ae 41 bb
       -0.0030805415 0.0050304127 0.013142543 -0.0029553636
0001a0 d2 46 aa bb d8 b9 76 3a 89 67 b1 3b 7f 9e 29 ba
       -0.0051964307 0.0009411848 0.0054139537 -0.0006470456
0001b0 9f fa 4d 3c 73 cb d5 bb 39 61 21 3c 11 3a 10 b7
       0.01257196 -0.006524497 0.00984984 -8.5965885e-06
0001c0 86 59 90 3b e3 80 0e bc f8 e9 14 3c b7 eb 20 3b
       0.0044052033 -0.008697721 0.009088986 0.002455456
0001d0 c5 09 be bb 84 e6 08 bb 00 c4 72 3c 2b 21 59 3c
       -0.0057995045 -0.002088935 0.014817238 0.013252537
0001e0 a2 f8 73 3c ff 76 dd 3b d6 3f 4a 3c 98 f7 0f 3c
       0.014890822 0.00675857 0.012344321 0.008787058
0001f0 0e a0 3c 3a a5 bb 0c bc 83 4f 9c 3b 3b 2f a2 3b
       0.0007195481 -0.00858966 0.0047702207 0.004949478
000200 c0 cd 73 3c 88 2f a0 bb 27 fa 16 3c 4c 35 57 3b
       0.014880598 -0.0048884787 0.009214914 0.0032838164
000210 d4 92 1c bb 1d 0f 6b 3c c2 b0 83 bb 51 56 4d 3c
       -0.0023891227 0.014346865 -0.004018874 0.0125327865
000220 f6 70 2b b9 ac 88 74 3c 38 99 0b 37 98 8f d5 3b
       -0.00016349912 0.014925163 8.32072e-06 0.006517362
000230 06 78 14 3c fe 8d 17 bb c4 63 42 3c 22 c3 05 bc
       0.009061819 -0.0023125405 0.011864606 -0.008164199
000240 13 0b 63 3b f3 61 4e 3c e0 7d 0b bb b9 89 0e 3b
       0.0034644052 0.012596595 -0.0021284744 0.002174957
000250 bb 6d 4b b9 2b 09 ab bb 7d bf 7f 3b c3 5b d3 bb
       -0.00019400466 -0.0052195988 0.0039024048 -0.006450148
000260 47 69 da bb 1c 18 45 3b 01 f5 c2 bb 2b 0d bf 3a
       -0.006665382 0.0030074185 -0.005949617 0.0014576068
000270 84 b1 0c 3c aa 47 30 3c 66 d4 1c ba 26 37 c2 3b
       0.008587245 0.010759274 -0.00059825776 0.0059269844
000280 9d 94 7c ba 11 dc f3 3b 27 08 57 3b 80 fd c9 3b
       -0.0009635182 0.0074420054 0.0032811256 0.0061642528
000290 84 b6 0f bc bc 42 73 3c 83 97 dd b9 eb 58 b9 bb
       -0.008771542 0.014847454 -0.0004226529 -0.005656352
0002a0 4c 1b 18 bc fa 60 38 bc 84 e3 d6 bb 4f 5c 00 bc
       -0.009283852 -0.01125359 -0.0065578837 -0.007834508
0002b0 b1 47 41 bc 1d a8 29 3c 30 50 72 3b 8b c7 3c 3c
       -0.011796878 0.010355023 0.0036974065 0.011522184
0002c0 6a 0f 5d bb 41 f9 e4 3b d0 b6 1f bc 31 00 21 3c
       -0.0033731111 0.006987721 -0.009748176 0.009826706
0002d0 a7 73 9f ba df 75 07 bc dc 74 ef bb 0c ef cd 3b
       -0.0012165204 -0.008267849 -0.007307632 0.0062846
0002e0 52 10 17 bc f4 e5 54 3b c7 cf 94 bb b2 0d 1f 3c
       -0.0092202 0.0032485696 -0.0045413706 0.009707855
0002f0 27 ca 02 3c c7 c2 26 3c 28 67 3c 3b 73 01 2e bc
       0.007982767 0.0101782745 0.002874801 -0.010620463
000300 35 b7 6f bb 52 e5 76 bb 7f aa 3f 3c 6c 03 6e 3b
       -0.0036577706 -0.0037673307 0.011698364 0.0036317958
000310 42 01 cc 3b 9e 2d 10 ba b6 c3 9d 3b c7 cc b2 3b
       0.006225736 -0.00054999616 0.0048145903 0.0054565403
000320 20 4c 51 bb 41 2f cd 3b 5d e9 0e bb 06 a0 0d 3c
       -0.0031936243 0.0062617366 -0.0021806576 0.00864411
000330 42 fc ec 3b 4f 20 83 3b 1a 91 25 bc c8 03 d1 ba
       0.00723222 0.004001654 -0.010105396 -0.0015946561
000340 19 73 0c 3a 39 3e 87 ba 4d d7 da 3a 1b 48 92 bb
       0.0005357727 -0.0010318226 0.0016696245 -0.004464162
000350 61 26 3c bc 86 8a 0b 3b c1 4a 67 3b 08 a9 fc 3b
       -0.01148376 0.0021292283 0.003529236 0.00771058
000360 ba b7 c0 bb be 4e 47 bb 34 33 3d 3c e6 81 ad bb
       -0.005881277 -0.0030411924 0.011547852 -0.005295026
000370 15 70 8a bb be 7e 3e bc 95 ec 5b bb 10 c0 f8 bb
       -0.004224787 -0.011626897 -0.0033557762 -0.007591255
000380 03 39 b4 3b a5 59 00 bb 68 63 a6 bb d4 41 81 3a
       0.0054999604 -0.0019584682 -0.005077768 0.0009861537
000390 59 06 2b 3c b8 29 26 bb ed 9b 84 3a 15 b4 35 bb
       0.010438525 -0.0025354456 0.001011727 -0.0027725745
0003a0 a4 2b 3b bc a7 82 e8 3b 6f 83 13 ba 9c 1d 01 bb
       -0.011423979 0.007095653 -0.000562719 -0.0019701486
0003b0 d4 b1 62 3a 69 53 23 3c 2c 84 01 3c 1d 87 2a bc
       0.0008647714 0.009968617 0.007905047 -0.01040819
0003c0 1a 93 10 bb 12 30 03 bc a3 27 3d bc ff 30 64 bb
       -0.0022060336 -0.008007066 -0.011545095 -0.0034819243
0003d0 e4 3f 3b 3c 30 d4 3d bc ab 85 48 3b b5 cf fe 3b
       0.011428807 -0.011586234 0.003059725 0.0077762255
0003e0 b5 a1 40 3c 65 21 11 bc b5 a8 8e 3a 04 fe 1d 3c
       0.011757304 -0.0088580595 0.0010884019 0.009643082
0003f0 66 24 a1 3a 39 d2 23 39 de 9a 14 bc 37 e1 d8 bb
       0.0012294173 0.00015623205 -0.009070126 -0.0066186446
