ConvLSTM/Original/0.73_137_A_S.pt (torch, 84929 bytes, 7 tensors)

conv_lstm.conv.weight f4 [40, 13, 3, 3]
0	0xbce4841a	-0.027895022
1	0x3d9dbc61	0.07701946
2	0x3d552c33	0.052044105
3	0x3d66785d	0.05626713
4	0x3d34a8a2	0.044106133
5	0x3d9b7fe3	0.07592752
6	0xbd6feece	-0.05857735
7	0xbd8b0b6b	-0.06789287
8	0xbd1f3d84	-0.038877025
9	0xbdacdf10	-0.08440983
10	0xbc184aa6	-0.009295141
11	0x3d4b5de0	0.049650073
12	0x3c7dc077	0.015487782
13	0xbcb4cdda	-0.022070814
14	0x3d03d028	0.032180935
15	0x3cbca5cd	0.023028279
16	0xbdb3193b	-0.08745047
17	0x3ca368ec	0.019947492
18	0xbd30d375	-0.04317041
19	0xbcca8027	-0.02471931
20	0x3c1aea47	0.00945527
21	0x3db46b37	0.08809512
22	0xbbfb4f68	-0.007669378
23	0x3cd5c328	0.026094034
24	0x3cebd762	0.028789226
25	0x3c96bb04	0.018399723
26	0x3d8dffc8	0.06933552
27	0x3db1a74b	0.08674487
28	0xbd18178f	-0.037131842
29	0xbd2d2cde	-0.042279117
30	0x3cc27797	0.023738666
31	0x3bad3b56	0.0052866144
32	0x3d100ac5	0.03516652
33	0x3da8365d	0.08213494
34	0x3d43a241	0.04776216
35	0x3d80370c	0.06260499
36	0xbd88f281	-0.06686879
37	0x3da067ef	0.07832324
38	0x3bf447bb	0.00745484
39	0x3ce49c5a	0.027906585
40	0x3d4c245f	0.049839374
41	0x3d36d627	0.044637825
42	0xbda2ea4a	-0.07954843
43	0xbdad0b11	-0.084493764
44	0xbd0d68bb	-0.034523707
45	0x3d65932d	0.05604856
46	0x3d343bc8	0.044002324
47	0x3da63c9e	0.081170306
48	0xbd9c9d90	-0.0764724
49	0xbdbcf389	-0.09226138
50	0x3d93a12a	0.07208474
51	0x3d3d7e72	0.046263166
52	0xbc9654e9	-0.018351035
53	0x3d820926	0.06349401
54	0x3d7f5046	0.062332414
55	0xbca85456	-0.020548027
56	0x3c92e30a	0.017930526
57	0x3d019b3a	0.031642176
58	0xbcccaab7	-0.024983747
59	0x3d807d28	0.06273872
60	0x3d755ed4	0.05990489
61	0x3cd7b6e2	0.026332323
62	0x3d70c168	0.058778197
63	0x3c9396a8	0.018016174
64	0xbd81afe4	-0.063323766
65	0x3d6e79fb	0.0582218
66	0xbcbae743	-0.022815352
67	0xbcfc608b	-0.030807754
68	0x3da4eec6	0.08053355
69	0xbd6e3c1e	-0.0581628
70	0x3cb30254	0.021851696
71	0x3d95678d	0.07295141
72	0xbdb08b4b	-0.08620318
73	0xbdad680e	-0.084671125
74	0xbc7f0d5c	-0.01556715
75	0xbdacce54	-0.084377915
76	0x3bd37491	0.006453105
77	0x3c605b5f	0.01369366
78	0x3d5b35b1	0.053518
79	0xbdb6edf9	-0.089321084
80	0xbd479982	-0.04873038
81	0x3d5e3f10	0.05425936
82	0xbd9e5447	-0.077309184
83	0xbc556633	-0.0130248545
84	0x3d854767	0.065077595
85	0xbcc00242	-0.023438577
86	0xbda3dbb4	-0.080008894
87	0xbcba20f9	-0.0227208
88	0x3d965fb7	0.07342475
89	0x3db436ce	0.08799516
90	0x3d4bcd32	0.049756236
91	0x3d7eb816	0.062187277
92	0x3d6c8c01	0.057750706
93	0xbcad537c	-0.021157973
94	0xbdbb5857	-0.09147709
95	0x3d811b16	0.06303994
96	0xbd36247d	-0.04446839
97	0xbd977b6e	-0.07396589
98	0x3d90c00f	0.07067882
99	0xbd05e9b1	-0.03269357
100	0xbc493f19	-0.01228311
101	0x3d7a36d7	0.061087456
102	0xbce09e3b	-0.0274192
103	0xbc986c92	-0.018606458
104	0x3c082d58	0.008311592
105	0xbd037ecd	-0.03210335
106	0xbd5f1267	-0.05446091
107	0x3d3ba409	0.045810733
108	0x3d2b5bf7	0.04183575
109	0x3d5ba50e	0.053624205
110	0x3c89a240	0.016801
111	0xbd6bad56	-0.057538353
112	0xbd621321	-0.055194024
113	0xbdac6f27	-0.08419638
114	0xbc3b1cac	-0.01142041
115	0xbd33ad0f	-0.043866213
116	0x3cb94187	0.022614254
117	0x3cb161e1	0.021653118
118	0xbd83a6e8	-0.06428319
119	0x3ced9360	0.029000938
120	0xbd473488	-0.048634082
121	0x3c88f8ff	0.016720293
122	0xbcc3b177	-0.023888333
123	0x3d9547b0	0.07289064
124	0xbd9aaa41	-0.075520046
125	0x3cf6e1fb	0.030137053
126	0xbd966b06	-0.07344632
127	0x3d9ee3c6	0.07758288
128	0x3c96a6d2	0.018390093
129	0xbb99ef66	-0.004697728
130	0xbc45275d	-0.012033311
131	0xbd5652a1	-0.052324895
132	0x3a0721c7	0.00051548745
133	0xbd54699c	-0.05185853
134	0x3dad2e09	0.08456046
135	0x3d6742c0	0.056460142
136	0xbc60ddb4	-0.013724733
137	0xbbea4811	-0.0071497043
138	0x3d9db37a	0.07700248
139	0x3d48667b	0.048925858
140	0x3d2cdc95	0.04220255
141	0xbd8800b6	-0.066407606
142	0xbd8c19f0	-0.06840885
143	0xbd930add	-0.071798064
144	0xbda071a1	-0.07834173
145	0x3cf5c2e5	0.03000016
146	0xbcd2f8be	-0.025753375
147	0x3d6cb62e	0.057790928
148	0xbd8d2fe9	-0.06893904
149	0xbd1ededf	-0.038786765
150	0x3d092964	0.03348674
151	0x3c5da1b1	0.01352732
152	0xbbabd0fd	-0.005243419
153	0x3cd1e393	0.025621211
154	0xbd990846	-0.07472281
155	0x3d487996	0.04894408
156	0x3d8b0cf7	0.06789582
157	0xbb435394	-0.0029804455
158	0xb9f79bf4	-0.00047227705
159	0xbc9c9d89	-0.019118087
160	0x3d8a9f91	0.06768716
161	0xbda9b776	-0.082869455
162	0xbdb0fa24	-0.086414605
163	0x3ccd7842	0.025081757
164	0x3d9ab3fb	0.0755386
165	0x3cbbbcf5	0.02291725
166	0x3d1ad0b6	0.0377967
167	0xbd80d1ab	-0.06289991
168	0x3c7dbf94	0.01548757
169	0xbd3bfc0a	-0.04589466
170	0x3c461061	0.012088866
171	0xbbab3a6b	-0.00522547
172	0x3b99170a	0.004671936
173	0xbd6d3f5c	-0.057921752
174	0x3dbf4348	0.09339005
175	0xbc874fc2	-0.016517524
176	0x3b0c660b	0.0021423127
177	0xbd6b7426	-0.057483815
178	0x3c864276	0.016389113
179	0x3d8bf244	0.06833318
180	0x3d3e607f	0.046478745
181	0x3d8b52ac	0.06802878
182	0xbd2ac6f1	-0.04169363
183	0x3d274275	0.040834863
184	0xbda8311f	-0.08212494
185	0xbdb53d50	-0.08849585
186	0xbd94b777	-0.07261556
187	0x3d6b6fa8	0.05747953
188	0xbdc5717e	-0.096407875
189	0xbd283f6d	-0.041076113
190	0xbd8aa917	-0.067705326
191	0xbd8d131b	-0.0688841
192	0xbdb2da51	-0.08733047
193	0xbd32411f	-0.043519136
194	0xbd6743ab	-0.056461018
195	0x3da23d04	0.07921794
196	0x3d2fdf9d	0.042937864
197	0x3d43a1c2	0.047761686
198	0xbd7c5480	-0.061604023
199	0x3db13570	0.086527705
200	0x3d1d6790	0.038428843
201	0xbd6de5f6	-0.058080636
202	0x3d051311	0.032488886
203	0xbc9c0965	-0.019047448
204	0xbd98f3d2	-0.0746838
205	0x3d2a07c7	0.041511323
206	0xbc214cce	-0.009844972
207	0x3cd31c87	0.025770439
208	0x3bbadda4	0.005702691
209	0x3d84f60a	0.06492241
210	0x3d758558	0.05994162
211	0x3da60d66	0.08108024
212	0xbd830e1a	-0.06399174
213	0x3d840897	0.06446951
214	0xbcebea07	-0.028798116
215	0xbc704dc4	-0.014666978
216	0x3d20c43c	0.039249644
217	0xbc1aafb1	-0.009441302
218	0xbd670a2d	-0.05640619
219	0xbd04e334	-0.03244324
220	0xbd38c8b2	-0.045113273
221	0x3d9ccee8	0.07656652
222	0x3daf0606	0.08546071
223	0xbd11fa14	-0.035638884
224	0x3da23449	0.07920129
225	0xbd9a2038	-0.075256765
226	0xbcbd77d3	-0.023128426
227	0x3d9ac65f	0.075573675
228	0x3da51a9a	0.080617145
229	0xbc339c02	-0.010962488
230	0x3da20bc2	0.07912399
231	0x3d9639e8	0.073352635
232	0x3cf2c6fc	0.029635899
233	0x3d9d38f4	0.076768786
234	0x3d819f95	0.06329266
235	0x3d488a57	0.048960056
236	0xbda8994a	-0.082323626
237	0x3da443cc	0.08020744
238	0xbdb2b827	-0.087265305
239	0xbd828754	-0.06373468
240	0xbd82d282	-0.063878074
241	0xbd68d1d1	-0.05684072
242	0x3cddbb90	0.027066976
243	0x3d455dcf	0.048185166
244	0xbdb43de9	-0.08800871
245	0x3d2f6186	0.042817615
246	0x3d0e78ec	0.03478329
247	0xbb9124dd	-0.0044294433
248	0x3d74fc50	0.059810936
249	0xbd99a95e	-0.07503007
250	0x3d9ddd0c	0.07708177
251	0x3d838c85	0.06423286
252	0x3db12a00	0.08650589
253	0xbd6f0342	-0.058352716
254	0xbcbfb889	-0.023403423
255	0xbce24095	-0.027618686

conv_lstm.conv.bias f4 [40]
0	0xbdb90145	-0.09033445
1	0xbd079390	-0.03309971
2	0xbd3379b1	-0.043817226
3	0xbd8d586e	-0.06901632
4	0x3d6bdf19	0.05758581
5	0xbc10e560	-0.00884375
6	0x3db839e6	0.08995418
7	0x3d54d46b	0.05196039
8	0xbd4321f5	-0.047639806
9	0xbba28c28	-0.0049605556
10	0xbd875c83	-0.06609442
11	0xbd07562b	-0.03304116
12	0x3c39ff21	0.011352331
13	0x3939479f	0.00017669656
14	0x3d018fd4	0.031631306
15	0x3d2e8050	0.042602837
16	0xbd4e8e42	-0.050428636
17	0xbc0bde41	-0.008536876
18	0xbd944d3a	-0.07241292
19	0x3d02609c	0.031830415
20	0xbd8ad38b	-0.0677863
21	0x3c44a1d2	0.012001472
22	0xbc9dc11d	-0.019257123
23	0xbd63d3af	-0.0556218
24	0xbd5993fe	-0.053119652
25	0xbd58fc25	-0.05297484
26	0xbd46c3db	-0.048526626
27	0xbc6558ec	-0.013998251
28	0xbd1875e1	-0.037221793
29	0x3cf4986c	0.029857837
30	0x3c89c21c	0.016816191
31	0xbd98c1b9	-0.07458825
32	0xbd017e00	-0.031614304
33	0xbbe52b44	-0.006993683
34	0xbd294f79	-0.041335557
35	0xbda3f6f3	-0.08006086
36	0x3d9977fa	0.07493587
37	0x3c8b3156	0.016991299
38	0xbd9be9d3	-0.07612958
39	0x3b844540	0.0040365756

conv1.weight f4 [20, 10, 3, 3]
0	0x3d833e96	0.06408422
1	0x3cbf8b51	0.02338186
2	0xbd1888bb	-0.03723977
3	0xbd804205	-0.06262592
4	0x3c151263	0.009098622
5	0x3d14e2f5	0.036349256
6	0xbccaa4a2	-0.024736706
7	0x3da1dea6	0.07903795
8	0x3cef1c84	0.029188402
9	0xbd9e1979	-0.07719702
10	0xbda72dd1	-0.08163036
11	0xbdd54e9f	-0.104153864
12	0x3d0e7690	0.03478104
13	0x3ce1b951	0.027554186
14	0x3d92aa6c	0.07161412
15	0x3d5f9f54	0.054595307
16	0x3d906b9a	0.07051773
17	0xbd4935ca	-0.049123563
18	0x3c03f4cd	0.0080539705
19	0xbd1f2359	-0.03885207
20	0xbd154a3a	-0.03644774
21	0xbdd088c9	-0.1018234
22	0x3d37053c	0.044682726
23	0xbd63cda6	-0.055616044
24	0xbd3e3d17	-0.04644498
25	0x3daa68f4	0.083207995
26	0xbd8bcee3	-0.0682657
27	0x3dadf807	0.08494573
28	0xbbd3f45c	-0.006468339
29	0x3d9b3ba4	0.07579735
30	0x3dc138d4	0.09434667
31	0x3d76b921	0.060235146
32	0xbdacbae8	-0.08434087
33	0x3db0a59e	0.08625339
34	0xbd8ba8e6	-0.06819324
35	0x3d0c6fb5	0.03428622
36	0x3d8cdb73	0.06877794
37	0x3dc6cd2c	0.09707102
38	0xbc8e4717	-0.017367883
39	0x3db13bb0	0.086539626
40	0x3cab303f	0.020897029
41	0x3d7de3e6	0.06198492
42	0xbdbca367	-0.09210854
43	0x3c91178f	0.017711429
44	0x3bf31b44	0.007419022
45	0x3a810c04	0.00098455
46	0x3d253f3a	0.0403435
47	0xbdb0cbc4	-0.08632615
48	0x3d45234a	0.048129357
49	0xbd1e5bcd	-0.038661767
50	0xbd81fbe7	-0.06346875
51	0x3db37317	0.08762186
52	0xbd0df7b9	-0.034660075
53	0x3cc717c2	0.02430332
54	0x3d48e9e3	0.049051177
55	0x3bc2959e	0.005938246
56	0x3cd164f2	0.02556083
57	0xbdc713dc	-0.09720585
58	0x3d90f5bd	0.07078121
59	0x3b9a53c5	0.004709693
60	0xbda22913	-0.079179905
61	0x3d54ac07	0.05192187
62	0x3c87cddd	0.016577655
63	0xbc9dcc7c	-0.019262545
64	0xbd61cdad	-0.05512779
65	0xbcb35dfa	-0.021895397
66	0xbd6659f7	-0.05623814
67	0xbc45a6ce	-0.012063695
68	0xbba0739e	-0.004896595
69	0xbba1a62d	-0.00493314
70	0xbcc13b3e	-0.02358782
71	0x3d9bf18f	0.07614433
72	0x3c1d2df5	0.009593477
73	0xbd04b921	-0.032403115
74	0xbdad198e	-0.0845214
75	0x3cab72d7	0.020928783
76	0xbda43da0	-0.080195665
77	0xbcb552fe	-0.0221343
78	0x3dadf145	0.08493284
79	0x3cc800a7	0.024414374
80	0x3d3406f5	0.043951947
81	0x3d8463ed	0.06464372
82	0xbc57ec9b	-0.01317897
83	0x3d2718ea	0.040795244
84	0xbcf63a60	-0.030057132
85	0x3ca1423e	0.019684907
86	0xbd260856	-0.040535294
87	0xbd0b34a0	-0.033985734
88	0xbda2504b	-0.07925471
89	0xbdc7b6b1	-0.097516425
90	0xbd1c9df6	-0.03823658
91	0xbd211c30	-0.039333522
92	0x3dbd160f	0.09232723
93	0x3d2f43fc	0.042789444
94	0x3d2cf1b4	0.042222694
95	0x3db0fe3d	0.08642242
96	0xbd9151d0	-0.070956826
97	0xbd55476b	-0.052070063
98	0xbd061313	-0.032733034
99	0x3d4b26d7	0.049597587
100	0x3cb33230	0.021874517
101	0x3c9896fe	0.018626686
102	0xbd39b99f	-0.045343038
103	0x3dd7de24	0.10540417
104	0x3d1c59f0	0.03817171
105	0x3d609085	0.054825325
106	0x3db329b4	0.087481886
107	0xbd833d97	-0.06408232
108	0xbc2ca1b4	-0.0105366
109	0xbd4c232b	-0.049838226
110	0xbc4c47aa	-0.012468258
111	0x3d43fb5d	0.04784714
112	0xbceaf5be	-0.028681632
113	0xbced6021	-0.028976502
114	0xbd36b305	-0.04460432
115	0xbd445347	-0.047930982
116	0x3b36b90c	0.0027881293
117	0xbd8d5abe	-0.06902073
118	0x3cb34cd2	0.021887217
119	0x3d1c94c7	0.038227823
120	0x3d9bd93d	0.07609794
121	0xbd2ced88	-0.042218715
122	0x3cba5a02	0.022747997
123	0x3a8c0dc8	0.001068526
124	0x3c285d51	0.010276155
125	0xbd999cdb	-0.07500621
126	0xbd688128	-0.056763798
127	0x3d60bec4	0.05486943
128	0xbd0bbed4	-0.034117535
129	0x3ce35764	0.027751632
130	0xbd2f0832	-0.042732425
131	0xbd35113b	-0.044205885
132	0xbd5d1f53	-0.05398495
133	0xbdbf738a	-0.09348209
134	0xbb84d424	-0.0040536094
135	0xbd9978bd	-0.07493732
136	0xbda7854c	-0.08179721
137	0x3dae45ca	0.08509405
138	0xbb3d457d	-0.002888053
139	0x3d128fb5	0.03578158
140	0xbdd0e009	-0.10198981
141	0x3d8611fe	0.065464005
142	0x3b0e714b	0.0021735008
143	0xbbded094	-0.006799767
144	0x3c3ba322	0.011452468
145	0x3dcf17ab	0.10111936
146	0x3dd35946	0.10319762
147	0xbd29a5f3	-0.041418027
148	0x3c4b3184	0.012401942
149	0x3d290e49	0.04127339
150	0x3db93bfc	0.09044644
151	0x3b1fca45	0.0024382037
152	0x3db76e6b	0.089566074
153	0xbc9f8cd1	-0.019476326
154	0xbc8c7298	-0.017144486
155	0x3d323264	0.043505087
156	0x3d1c91e4	0.03822507
157	0xbc6fff0e	-0.014648212
158	0x3d93c842	0.072159305
159	0xbd8ab4c3	-0.06772759
160	0xbcb8da12	-0.022564922
161	0x3d63b859	0.05559573
162	0xbd4e0ee9	-0.05030719
163	0xbd8e445c	-0.06946632
164	0xbdb8920c	-0.09012231
165	0xbd8f7e2b	-0.070064865
166	0xbc859d33	-0.01631031
167	0x3d016d9f	0.031598683
168	0x3da27dcc	0.0793415
169	0xbddcef2d	-0.10787807
170	0x3c0c55ad	0.008565349
171	0x3d02fb20	0.031977773
172	0xbcb44a4a	-0.02200808
173	0xbc313ec6	-0.010818189
174	0x3c947f16	0.018127006
175	0xbda7fb0e	-0.08202182
176	0x3d960145	0.07324461
177	0xbcc9981d	-0.024608666
178	0xbcff9e82	-0.031203512
179	0x3d8df172	0.06930818
180	0xbda13fde	-0.0787351
181	0xbcdc0b57	-0.026860876
182	0xbd51d83c	-0.051231608
183	0x3d2ba61a	0.041906454
184	0xbdd5d986	-0.1044188
185	0xbd815d22	-0.06316592
186	0x3d16c876	0.03681227
187	0xbc957fdc	-0.018249445
188	0x3d0ede86	0.034880184
189	0xbcbfa185	-0.023392448
190	0xbd68705b	-0.056747776
191	0x3ac65b03	0.0015133325
192	0x3d025215	0.03181656
193	0xbd15d742	-0.03658224
194	0xbd3ce700	-0.046118736
195	0xbd408edd	-0.047011245
196	0x3dc52a09	0.09627158
197	0xbdab32b1	-0.08359278
198	0x3d31ed51	0.043439213
199	0xbd165557	-0.03670248
200	0xbcd859b0	-0.026409954
201	0x3ceb212a	0.028702337
202	0xbd38fae2	-0.045161135
203	0xbdbdb809	-0.092636175
204	0xbca013fc	-0.01954078
205	0x3dafe5e1	0.08588768
206	0x3d3f7acc	0.046747968
207	0xbd84f1f8	-0.064914644
208	0xbd0ce5dd	-0.034398902
209	0xbc8c94cd	-0.017160797
210	0x3cd4420d	0.025910402
211	0x3c4badb1	0.012431548
212	0x3bf2c1d2	0.007408359
213	0xbda6d2d6	-0.081456825
214	0xbceda6da	-0.029010225
215	0xbdb9cb7d	-0.090720154
216	0x3bd87905	0.0066062235
217	0xbdd1dc3a	-0.10247083
218	0xbd122528	-0.035679966
219	0x3d396d3e	0.045270197
220	0x3a6c6ed7	0.0009019202
221	0xbdbdeee3	-0.0927408
222	0x3d8ea016	0.06964128
223	0xbdd1d7e9	-0.1024626
224	0xbd35c32d	-0.044375587
225	0xbc923b8b	-0.017850658
226	0x3db693b2	0.089148894
227	0x3da0bc80	0.078484535
228	0x3d6cb3a5	0.05778851
229	0x3d0c2792	0.034217425
230	0xbd59225f	-0.053011294
231	0x3dc82eb3	0.09774532
232	0xbc999e08	-0.018752113
233	0x3dd11440	0.102089405
234	0xbdb9ceb9	-0.09072632
235	0x3dae87a8	0.08521968
236	0xbdb0cfea	-0.086334065
237	0x3d25647d	0.040379036
238	0xbc302dfc	-0.010753151
239	0x3c8e244e	0.017351296
240	0xbcf5c6b5	-0.030001977
241	0xbd44e442	-0.048069246
242	0xbcf5bdab	-0.029997667
243	0xbd54a387	-0.051913764
244	0x3cd3111a	0.02576499
245	0xbd461c41	-0.04836679
246	0xbd24f5fe	-0.04027366
247	0xbdc5a844	-0.09651235
248	0xbb910b0b	-0.0044263653
249	0xbd097780	-0.03356123
250	0x3d3cafc1	0.04606605
251	0x3d928e33	0.071560286
252	0x3db856ed	0.09000955
253	0x3ced0bcb	0.028936287
254	0xbd3b7400	-0.045764923
255	0x3ccb8b5a	0.024846721

conv1.bias f4 [20]
0	0x3be6f3b6	0.0070480956
1	0x3d9ed049	0.07754571
2	0xb93bd37d	-0.00017912495
3	0x3dc1185b	0.094284736
4	0xbdd19509	-0.10233504
5	0xbb43d7e5	-0.0029883322
6	0x3d1bccf3	0.03803725
7	0x3c18ee78	0.009334199
8	0xbc183a81	-0.009291292
9	0x3c83dbee	0.016096082
10	0xbda99f18	-0.08282298
11	0x3d440f39	0.04786608
12	0x3dbad1dc	0.09122059
13	0xbd8220ce	-0.06353913
14	0x3dce5e5d	0.10076592
15	0x3d0f6d77	0.035016503
16	0x3daa569a	0.08317299
17	0x3cc7c8cc	0.02438774
18	0xbd9bf860	-0.07615733
19	0xbd870ed6	-0.065946266

conv2.weight f4 [40, 20, 3, 3]
0	0xbc66955e	-0.014073698
1	0x3d8feac0	0.07027197
2	0x3ba0f5a0	0.0049120933
3	0x3d602f94	0.054732874
4	0x3c7bce5c	0.015369024
5	0x38705329	5.7297908e-05
6	0x3d561f34	0.05227585
7	0x3d85dc0a	0.0653611
8	0x3d6de65b	0.058081012
9	0x3c94a2f3	0.018144106
10	0xbd379b30	-0.044825733
11	0x3d632588	0.055455714
12	0xbcd0bc6f	-0.025480477
13	0x3cee47c9	0.029086964
14	0x3d86875b	0.06568786
15	0x3d89f132	0.067354575
16	0xbbd2241e	-0.006412997
17	0xbd89afbe	-0.06722973
18	0x3cbc8599	0.023012923
19	0x3d5fe507	0.054661777
20	0x3d6158ef	0.055016454
21	0x3c51a65e	0.012796013
22	0x3c8838ea	0.016628701
23	0x3d87398c	0.06602773
24	0x3ce699f7	0.028149588
25	0xbce06d45	-0.027395854
26	0x3c8909c8	0.016728297
27	0xbd572cc9	-0.052532945
28	0xbd838aed	-0.06422982
29	0xbd8e4dd8	-0.06948441
30	0x3d74082e	0.059578113
31	0xbc97aa4c	-0.018513821
32	0xbd7f3241	-0.062303785
33	0x3caee3f8	0.021348938
34	0x3c6d822a	0.014496366
35	0x3cac4fd9	0.021034168
36	0xbd775e1b	-0.06039248
37	0x3c88f438	0.016718015
38	0x3d8b95c8	0.06815678
39	0x3d3ac921	0.045601968
40	0xbbd3771e	-0.006453409
41	0x3d309606	0.043111823
42	0xbd8380aa	-0.06421025
43	0x3d4a9869	0.049461756
44	0xbd1af80b	-0.03783421
45	0x3d351e0f	0.04421812
46	0xbd06b2c9	-0.032885347
47	0x3d056d9b	0.03257523
48	0xbd87be15	-0.06628052
49	0xbccb44f6	-0.024813157
50	0xbd874006	-0.066040084
51	0xbd8c9eee	-0.06866251
52	0x3d961f72	0.073302165
53	0xbd6190f7	-0.05506989
54	0x3c1bb49c	0.00950351
55	0xbc001af7	-0.007818929
56	0x3d72047d	0.05908631
57	0x3cf31547	0.029673232
58	0xbd14c41d	-0.03631984
59	0x3ccb549c	0.024820618
60	0xbd267d12	-0.04064662
61	0xbd8a7f8a	-0.067626074
62	0x3d74e2e3	0.05978669
63	0xbcb0e97a	-0.021595705
64	0x3d055a28	0.032556683
65	0x3d19f40f	0.037586268
66	0x3c14cf6f	0.009082659
67	0x3ccef6ac	0.025264107
68	0x3d2dbfd8	0.042419285
69	0x3c64dcc4	0.01396865
70	0x3d86d6b9	0.06583924
71	0x3d98946a	0.07450183
72	0xbd7731b8	-0.06035015
73	0xbc88a132	-0.016678426
74	0x3d492307	0.04910567
75	0x3ce85cc0	0.02836454
76	0xbd3c283e	-0.045936815
77	0x3aa7fb42	0.001281597
78	0xbccd78ba	-0.025081981
79	0x3d0333a7	0.03203168
80	0x3d8a256b	0.06745418
81	0xbc884098	-0.016632363
82	0xba431699	-0.0007442027
83	0xbb22958b	-0.0024808373
84	0x3d8ce2bc	0.06879184
85	0xbc486fa3	-0.0122336475
86	0xbd742a94	-0.05961092
87	0x3d2e7359	0.042590473
88	0x3d2cb94f	0.04216891
89	0xbcefba9d	-0.029263789
90	0xbd7af787	-0.061271217
91	0x3d8452f2	0.06461133
92	0x3d68d326	0.05684199
93	0x3d228224	0.039674893
94	0x3bd594b5	0.0065179714
95	0xbbf44168	-0.007454086
96	0xbd1e64a0	-0.038670182
97	0x3b88585a	0.004160923
98	0x3d924c12	0.071434155
99	0x3d58d56f	0.05293792
100	0x3d4669f4	0.04844089
101	0xbd2ecb31	-0.042674247
102	0x3bb411d3	0.005495289
103	0xbd70072f	-0.0586006
104	0xbd8864e8	-0.06659871
105	0xba637c2a	-0.00086778647
106	0xbd1e8027	-0.038696434
107	0x3d7e52cc	0.06209068
108	0xbca9c5b0	-0.020724148
109	0x3cb2a5e8	0.021807626
110	0xbc939398	-0.018014714
111	0x3ced0fed	0.028938258
112	0x3cbeb574	0.023279883
113	0x3d8789a4	0.0661805
114	0x3c326f8d	0.010890854
115	0x3cb4305b	0.021995714
116	0xbd6f283d	-0.058387984
117	0x3d8dcbd1	0.069236405
118	0xbd534f97	-0.051589575
119	0x3d11f859	0.035637233
120	0x3d1859c2	0.037194975
121	0xbd692e28	-0.056928784
122	0xbd511404	-0.05104448
123	0x3d50473d	0.050849188
124	0xbd3b4c5f	-0.04572713
125	0xbd32baa3	-0.043635022
126	0xbad5998b	-0.001629637
127	0xbd84c78b	-0.06483372
128	0x3d114fff	0.03547668
129	0xbcb85313	-0.02250055
130	0x3d9b0624	0.075695306
131	0x3d21b263	0.039476763
132	0x3c9e9934	0.019360162
133	0xbd810f2c	-0.06301722
134	0x3cb1997a	0.021679629
135	0x3d2885ca	0.041143216
136	0x3d5deffe	0.054183953
137	0x3d216650	0.039404213
138	0x3c64dec1	0.013969124
139	0x3ce0e1d3	0.027451431
140	0xbd621d16	-0.05520352
141	0x3c06e3b7	0.008233002
142	0xbd48f040	-0.049057245
143	0x3ce40d96	0.02783851
144	0x3d9b20a2	0.075745836
145	0x3cd5af1d	0.026084477
146	0x3d926dcc	0.07149848
147	0x3c6c2bdf	0.014414757
148	0x3d964041	0.07336474
149	0x3d6247ad	0.055244137
150	0xbca80069	-0.020508008
151	0x3d7c514c	0.06160097
152	0xbd3d39e4	-0.046197787
153	0x3ca72064	0.020401187
154	0xbbb2ab8c	-0.005452579
155	0x3cb62b0b	0.022237321
156	0x3d1f68e0	0.038918376
157	0xbca404b8	-0.020021781
158	0xbd5b75e1	-0.053579215
159	0x3c8116ed	0.015758002
160	0x3ce4c946	0.027928006
161	0x3d5d7e05	0.05407526
162	0xbb8854ff	-0.004160523
163	0xbd25e700	-0.040503502
164	0x3d636a15	0.05552109
165	0x3d3b479a	0.04572258
166	0xbd67ba91	-0.056574408
167	0x3c41d791	0.01183118
168	0xbd7a3e87	-0.061094787
169	0x3d2e849f	0.042606946
170	0x3d962b9e	0.07332538
171	0xbca751d6	-0.020424765
172	0x3c87b831	0.016567321
173	0xbd053f60	-0.032531142
174	0xbca52b7f	-0.020162342
175	0xbb8db16f	-0.0043241302
176	0xbd7cb8b4	-0.061699584
177	0xbd8c0209	-0.06836326
178	0x3ba52e3f	0.0050409134
179	0x3d526ee2	0.051375277
180	0xbce3abac	-0.02779182
181	0x3ce9c2eb	0.028535327
182	0xbc2c8e0c	-0.0105319135
183	0xbd33233d	-0.043734778
184	0xbc94890b	-0.018131753
185	0xbd749633	-0.059713554
186	0x3bdfd069	0.0068302643
187	0x3d5c7ee7	0.05383196
188	0x3d62d80e	0.055381827
189	0xbd781c3b	-0.060573798
190	0xbd88e538	-0.06684345
191	0xbd280911	-0.04102427
192	0x3cba8893	0.022770202
193	0x3c75a517	0.014992974
194	0x3b81bb93	0.003959128
195	0x3cba9248	0.02277483
196	0xbc7b1d2b	-0.015326778
197	0xbd92ab9d	-0.07161639
198	0xbd95d3c7	-0.07315784
199	0x3d140965	0.03614177
200	0xbd7392eb	-0.059466284
201	0x3ce84049	0.028350966
202	0x3ce07d26	0.027403425
203	0xbd54ffed	-0.052001882
204	0xbd88e61d	-0.066845156
205	0xbb43d39a	-0.0029880763
206	0xbd8e7969	-0.06956751
207	0xbcc60849	-0.024173873
208	0x3c9b9000	0.018989563
209	0xbd819eca	-0.06329115
210	0xbd650c6e	-0.055920057
211	0xbd6cd5b5	-0.057820994
212	0x3ccbca94	0.02487687
213	0x3a97333b	0.0011535654
214	0xbcff83cf	-0.03119078
215	0xbd89cb92	-0.06728281
216	0x3d0e6989	0.034768615
217	0x3c9b5587	0.018961681
218	0x3d824532	0.06360854
219	0xbd568dd8	-0.052381366
220	0x3c90ae83	0.017661339
221	0x3cd09b10	0.025464565
222	0x3d269dd8	0.040677875
223	0xbd8d9f7a	-0.06915183
224	0x3bfa5dc2	0.0076405713
225	0x3d3f0dc2	0.04664398
226	0x3d0b827d	0.03405999
227	0x3d0e6f0a	0.034773864
228	0xbb8a0659	-0.0042121825
229	0xbbb1c49b	-0.0054250485
230	0x3d842a73	0.06453409
231	0xbca4198d	-0.020031715
232	0x3cce9cc1	0.02522123
233	0x3c1b3055	0.0094719725
234	0x3d8be22d	0.06830249
235	0xbd5a3673	-0.053274583
236	0x3d8f21aa	0.06988843
237	0xbbac1251	-0.005251207
238	0xbd3faff0	-0.046798646
239	0x3d32ff9f	0.04370081
240	0xbd862e75	-0.0655183
241	0x3d20c273	0.03924794
242	0xbd72cd9f	-0.059278127
243	0x39032538	0.00012506999
244	0xbd8c29a9	-0.068438835
245	0x3c90b1dd	0.017662937
246	0xbcead261	-0.02866477
247	0x3d2893a6	0.041156434
248	0xbc62fe4d	-0.013854575
249	0x3d31db5e	0.043422095
250	0xbd151f7f	-0.03640699
251	0xbc8b806e	-0.017029013
252	0x3d03211c	0.032013997
253	0x3d5124aa	0.051060356
254	0x3d5d44fb	0.054020863
255	0x3d4ff301	0.050768856

conv2.bias f4 [40]
0	0xbc6decfd	-0.014521834
1	0xbd83b888	-0.06431681
2	0xbcfeb3ee	-0.031091657
3	0x3cdc540f	0.026895551
4	0x3c9ccf59	0.01914184
5	0xbd5adc9b	-0.053433042
6	0x3d854b97	0.06508558
7	0x3c353382	0.011059644
8	0x3d94126c	0.07230076
9	0xbcb97fc0	-0.022643924
10	0x3a4be7ab	0.00077783567
11	0x3d60b9b8	0.054864615
12	0x3c75d22a	0.01500372
13	0xbc25f27f	-0.010128616
14	0xbd96b87f	-0.073594086
15	0xbc9a6ad0	-0.01884976
16	0xbd64aea8	-0.055830628
17	0x3d763496	0.060108744
18	0x3d3e90c9	0.046524797
19	0xbcce3e86	-0.025176298
20	0xbd268bb3	-0.04066057
21	0x3d3d7e6d	0.046263147
22	0xbc973227	-0.018456532
23	0xbc6fab99	-0.014628314
24	0x3d28d66b	0.04122011
25	0x3d1af5b0	0.037831962
26	0x3d0d0de9	0.034437094
27	0x3d77a823	0.060463082
28	0x3d90b5f0	0.07065952
29	0x3bb6d97a	0.0055801244
30	0xbc00dc66	-0.007865047
31	0xbd49c629	-0.049261246
32	0xbc7e9745	-0.015538995
33	0xbd48deee	-0.049040727
34	0xbd7dad28	-0.061932713
35	0x3d934957	0.07191723
36	0x3d826527	0.063669495
37	0xbd622bce	-0.055217557
38	0xbd980b40	-0.07424021
39	0xbd67ee87	-0.05662396

fc1.weight f4 [1, 6760]
0	0x3c4ba903	0.012430432
1	0xbb3631f1	-0.0027800763
2	0x3b47ca6b	0.003048564
3	0x3c4a8fb4	0.012363363
4	0x3a89771a	0.0010487766
5	0x3b5e7505	0.003394426
6	0x3c16d39c	0.009205725
7	0xbad0fdac	-0.0015944741
8	0xbb6a6c06	-0.0035769953
9	0x3ae0b27b	0.0017143035
10	0xbbe53f3e	-0.0069960644
11	0x3c54811a	0.012970233
12	0x3c39de3c	0.011344489
13	0x3c616f43	0.013759437
14	0x3c5a4b89	0.013323673
15	0x3c5d9116	0.013523361
16	0xbb7f2757	-0.003893336
17	0xbc20b39d	-0.009808448
18	0xbbc0b720	-0.005881205
19	0xbb1ce0c9	-0.0023937693
20	0x3c124464	0.008927438
21	0x3bb71aec	0.005587926
22	0xbc0e3d86	-0.0086816605
23	0xbaca2d77	-0.0015424927
24	0x3a034dcf	0.0005008848
25	0xbbd14363	-0.006386207
26	0x3c10fef4	0.008849848
27	0xbc099d05	-0.008399253
28	0x39c55a95	0.00037642257
29	0x39ba20b3	0.00035501047
30	0xbc02d803	-0.0079860715
31	0x3c252e08	0.0100817755
32	0x3aa07826	0.0012242838
33	0x3c4fb3c5	0.012677138
34	0xbbdfface	-0.006835318
35	0xbbe1012b	-0.0068665943
36	0x3af88fae	0.0018963718
37	0x3b7e7d1d	0.0038831898
38	0xbb830d12	-0.003999361
39	0x3b7bff5c	0.0038451767
40	0x3a4958e6	0.00076807884
41	0x3b791970	0.0038009547
42	0x3c188255	0.009308417
43	0x3abec66d	0.0014554985
44	0x3ae7ddfb	0.0017690057
45	0xbbcde7ff	-0.0062837596
46	0x3ae054d4	0.0017115125
47	0x3bbcd646	0.005762848
48	0xbbcae52f	-0.0061918716
49	0x3a18570d	0.00058113114
50	0x3b0de201	0.0021649601
51	0xbb92308d	-0.004461354
52	0x3c5e0af3	0.013552415
53	0xbadaecd2	-0.0016702658
54	0x3b81ecc7	0.0039649936
55	0x3be0bb48	0.006858263
56	0x3c1738ea	0.009229878
57	0xbb65439a	-0.003498292
58	0x3c1d48fa	0.0095999185
59	0x3c2af24e	0.0104337465
60	0xbb73a497	-0.003717696
61	0x3ba892c2	0.005144448
62	0xbc18d167	-0.009327269
63	0x39e9f0b4	0.0004462056
64	0xbbe9a343	-0.007130058
65	0xbb358a72	-0.0027700928
66	0x3bcda0da	0.0062752785
67	0xbc199aca	-0.0093752835
68	0x3bc49e51	0.006000318
69	0xbbe6eec2	-0.007047505
70	0x3c33188b	0.0109311445
71	0xbb43c16a	-0.0029869922
72	0x3c0283a8	0.00796596
73	0x3c2ae064	0.010429475
74	0x3b52ee68	0.0032185558
75	0x3b0a4f25	0.0021104303
76	0x3c3f8abc	0.011690792
77	0x3aef4a06	0.0018256314
78	0xbba2dfaf	-0.004970513
79	0xb8c3edb4	-9.3426e-05
80	0x3c33f558	0.0109837875
81	0x3b84568b	0.004038637
82	0xbbf26fac	-0.007398566
83	0xbc24ccb7	-0.010058573
84	0xbb73aeda	-0.0037183077
85	0x3c54e57d	0.012994167
86	0x3c2c77ee	0.01052664
87	0x3c2fc1ab	0.010727326
88	0xbb4a8d3d	-0.0030906938
89	0xbbf96846	-0.0076113073
90	0x3b81b58e	0.0039584106
91	0x3c1f35f0	0.00971745
92	0x3c396256	0.011314949
93	0xbb12b1a4	-0.0022383714
94	0x3bff54c8	0.007792089
95	0x3b915719	0.0044354317
96	0xbc1a5ff8	-0.009422295
97	0x3c18dad0	0.009329513
98	0x3c2f77c7	0.0107097095
99	0xbbc7eec1	-0.0061014597
100	0x3abce83d	0.0014412474
101	0x3a2c7ea0	0.0006580148
102	0x3b130587	0.0022433714
103	0x39e2da8b	0.00043268906
104	0x3a6456ab	0.00087104243
105	0x3ba5f08e	0.0050640767
106	0x3c0aabf0	0.008463845
107	0x3c0bdcde	0.008536546
108	0x3c3a03cd	0.011353445
109	0x3bc99e13	0.006152877
110	0x3af6fb24	0.0018843156
111	0xba294083	-0.00064564514
112	0x3b7fc28b	0.0039025869
113	0x3baf48c0	0.0053492486
114	0xbbd1df60	-0.006404802
115	0x3a9ef905	0.0012128657
116	0xbc186265	-0.009300803
117	0x3c216df6	0.009852877
118	0xbbe779f6	-0.0070640994
119	0x3bdda4c0	0.0067640245
120	0x3b9fd9a8	0.0048782416
121	0x3bca9b50	0.0061830655
122	0xbbce4afc	-0.00629556
123	0x3bc27939	0.005934861
124	0x3a8bc306	0.001066298
125	0xbc1076ef	-0.0088174185
126	0x3c39b0d4	0.011333663
127	0xbc18bd03	-0.009322408
128	0x3b333a28	0.0027347896
129	0x3c50cf17	0.012744687
130	0x3bbe96ee	0.005816332
131	0xba6703ff	-0.0008812546
132	0xbb317663	-0.002707862
133	0x3a1f68f6	0.0006081009
134	0x3c1e3eb2	0.009658502
135	0xbba8df98	-0.0051536076
136	0xbb6c8107	-0.0036087648
137	0x398d6a65	0.00026972886
138	0x3c19b350	0.00938113
139	0x3c460f88	0.012088664
140	0x3c19646d	0.009362322
141	0xba48c14a	-0.0007658197
142	0x3aeb4b9c	0.001795161
143	0xbbb28f58	-0.005449217
144	0xbc0733dd	-0.008252111
145	0xbbb1081d	-0.0054025785
146	0x3ba70913	0.0050975173
147	0x3c14bfdf	0.009078949
148	0x3c3d2f6f	0.011546954
149	0xbb33f96c	-0.00274619
150	0xbbcbf5c4	-0.006224366
151	0x3c205497	0.009785793
152	0xba3d2610	-0.00072154496
153	0xbbeaf687	-0.0071705016
154	0xbbeb4775	-0.007180149
155	0x3c114608	0.008866794
156	0x3ac26ccd	0.001483345
157	0x3bdd23b8	0.006748643
158	0x3ba3f0df	0.0050030793
159	0x3c10ca0c	0.008837234
160	0x3b90b8c4	0.004416557
161	0x3b5a7f0e	0.003333989
162	0x3c2ffa71	0.010740862
163	0xbbec0336	-0.007202531
164	0x3c238b27	0.009981907
165	0xbaff7bbd	-0.0019491833
166	0x3c124d12	0.008929508
167	0x3c6071fc	0.013699051
168	0x3bd321cc	0.006443238
169	0xbbee9ca9	-0.007281859
170	0x3c0c4294	0.008560795
171	0x3bd470f0	0.0064831898
172	0x3be01b9c	0.006839229
173	0x3b93b2c5	0.004507395
174	0x3c331251	0.01092966
175	0xbb373712	-0.0027956408
176	0xb95e87b4	-0.00021222123
177	0xbbaa3d20	-0.005195275
178	0xb99b669f	-0.00029640362
179	0x3c0ca6e7	0.0085847145
180	0xbc04a6ec	-0.008096438
181	0xbc39df98	-0.011344813
182	0xbc089bb0	-0.0083379
183	0x3a52aed6	0.0008036917
184	0x3b0d2d0a	0.0021541738
185	0xbb6f6039	-0.003652586
186	0x3b88dd2f	0.0041767578
187	0xbc0eb21d	-0.008709458
188	0x3c1daf10	0.009624258
189	0x3bac8b69	0.0052656424
190	0x3c06c7ca	0.008226344
191	0xbb56f005	-0.0032796871
192	0xbb6f2138	-0.0036488306
193	0xbb3068bb	-0.0026917893
194	0xbc3edb89	-0.011649021
195	0xbb77c106	-0.003780426
196	0xbc0a4bbc	-0.008440908
197	0x3a10737b	0.0005510372
198	0x3c12d575	0.008962025
199	0x3c00a224	0.007851157
200	0xba9d558a	-0.0012003642
201	0xbc2bc0bc	-0.010482963
202	0x3c314ada	0.010821069
203	0x3c1440a1	0.009048612
204	0xbb2dd242	-0.0026523029
205	0xbc323544	-0.010876957
206	0xbb4a8b80	-0.0030905902
207	0xbb935fa0	-0.0044974834
208	0x3c057052	0.008144455
209	0xbbfbae59	-0.007680696
210	0xba9d8b34	-0.0012019635
211	0xbbb7f55e	-0.005613967
212	0xbbc6f1e1	-0.0060713147
213	0x3b56e8d2	0.003279258
214	0xbbe5f8c4	-0.0070181806
215	0xbb38fdf4	-0.002822754
216	0xbc0b334b	-0.008496116
217	0x3c2e8db5	0.010653903
218	0x3bd27bd6	0.006423454
219	0xbb46f869	-0.0030360466
220	0x3b37e413	0.0028059527
221	0xbb768443	-0.0037615455
222	0x3c4643be	0.012101112
223	0x3c15340f	0.00910665
224	0xbc202a80	-0.009775758
225	0xbb8d2de7	-0.0043084505
226	0xbc0795b5	-0.008275439
227	0xbc08fe14	-0.008361358
228	0x3be71012	0.0070514763
229	0x3c34536a	0.011006216
230	0xbb097e1f	-0.0020979715
231	0xbb9d2452	-0.0047955895
232	0xbbd0be20	-0.006370321
233	0xbc165b9c	-0.009177115
234	0x3b8b17f0	0.004244797
235	0xbb86f01a	-0.004117978
236	0xba65ba63	-0.00087634305
237	0xbc1052f5	-0.008808841
238	0x3ac1fa76	0.0014799375
239	0xbc0cc682	-0.00859225
240	0xbbcaa786	-0.006184521
241	0xbbf84cdf	-0.007577523
242	0xbc17d5f0	-0.009267315
243	0x3c1c58c7	0.009542651
244	0x3be3dad3	0.006953576
245	0x3b3eb1fa	0.0029097782
246	0x3c2891c6	0.010288661
247	0x3b6fc055	0.0036583145
248	0xbc3a2a46	-0.011362618
249	0x3b480fdc	0.003052703
250	0xbb9548bf	-0.004555791
251	0x3c08688d	0.008325708
252	0x3b4f4bf5	0.0031630967
253	0xbc3a842b	-0.01138405
254	0x3b7e632b	0.0038816433
255	0xbc1fd478	-0.009755246
