ConvLSTM/Original/0.73_101_A_S.pt (torch, 84929 bytes, 7 tensors)

conv_lstm.conv.weight f4 [40, 13, 3, 3]
-0.080780014 -0.06473987 -0.0792861 -0.076671004 0.071243286 -0.08022611 0.03756315 -0.0455329
6.195013e-05 0.090427816 0.058435056 0.09047167 -0.08446213 0.06634621 -0.06750338 -0.08561643
0.05635112 -0.053552456 0.07982866 0.008775203 -0.045931477 -0.08521074 0.009300398 0.05346535
-0.03961706 0.08771062 -0.06210864 0.08792859 0.0534247 0.011095157 -0.04894259 0.06955071
-0.0738513 -0.03710895 0.037492827 0.06244395 -0.08501327 0.030086031 0.033105277 -0.060297262
0.05557434 -0.06339929 -0.031293698 -0.07340357 0.046521977 -0.0623415 -0.0389808 0.080455676
-0.084321946 0.011989712 0.036702223 -0.08104053 -0.012999159 0.010991241 -0.07068889 0.08239224
-0.015729263 -0.011899371 -0.06120517 -0.051387567 -0.039701425 -0.05926703 -0.03894337 -0.010063292
-0.012648063 0.086808264 -0.06011995 0.08903551 0.08946858 -0.017499838 0.06934807 0.050715663
-0.08874561 -0.039828103 0.021942941 0.086108945 0.013317661 -0.00041406514 -0.022418888 -0.051550746
0.06004661 0.00527433 -0.04716266 0.012477119 0.06494441 -0.08027541 0.064523734 -0.028788084
0.07441182 0.02695423 0.004260243 0.020675747 0.049700383 -0.030046139 -0.030334728 -0.036057528
-0.06631642 0.030820196 0.074567385 -0.0893511 0.031964317 0.041804206 -0.040927235 0.012815677
0.06366765 0.068985164 -0.07723427 -0.006036529 0.060722787 0.03492686 0.011026796 0.07678798
0.085035585 0.01844193 -0.021093318 -0.020301817 0.052966546 0.03161774 -0.007919077 -0.078472
0.008904516 -0.056364708 0.018455401 -0.073764436 0.007950905 0.07555244 -0.012022266 -0.082980655
-0.039878093 0.013419952 -0.016414335 0.084410205 -0.039716385 0.072828285 -0.026802925 -0.07837283
0.035958737 -0.025474142 0.0713932 -0.073557824 0.01535964 -0.028691608 0.042655848 -0.00441792
-0.026087226 0.0766316 0.06265563 -0.00045931255 0.012617845 0.071348324 -0.04620923 0.08140307
-0.0049860296 -0.080502465 0.07204447 0.04902774 -0.03403261 -0.090634555 -0.024084639 -0.053835716
-0.07347282 0.009657244 0.065345384 -0.092756085 0.074706376 0.07502596 0.060952082 0.049908042
0.04857333 -0.058908414 0.0098089045 -0.07439196 -0.070906304 0.04254606 0.055180896 -0.04850854
-0.048868272 0.04033349 -0.049366366 0.01691244 -0.02664099 0.061767 0.028249653 0.07216323
-0.022424685 -0.03863945 -0.03455048 -0.03699871 -0.060853533 -0.061148535 -0.08328889 -0.022507137
-0.058726426 0.0649203 -0.09028318 0.048044488 0.047588654 -0.060895458 0.07775515 0.014540455
-0.00028520555 -0.048481807 0.089329325 0.048756525 -0.019510204 -0.07708044 0.066463776 0.08014246
-0.056033093 0.058463234 -0.058598004 -0.059159607 0.01774459 0.026713956 0.023591882 -0.08627489
0.054439545 -0.03955961 0.03454065 0.07456297 -0.09219897 -0.04872517 -0.07431798 0.08192499
-0.006689285 0.09212161 -0.009864195 -0.08387854 0.02716287 0.044622872 0.004705436 0.028748257
0.06779612 0.007885367 0.02238391 -0.04043064 0.035167452 0.08369392 -0.07623719 -0.07772932
0.06976032 0.063331045 -0.05936887 0.029064842 -0.030275585 -0.075296246 0.043222222 0.012500087
0.07923224 -0.055557106 -0.028682923 0.09278755 -0.03547337 -0.0047495943 -0.09016475 0.0024770654
00000000: fe6f a5bd 5696 84bd c060 a2bd b005 9dbd
00000010: 00e8 913d 964d a4bd d1db 193d b580 3abd
00000020: 39eb 8138 3832 b93d 9959 6f3d 3649 b93d
00000030: 7bfa acbd 86e0 873d 363f 8abd ab57 afbd
00000040: 6fd0 663d d259 5bbd 357d a33d dec5 0f3c
00000050: a522 3cbd f882 aebd b260 183c 7cfe 5a3d
00000060: 8045 22bd a0a1 b33d a165 7ebd e813 b43d
00000070: dcd3 5a3d 76c8 353c 0678 48bd 9a70 8e3d
00000080: 5a3f 97bd 8eff 17bd 1492 193d 3ac5 7f3d
00000090: 701b aebd fb76 f63c 6699 073d 43fa 76bd
000000a0: eba1 633d 7dd7 81bd d22d 00bd 9c54 96bd
000000b0: d48d 3e3d cd59 7fbd 55aa 1fbd f2c5 a43d
000000c0: fcb0 acbd 7f70 443c 1255 163d 94f8 a5bd
000000d0: 6dfa 54bc 9b14 343c 56c5 90bd 43bd a83d
000000e0: a8da 80bc 94f5 42bc 46b2 7abd c57b 52bd
000000f0: f69d 22bd fcc1 72bd 1583 1fbd 82e0 24bc
00000100: d239 4fbc 88c8 b13d 5640 76bd 4058 b63d
00000110: 4e3b b73d d25b 8fbc 5c06 8e3d 3abb 4f3d
00000120: 42c0 b5bd cb22 23bd afc1 b33c e359 b03d
00000130: 5232 5a3c e216 d9b9 d1a7 b7bc e026 53bd
00000140: 6ff3 753d 49d4 ac3b a22d 41bd d56c 4c3c
00000150: 9301 853d 6f67 a4bd 0525 843d fdd4 ebbc
00000160: 3965 983d 1ecf dc3c 8299 8b3b 2f60 a93c
00000170: a192 4b3d 5223 f6bc 8980 f8bc 0fb1 13bd
00000180: e7d0 87bd a37a fc3c c9b6 983d b6fd b6bd
00000190: 04ed 023d e33a 2b3d 51a3 27bd d8f8 513c
000001a0: 2f64 823d 1848 8d3d 002d 9ebd 13ce c5bb
000001b0: 75b8 783d 780f 0f3d bca9 343c 0443 9d3d
000001c0: 2327 ae3d 8813 973c e5cb acbc ff4f a6bc
000001d0: 73f3 583d 9a81 013d 04bf 01bc eeb5 a0bd
000001e0: 3fe4 113c aede 66bd c82f 973c cf11 97bd
000001f0: 8344 023c 3dbb 9a3d 0af9 44bc c3f1 a9bd
00000200: 3657 23bd 5cdf 5b3c 5b77 86bc 42df ac3d
00000210: a6ad 22bd ff26 953d cf91 dbbc ef81 a0bd
00000220: 7849 133d 26af d0bc 9936 923d 7ca5 96bd
00000230: 00a7 7b3c aa0a ebbc e6b7 2e3d 33c4 90bb
00000240: e1b4 d5bc 07f1 9c3d 9851 803d e3cf f0b9
00000250: 14bb 4e3c 121f 923d e445 3dbd a7b6 a63d
00000260: d961 a3bb 7ade a4bd 0d8c 933d 50d1 483d
00000270: c765 0bbd 9c9e b9bd 264d c5bc d782 5cbd
00000280: eb78 96bd 6b39 1e3c cdd3 853d e7f6 bdbd
00000290: a8ff 983d 36a7 993d e4a8 793d 606c 4c3d
000002a0: d4f4 463d f349 71bd 87b5 203c d05a 98bd
000002b0: 5337 91bd c744 2e3d 5d05 623d e4b0 46bd
000002c0: 192a 48bd bb34 253d 6334 4abd f58b 8a3c
000002d0: 353e dabc 65ff 7c3d d16b e73c 51ca 933d
000002e0: f9b3 b7bc 6644 1ebd ce84 0dbd f68b 17bd
000002f0: 8e41 79bd e376 7abd 5e93 aabd e360 b8bc
00000300: 1f8b 70bd eff4 843d 63e6 b8bd 4cca 443d
00000310: 52ec 423d 846d 79bd 183e 9f3d 173b 6e3c
00000320: a487 95b9 dc94 46bd 4bf2 b63d ecb4 473d
00000330: ddd3 9fbc 5adc 9dbd 291e 883d bb21 a43d
00000340: f582 65bd 2577 6f3d 7604 70bd 5851 72bd
00000350: 1a5d 913c 3ad7 da3c c343 c13c e4b0 b0bd
00000360: 00fc 5e3d 4209 22bd 7f7a 0d3d 78b4 983d
00000370: d0d2 bcbd 0b94 47bd 0634 98bd 4ac8 a73d
00000380: ca31 dbbb 41aa bc3d 6f9d 21bc 83c8 abbd
00000390: ab84 de3c 79c6 363d 0f30 9a3b 7781 eb3c
000003a0: b1d8 8a3d a031 013c 765e b73c 999a 25bd
000003b0: bf0b 103d b867 ab3d 3e22 9cbd 8d30 9fbd
000003c0: 80de 8e3d b5b3 813d c62c 73bd 6419 ee3c
000003d0: 8104 f8bc eb34 9abd c909 313d 2acd 4c3c
000003e0: 8344 a23d d98f 63bd 73f8 eabc 6607 be3d
000003f0: 864c 11bd 7ca2 9bbb 4ca8 b8bd 4356 223b

conv_lstm.conv.bias f4 [40]
0.03656672 -0.043718196 0.004684634 -0.0760906 -0.0051624947 0.040969726 0.085291274 0.020912219
-0.008830434 -0.06458841 0.066662244 0.086727634 0.026104571 0.08431476 -0.03790183 0.07600779
0.0490216 -0.057292067 -0.09469882 -0.06844131 -0.027577514 -0.093637735 -0.040275335 -0.021657992
-0.08290881 -0.08275544 -0.08466165 0.047448065 0.076567106 0.001406832 0.06431301 0.07153503
0.052753516 0.055553023 -0.08062017 0.0755269 -0.06531771 -0.016029648 0.03990585 0.01283556
00000000: fcc6 153d da11 33bd 8f81 993b 63d5 9bbd
00000010: 252a a9bb dfcf 273d 31ad ae3d 1a50 ab3c
00000020: 86ad 10bc ee46 84bd 3786 883d 429e b13d
00000030: 41d9 d53c 38ad ac3d f33e 1bbd f9a9 9b3d
00000040: e0ca 483d 16ab 6abd 74f1 c1bd f52a 8cbd
00000050: 3dea e1bc 24c5 bfbd c0f7 24bd 1a6c b1bc
00000060: 18cc a9bd af7b a9bd 1663 adbd e758 423d
00000070: 37cf 9c3d 7365 b83a 8ab6 833d f580 923d
00000080: 1214 583d 918b 633d 301c a5bd d9ad 9a3d
00000090: 4bc5 85bd 9c50 83bc 5174 233d 3e4c 523c

conv1.weight f4 [20, 10, 3, 3]
-0.036742125 0.07331809 -0.01065495 0.08508994 -0.06906551 0.06821578 0.08442646 0.029440945
0.04762001 -0.010290952 -0.05030697 -0.044397566 0.0985174 0.09340736 0.09460062 -0.04545593
0.07840702 0.09492181 -0.09942784 0.04169506 0.03090925 -0.035506915 -0.037381597 0.0987426
0.08072293 -0.10373865 -0.026895093 -0.08221096 -0.05920868 -0.07046612 -0.045643516 0.10337243
-0.021009332 0.09814614 -0.02613494 0.06492674 0.058600325 -0.05535297 -0.002877207 0.06722069
-0.03974053 -0.049345467 -0.07816529 0.06665951 0.06342656 -0.0717165 0.071741946 0.032516573
0.025971325 0.07349104 -0.056662593 -0.0943609 -0.089197814 -0.102497496 -0.027302414 -0.031093981
-0.0725415 -0.035150517 0.06831864 -0.0901362 -0.08364142 0.052036595 -0.06373263 -0.021991016
-0.045619693 0.020635156 0.06940592 -0.0094878925 -0.087668866 -0.05737762 -0.08522694 -0.05309209
-0.051875673 0.045331147 0.08582595 0.067587465 0.04291741 -0.07277099 -0.005935874 0.055896185
0.10415708 0.064563066 -0.010696757 0.077174634 -0.092243366 0.029811455 -0.05681162 0.065631114
-0.02480875 0.06002094 0.01649857 -0.093845084 -0.09207967 -0.016521603 -0.056114852 0.08204945
0.03355099 0.022705566 0.06314376 -0.012844421 0.054876067 0.05810215 -0.011863236 0.09721781
-0.09525725 0.035671875 -0.037779305 0.013110476 0.07180171 0.06274322 0.061672475 -0.08707135
-0.10540358 0.0493837 0.061532855 0.082567945 0.0013315185 -0.06486609 0.04247145 -0.034502015
0.04893319 0.0012540254 -0.09893749 0.09300254 0.00084919424 0.04158297 -0.10043496 -0.09128475
0.053121045 0.017788459 -0.07406581 0.032575432 -0.03390768 -0.0013631465 0.02393813 0.025359418
0.009614128 -0.081864536 -0.050949972 -0.026540134 -0.060332097 0.004315648 -0.006435128 0.034969047
-0.08946033 0.010737406 -0.083181456 0.050733764 -0.082780905 -0.014679299 -0.067492045 -0.066107
0.0152685195 0.014577001 0.080645256 0.06563133 -0.013020933 0.021903029 0.102710836 -0.037013784
0.01854792 0.07798487 0.038349476 0.0810009 -0.081238195 0.10137557 -0.032688376 -0.07982775
-0.093571454 -0.094234474 -0.08656614 0.020429052 -0.045358144 -0.027089799 0.085873656 0.004431706
0.040699914 -0.0636928 -0.064191304 -0.023990177 -0.07658104 -0.03671044 -0.049919676 0.034844864
-0.049121074 0.05310936 -0.09563939 -0.065761775 0.06490419 -0.02467343 0.09642226 0.04763034
0.005661886 0.1023159 -0.009953373 -0.057518706 0.042981777 -0.060673375 -0.05432318 -0.0003566803
-0.064676285 -0.10188111 0.002075768 -0.053629454 0.082655184 -0.030971413 0.061275996 0.09237589
-0.0881921 0.026404457 0.091698095 0.05503268 -0.08714374 -0.06331339 0.03518638 0.0051283096
-0.034027018 0.095569655 -0.08782818 0.048654255 0.018202918 0.015689192 -0.07768589 0.030034298
-0.08203729 -0.031632256 -0.026287353 -0.08317748 -0.048568066 -0.05116769 -0.03404946 0.030498633
-0.006284723 0.061374072 0.091847286 -0.0065684663 -0.09802098 -0.024186023 0.055804573 -0.054583564
-0.025579551 0.090862 -0.09241673 -0.049537804 8.095836e-05 0.04526966 0.029484939 -0.07142213
-0.0048005553 0.06537502 -0.04376859 0.04986517 0.092939936 0.07655922 0.044790044 -0.012928498
00000000: e97e 16bd cb27 963d 1992 2ebc a243 ae3d
00000010: 3872 8dbd b7b4 8b3d c8e7 ac3d 232e f13c
00000020: 330d 433d 629b 28bc ae0e 4ebd 39da 35bd
00000030: 7ec3 c93d 5c4c bf3d f8bd c13d ff2f 3abd
00000040: dc93 a03d 5e66 c23d d3a0 cbbd 70c8 2a3d
00000050: 6535 fd3c b36f 11bd 721d 19bd 8f39 ca3d
00000060: 1052 a53d ee74 d4bd 1953 dcbc 385e a8bd
00000070: cd84 72bd 8b50 90bd b2f4 3abd edb4 d33d
00000080: c31b acbc d800 c93d f118 d6bc 50f8 843d
00000090: e506 703d ccb9 62bd 868f 3cbb 00ab 893d
000000a0: f7c6 22bd 791e 4abd 2015 a0bd c884 883d
000000b0: c9e5 813d 1ae0 92bd 71ed 923d 1930 053d
000000c0: d1c1 d43c 7882 963d 0917 68bd 4a40 c1bd
000000d0: 58ad b6bd 35ea d1bd 50a9 dfbc ceb8 febc
000000e0: a390 94bd fdf9 0fbd a5ea 8b3d 5499 b8bd
000000f0: 314c abbd 5324 553d 4186 82bd 8126 b4bc
00000100: b7db 3abd 0f0b a93c b124 8e3d 1b73 1bbc
00000110: bc8b b3bd cc04 6bbd 768b aebd 1777 59bd
00000120: 967b 54bd 27ad 393d 84c5 af3d 4c6b 8a3d
00000130: 2bca 2f3d f508 95bd b881 c2bb 66f3 643d
00000140: 4f50 d53d a439 843d 7341 2fbc bc0d 9e3d
00000150: 17ea bcbd 2737 f43c 4db3 68bd 9b69 863d
00000160: b83b cbbc 84d8 753d 0228 873c da31 c0bd
00000170: 4494 bcbd 5058 87bc b0d8 65bd 8b09 a83d
00000180: c36c 093d 0601 ba3c 8451 813d 6871 52bc
00000190: bac5 603d 85fc 6d3d 055e 42bc 221a c73d
000001a0: 3c16 c3bd ac1c 123d 79be 1abd 52cd 563c
000001b0: c60c 933d 847f 803d 479c 7c3d 7752 b2bd
000001c0: d5dd d7bd 9046 4a3d e009 7c3d 6219 a93d
000001d0: 5986 ae3a 83d8 84bd 8bf6 2d3d fc51 0dbd
000001e0: 2b6e 483d 1c5e a43a bd9f cabd 1e78 be3d
000001f0: 769c 5e3a e852 2a3d d8b0 cdbd 80f3 babd
00000200: 7495 593d 1ab9 913c d1af 97bd d16d 053d
00000210: c8e2 0abd 9bab b2ba e619 c43c 8ebe cf3c
00000220: 9384 1d3c 98a8 a7bd ebb0 50bd b26a d9bc
00000230: ca1e 77bd 486a 8d3b c4dd d2bb b43b 0f3d
00000240: fa36 b7bd f2eb 2f3c 0a5b aabd 35ce 4f3d
00000250: 0989 a9bd 7181 70bc 4539 8abd 1b63 87bd
00000260: d028 7a3c 60d4 6e3c 5729 a53d b869 863d
00000270: c055 55bc fb6d b33c 0f5a d23d c49b 17bd
00000280: cff1 973c 88b6 9f3d 5714 1d3d cde3 a53d
00000290: 3660 a6bd ff9d cf3d 3fe4 05bd bb7c a3bd
000002a0: 64a2 bfbd 01fe c0bd 9749 b1bd d45a a73c
000002b0: 76c9 39bd 6deb ddbc 87de af3d d837 913b
000002c0: f4b4 263d 5f71 82bd bb76 83bd 0c87 c4bc
000002d0: 85d6 9cbd b05d 16bd 9378 4cbd 7db9 0e3d
000002e0: 2e33 49bd 3389 593d 96de c3bd 1cae 86bd
000002f0: 7dec 843d ef1f cabc 0979 c53d 0818 433d
00000300: 5887 b93b 008b d13d 7913 23bc bc98 6bbd
00000310: a90d 303d a584 78bd fc81 5ebd d200 bbb9
00000320: 0075 84bd 0ba7 d0bd 9c09 083b 8faa 5bbd
00000330: 1f47 a93d c3b7 fdbc 8afc 7a3d 922f bd3d
00000340: 0f9e b4bd 294e d83c 36cc bb3d f369 613d
00000350: 6b78 b2bd 73aa 81bd 981f 103d 610b a83b
00000360: ea5f 0bbd 06ba c33d 43df b3bd af49 473d
00000370: 491e 953c 9f86 803c c819 9fbd 7d0a f63c
00000380: 2b03 a8bd d390 01bd 9358 d7bc f458 aabd
00000390: 4fef 46bd 3695 51bd 7277 0bbd 45d8 f93c
000003a0: 14f0 cdbb 6163 7b3d 6e1a bc3d 4a3c d7bb
000003b0: 39bf c8bd c421 c6bc 5693 643d 0493 5fbd
000003c0: 358c d1bc db15 ba3d fc44 bdbd 27e8 4abd
000003d0: 30c8 a938 ae6c 393d 668a f13c c445 92bd
000003e0: fa4d 9dbb 57e3 853d b146 33bd 6c3f 4c3d
000003f0: 4b57 be3d 15cb 9c3d c475 373d 0dd2 53bc

conv1.bias f4 [20]
-0.045427956 -0.07169159 -0.00085305807 -0.03143123 -0.046210278 -0.07230834 -0.06465628 0.038339816
0.09092907 0.06301557 0.09714584 0.06251078 -0.011320998 -0.003117528 -0.029968748 0.06454759
-0.002780897 -0.093617156 0.09275435 0.048571877
00000000: aa12 3abd 0ad3 92bd c29f 5fba 09be 00bd
00000010: fd46 3dbd 6516 94bd 836a 84bd 360a 1d3d
00000020: 0539 ba3d 4f0e 813d 66f4 c63d a705 803d
00000030: b57b 39bc 714f 4cbb 0581 f5bc 8731 843d
00000040: b63f 36bb 5aba bfbd fef5 bd3d 4ef3 463d

conv2.weight f4 [40, 20, 3, 3]
-0.05831105 -0.0023535122 0.0035957978 0.059465513 0.02490326 0.041811112 0.0118557485 0.055483174
0.045281537 -0.04938811 -0.036242265 0.009058867 0.07069152 -0.026406623 -0.059004717 -0.07159463
0.005321872 -0.04322939 0.053553272 0.045769095 -0.013575025 -0.03235516 -0.007620517 -0.037734743
-0.06169098 0.019050054 -0.06816485 0.060834225 0.024553284 -0.066564985 -0.02551275 -0.001416367
-0.04390593 0.062209755 0.05576954 0.0068806265 -0.020926433 -0.004595851 0.04903321 0.030349527
-0.014352661 -0.048196197 -0.013179433 -0.030696055 -0.02807735 -0.050991494 0.0062624738 0.069422
0.031177614 -0.0560365 0.044033147 -0.04406478 -0.05022309 -0.041411523 0.015160125 -0.05486058
-0.026167545 0.053261485 -0.012248418 -0.0010987873 0.0284143 -0.023734953 -0.06779294 -0.015308075
0.053404182 0.009692773 0.021927517 -0.06869251 0.059649516 0.002749052 -0.020661693 -0.06598448
0.068988316 -0.02082728 0.036730558 0.07409723 -0.057623304 0.06879018 -0.012150262 -0.03716784
-0.02778608 -0.05972324 -0.007026604 -0.020380722 0.07163048 0.06587097 0.072225966 0.038786277
0.06259964 0.034323726 0.06550838 -0.032903615 0.012731665 0.05394254 0.047336377 0.014226756
-0.054728977 0.03665911 0.058644276 -0.005311396 -0.031138038 -0.046184465 -0.02467289 -0.029386703
0.059852805 0.018068384 -0.052454438 0.026028082 -0.06578282 0.0071879434 0.023483578 -0.055530008
0.06549615 0.030695574 -0.0038828119 0.024570558 -0.011462004 -0.01811903 -0.07293788 0.06498093
0.020862343 0.04014401 -0.022784766 -0.016288163 0.03164334 0.023389652 -0.0027835004 -0.066776276
-0.022600092 -0.07307773 0.051725477 0.052663628 0.05274604 -0.057734124 0.028488405 -0.040712066
-0.06607411 0.07171963 -0.00060583773 -0.06711924 0.018823434 0.014694097 -0.020872703 0.016370885
-0.004960141 0.023835411 0.00763931 -0.00027540987 0.028988862 0.06277184 0.07375748 0.04344987
0.055684198 -0.040059254 0.026325474 -0.050553262 -0.030090475 0.010493839 0.03848718 0.028615661
-0.0030847576 0.043652046 -0.04690638 0.03948376 0.015706599 -0.07375475 0.029247355 0.02939254
-0.036242932 -0.068144575 -0.035908237 -0.035387 -0.030635653 0.018103518 -0.020205023 -0.0033243329
0.0030369456 -0.06792748 0.047879886 0.0057553253 0.069679834 -0.06315644 0.059350174 0.011777739
0.034951854 -0.06416309 -0.020865656 -0.0461717 -0.058734234 -0.045147948 -0.018741617 -0.023272028
-0.05351671 0.068085 0.034847036 0.021710537 -0.01109591 0.061864063 -0.03221199 -0.0014285044
0.07112472 0.037959293 0.018221123 0.02905234 0.050335445 -0.04480706 -0.03805579 0.0010251635
0.067218654 0.0072502564 -0.044429418 -0.06825131 -0.0042274473 0.00985733 0.05705411 0.02938378
-0.024052577 -0.0024329827 -0.038283873 -5.4458225e-05 -0.014889824 -0.012174128 0.0310261 0.05740454
0.0062919375 0.014750786 -0.02912591 0.0037296643 -0.025351988 0.05356609 0.019000119 -0.041006874
0.041471366 0.04292934 0.05954425 -0.023789003 0.06966375 0.023993803 -0.07300163 -0.03673417
0.021241754 -0.06381262 0.025344172 0.042321328 0.0036358014 0.042834412 -0.06639482 -0.064993754
0.060364883 0.033658404 -0.05962257 0.052904006 -0.043622978 0.041510873 -0.049079016 0.06241702
00000000: 91d7 6ebd 623d 1abb 7aa7 6b3b 1c92 733d
00000010: ec01 cc3c 2142 2b3d 9d3e 423c 5342 633d
00000020: 2279 393d 304b 4abd c572 14bd a46b 143c
00000030: b7c6 903d b452 d8bc eeae 71bd 35a0 92bd
00000040: 1963 ae3b 4d11 31bd ad5a 5b3d 6078 3b3d
00000050: c869 5ebc d886 04bd 88b5 f9bb bf8f 1abd
00000060: aeaf 7cbd dc0e 9c3c 039a 8bbd 4f2d 793d
00000070: f823 c93c 3953 88bd 1d00 d1bc 64a5 b9ba
00000080: b4d6 33bd a8cf 7e3d 9a6e 643d e176 e13b
00000090: e96d abbc cb98 96bb 0cd7 483d 929f f83c
000000a0: 6c27 6bbc 6069 45bd 8cee 57bc 4b76 fbbc
000000b0: 7902 e6bc 75dc 50bd 7035 cd3b 1f2d 8e3d
000000c0: 3268 ff3c 8786 65bd 1a5c 343d 457d 34bd
000000d0: bab6 4dbd 219f 29bd 2c62 783c 7db5 60bd
000000e0: 525d d6bc b728 5a3d 97ad 48bc 2f05 90ba
000000f0: 1bc5 e83c ce6f c2bc 06d7 8abd b8ce 7abc
00000100: 58be 5a3d 70ce 1e3c 56a1 b33c a9ae 8cbd
00000110: 0d53 743d 7029 343b b642 a9bc df22 87bd
00000120: bf49 8d3d f99d aabc c872 163d 4ac0 973d
00000130: 6a06 6cbd dee1 8c3d e411 47bc 4e3d 18bd
00000140: a29f e3bc 5ba0 74bd 6d3f e6bb 79f5 a6bc
00000150: 00b3 923d 5ce7 863d 35eb 933d 5cde 1e3d
00000160: 3d34 803d 0997 0c3d 4229 863d f1c5 06bd
00000170: 7998 503c daf2 5c3d cae3 413d 5717 693c
00000180: 7e2b 60bd dd27 163d fb34 703d 380b aebb
00000190: 3315 ffbc ec2b 3dbd cd1e cabc 62bc f0bc
000001a0: 3728 753d 2604 943c 77da 56bd d838 d53c
000001b0: 25b9 86bd d788 eb3b a260 c03c 6f73 63bd
000001c0: d822 863d 4975 fb3c c676 7ebb 3248 c93c
000001d0: 21cb 3bbc 5c6e 94bc 7560 95bd b914 853d
000001e0: 81e7 aa3c 0c6e 243d 1ea7 babc c16e 85bc
000001f0: 729c 013d a89b bf3c 636b 36bb 00c2 88bd
00000200: d423 b9bc c7a9 95bd 18de 533d d1b5 573d
00000210: 3b0c 583d 9e7a 6cbd 8460 e93c b2c1 26bd
00000220: dd51 87bd bee1 923d 15d1 1eba d075 89bd
00000230: 9a33 9a3c 83bf 703c 3bfd aabc 3c1c 863c
00000240: ae88 a2bb 7b42 c33c 2d53 fa3b e364 90b9
00000250: 0d7a ed3c 868e 803d 290e 973d 7ef8 313d
00000260: 1d15 643d 2c15 24bd 85a8 d73c f010 4fbd
00000270: 4d80 f6bc 5aee 2b3c bca4 1d3d 646b ea3c
00000280: a529 4abb 7dcc 323d e820 40bd b9b9 213d
00000290: 20ab 803c bb0c 97bd 2698 ef3c a0c8 f03c
000002a0: 7873 14bd 628f 8bbd 8414 13bd f5f1 10bd
000002b0: 9ff7 fabc d44d 943c 0185 a5bc 0ddd 59bb
000002c0: 7e07 473b 901d 8bbd b31d 443d 2b97 bc3b
000002d0: 4db4 8e3d 2a58 81bd 2b19 733d 6bf7 403c
000002e0: ad29 0f3d f067 83bd 74ee aabc 891e 3dbd
000002f0: 4f93 70bd 0eed 38bd 0588 99bc fba4 bebc
00000300: 5634 5bbd 2670 8b3d c4bb 0e3d 4cda b13c
00000310: 9fcb 35bc 2c65 7d3d b8f0 03bd a73c bbba
00000320: d6a9 913d 347b 1b3d 7744 953c 2cff ed3c
00000330: 8a2c 4e3d 9c87 37bd 63e0 1bbd c75e 863a
00000340: efa9 893d 8f93 ed3b 9ffb 35bd 58c7 8bbd
00000350: 6686 8abb a380 213c 92b1 693d 41b6 f03c
00000360: e909 c5bc ad72 1fbb 8dcf 1cbd 136a 64b8
00000370: 73f4 73bc fe75 47bc 732a fe3c 0621 6b3d
00000380: 992c ce3b 48ad 713c 7699 eebc 626d 743b
00000390: f9ae cfbc 1e68 5b3d 23a6 9b3c d3f6 27bd
000003a0: e1dd 293d add6 2f3d ace4 733d 28e1 c2bc
000003b0: deab 8e3d a78e c43c e181 95bd 9276 16bd
000003c0: 3003 ae3c 31b0 82bd 959e cf3c 2159 2d3d
000003d0: a046 6e3b 2373 2f3d 02fa 87bd 721b 85bd
000003e0: 2b41 773d 65dd 093d cc36 74bd dfb1 583d
000003f0: 02ae 32bd 4e07 2a3d 1407 49bd fda8 7f3d

conv2.bias f4 [40]
-0.06620472 0.0406131 0.020667247 0.0061365864 0.059857532 -0.07194146 0.036594223 -0.040782228
0.054310754 0.031930935 -0.069661364 0.071334824 0.026102377 -0.050761532 0.032279175 0.04522857
0.06277484 -0.005982161 -0.031886086 -0.014998065 -0.018720869 0.061049376 0.073679626 0.014088026
0.05555069 0.051061306 -0.06109222 -0.042843856 -0.0587151 -0.054726616 -0.05416413 -0.063698545
-0.0602361 0.07575586 0.026502589 0.0024372707 -0.012817704 -0.07380085 0.06763492 0.005319502
00000000: 5796 87bd ec59 263d 5c4e a93c 6b15 c93b
00000010: 2c2d 753d 0b56 93bd d3e3 153d 440b 27bd
00000020: f474 5e3d 03ca 023d 9eaa 8ebd fe17 923d
00000030: a7d4 d53c 53eb 4fbd 2b37 043d 9841 393d
00000040: 1890 803d 0106 c4bb fc9a 02bd 72ba 75bc
00000050: 825c 99bc e90e 7a3d 58e5 963d 77d1 663c
00000060: 1f89 633d a925 513d d63b 7abd 0a7d 2fbd
00000070: 3f7f 70bd 0429 60bd 35db 5dbd 6274 82bd
00000080: 21ba 76bd e325 9b3d f51b d93c 9eba 1f3b
00000090: 5901 52bc e624 97bd 2d84 8a3d 384f ae3b

fc1.weight f4 [1, 6760]
0.008547596 -0.0007998277 0.011791217 -0.00024200788 0.0015317684 0.005452176 -0.006701444 -0.009022692
-0.0019244262 -0.0038622508 -0.007721889 0.00065128296 -0.011029354 -0.00083649845 0.010259259 0.0017587263
-0.0077107567 -0.00072390825 0.005342958 -0.01116175 0.0046300143 -0.00924127 0.0062411195 -0.006976257
-0.0053262613 0.0068468 0.0007135647 -0.010619312 0.011883761 0.0049577863 -0.005715064 0.0045402134
0.011181326 0.0025264518 -0.0030909586 -0.0040368373 0.007461278 0.0055301124 -0.004232528 -0.0039142384
0.007949187 -0.0014979017 -0.011456452 -0.00966017 0.008453443 -0.001744284 -0.0044837967 -0.005628266
-0.009788619 -0.004291011 0.00775228 0.007170591 -0.009551759 -0.0017898048 0.005424631 -0.010875033
0.007265697 -0.007837092 0.0024549516 -0.011035437 -0.009411239 -0.008352359 -0.00012627432 -0.005865582
-0.0064312383 -0.0041015157 -0.005406787 -0.0013794524 -0.008717634 0.008458846 0.000594521 0.0079154745
0.00060823414 0.0075752074 0.009976009 -0.0031076977 0.0031089778 0.007817129 -0.007156534 -0.011959204
-0.005389203 -0.011808632 0.0104840575 0.0020331407 -0.0020582734 -0.008006845 -0.0057526072 0.009570654
-0.005701664 0.0007885228 -0.00045774077 0.0058784713 0.009582081 -0.009804032 0.009961578 0.0044484204
-0.0028328495 0.00054534926 0.010398977 -0.0017501777 -0.008872879 0.008418485 -0.0075761196 0.005238029
-0.0024612544 7.3570605e-05 -0.0069509796 -0.00046449582 -0.0034806484 -0.011213291 -0.0027769634 0.004305446
0.0032611373 0.0055395975 -0.00823093 -0.010188337 -0.01036338 0.0014772944 -0.011187998 0.007254563
-0.0024134528 0.009278126 0.006559519 9.794915e-05 0.0031184994 -0.0040307115 -0.004733196 0.0032892826
0.0074149054 0.008344178 -0.006548213 0.009920513 -0.01020209 0.011006965 0.0112335235 -0.010552361
-0.0064916583 0.0038276738 -0.009447467 0.004615589 0.005371085 -0.011789494 0.01097031 -0.006182516
-0.0025829312 0.01027852 0.0031443872 -0.009799195 -0.0096046 0.0062042368 0.012013989 -0.0023654785
0.01044809 -0.0042417203 0.0034832424 0.009616563 -0.0039270176 -0.010729167 -0.0029380512 0.005650549
-0.010351318 0.0026300019 0.004987138 -0.004423472 -0.0035490561 0.005334817 -0.0030540037 0.01057485
-0.0058573075 0.005840459 0.011303338 0.008372265 0.0016075639 0.009366427 0.008234773 0.013396807
0.014592657 0.013596936 0.004118393 -0.009233412 -0.00942454 0.008510621 0.0029595478 -0.0024532685
0.010212178 -0.009003859 0.013230962 0.010229245 -0.0040570414 -0.0013864016 -0.008686451 0.008488411
0.002644306 0.008291988 0.00029382194 -0.0023668208 0.001147572 0.0060679116 0.008765946 0.012500245
-0.0048112418 -0.0051802765 0.00415733 0.00027913702 0.0016656077 0.014551237 -0.0011763584 -0.0033065423
0.0018723934 -0.009022516 0.0045047565 0.0064130905 0.008171392 -0.0023402446 0.0037246854 0.010588129
-0.0036807905 -0.009049655 -0.0066710156 -0.001465804 -0.00709999 0.014031694 0.005872373 0.01105209
-0.0012874259 0.0031031827 0.009148021 -0.008199492 0.009526988 -0.004622028 -0.0072183004 -0.0031844391
0.0055601774 0.011094659 0.010356976 0.011386891 -0.002080881 0.009187623 0.0015511292 0.007866944
-0.005114085 -0.0011033233 -0.0022567865 0.01295653 0.009757554 0.004708445 0.009139192 0.0015974231
0.0049990704 0.004920785 -0.0012230849 -0.0035475055 -0.00059159665 0.007711077 0.005445717 -0.007982638
00000000: 370b 0c3c 87ab 51ba f32f 413c 7fc3 7db9
00000010: 9ec5 c83a 2ba8 b23b c997 dbbb ead3 13bc
00000020: 073d fcba d11d 7dbb e607 fdbb dcba 2a3a
00000030: 77b4 34bc 7648 5bba 7316 283c 1085 e63a
00000040: 84aa fcbb a9c4 3dba fb13 af3b c6df 36bc
00000050: 60b7 973b b268 17bc 4e82 cc3b 1699 e4bb
00000060: eb87 aebb 1f5b e03b 840e 3b3a 9ffc 2dbc
00000070: 1bb4 423c ed74 a23b 6e45 bbbb 12c6 943b
00000080: e131 373c d492 253b ae91 4abb 7247 84bb
00000090: bc7d f43b f235 b53b 05b1 8abb 0343 80bb
000000a0: 4f3d 023c 3e55 c4ba d8b3 3bbc b145 1ebc
000000b0: 4f80 0a3c 75a0 e4ba d0ec 92bb 516d b8bb
000000c0: 7260 20bc 9c9b 8cbb d706 fe3b 47f7 ea3b
000000d0: fb7e 1cbc e297 eaba 1ac1 b13b 322d 32bc
000000e0: 1515 ee3b 2567 00bc 41e3 203b facd 34bc
000000f0: 9931 1abc 55d8 08bc 8168 04b9 1134 c0bb
00000100: 23bd d2bb 0266 86bb 6b2b b1bb bece b4ba
00000110: 68d4 0ebc f996 0a3c a1d9 1b3a e8af 013c
00000120: e771 1f3a 7239 f83b 6a72 233c 84aa 4bbb
00000130: febf 4b3b 6a13 003c 5c81 eabb 8af0 43bc
00000140: e997 b0bb fe78 41bc 53c5 2b3c 713e 053b
00000150: 19e4 06bb 242f 03bc 5e80 bcbb 3bce 1c3c
00000160: 06d5 babb dfb4 4e3a edfc efb9 31a0 c03b
00000170: 29fe 1c3c 17a1 20bc e335 233c 0ec4 913b
00000180: 54a7 39bb c5f5 0e3a 7960 2a3c 3866 e5ba
00000190: 8d5f 11bc afed 093c 1941 f8bb c6a3 ab3b
000001a0: ff4c 21bb eb49 9a38 0bc5 e3bb 9387 f3b9
000001b0: 971b 64bb f4b7 37bc b7fd 35bb b314 8d3b
000001c0: ceb8 553b 8385 b53b 06db 06bc fcec 26bc
000001d0: 2bcb 29bc c6a1 c13a dd4d 37bc afb7 ed3b
000001e0: 052b 1ebb 4803 183c 3cf1 d63b 0d6a cd38
000001f0: bd5f 4c3b 0f14 84bb ed18 9bbb 0191 573b
00000200: bcf8 f23b 05b6 083c 6492 d6bb a689 223c
00000210: ab26 27bc 8f56 343c d00c 383c cfe3 2cbc
00000220: fab7 d4bb b6d9 7a3b 8cc9 1abc 5e3e 973b
00000230: edff af3b b928 41bc d1bc 333c b496 cabb
00000240: 6546 29bb 3d67 283c 1012 4e3b ce8c 20bc
00000250: 9d5c 1dbc e94c cb3b 52d6 443c 2506 1bbb
00000260: 772e 2b3c 21fe 8abb 1c47 643b ca8e 1d3c
00000270: 36ae 80bb 63c9 2fbc 528c 40bb 3e28 b93b
00000280: 9398 29bc 1c5c 2c3b 256b a33b c6f2 90bb
00000290: 4897 68bb b0cf ae3b ae25 48bb 2342 2d3c
000002a0: a8ee bfbb 5261 bf3b a331 393c d32b 093c
000002b0: e5b4 d23a a475 193c 24eb 063c 487e 5b3c
000002c0: 0a16 6f3c afc5 5e3c 96f3 863b bd47 17bc
000002d0: 6369 1abc 2270 0b3c f9f4 413b 04c7 20bb
000002e0: fb50 273c ec84 13bc adc6 583c 9098 273c
000002f0: eef0 84bb ebb7 b5ba 9e51 0ebc fa12 0b3c
00000300: 184c 2d3b 1edb 073c 1d0c 9a39 aa1c 1bbb
00000310: 206a 963a 55d5 c63b 0b9f 0f3c d4cd 4c3c
00000320: 9fa7 9dbb 4fbf a9bb 363a 883b 2359 9239
00000330: 8550 da3a 5068 6e3c 0a30 9aba 93b2 58bb
00000340: 196b f53a 2dd3 13bc a39c 933b e724 d23b
00000350: 4de1 053c ca5e 19bb da19 743b d579 2d3c
00000360: 6b39 71bb 0145 14bc 8998 dabb 3820 c0ba
00000370: 08a7 e8bb 31e5 653c 096d c03b d313 353c
00000380: d8be a8ba c45e 4b3b 95e1 153c 2957 06bc
00000390: 1517 1c3c 6274 97bb 7e87 ecbb 06b2 50bb
000003a0: 2632 b63b 5fc6 353c 4eb0 293c 1590 3a3c
000003b0: 645f 08bb af87 163c 424f cb3a 5be4 003c
000003c0: 0e94 a7bb 639d 90ba 98e6 13bb a047 543c
000003d0: 26de 1f3c 4d49 9a3b 8dbc 153c a060 d13a
000003e0: 3ecf a33b 893e a13b eb4f a0ba 447d 68bb
000003f0: 6115 1bba 34ad fc3b fc71 b23b 9cc9 02bc
