ConvLSTM/Original/0.73_68_A_S.pt (torch, 84919 bytes, 7 tensors)

conv_lstm.conv.weight f4 [40, 13, 3, 3]
0	0x3c8e10a0	0.017341912
1	0x3cfcb21e	0.030846652
2	0xbb938b17	-0.004502665
3	0xbd3801c9	-0.044923577
4	0xbd299d13	-0.041409563
5	0x3c0d29d1	0.008615927
6	0x3d9cf5e9	0.07664091
7	0x3d8efc0d	0.069816686
8	0xbd1dd685	-0.03853466
9	0xbc7d329a	-0.015453959
10	0xbcd273ee	-0.025690045
11	0xbd8387b0	-0.06422365
12	0xbc566e43	-0.013087812
13	0xbd88177a	-0.06645103
14	0x3db070e3	0.086152814
15	0xbaa17860	-0.00123192
16	0xbdb1e868	-0.08686906
17	0x3d99ba90	0.07506287
18	0xbdab3789	-0.08360202
19	0x3d57f76b	0.05272619
20	0x3bd895e8	0.006609667
21	0x3db3f30d	0.08786593
22	0xbd523644	-0.051321283
23	0x3cb331bb	0.0218743
24	0x3d3e968b	0.046530288
25	0x3dc35244	0.09537175
26	0xbdae8d71	-0.085230716
27	0x3d30348b	0.04301886
28	0x3d605900	0.054772377
29	0x3d94b853	0.072617196
30	0x3c501044	0.0126991905
31	0x3cd2d0f9	0.025734412
32	0xbc65d698	-0.014028214
33	0x3d852d03	0.06502726
34	0xbd3ffcb6	-0.046871863
35	0xbc8123f7	-0.01576422
36	0xbd2be541	-0.04196668
37	0x3d47f459	0.048817012
38	0xbc9eb5f6	-0.019373875
39	0x3be52379	0.006992754
40	0x3ca2456d	0.019808495
41	0x3bf3aa92	0.007436105
42	0x3d13e565	0.03610744
43	0x3db6948c	0.08915052
44	0x3db38329	0.08765251
45	0xbdab868f	-0.083752744
46	0xbd660d6a	-0.056165136
47	0x3dbd9876	0.09257595
48	0x3d715381	0.058917526
49	0x3d27d56c	0.04097502
50	0x3cfedd55	0.031111399
51	0x3d63d3b5	0.05562182
52	0xbd1f584e	-0.038902573
53	0xbd535cdb	-0.051602226
54	0xbd27f4c7	-0.041004922
55	0x3ba51b05	0.0050386214
56	0x3d8e7811	0.069564946
57	0xbc103b74	-0.008803237
58	0x3b113604	0.002215744
59	0xbcd92908	-0.026508823
60	0xbcac5602	-0.021037105
61	0xbd23afd9	-0.039962623
62	0xbdb3ee37	-0.0878567
63	0x3c6d390c	0.014478933
64	0x3d0b60f4	0.03402801
65	0x3c90021d	0.017579133
66	0x3d39b9e5	0.0453433
67	0xbd9becc6	-0.0761352
68	0xbd802e50	-0.062588334
69	0x3d544802	0.051826485
70	0xbd225973	-0.039636087
71	0x3cacfdbe	0.021117087
72	0x3c8df278	0.017327532
73	0x3cc93481	0.024561169
74	0x3cd524e6	0.026018571
75	0x3db322a1	0.08746839
76	0xbc6b97d6	-0.014379462
77	0xbd8bd8ac	-0.06828436
78	0x3b13933c	0.0022518178
79	0xbc91eb16	-0.017812293
80	0x3d0e7da7	0.0347878
81	0x3d3dd13b	0.046342116
82	0xbbde36a0	-0.006781414
83	0xbd67511c	-0.056473836
84	0xbcff78b2	-0.031185482
85	0xbce1e4f7	-0.027575
86	0xbd4d6dfc	-0.050153717
87	0xbdb5efc3	-0.088836215
88	0xbd638444	-0.05554606
89	0xbd811bab	-0.06304105
90	0x3c0ed46a	0.008717636
91	0xbd1c1758	-0.0381082
92	0xbc7a1f20	-0.01526621
93	0x3d12183c	0.035667643
94	0xbd98a9af	-0.074542396
95	0x3ccb990d	0.024853254
96	0x3dc01656	0.0937926
97	0xbd71847a	-0.05896423
98	0xbd3835c5	-0.044973154
99	0x3c8ec780	0.017429113
100	0xbc417e0e	-0.011809839
101	0xbad0f1ff	-0.0015941261
102	0x3d2c47ad	0.042060543
103	0x3d5b63a3	0.053561818
104	0xbd5a61c5	-0.053315897
105	0x3d2d76e0	0.042349696
106	0xbc42ddf0	-0.011893734
107	0xbc15046c	-0.009095293
108	0x3d349b3d	0.04409336
109	0xbd249d2b	-0.04018895
110	0xbca472c5	-0.020074258
111	0xbd5ece0d	-0.054395724
112	0x3bf0b589	0.0073458594
113	0xbd144444	-0.036197916
114	0x3db09329	0.086218186
115	0xbd87a9cb	-0.06624182
116	0xbd9498d2	-0.07255711
117	0xbd2cb932	-0.042168804
118	0x3d8899e6	0.06669979
119	0xbc870733	-0.016482925
120	0xbd9eefe3	-0.077605985
121	0xbc43ae1d	-0.011943367
122	0xbceeae07	-0.029135717
123	0xbd92042d	-0.07129703
124	0x3d1a72fe	0.03770732
125	0xbd842c40	-0.064537525
126	0x3c4f9f6d	0.012672287
127	0xbc419a26	-0.011816537
128	0x3d91eeb1	0.07125605
129	0x3d3c8cab	0.04603259
130	0x3d82d39e	0.06388019
131	0xbd85d498	-0.0653469
132	0xbd9cec89	-0.07662303
133	0xbd06d61a	-0.032919027
134	0x3db92b49	0.09041459
135	0xbc8cc3e2	-0.017183248
136	0x3da16d82	0.07882215
137	0x3da1cbd7	0.079002075
138	0xbd2aafd6	-0.041671596
139	0xbb5acaa1	-0.0033384936
140	0x3d1b0bd0	0.037853062
141	0xbc868764	-0.016421981
142	0x3d3877ab	0.045036
143	0x3d0950e7	0.03352442
144	0xbaf4a245	-0.0018664083
145	0xbda03f62	-0.07824589
146	0xbd3e8898	-0.046516985
147	0x3c92926f	0.01789209
148	0x3c3d8537	0.011567405
149	0xbcf7d2a3	-0.030251807
150	0x3c7b3381	0.015332104
151	0xbcca075e	-0.024661716
152	0xbd209228	-0.039201885
153	0x3ca01ccb	0.01954498
154	0x3d2d2a55	0.0422767
155	0xbd5b4aa3	-0.053537976
156	0x3daf844f	0.08570158
157	0xbda415d5	-0.08011977
158	0xbd1f2e14	-0.038862303
159	0x3d904036	0.07043497
160	0xbd5147cd	-0.051093865
161	0xbd6b249b	-0.057407957
162	0x3d367b16	0.044550978
163	0x3d269fae	0.040679626
164	0xbd751319	-0.059832666
165	0x3b1c6328	0.0023862813
166	0x3d87bf91	0.06628335
167	0x3d888e03	0.066677116
168	0xbd87f50b	-0.06638535
169	0x3dc1a7e8	0.09455854
170	0xbd2fa5c9	-0.042882714
171	0x3db18f5c	0.08669922
172	0xbd1796be	-0.037008993
173	0xbd18dfa7	-0.037322666
174	0x3d052912	0.03250987
175	0xbd4e75e7	-0.05040541
176	0x3d920334	0.07129517
177	0xbc4d6b0f	-0.012537732
178	0x3ce7fa10	0.028317481
179	0xbdb2374e	-0.08701955
180	0x3dbbb6f9	0.09165759
181	0xbc8ee412	-0.017442737
182	0x3da4e430	0.08051336
183	0x3d183abf	0.0371654
184	0x3d2e5c95	0.04256876
185	0x3db12de1	0.08651329
186	0xbc6fccc1	-0.0146362195
187	0xbd9203c5	-0.07129625
188	0xbd6db607	-0.058034923
189	0x3d9031b3	0.070407294
190	0x3d62bf18	0.055358022
191	0x3d622dbf	0.055219408
192	0x3b17b965	0.0023151275
193	0xbd74dc88	-0.059780627
194	0xbda535ff	-0.080669396
195	0x3dae681f	0.08515953
196	0xbd57d9b2	-0.052697845
197	0x3d142e09	0.036176715
198	0x3d47eb2c	0.04880826
199	0xbd863505	-0.065530814
200	0xbd1038ca	-0.03521041
201	0xbcfc4062	-0.030792419
202	0xbcd185c9	-0.025576489
203	0x3d0864ea	0.033299364
204	0x3dbb34ca	0.09140928
205	0xbb8841e9	-0.0041582477
206	0x3c9c4430	0.019075483
207	0x3db5b285	0.088719405
208	0x3d0672e4	0.032824412
209	0xbd58ba82	-0.052912243
210	0x3d4e7f0a	0.050414123
211	0xbc43f169	-0.011959412
212	0xbcbcbf37	-0.023040397
213	0x3b104b08	0.0022017378
214	0xbd635a8a	-0.055506267
215	0x3d4345f0	0.04767412
216	0x3d22e908	0.039773017
217	0x3d1d60ee	0.038422517
218	0x3d89609c	0.0670788
219	0x3be915eb	0.0071132085
220	0xbb92f27c	-0.004484473
221	0x3dad5d5a	0.08465071
222	0x3d6b58a5	0.057457585
223	0xbd83a5d8	-0.064281166
224	0x3d7fbf05	0.06243803
225	0x3d98117b	0.07425209
226	0x3d158189	0.036500487
227	0xbcfd29f6	-0.030903798
228	0xbda1515b	-0.078768454
229	0x3bcaf9ec	0.006194344
230	0xbcd998e9	-0.026562171
231	0x3c754ce9	0.01497195
232	0x396cf6bd	0.00022598631
233	0x3d32871a	0.043585874
234	0x3d6c2d43	0.057660352
235	0x3d7444ea	0.059636034
236	0x3d66c801	0.056343082
237	0xbb87b971	-0.0041419794
238	0xbc14e90e	-0.009088768
239	0x3d13da38	0.03609678
240	0xbccd8c92	-0.025091443
241	0x3d03a963	0.03214396
242	0xbdb1186f	-0.086472385
243	0x3cbe3f7f	0.023223637
244	0x3d27ecda	0.040997364
245	0xbd105b19	-0.035243127
246	0xbd939bf0	-0.07207477
247	0xbc923e53	-0.017851984
248	0x3d26cc01	0.040721897
249	0xbd8d4b61	-0.06899143
250	0x3d947873	0.07249536
251	0xbc5142ae	-0.012772245
252	0xbcbd1c8f	-0.023084907
253	0xbd826cd4	-0.063684136
254	0x3d82cb12	0.06386389
255	0x3d9c34d1	0.076272614

conv_lstm.conv.bias f4 [40]
0	0x3d0f3189	0.03495935
1	0x3d360038	0.044433802
2	0x3d83afbf	0.06430005
3	0xbcb03301	-0.021508696
4	0xbb7ba2cf	-0.0038396602
5	0x3db5534f	0.088537805
6	0x3c228536	0.009919455
7	0xbd847e7e	-0.06469439
8	0xbd91c9e2	-0.07118584
9	0x3c19c574	0.009385455
10	0xbcce5206	-0.025185596
11	0x3cc76b17	0.024343057
12	0xbd70ff8c	-0.05883746
13	0x3d3a2be6	0.04545202
14	0x3d308725	0.043097634
15	0x3b14057d	0.002258628
16	0xbba57bbf	-0.005050152
17	0xbd9e7573	-0.077372454
18	0xbd2c2dcf	-0.042035874
19	0x3d326e65	0.04356231
20	0xbd37f59d	-0.04491197
21	0x3ce6f44f	0.028192667
22	0xbcb2f3e5	-0.021844814
23	0x3c8d8ea2	0.017279927
24	0xbc4c1628	-0.012456454
25	0xbd864efc	-0.06558034
26	0xbda5a3fe	-0.0808792
27	0x3d5768ef	0.052590307
28	0xbc957b7b	-0.018247357
29	0x3d153747	0.03642967
30	0x3d9bfa13	0.07616057
31	0x3d83cd21	0.064356096
32	0x3cd35514	0.025797404
33	0xbd696e7c	-0.05699013
34	0xbd004bb2	-0.03132219
35	0xbd3f2399	-0.046664808
36	0x3d8d9802	0.06913759
37	0x3d7d2299	0.061800573
38	0xbd0648b5	-0.032784183
39	0xbab9115d	-0.0014119555

conv1.weight f4 [20, 10, 3, 3]
0	0xbdd043a0	-0.101691484
1	0xbd7d058e	-0.061772875
2	0x3dbef8f2	0.09324826
3	0x3d011ed1	0.03152353
4	0xbd0c00f0	-0.03418058
5	0x3b715494	0.0036824094
6	0x3d6c4fea	0.0576934
7	0x3d2a3ac5	0.041559953
8	0xbd79509b	-0.060867887
9	0xbd9bafc9	-0.07601888
10	0xbd92feb2	-0.071774855
11	0xbcb4d5ed	-0.022074664
12	0xbd902c6d	-0.070397235
13	0xbd98698c	-0.074420065
14	0x3d1c7670	0.03819889
15	0xbd6997d5	-0.057029564
16	0xbc904de3	-0.017615264
17	0xbcffc6a6	-0.031222653
18	0x3b451624	0.0030073011
19	0x3bf486c3	0.007462354
20	0x3d18b57d	0.037282456
21	0xbcb0642b	-0.021532139
22	0x3d175c50	0.03695327
23	0xbd9f4cb8	-0.07778305
24	0x3d1341ef	0.03595155
25	0x3d86a3bd	0.06574199
26	0x3c1fff08	0.009765394
27	0xbdabd6f2	-0.08390607
28	0xbd917649	-0.07102639
29	0xbd8d526d	-0.06900487
30	0x3d0a87ee	0.03382104
31	0x3d9da22d	0.07696948
32	0x3d4fdea3	0.050749432
33	0xbdac9d41	-0.08428431
34	0xbdcfdca3	-0.10149505
35	0x3d8e1c3f	0.06938981
36	0xbdae9c16	-0.08525865
37	0x3d36d448	0.04463604
38	0xbdd3cd4f	-0.10341894
39	0x3ccffb31	0.025388332
40	0xbd347d55	-0.04406484
41	0x3d621f09	0.05520538
42	0xbbc68a06	-0.006058934
43	0x3d25b7d7	0.040458526
44	0x3da92a2d	0.082599975
45	0x3cfbdc28	0.030744627
46	0xbdb706b3	-0.08936825
47	0xbd043ba5	-0.032283444
48	0xbd9ff96d	-0.07811246
49	0xbcec7fc2	-0.028869513
50	0x3c79d7dc	0.015249219
51	0x3d91fff1	0.07128895
52	0xbd2a6d2e	-0.041608028
53	0xbd6d5c3f	-0.0579493
54	0x3d5fa012	0.054596014
55	0xbdbee3e7	-0.09320813
56	0x3c1ece81	0.009692789
57	0xbd92c65d	-0.07166741
58	0xbd8abe23	-0.06774547
59	0x3c0e6eb2	0.008693384
60	0xbdc28476	-0.09497921
61	0x3d8a153a	0.0674233
62	0xbd6ce400	-0.057834625
63	0x3db80423	0.08985164
64	0x3db9eaca	0.090779856
65	0x3ccfe3a2	0.025377098
66	0xbdbdf519	-0.09275264
67	0xbd30263a	-0.043005206
68	0x3c821bee	0.015882459
69	0xbd0e51e1	-0.034746055
70	0xbdacbd26	-0.08434515
71	0xbd7e2cbd	-0.062054384
72	0x3d4dbf15	0.05023106
73	0xbd9d945a	-0.076943114
74	0xbd81f3d9	-0.063453384
75	0x3dd6caff	0.10487937
76	0x3c865588	0.016398206
77	0x3dcd6dbf	0.10030698
78	0xbdb0be75	-0.08630077
79	0x3d240c6b	0.040050905
80	0xbd43c318	-0.047793478
81	0x3d433421	0.047657136
82	0x3dcbdf8e	0.09954749
83	0x3d800cd9	0.062524505
84	0xbd562610	-0.052282393
85	0x3d88a070	0.06671226
86	0xbda2a675	-0.079419054
87	0x3dd6282c	0.10456881
88	0xbd4ca98a	-0.049966373
89	0x3d7366cc	0.059424207
90	0xbc88a675	-0.016680935
91	0x3dccd04b	0.10000666
92	0x3c9987a7	0.018741442
93	0xbd0cea9c	-0.03440343
94	0xbd39b2f4	-0.04533668
95	0x3d8c44f7	0.068490915
96	0x3d8e4407	0.06946569
97	0xbb4ead22	-0.00315363
98	0xbd647339	-0.055773947
99	0xbc2c0716	-0.010499736
100	0x3c8079fe	0.01568317
101	0x3dc45d6c	0.09588131
102	0xbd8152db	-0.063146316
103	0xbd7896d7	-0.060690727
104	0x3d44cd47	0.04804733
105	0x3dd85c29	0.10564453
106	0x3c9168c0	0.017750144
107	0x3d7b84ee	0.06140607
108	0xbd9c1d4f	-0.07622778
109	0xbd788262	-0.060671218
110	0x3d061368	0.03273335
111	0xbdbeec41	-0.093224056
112	0xbbbe072c	-0.005799195
113	0x3bfd0a5a	0.0077221813
114	0x3da1e42e	0.0790485
115	0x3d067d0b	0.032834094
116	0xbdbe9956	-0.0930659
117	0xbdc4a458	-0.096016586
118	0xbd927822	-0.0715182
119	0x3d1d4a5d	0.038400996
120	0x3a82cad6	0.0009978663
121	0xbdc47d49	-0.09594209
122	0x3d97f365	0.07419471
123	0xbdd0c1c7	-0.1019321
124	0x3bfaeff1	0.007657998
125	0xbd27d648	-0.04097584
126	0xbccd5f31	-0.025069805
127	0xbd1b18c3	-0.03786541
128	0x3d2bc26a	0.041933455
129	0x3dbfacb6	0.09359114
130	0x3d9c2104	0.07623485
131	0xbd3dd876	-0.04634901
132	0x3d9a700c	0.075409025
133	0xbcf0b19f	-0.029381571
134	0xbd325506	-0.043538116
135	0xbd50b31b	-0.05095206
136	0xbb2d542e	-0.002644788
137	0x3cd97031	0.026542755
138	0xbc946d7d	-0.018118614
139	0x3d844ccb	0.064599596
140	0x3d58d545	0.052937765
141	0xbd7af86c	-0.06127207
142	0x3c152d6e	0.00910507
143	0xbd10d166	-0.035355948
144	0xbd7b6df4	-0.061384156
145	0xbcf04d16	-0.029333632
146	0x3d839457	0.06424778
147	0xbc17f564	-0.009274814
148	0x3cb9698d	0.022633338
149	0x3d863a9a	0.06554146
150	0x3d9a778e	0.075423345
151	0xbd598d24	-0.053113118
152	0xbd40dedc	-0.047087535
153	0x3d251176	0.040299855
154	0x3dd43dce	0.10363351
155	0x3b39b446	0.002833621
156	0x3d27fee4	0.041014567
157	0xbd972aef	-0.07381236
158	0xbc465104	-0.012104277
159	0xbd34e7c7	-0.044166353
160	0x3d9898cf	0.07451021
161	0x3d873f44	0.06603864
162	0x3cc04b5b	0.023473432
163	0xbdd9e2f5	-0.10638992
164	0xbdb8f30d	-0.09030733
165	0x3d022974	0.031777814
166	0xbd6d21bf	-0.05789351
167	0x3cf73134	0.030174829
168	0xbcdd2d03	-0.026999002
169	0xbdc8b6a9	-0.09800465
170	0xbce96222	-0.028489176
171	0x3d76d5a7	0.06026235
172	0xbce9bef1	-0.02853343
173	0x3d7df2e4	0.061999217
174	0x3dd6714e	0.1047083
175	0xbc077854	-0.008268435
176	0xbd19fdf4	-0.037595704
177	0x3c857091	0.016289027
178	0xbd8548ad	-0.065080024
179	0x3cc90a09	0.024540918
180	0x3c1c01ef	0.009521945
181	0xbcbdb12d	-0.023155773
182	0xbd8c70f1	-0.06857479
183	0xbd6c812b	-0.05774037
184	0x3c95bb27	0.018277718
185	0xbd1ccfdd	-0.03828417
186	0x3d3bd64e	0.045858674
187	0xbce916a7	-0.028453184
188	0x3cf7b51a	0.030237723
189	0x3d787067	0.06065407
190	0xbd527057	-0.051376667
191	0x3d9f4cab	0.07778295
192	0x3dad458f	0.08460533
193	0xbdaa454f	-0.08314001
194	0x3d309b08	0.0431166
195	0xbc21fde6	-0.009887194
196	0xbd32e708	-0.04367736
197	0x3d98cf33	0.07461395
198	0xbd8ffeb9	-0.07031006
199	0x3d97b7f4	0.07408133
200	0xbb01dd72	-0.001981583
201	0x3cd436c6	0.025905024
202	0x3d804b81	0.06264401
203	0x3ccd5cbc	0.025068633
204	0x3cc1b520	0.023645937
205	0x3d9df732	0.077131644
206	0xbda1f552	-0.07908119
207	0xbcde9a61	-0.027173223
208	0x3cc18675	0.023623684
209	0xbdbf6050	-0.09344542
210	0xbd8adfc5	-0.06780962
211	0x3b11a5ff	0.0022224186
212	0xbd94ac82	-0.07259466
213	0xbcb6a7cf	-0.022296814
214	0xbd80fd7e	-0.0629835
215	0xbd59a354	-0.053134277
216	0xbd2906a2	-0.04126609
217	0xbd6a11b9	-0.057145808
218	0xbd333e4c	-0.043760583
219	0x3c5ec7ff	0.0135974875
220	0x3d9aab5c	0.075522155
221	0xbd3a8152	-0.045533486
222	0x3cee94c2	0.029123668
223	0xbd07a152	-0.03311283
224	0x3c37ae11	0.011210934
225	0xbd9f911b	-0.077913485
226	0x3da83b58	0.08214444
227	0xbdbe9ef5	-0.093076624
228	0xbcb1b013	-0.021690404
229	0x3d10be5c	0.03533779
230	0x3bcbdcdc	0.006221397
231	0xbd8ca70f	-0.068678014
232	0x3d74c81b	0.059761148
233	0x3d39d05a	0.045364715
234	0x3dcd22a3	0.10016372
235	0x3da04317	0.07825296
236	0xbda7da35	-0.081959166
237	0xbd27fdc0	-0.04101348
238	0xbccc7fd3	-0.024963295
239	0xbc4d35f9	-0.012525075
240	0xbc3c9f9d	-0.011512664
241	0xbd60645e	-0.054783218
242	0x3d3cee53	0.04612572
243	0xbd82ad50	-0.06380713
244	0x3dc52a2f	0.096271865
245	0x3d596d07	0.053082492
246	0x3d9b3e26	0.07580213
247	0xbd772fb5	-0.06034823
248	0xbdaf8a64	-0.08571318
249	0xbd15cbea	-0.03657142
250	0xbdc2873d	-0.09498451
251	0xbbe8a12c	-0.0070992913
252	0xbce36ef6	-0.027762871
253	0x3c8e3bfe	0.01736259
254	0x3d803f2b	0.06262048
255	0x3dd5a887	0.10432535

conv1.bias f4 [20]
0	0xbd838ea7	-0.06423693
1	0x3d8b7ee9	0.068113156
2	0xbdc2884b	-0.09498652
3	0xbc9b43e1	-0.018953266
4	0xbd48c232	-0.049013324
5	0xbd91f80d	-0.0712739
6	0xbda70496	-0.081551716
7	0x3a894b69	0.0010474744
8	0x3dc1a16c	0.09454617
9	0x3db3a282	0.0877123
10	0x3da47b7b	0.080313645
11	0x3d358d76	0.04432436
12	0x3ccf68a6	0.025318455
13	0xbce5715c	-0.028008156
14	0x3b919c4c	0.004443681
15	0x3dc69b7e	0.096976265
16	0xbc5028fd	-0.012705085
17	0xbcc3036f	-0.023805348
18	0xbd4f92cf	-0.050677117
19	0xbdc76f00	-0.097379684

conv2.weight f4 [40, 20, 3, 3]
0	0x3c1d8596	0.009614369
1	0xbd201fdf	-0.039092895
2	0xbd3c648a	-0.04599432
3	0xbd987fee	-0.07446276
4	0xbd897545	-0.067118205
5	0x3d11dd89	0.035611663
6	0x3c815e63	0.015792077
7	0xbc1a1ca0	-0.009406239
8	0xbc71de8d	-0.014762533
9	0xbd1a2f2e	-0.03764265
10	0xbc87d7fd	-0.016582483
11	0x3b5250c2	0.0032091592
12	0x3d3fa812	0.046791144
13	0x3d17e04d	0.037079144
14	0xbd92922e	-0.07156788
15	0x3d93a300	0.07208824
16	0x3d8ba223	0.068180345
17	0x3d8606e0	0.0654428
18	0x3a1a6687	0.00058899116
19	0x3c9e902e	0.01935586
20	0x3d647187	0.05577233
21	0x3ce4f29f	0.027947722
22	0xbcc19a0a	-0.023633022
23	0xbcfcfa1f	-0.030880986
24	0xbd4ee059	-0.050506923
25	0x3d6303ec	0.055423662
26	0xbb7791c5	-0.0037776094
27	0xbd69a282	-0.057039745
28	0xbd39e3cb	-0.045383256
29	0xbc4bf659	-0.012448871
30	0xbd21007e	-0.03930711
31	0xbd931e36	-0.07183497
32	0xbd85688f	-0.065140836
33	0x3d21d8d2	0.039513417
34	0xbd80dbb5	-0.06291906
35	0x3c5f13d5	0.013615568
36	0xbc818426	-0.015810084
37	0x3cfe25b0	0.03102383
38	0xbd557d4d	-0.05212145
39	0x3c619081	0.013767363
40	0x3d9b6952	0.07588448
41	0x3d94d7ae	0.072677
42	0x3bb71af2	0.005587929
43	0xbd5e0036	-0.05419942
44	0xbc870c51	-0.016485365
45	0xbcf872af	-0.030328123
46	0x3cd9ddbe	0.026594993
47	0x3d1e0399	0.03857765
48	0x3ac464a6	0.0014983609
49	0x3b55c9b4	0.0032621445
50	0x3ccd2265	0.025040815
51	0x3d6e09c8	0.058114797
52	0xbcea802f	-0.028625576
53	0x3d33f0c3	0.04393078
54	0x3a3f3618	0.00072941324
55	0xbc80c822	-0.01572043
56	0x3cc38be8	0.023870423
57	0x3bde8f63	0.0067919954
58	0x3d7ec4f4	0.062199548
59	0xbc07fff5	-0.008300771
60	0xbc7d73f9	-0.015469545
61	0x3c9cff88	0.019164816
62	0xbb101b0a	-0.0021988773
63	0x3ae4a80e	0.0017445104
64	0xbd88f997	-0.066882305
65	0x3d48ad87	0.048993614
66	0x3d86e5c6	0.065867946
67	0x3b5ca7d8	0.0033669379
68	0x3d00d4e5	0.031453032
69	0xbc5bff29	-0.013427534
70	0x3d595fa5	0.05306973
71	0xbd85ac36	-0.06526987
72	0xbb851ff7	-0.0040626484
73	0x39f9d182	0.00047649076
74	0x3cb944f3	0.022615885
75	0x3d0f719d	0.03502046
76	0xbd830d5a	-0.06399031
77	0x3d53c7ee	0.05170434
78	0x3d13a8ae	0.036049537
79	0x3d525c8b	0.051357787
80	0x3d75b4cc	0.059986874
81	0xbd4a0737	-0.049323287
82	0x3d65a9b0	0.05607003
83	0xbd5f0bdb	-0.054454666
84	0xbd0edde0	-0.034879565
85	0x3ce66c99	0.028127955
86	0xbd5bb3ba	-0.053638197
87	0xbcb1dd3f	-0.021711944
88	0xbd50767b	-0.05089424
89	0x3d87e72d	0.0663589
90	0xbd0316fe	-0.03200435
91	0x3c7392cc	0.014866542
92	0x3d90f40e	0.070778
93	0x3c52a84d	0.012857509
94	0x3c2c2e24	0.010509048
95	0xbd8dda14	-0.06926361
96	0x3d949f95	0.07257
97	0xba883f2d	-0.0010394804
98	0x3d3e2428	0.0464212
99	0x3d950425	0.07276181
100	0x3cd2d18b	0.025734683
101	0xbcf5087a	-0.029911269
102	0xbc78523c	-0.015156325
103	0x3d2a62e4	0.041598216
104	0x3c858f4e	0.016303685
105	0x3d6277fb	0.055290204
106	0x3d05ab37	0.032633986
107	0x3c5418ad	0.012945336
108	0xbcacccb9	-0.021093713
109	0xbd4aac60	-0.049480796
110	0x3c815028	0.015785292
111	0x3d7c5453	0.061603855
112	0x3d688dc3	0.05677582
113	0xbca847bc	-0.020542018
114	0x3d97c1c1	0.074100025
115	0xbd147f11	-0.036253992
116	0x3ca25c07	0.019819273
117	0xbc95a60d	-0.018267656
118	0xbd72f198	-0.059312433
119	0xbc51057b	-0.012757654
120	0xbd1dc41a	-0.038517095
121	0xbcad1347	-0.021127356
122	0x3bfb48d8	0.0076685958
123	0x3c4100de	0.011779992
124	0x3c90eabc	0.017690055
125	0x3d81e8f8	0.063432634
126	0xbcb3b487	-0.021936668
127	0x3d1bcf0c	0.038039252
128	0xbd24a3b9	-0.0401952
129	0x3a3ed898	0.00072802
130	0xbc85f490	-0.016351968
131	0x3cba3cb2	0.02273402
132	0x3bf15af5	0.0073655793
133	0xbd39c254	-0.04535134
134	0xbc3e28ea	-0.011606434
135	0x3d7524b5	0.05984946
136	0x3d3f2593	0.046666693
137	0x3d6cded8	0.057829708
138	0xbb8c13bd	-0.004274814
139	0x3d8f8f56	0.07009761
140	0x3d96ad80	0.07357311
141	0xbd53328d	-0.05156188
142	0x3d98a9e8	0.07454282
143	0xbc6186da	-0.013765061
144	0xbd76fe5c	-0.06030117
145	0x3d815fa6	0.063170716
146	0x3d8410f7	0.06448548
147	0xbd9131e1	-0.07089592
148	0x3d6fb122	0.058518536
149	0xbc106a2f	-0.008814379
150	0x3d7f964d	0.062399197
151	0xbc3d9cc0	-0.011573017
152	0xbd5be34e	-0.05368357
153	0x3d1e8136	0.038697444
154	0x3b9a45e1	0.0047080372
155	0x3d8915ca	0.06693609
156	0x3ce88558	0.028383896
157	0xbd4120a1	-0.047150258
158	0x3d74f095	0.05979975
159	0x3d3a25bb	0.04544614
160	0x3d75defc	0.060027108
161	0xbc37c2cf	-0.01121588
162	0xbb0517d6	-0.0020308397
163	0x3d54215e	0.051789634
164	0xbd254182	-0.040345676
165	0xbc3bf202	-0.011471273
166	0x3d851291	0.06497682
167	0x3d2a95bf	0.041646715
168	0xbb1e3e7e	-0.0024146135
169	0xbd864778	-0.065566
170	0xbc614e27	-0.013751543
171	0x3c9126de	0.017718729
172	0x3d251598	0.040303797
173	0x3d3f734e	0.046740822
174	0xbd272eb2	-0.040816016
175	0xbd2bacec	-0.041912958
176	0x3bc3010a	0.0059510516
177	0x3d71eefa	0.059065796
178	0xbd020419	-0.03174219
179	0xbd40e899	-0.047096822
180	0x3b93abb6	0.0045065535
181	0xbccfd5f4	-0.025370575
182	0x3cf6fd55	0.030150095
183	0xbc8b573b	-0.017009368
184	0xbc9d4b60	-0.01920098
185	0x3d3f15b5	0.04665156
186	0x3c98f5e9	0.018671947
187	0xbd2581fc	-0.040407166
188	0xbd5e8a1a	-0.054330923
189	0x3d758981	0.059945587
190	0xbd696f2e	-0.056990795
191	0x3cd650e4	0.026161619
192	0x3d839da2	0.064265504
193	0xbd124569	-0.035710726
194	0x3d54decb	0.051970284
195	0x3d4ee8a2	0.050514825
196	0x3d177b43	0.036982786
197	0x3d726943	0.059182417
198	0xbcd09e02	-0.025465969
199	0x3d087f70	0.03332466
200	0xbc71bf19	-0.014755034
201	0x3c6ca3c7	0.014443344
202	0x3c6bc9cd	0.014391375
203	0xbd883781	-0.066512115
204	0xbcf81a14	-0.030285873
205	0xbd57bc16	-0.052669607
206	0xbd770e70	-0.060316503
207	0x3d742ed4	0.05961497
208	0x39a05aa2	0.00030585105
209	0xbd8e4407	-0.06946569
210	0xbd3f8ca8	-0.046765
211	0xbd559630	-0.052145183
212	0xbd82ea9d	-0.06392405
213	0xbd903efb	-0.070432626
214	0x3d181186	0.037126087
215	0x3d5b551a	0.053547956
216	0xbd6e39a0	-0.058160424
217	0xbcb4eebc	-0.022086494
218	0xbb9dd835	-0.0048170337
219	0x3d6c3e96	0.057676874
220	0x3d8cb9c8	0.068713725
221	0xbd4b8f23	-0.049697053
222	0xbc311133	-0.010807323
223	0xbd81e14a	-0.063417986
224	0x3cacfb55	0.021115938
225	0xbc83d0d7	-0.016090794
226	0x3c5e2ae0	0.013560027
227	0xbd4af268	-0.049547583
228	0xbcb7c063	-0.022430604
229	0xbd8b7961	-0.068102606
230	0xbcb4913a	-0.022041906
231	0x3c5ecb93	0.013598341
232	0xbd787511	-0.06065852
233	0x3d19eaf0	0.03757757
234	0x3ca52e95	0.020163814
235	0xbcbdfde4	-0.023192354
236	0xbd874412	-0.0660478
237	0x3d511d7b	0.051053505
238	0x3c80d7a0	0.015727818
239	0x3d282a2e	0.04105585
240	0xbc1d3022	-0.009593995
241	0x3d624181	0.05523825
242	0x3d7bda5e	0.061487548
243	0xbd6098ba	-0.05483315
244	0x3ca7a450	0.020464092
245	0x3d9434e3	0.0723665
246	0x3d95ec93	0.073205136
247	0xbd759d7d	-0.059964646
248	0x3b4c9497	0.0031216496
249	0xbd8e8320	-0.06958604
250	0xbc8eb4ad	-0.017420137
251	0x3d3082e2	0.04309357
252	0xba86b9b6	-0.0010278735
253	0x3cb1a818	0.021686599
254	0xbd9435d1	-0.07236827
255	0x3bd0f6cc	0.0063770767

conv2.bias f4 [40]
0	0xbc970943	-0.018437034
1	0xbc8e9762	-0.01740617
2	0xbd62068e	-0.055182032
3	0x3a8afc63	0.0010603782
4	0x3b5d1d4e	0.003373939
5	0xbcd6ac84	-0.026205309
6	0x3d489cc8	0.048977643
7	0x3d964ce2	0.07338883
8	0x3b628db6	0.003456933
9	0xbd7c6081	-0.06161547
10	0xbc2c7eb6	-0.010528257
11	0x3cbab54c	0.022791527
12	0x3ce0336d	0.027368272
13	0xbd688acd	-0.056772996
14	0xbbc4d297	-0.0060065496
15	0xbc663084	-0.014049653
16	0xbba37716	-0.0049885614
17	0x3d9a92b6	0.07547514
18	0x3bfeddad	0.0077778907
19	0xbd985523	-0.074381135
20	0x3d68a3ec	0.056796953
21	0x3d8a05a9	0.06739361
22	0x3c3f0fef	0.011661514
23	0xbd7f4172	-0.062318273
24	0xbd4917d7	-0.049095
25	0x3d146bef	0.036235746
26	0xbc0c926c	-0.008579832
27	0x3d16aa86	0.036783718
28	0x3d95a236	0.0730633
29	0xbd9831e2	-0.074313894
30	0x3c525ba7	0.012839234
31	0xbd856c42	-0.06514789
32	0x3d0e8f07	0.03480437
33	0xbd7afe71	-0.06127781
34	0xbcf88860	-0.030338466
35	0xbd3c072f	-0.04590529
36	0xbcf05438	-0.029337034
37	0x3b0d9847	0.0021605657
38	0xbd04ba27	-0.03240409
39	0x3d6a6ef0	0.057234704

fc1.weight f4 [1, 6760]
0	0x3b4507aa	0.0030064383
1	0xbc16f938	-0.009214692
2	0x391d742c	0.00015015964
3	0x3b86310d	0.004095203
4	0xb831057b	-4.2205193e-05
5	0xbc0e1360	-0.008671612
6	0xba86bf8b	-0.0010280473
7	0x3bf16d70	0.0073677823
8	0xbb826744	-0.0039795954
9	0xbb135af8	-0.0022484642
10	0xbbbb7e8f	-0.005721874
11	0xbba9524a	-0.0051672803
12	0x3b5e5b8c	0.0033929078
13	0x3c2bb9b6	0.010481289
14	0xbbfadced	-0.007655731
15	0xbc1485e0	-0.009065121
16	0xbbd67eca	-0.006545876
17	0x3c465447	0.012105054
18	0x39ead819	0.00044792963
19	0x3c53c886	0.0129262265
20	0x3bcb2d6c	0.006200483
21	0x3b27f650	0.0025628991
22	0xbb88b061	-0.0041714166
23	0xbb707daf	-0.0036696007
24	0x3bc6609e	0.006053998
25	0xbbfc17aa	-0.0076932507
26	0x3a18f51c	0.0005834864
27	0x3c14c2e2	0.009079667
28	0x3ab65694	0.00139113
29	0x3b899f84	0.004199924
30	0x3be1fd60	0.0068966597
31	0x3c65c383	0.014023664
32	0x3b2e8d3c	0.0026634475
33	0x3baaf7be	0.0052175215
34	0x3c680fb2	0.014163898
35	0x3b900a42	0.004395754
36	0xbb21a17e	-0.0024662907
37	0xbc056a98	-0.00814309
38	0xbbda3cf8	-0.0066601
39	0xbbbe9106	-0.005815628
40	0xbb8c94f5	-0.004290218
41	0x38d26805	0.000100329555
42	0xbbc72a6f	-0.0060780565
43	0xbbafd304	-0.005365731
44	0x3c532b4c	0.012888741
45	0x3b6a62c7	0.0035764442
46	0xbc0ce345	-0.008599107
47	0x3bebfd49	0.007201825
48	0x3a0a4aea	0.00052754453
49	0x3c3eeed3	0.01165362
50	0xbb792b43	-0.003802017
51	0xbbeab030	-0.0071621165
52	0x3bf77504	0.007551791
53	0x3c3f3d32	0.011672305
54	0x3c6a3aa8	0.014296211
55	0x3bcbbe24	0.006217735
56	0x3bf114fc	0.007357238
57	0xbbef57e5	-0.007304179
58	0x3b806d33	0.0039192676
59	0xbb33ed9c	-0.0027454859
60	0x3b9eee5b	0.0048501915
61	0x3befd824	0.007319467
62	0x3c489c06	0.01224423
63	0xbb1a383d	-0.0023532056
64	0xbb9b41fe	-0.0047380915
65	0x3bf3b3ae	0.007437191
66	0x3c0b17ca	0.0084895585
67	0xbc05cf6d	-0.00816713
68	0xbc1e4913	-0.009660977
69	0x3c4de597	0.0125669455
70	0x3a5c4f14	0.00084041175
71	0x3c203db1	0.009780333
72	0xbc001033	-0.007816362
73	0xbbe54e61	-0.006997869
74	0xbb18a461	-0.0023291337
75	0xb9e0c93e	-0.00042874546
76	0x39ae9e89	0.00033305984
77	0x397afefb	0.00023936846
78	0x3bbd6615	0.0057799914
79	0x3c5da3c5	0.013527815
80	0x3b1d81f7	0.0024033764
81	0x3c4fa9a1	0.01267472
82	0x3a65a7bf	0.0008760653
83	0x3be751a2	0.007059292
84	0xba43c8f1	-0.0007468602
85	0xbb55e88c	-0.003263983
86	0x3c0eef37	0.008724025
87	0xbc092e42	-0.008372845
88	0xbc10f60c	-0.008847725
89	0xbb89f5d3	-0.0042102127
90	0xba857be6	-0.0010184019
91	0xbadd70b2	-0.0016894548
92	0xbb884944	-0.0041591246
93	0xbbebb8bc	-0.007193653
94	0xbb28e727	-0.0025772543
95	0xbc1104c6	-0.008851236
96	0xbb7a82db	-0.0038224969
97	0x3be87f08	0.0070952214
98	0x3bbb7d83	0.0057217493
99	0x3b3c27fe	0.002871036
100	0xbbbc0652	-0.005738058
101	0x3c38f42a	0.011288682
102	0xbc18948c	-0.00931276
103	0xb9225fde	-0.00015485237
104	0xbbbc9a8e	-0.005755729
105	0x3c342bd3	0.010996777
106	0x3c135efc	0.008994814
107	0xbb544074	-0.003238705
108	0x3c2198b0	0.009863064
109	0xbb55c9bf	-0.003262147
110	0x3bca9f97	0.0061835754
111	0xbb17896e	-0.0023122686
112	0x3ad29baa	0.001606812
113	0x3bcbc0b7	0.0062180418
114	0xbc10c56a	-0.00883613
115	0xbb704712	-0.0036663455
116	0xbbc08f87	-0.005876485
117	0xbaa5844c	-0.0012627929
118	0x3c00e8c7	0.007867998
119	0x3acda114	0.0015688264
120	0x3a836ff3	0.001002787
121	0x3c37bf94	0.011215109
122	0xbb8d4c93	-0.004312107
123	0xbbebde10	-0.007198103
124	0x3ab1e31e	0.0013571715
125	0x3c43eba7	0.011958039
126	0xbbe06527	-0.006847996
127	0x3b1769b7	0.0023103782
128	0x3a95a8ce	0.0011418106
129	0x3c537a5d	0.012907592
130	0xbb53916a	-0.0032282718
131	0xba92f727	-0.0011212573
132	0x3c636473	0.013878929
133	0x3a418a9b	0.00073830195
134	0x3c57bf6f	0.0131682
135	0xbb0c6900	-0.002142489
136	0x3c60569d	0.013692525
137	0xba0a3bc8	-0.00052731903
138	0x3c179b5b	0.009253348
139	0x3c1670d7	0.009182177
140	0xba46cbcf	-0.00075834704
141	0x3c5e95e0	0.013585538
142	0xbb95755f	-0.004561111
143	0x3c232ef4	0.009959925
144	0x3c1fad60	0.009745926
145	0x3bce6740	0.0062989295
146	0x3c10fd6b	0.008849482
147	0x3c523357	0.012829623
148	0xbbcc2d60	-0.006230995
149	0x3b921f79	0.0044593182
150	0x3bff8bc4	0.007798644
151	0x39091854	0.00013074401
152	0xbc0905b8	-0.00836318
153	0xbb985f70	-0.004650049
154	0xbbfd1564	-0.007723497
155	0xbbf232e4	-0.0073913205
156	0x3c11498d	0.0088676335
157	0xbb3c89d9	-0.0028768687
158	0x3c2b51f5	0.010456552
159	0xbbd8373b	-0.006598381
160	0x3b677ce6	0.0035322248
161	0xba61d2d8	-0.0008614487
162	0xbc0ef5d8	-0.008725606
163	0x3b32192a	0.0027175643
164	0xbc1290cb	-0.008945654
165	0x3c3624fb	0.011117215
166	0x3c3e77ea	0.011625269
167	0x3c2d9c85	0.010596399
168	0x3c396f5d	0.011318055
169	0xb93bb49c	-0.00017900992
170	0xbb98c201	-0.004661799
171	0x3b4e0638	0.0031436812
172	0xb9d86384	-0.00041272875
173	0x3b501104	0.0031748423
174	0xbbe6a8b3	-0.0070391535
175	0xbc35d578	-0.011098258
176	0xbb66c21e	-0.0035210918
177	0xbc3e3058	-0.011608206
178	0xbb643535	-0.0034821753
179	0xbbecf52b	-0.0072313747
180	0x3bde46c1	0.006783337
181	0xbb55f323	-0.0032646141
182	0x3b8799c2	0.0041382024
183	0x3c3c3d5c	0.011489239
184	0x3c1b2c69	0.009471037
185	0xba9233f1	-0.0011154396
186	0xba9e8768	-0.0012094798
187	0xbc2e3f8d	-0.010635269
188	0xbb7820b8	-0.0037861299
189	0xbc2dfdc6	-0.010619586
190	0x3ac1584f	0.001475105
191	0xbbb35f27	-0.0054739895
192	0x3c05040b	0.00811864
193	0xbbd7bac5	-0.006583544
194	0x3c0060c7	0.0078355735
195	0x3b0cdbc5	0.0021493298
196	0x3b9f283b	0.004857091
197	0x3a9d4016	0.0011997249
198	0x3af7c93f	0.001890458
199	0x3b51a62d	0.0031989918
200	0x3c32876a	0.010896543
201	0x3c332cc4	0.010935966
202	0x3bf853fc	0.007578371
203	0x3bda1ee7	0.006656516
204	0xbbb8e68a	-0.005642717
205	0x3a83b72c	0.0010049096
206	0xbbe9e483	-0.0071378364
207	0xbbb405fd	-0.005493878
208	0x3bdf4830	0.0068140253
209	0xbbb48939	-0.0055095223
210	0x3ab06f4c	0.0013460903
211	0xbc1be8d1	-0.009515957
212	0x398dc8ea	0.00027043308
213	0x3c19e60a	0.0093932245
214	0xbb9baaed	-0.0047506006
215	0xbbe58b95	-0.007005165
216	0x3c32f5f2	0.010922896
217	0xbc0cb491	-0.008587972
218	0xbbd6e0f6	-0.006557579
219	0xbc3a5c2a	-0.011374513
220	0x3c09149e	0.008366732
221	0x3be09db7	0.0068547386
222	0xbb06fe6a	-0.002059842
223	0x3bf845b2	0.0075766677
224	0x3bf4c565	0.0074698203
225	0xbc4549fa	-0.012041563
226	0x3c1f3a5f	0.009718507
227	0xbbc6de0b	-0.00606895
228	0xbb7eba4d	-0.0038868368
229	0x3bff6fdd	0.0077953176
230	0xbc29b560	-0.010358185
231	0xbb9557d4	-0.004557589
232	0xb92e1eb0	-0.00016605365
233	0x3c055dd9	0.008140051
234	0x38203007	3.81917e-05
235	0xbc1f3bc2	-0.009718837
236	0xbc1cffd2	-0.009582477
237	0x3b38d5ea	0.0028203675
238	0x3ba987be	0.0051736524
239	0x3bfa6044	0.0076408703
240	0xbc1c0a2d	-0.0095239105
241	0xbc4410db	-0.011966909
242	0xbbd13f96	-0.006385754
243	0x3b8c4cb6	0.0042816056
244	0xbb34e1ea	-0.0027600476
245	0x3b8f633f	0.0043758447
246	0x3b903e61	0.0044019674
247	0xbb98c9e8	-0.004662741
248	0x3b3aeccd	0.0028522492
249	0xbbf2b375	-0.007406647
250	0x3bb845d3	0.005623558
251	0xbbc78aef	-0.00608956
252	0xbb44cfc4	-0.0030031065
253	0x3b18a14c	0.00232895
254	0xbc41fe32	-0.01184039
255	0xbbbfa964	-0.0058490504
