ConvLSTM/Original/0.73_122_A_S.pt (torch, 84929 bytes, 7 tensors)

conv_lstm.conv.weight f4 [40, 13, 3, 3]
00000000: cdfd 91bd d2ac 283d c685 babb 5171 20bd
00000010: 0c55 f43c f4ae 11bd ce34 0bbd f638 8e3d
00000020: a534 ba3d 10c3 4abb c094 56bd 7e8a 9b3d
00000030: 2094 0fbb 127e af3d 4556 4b3d 0e83 703c
00000040: e71f af3d b9db 763d 95f4 82bc e1ba 14bc
00000050: 5abc 65bd 72ad e33c f26a 9b3d 4e17 543d
00000060: 7840 89bd 249d 3ebd 36e9 7a3d 3c6b 3e3d
00000070: 5914 ab3c 29e1 31bd 774d db3b 6cbd 193d
00000080: 724f 523d 8572 a1bd eefb 9f3d e7f5 e1ba
00000090: 954c 41bd cf00 9cbd e754 9d3c ea79 4e3c
000000a0: fa58 28bd bbc6 a0bd abfd bebd 056e 8e3c
000000b0: 3c24 983d 4a11 1cbd e7ce c8bc d903 a4bd
000000c0: ff7c 7e3b 1337 b63c 146c 673c 1ceb 0abd
000000d0: 1f86 7c3d 8d21 523d 4a21 97bd f064 10bd
000000e0: e5dc 62ba 5e07 7d3b 3a8b 9a3d 34d5 1a3c
000000f0: e194 1bbc ef32 acbc 6189 903d c1ea b13d
00000100: 96a0 5f3d adee 84bb c77a bb3d 8230 9ebd
00000110: 1638 b43d d22f 42bd ba3c af3d aa7d a2bd
00000120: fc11 de3c 58ad 89bd 9813 d6bb d118 0abd
00000130: cf5f 813d 10eb 5b3c c729 503c 1d39 a43d
00000140: d927 b5bc 3b76 a73d ed26 b23d c0ff 3fbd
00000150: 1c14 d2bc eb6c 3fbc 23b9 053b 7092 b6bc
00000160: 0aed 22bd cc7a a2bd f3c1 a53d c2ca 02bb
00000170: ca0d 2f3b d105 54bc ae65 8a3a 1b0d 953d
00000180: 2bad d3bc cff2 223d bb62 8d3d 8c1f 7e3d
00000190: 5cda 8a3d 2402 a03d 2ef0 6f3d 113a 6abd
000001a0: f8df 45bb 2a89 6ebd 0189 9bbd 4f49 383c
000001b0: 5e12 dc3c 9c89 a8bc 3644 903d d458 31bd
000001c0: 0e5b f33b 37bc a8bd 2bb0 c13c 21c5 ce3b
000001d0: 5cf2 843d 8420 b0bd e3dc a63d 0a4f 663d
000001e0: 4a3b bcbd 7ba6 8e3d 29e6 993d 4189 3b3d
000001f0: fe2f 1839 9720 f03a 4664 a33d f68f 09bd
00000200: 18bb ad3c dd28 adbd 948c 93bd e386 c63b
00000210: cbc9 323d d5b3 083d 1dc4 813d b553 873d
00000220: a2d9 5bbc 41f8 36bd 80a2 a33d feed 123d
00000230: 9659 52bd bd21 8e3d 81d5 c23b 5b1e 08bd
00000240: 749a babd 806a 94bd af53 88bd 8716 863d
00000250: d0d6 c1bc b77d 72bd 8b44 fc3a 22d5 6e3d
00000260: 8d65 9b3d 8072 133d 74bd 9abd 6ffe 953d
00000270: d3ba 5dbd 9155 153b bad8 bdbb 4af9 6b3d
00000280: ee90 c23b 135a afbd 6375 acbd 2d1a 64bd
00000290: d4fb afbd c89f 353c 38be 9b3d e91b 523d
000002a0: 186c 20bd 667f 25bd e8c0 9a3d 2131 50bd
000002b0: e439 b83d bc7b 873d 1b58 bd3d 390f 50bc
000002c0: 76ae 1f3c 7101 193d eb1e ce3c 114c c23d
000002d0: 945d 55bd 860a 3cbd eee1 9c3d 2d4b 60bd
000002e0: 91f4 143d ea1b 843d 6555 96bd 1f01 e1bc
000002f0: 3b85 5dbd b23a 08bc c5e0 e33c cee8 823d
00000300: 0c61 cbbb 76be bf3c b1c3 8fbd 21c5 4ebd
00000310: 62b0 6c3b db74 7cbd 36d2 843d dc24 843d
00000320: fb60 af3d 2533 3fbd ee62 7dbd b3c2 02bd
00000330: 300d ab3d 197c 97bd 9d87 89bd 829e 50bd
00000340: f6e3 8c3d 411a 26bd 9585 5dbd 0efb b3bb
00000350: f450 af3d fd43 a63d eaa2 37bd 2fce a03c
00000360: 7e8a 983d d149 393d 73ac a13d 10df 373d
00000370: adc9 8aba 86fb f4bc c581 a93c b137 7bbd
00000380: 4a40 b13d 589b a53d d1a8 72bd 86af a0bd
00000390: c29c e6bb d482 5d3c 4081 9fb9 0065 06bd
000003a0: 4203 8fbd eecc a93d 989e 213d d84b 1cbd
000003b0: fb0f d3bc e468 b93d 9cb8 96bd 7e09 89bd
000003c0: 5720 d93b 2612 553d 5f2a 9e3d bfa3 dc3b
000003d0: 3d85 4f3d 592c 8e3c 0f91 133c b231 c3bc
000003e0: 7a26 d93c 1e3e 873c 6a8a d03c 21f4 4bbd
000003f0: bbec 833c adb9 adbc 0d7e 81bd 082c 89bd
-0.07128487 0.04118044 -0.0056922166 -0.039170567 0.02982571 -0.03556724 -0.033985905 0.06944458
0.090920724 -0.003093902 -0.052387953 0.07594775 -0.0021908358 0.08568968 0.04964282 0.014679683
0.08551007 0.060268138 -0.015985766 -0.0090777585 -0.05608783 0.027792666 0.075887576 0.051780038
-0.067017496 -0.04653658 0.061257564 0.046488985 0.020883726 -0.04342762 0.006692584 0.037534162
0.051345296 -0.07883171 0.07811724 -0.0017239422 -0.047192175 -0.07617342 0.019205524 0.012602309
-0.04110048 -0.07850405 -0.09325727 0.017386446 0.07428786 -0.038102426 -0.024512721 -0.080085464
0.0038831828 0.022243058 0.014124889 -0.033915624 0.061651345 0.051301528 -0.07379396 -0.03525251
-0.00086541317 0.0038609128 0.075460866 0.009450246 -0.009495945 -0.02102038 0.07057453 0.08687354
0.054596506 -0.0040567727 0.09154277 -0.07724096 0.0879976 -0.047408886 0.085565045 -0.07934125
0.027108185 -0.06722516 -0.0065330975 -0.033715073 0.06317102 0.0134227425 0.012705273 0.08018706
-0.022113727 0.081768475 0.08698831 -0.04687476 -0.025644355 -0.011683683 0.002040454 -0.022286624
-0.03977684 -0.07933578 0.080936335 -0.001995728 0.00267111 -0.01294084 0.0010558867 0.0727789
-0.025839409 0.03978234 0.06903597 0.062041804 0.0677993 0.07812908 0.058578663 -0.057184283
-0.003019331 -0.05823628 -0.07594491 0.011247947 0.026864227 -0.02057343 0.0704426 -0.043297604
0.007426626 -0.08239024 0.023643574 0.0063101207 0.06491539 -0.08599952 0.081475995 0.05622772
-0.09190996 0.069653474 0.07514603 0.045785192 0.00014513728 0.0018320259 0.0797811 -0.033584557
0.021207377 -0.0845506 -0.072045475 0.00605856 0.043649476 0.033374626 0.06336234 0.06607763
-0.013418587 -0.044670347 0.07989979 0.0358715 -0.051354967 0.06940029 0.005945862 -0.033232074
-0.09111491 -0.07246876 -0.066565864 0.065472655 -0.023662 -0.059201922 0.0019246502 0.058308728
0.07587729 0.035997868 -0.075556666 0.0732392 -0.054133248 0.0022786597 -0.005793658 0.057610787
0.005937687 -0.08562102 -0.08420827 -0.055689026 -0.08592954 0.011085458 0.07604641 0.05129615
-0.039165586 -0.0404047 0.07556325 -0.050828103 0.08995417 0.06615397 0.092453204 -0.012698942
0.009746185 0.03735489 0.025161227 0.09487165 -0.052091196 -0.045908473 0.0766028 -0.054759193
0.03636605 0.06450637 -0.073405065 -0.027466355 -0.054082137 -0.008314775 0.02781714 0.0639206
-0.0062066372 0.023406249 -0.07019747 -0.050480966 0.0036115875 -0.06163488 0.06485407 0.06452343
0.085634194 -0.046679635 -0.061861925 -0.03192396 0.08352125 -0.073967166 -0.06715319 -0.050932415
0.068794176 -0.04055238 -0.054082472 -0.0054925745 0.085603625 0.081184365 -0.0448331 0.019629566
0.0744829 0.045236412 0.0789422 0.044890463 -0.0010588669 -0.029905092 0.020691762 -0.06133241
0.0865484 0.0808627 -0.059243027 -0.078459784 -0.00703773 0.013519961 -0.00030423142 -0.032811165
-0.06983043 0.0829104 0.039457887 -0.038158268 -0.025764456 0.090532094 -0.0735943 -0.066912636
0.0066261697 0.05201926 0.077229254 0.0067333872 0.050664175 0.017355131 0.009006753 -0.023827408
0.026507605 0.016509112 0.025456626 -0.049793366 0.016104093 -0.021206701 -0.063228704 -0.066978514

conv_lstm.conv.bias f4 [40]
00000000: 599c 473d 6a59 6bbd 8dcf 34bd 2933 203d
00000010: cb50 a13d 9b89 8a3d 5b08 1bbd 02c8 2fbd
00000020: d5c1 713d 3539 6dbd 34ab 20bd 4d3c ee3c
00000030: 8908 893d 5907 a43d 6603 99bd 9585 f73c
00000040: b8b9 a4bd 2c3a 493b 3a78 cbbb 4cb1 ea3c
00000050: 14a2 f43c 5c72 063d fc60 64bb 30bf 843c
00000060: ee28 68bd 68f3 febc c5a1 ac3c 1a8e 36bc
00000070: 7a06 563d 2bcf 3cbd 29f0 b53d 5a3e 78bd
00000080: 6c2a b63d 1410 73bd 99d8 9bbc fb57 98bc
00000090: 7522 2ebd 0345 4abd 5049 bb3d 09e3 b5bc
0.04873309 -0.05745832 -0.04414325 0.03911129 0.07876738 0.067645274 -0.037849765 -0.04291535
0.059022743 -0.057915885 -0.039225772 0.029081488 0.06691081 0.08009214 -0.07471351 0.030215064
-0.080432355 0.003070484 -0.0062094005 0.028648995 0.029862441 0.032823905 -0.0034847846 0.016204447
-0.05667966 -0.031121925 0.021073231 -0.011142278 0.05225227 -0.04609601 0.088836975 -0.060606338
0.0889481 -0.059341505 -0.01902418 -0.01859664 -0.04251333 -0.04938222 0.091448426 -0.022202985

conv1.weight f4 [20, 10, 3, 3]
00000000: 01f0 1b3c 2675 d9bc 50f9 b4bd 518e c23d
00000010: bbac 3ebd 3298 983c 4dda 523d 6e01 aa3d
00000020: 30e1 1d3c 6245 b8bd d179 91bd 7d65 7a3b
00000030: 089e 9dbd fbcd b2bd 3264 a23c 7983 1bbd
00000040: 0bc1 d1bd 9b5f 76bc ca29 073d 0c87 a6bb
00000050: 4637 9a3d c8bb d43c e288 7bbd 85b5 4abd
00000060: 81cb 38bc fde3 babd e9ce 75bd 326d 353d
00000070: ac09 d2bd 011d b53d da51 0bbd 4fe7 2c3d
00000080: f26e 783d 730c c2bd af35 6d3d 4d30 99bd
00000090: d0e1 d6bc bd61 8f3d 696c a7bd 9285 18bd
000000a0: fdba 66bd 463c 3a3d 5fa8 2e3c 3167 173c
000000b0: 5633 b3bd 9d5d f4bc c828 7fbd 9f63 81bd
000000c0: c04c 173c edc5 bcbd 1f87 393d 089b 893d
000000d0: fa85 8fbd 9b2d 253d 49d7 433c 059d 4f3d
000000e0: 3b3d 643d ee48 cabd 773f aebd 4a23 b13d
000000f0: 93ad 7abc 5f54 98bb de74 b93d 7dd5 9ebd
00000100: 8af1 5bbd 4b09 c63d ddec f2bc 65aa d63d
00000110: f0a5 00bd 741d df3b 4635 3a3d d9db be3d
00000120: d6f1 7b3c 1e3c cbbd 75e5 5b3d d72c 933d
00000130: cd1a d3bd 1018 a3bd 8997 a0bc 1104 8ebc
00000140: beb4 0a3d c98d 193d 3b44 1b3d c9f0 a0bd
00000150: ed2c 833d ca87 0e3d 930f 8c3d 7173 eb3c
00000160: f7ac ccbc 09ca 5fbc 343b 6bbd bd86 9fbc
00000170: 64d3 a23b add7 d33c 45de ab3d 1686 58bc
00000180: 86f5 59bc e8c5 d33d 921e cc3d 3a3f a83d
00000190: c33e 6ebc 7d1e 9739 e767 a63d 5fce a43d
000001a0: b99b f73c 5559 33bd 1b2a b53d 5bcf 363b
000001b0: b414 7cbd 057d 26bd 26a6 be3d 3947 4ebd
000001c0: b4fd f83c a341 65bd f9b9 b53c bf7b a8bd
000001d0: 5747 77bd 2dea bf3c d55d 03bd 4820 863d
000001e0: 8009 68bd 669a a13c 1833 e4bc d93e 043c
000001f0: d4c1 c93d 31d6 303d 2cf4 b53d e89b 85bd
00000200: 67c3 b1bd 00ec 0b3d 4058 f6bc f24b 3bbd
00000210: ced7 cd3d cadf 3d3d 9b61 b23d 35cc b7bd
00000220: f3f3 b23d 6104 c1bc ab44 05bc 097a 95bd
00000230: 1049 3ebd 48e8 223c a036 683d 8729 aa3d
00000240: e176 c83d 5e60 5ebd 89e2 13bd 0b3c 11bd
00000250: 2f51 b13d 64c9 6e3a 6376 2dbc 4ef1 7bbd
00000260: bfb5 2bbd bec6 e0bb edfc 91bd 0f13 913d
00000270: 7854 a3bd 16ba 03bd 5323 c83c 19ad d83d
00000280: f1c2 2cbd 23a3 b9bd 6647 9bbc 2c3b a63d
00000290: e9fe ac3d 0f72 bb3d 81ac dd3a 70d1 c33c
000002a0: 4226 833d bd64 953d cd14 693d 7244 c1bd
000002b0: af50 d63d a2c4 bf3d ebee 943d 57e1 12bd
000002c0: ed6f cd3d 994a b5bd d326 233d f425 d13c
000002d0: eb26 923d 7640 963d bfb2 c5bd 872e 223d
000002e0: 419c bdbd 2c25 af3d a1dc 0cbd 3dc6 90bd
000002f0: d195 af3c 342c c9bc a914 ffbc e80e 40bd
00000300: 4272 03bc 5df1 16bc f09e 6cbd 9cef 19bc
00000310: f034 a6bd e362 2dbd 35ce 2f3d a9a5 4dbd
00000320: 8ef0 c2bd d56d b63d 690e 7fbd 99d7 a43d
00000330: cd31 78bd 5d79 5eba 14f8 2b3c af97 7b3d
00000340: 38a8 8f3d 6df6 36bd 239f 0cbd 57c8 c63d
00000350: 58dd aa3d b663 843d b364 5c3d 7cde c9bd
00000360: f6b9 a83d f9e9 973d 18b9 ccbd 419c cebc
00000370: 1baf 993d 6ea5 62bd 124d 03bd 8110 c0bd
00000380: f321 743c 0db4 8b3d 1b45 96bd 7a5f d2bd
00000390: 598f cb3c c9ee 863d 61c6 d83d 4dc6 2cbd
000003a0: 4444 a43c 607e cb3c 6d7c 803d 12db 543d
000003b0: f42e 9c3d 436f f03c bf6f a1bc a013 83bd
000003c0: 2ac4 a9bd 4c23 b83d de9b 77bd ccf0 9e3a
000003d0: f815 46bd 22b7 81bd ea62 38bd c964 f33a
000003e0: 4431 d13d 8a01 82bd 84ba ff3c d6b0 a23c
000003f0: ef82 64bd 2cf8 82bd bfdf d43d 2c83 343d
0.009517671 -0.026545119 -0.08836615 0.09499801 -0.046551447 0.01862726 0.05147772 0.08301054
0.009636208 -0.08997609 -0.07103313 0.0038207464 -0.07696158 -0.08730694 0.019823167 -0.03796718
-0.10241898 -0.015037443 0.032998838 -0.005082017 0.07530074 0.025968447 -0.06140984 -0.049489517
-0.011278988 -0.091255166 -0.060011778 0.04429359 -0.10255751 0.08843423 -0.034013607 0.04221278
0.06065268 -0.09475031 0.057912525 -0.07479916 -0.026230723 0.07001064 -0.081749745 -0.037236758
-0.05633067 0.045467637 0.01066026 0.009240911 -0.08750026 -0.029829795 -0.06229475 -0.06317829
0.009234607 -0.09217439 0.045294877 0.06719023 -0.07007976 0.040326696 0.011953183 0.050686855
0.055722456 -0.098771915 -0.08508199 0.08649309 -0.015300172 -0.0046487297 0.09055494 -0.077555634
-0.053697146 0.09669741 -0.02965396 0.10481719 -0.03140825 0.006808931 0.04546096 0.09319276
0.015377482 -0.09923576 0.053685624 0.07186287 -0.10307846 -0.07963574 -0.019603508 -0.017335923
0.033863775 0.037488732 0.037906867 -0.07858426 0.06405053 0.034797467 0.06838908 0.02874157
-0.02498482 -0.013659009 -0.057429507 -0.019473428 0.0049690474 0.025859678 0.08392004 -0.013215562
-0.013303166 0.10340482 0.09966768 0.082151845 -0.014541331 0.0002882368 0.081252865 0.08047175
0.030225622 -0.043786366 0.088459216 0.002789459 -0.06154318 -0.04064657 0.09309034 -0.050360892
0.030394413 -0.0559708 0.022183405 -0.08226728 -0.06037077 0.023427093 -0.032071907 0.06549126
-0.056649685 0.019726943 -0.027856395 0.008071625 0.09851423 0.04317302 0.08884463 -0.065238774
-0.08679848 0.034160614 -0.030071378 -0.045726724 0.10050927 0.046356 0.08710023 -0.08974496
0.08737936 -0.023561658 -0.0081340475 -0.07298667 -0.046456397 0.0099430755 0.05669272 0.08308702
0.09788299 -0.05429112 -0.036104713 -0.035457652 0.08658063 0.0009108989 -0.010587308 -0.061509423
-0.041921373 -0.0068596294 -0.0712832 0.07083713 -0.079750955 -0.032159887 0.024430906 0.10579891
-0.042178098 -0.09064319 -0.018954944 0.08116755 0.08447058 0.09152614 0.0016912372 0.023903579
0.064037815 0.07294605 0.056904603 -0.09436883 0.10464608 0.093636766 0.072721325 -0.035859432
0.10031114 -0.08852119 0.039831948 0.025530793 0.07136329 0.07336514 -0.09653234 0.039595153
-0.09258319 0.08552012 -0.034390096 -0.07069061 0.021433743 -0.02455721 -0.031137781 -0.046889216
-0.008022847 -0.009212819 -0.057768762 -0.009395506 -0.08115566 -0.042330634 0.042921264 -0.050206814
-0.095185384 0.089076675 -0.062269602 0.080489345 -0.06059437 -0.00084867125 0.010496158 0.061423954
0.07014507 -0.044668604 -0.034331452 0.097061805 0.08342999 0.06464331 0.05380697 -0.09856889
0.08238594 0.074176736 -0.09996241 -0.025220992 0.07504102 -0.055333547 -0.03205592 -0.09378148
0.014900672 0.06821451 -0.073373996 -0.10272117 0.024848627 0.065885134 0.10584713 -0.0421813
0.020052083 0.024840534 0.06273732 0.051966734 0.07626143 0.029349929 -0.019706605 -0.064002275
-0.082893685 0.08991107 -0.06045138 0.0012126206 -0.048360795 -0.06333758 -0.045016207 0.0018569465
0.10214475 -0.0634795 0.031216867 0.019859713 -0.05578893 -0.06394991 0.10394239 0.044070408

conv1.bias f4 [20]
00000000: e049 66bd 4e95 b53d b8fa 9d3c 5b5f 92bc
00000010: fdfe a13c 7993 16bc 7ecb 7c3d 3b82 36bd
00000020: 9927 29bd cf17 1dbd 014b a3bd f16f 47bd
00000030: f126 b73d 970b ae3d d3ce f43b c4d6 77bd
00000040: 7613 b63c 5eaf 7cbd e91b 0fbd fc55 5e3d
-0.056222796 0.08866368 0.019284591 -0.017867735 0.019774908 -0.009190434 0.061717503 -0.04455779
-0.04129753 -0.038352784 -0.0797329 -0.04869074 0.08942974 0.08498304 0.0074709444 -0.06050755
0.022226077 -0.06169068 -0.034938727 0.05428122

conv2.weight f4 [40, 20, 3, 3]
00000000: f93d 86bc 7f99 203c 9937 47bd 7448 413c
00000010: b00e 43bd 4d6f 98bd bad0 37bc 4f44 7a3d
00000020: 3dbe 84bd 81ea 24bd a36e a03b c6e4 6cbd
00000030: 39cd 05bc 12a6 83bd b384 f8bc 10f3 8c3d
00000040: d4b4 623d a258 a4bc b393 5bbd 1d98 93bd
00000050: 8d15 9d3a e1c5 adbc 5b5c 4c3d 82e1 2dbd
00000060: efcd 91bd 1320 c7bb 7724 623c 2140 4c3d
00000070: f878 83bd 70ba 62bd 49d0 243d cfd3 d93b
00000080: e1b4 cf3b 9b78 ddbc eea1 ae3b 0758 94bd
00000090: f072 44bc a366 c6bc 9959 d2bc fe40 b2bc
000000a0: 593c 00bd efe0 e63c 51a8 5dbd e55f 6d3d
000000b0: 33bd 633d b608 1bbd 39fa 5dbd d313 423d
000000c0: 3cca 0dbd 0ea9 21bd 5d20 eabc ed12 12bc
000000d0: 6f47 22bd 6392 743c 996f 463d 95d6 9c3d
000000e0: c783 853d fffb 003b 3c22 6a3c 5ac9 5f3d
000000f0: b389 a73c aa53 8a3d b664 413d a781 913d
00000100: a9e3 3dbd 35fc 3abc 2b58 873d 4c8b 063d
00000110: fa64 b9bc cb10 62bd 87fc 4d3d 7c33 5ebd
00000120: ca74 42bd 1b03 1abd 4bcb 02bc 30b7 44bd
00000130: b6ff 78bd 528e 003d 323e 883d e8f3 17bd
00000140: 6983 b83c da09 9eb9 1d70 103b ea71 433d
00000150: fd7c 7d3c 56cd 983d 91cd 9ebc 734c 76bd
00000160: 1f7e 993d 229b a03d 6125 27bd 8ce5 3f3d
00000170: 5099 3dbd f8c6 073d 2922 e7bc c9e5 8b3d
00000180: 498d efbc 439f 4abc 08d9 0a3d 1fcc 8abd
00000190: d096 4dbc 40c6 f13c b9f1 b83c b79a 673d
000001a0: fc8f 46bd 0560 83bd 2501 643d 8188 f53c
000001b0: 933d 673d 5f0d cfbb ea6f 393d 926a 893c
000001c0: 9234 83bc 77e7 973d 860a 063d 91c8 7b3d
000001d0: d730 193d f169 a23c ebf3 583d 7539 023c
000001e0: 44db 603c 31df c63c 0cb9 8d3d bdef 2f3c
000001f0: a015 673d 2559 563d 7c37 8e3d 7f13 6d3d
00000200: 077c 8fbd e13c 63bd b285 41bd 6c86 743d
00000210: e675 703b 9b73 6cbd 6cea a23c f91a 08bc
00000220: 2603 89bd 12a3 20bd 0f48 043d f396 76bd
00000230: 6d2f ccbc 446e 08bd 1328 f03c 258d 80bd
00000240: 0800 5a3d a219 65bd 7492 273d 0216 e1bc
00000250: 790d 843d 9440 c1bc b29b 57bc 7d55 b03c
00000260: ed84 87bd 9dd0 403d 3831 cebc e0f5 04bd
00000270: 93d0 243d 8eda 683c 3bca b93c 337b 753c
00000280: 7149 953d bfb1 e8bc 06ac 433c 24e9 b2bc
00000290: ba47 623b 4ab9 e6bc 8c03 95bd f722 f83c
000002a0: 2c78 cc3c 4186 71bd 59df bdbb 07db 513d
000002b0: 44c0 39bc 624e 323d b8ef 0abd a9bd 7dbd
000002c0: 1926 62bd 50d4 bc3c 2f41 0f3d a447 4fbd
000002d0: 773a f33c 6937 10bd 2465 07bb 8b74 833c
000002e0: ae13 383c 1473 903d cbf9 b5bb eaf9 343c
000002f0: 3c2e 16bd fed2 22bc 9508 46bd 6eb9 8abd
00000300: a94d cdbc 0881 d039 2f3a 6d3d e2be 16bc
00000310: 169c 463d 67e6 ff3c 314c 6d3d e346 7fbd
00000320: 2dba bfbc f8a4 db3c 27b7 b1bc 4b10 27bd
00000330: 8643 19bd f904 de3b 9892 363d d284 5dbd
00000340: 6bc5 d03c 0d80 22bd 2731 4e3d 2494 4c3b
00000350: 35fc 82bd 4e81 b33c 6093 3bbd 267d 933d
00000360: 038a 1cbd cbfc 63bd 214d c73c 65ca b23c
00000370: df9a fb3c 1439 fe3c e057 25bd 4dfe 3ebd
00000380: f12a 92bd cf67 ac3b dfde 88bd c6f6 3abd
00000390: 1897 5a3d 8aab 57bd 0fb5 003b 4131 01bd
000003a0: 6c4f 333c f1db 93bd d8ef 823d ad52 20bd
000003b0: a115 02bd a47e e73c c2e7 c93b 187d 9f3c
000003c0: d070 0b3d 7b39 d73c 69df 2cbd aa27 4b3c
000003d0: 7673 71bd c91b 043b ebcc 13bc 3cc1 32bd
000003e0: ece6 053d ca59 2d3c 369a 98bd 05da 51bd
000003f0: 1868 103c 97da c3bc 794b 8b3c da40 123d
-0.016386973 0.009802221 -0.048637006 0.011797059 -0.04762143 -0.07443104 -0.011219198 0.0611003
-0.064815976 -0.040262703 0.0048960014 -0.057835363 -0.008166605 -0.0642816 -0.030336713 0.06882298
0.055348232 -0.020061795 -0.053607654 -0.07206748 0.0011984572 -0.02121252 0.049892765 -0.04245139
-0.07119357 -0.0060768216 0.013802639 0.049865846 -0.06419557 -0.055353582 0.0402377 0.006647564
0.006338701 -0.027035048 0.005329362 -0.072433524 -0.011990294 -0.024218863 -0.02567749 -0.021759506
-0.031307552 0.028183429 -0.054115597 0.05795278 0.055600356 -0.037850104 -0.05419371 0.047382187
-0.034616694 -0.039467864 -0.028579885 -0.008915645 -0.039618906 0.014927479 0.04844627 0.07658116
0.06519275 0.0019681451 0.014290389 0.054635383 0.020451402 0.06754239 0.047215186 0.07104807
-0.04635969 -0.01141267 0.066086136 0.032847688 -0.022631157 -0.055191796 0.050289657 -0.054248318
-0.04747466 -0.037600618 -0.007983039 -0.048026264 -0.06079074 0.031385727 0.06652488 -0.03709784
0.022523599 -0.00030143448 0.002203948 0.04771606 0.015471694 0.0746104 -0.019385131 -0.0601315
0.07494759 0.07842089 -0.04080713 0.046849772 -0.04628879 0.033148736 -0.028214531 0.068309374
-0.029242175 -0.0123670725 0.033898383 -0.06777214 -0.0125481635 0.029513478 0.0225762 0.056544032
-0.048477158 -0.06414799 0.055665154 0.029972317 0.056455206 -0.0063187326 0.045272745 0.01677445
-0.016016278 0.07417195 0.03272488 0.061470572 0.037400093 0.019825907 0.052966993 0.007948269
0.013724152 0.024276348 0.069200605 0.01073831 0.056417108 0.05233111 0.069441766 0.05787992
-0.07006078 -0.05547798 -0.047246642 0.059698507 0.0036691367 -0.057727437 0.019887172 -0.008307212
-0.06690054 -0.039218016 0.032295283 -0.06020255 -0.024924958 -0.033308282 0.029315984 -0.06276921
0.053222686 -0.05593265 0.040911153 -0.027476314 0.06447882 -0.023590364 -0.013159679 0.021525139
-0.066171505 0.04707395 -0.025169954 -0.032461047 0.040237974 0.014212264 0.022679439 0.014982986
0.072893985 -0.028405068 0.011942869 -0.021839686 0.0034527616 -0.028164525 -0.07276067 0.03029011
0.024959646 -0.058965925 -0.0057944474 0.05123427 -0.011337344 0.043531783 -0.03392002 -0.061948452
-0.055212114 0.023050457 0.034974273 -0.05060543 0.029690964 -0.035209093 -0.002065965 0.016046783
0.011235161 0.070531994 -0.0055534593 0.011045912 -0.036665186 -0.009938 -0.04834803 -0.06773649
-0.025061445 0.00039768987 0.057916816 -0.009200783 0.0484887 0.031237794 0.05793399 -0.062323462
-0.023404205 0.026812062 -0.02169378 -0.040787023 -0.03741791 0.006775495 0.044573396 -0.054081745
0.025484761 -0.0396729 0.050339844 0.0031216228 -0.06395761 0.021912243 -0.045794845 0.072016045
-0.038217556 -0.055661004 0.02432877 0.021825025 0.030713497 0.031033076 -0.040367007 -0.04662924
-0.07137097 0.0052613984 -0.06683134 -0.045645498 0.05336675 -0.052653827 0.001963917 -0.031541113
0.010944229 -0.07219685 0.06393403 -0.039141346 -0.03175891 0.02825863 0.006161661 0.019468829
0.034043133 0.026272526 -0.042205248 0.012399593 -0.058948003 0.0020158163 -0.009021024 -0.043641314
0.032690927 0.010580489 -0.074512884 -0.05123331 0.00881388 -0.023907943 0.017003762 0.03570638

conv2.bias f4 [40]
00000000: 443c ca3c e898 94bd cf72 5a3d f154 90bc
00000010: 421b a83c 7640 813d 6e8e 1cbc 0f61 2dbd
00000020: baac 4bbd 0d1d 93bd 784f c03c 9d22 563d
00000030: 55b6 27bd ddd6 803d 1082 7dbd d1b1 5cbd
00000040: 3042 14bd 72f2 63bd 0a9e 973d 85cf 8abc
00000050: 6cff 223d 72e9 f9bc b62b 3fbd 6165 41bb
00000060: 5873 87bd 9da5 003d ebed c0bc e4de 7f3b
00000070: 7670 ddbc 3aa6 fbbb 3a9a 97bd 9b7f ff3c
00000080: 59a8 32bd 5269 e1bc 4f2b 0c3d 0ead 7b3d
00000090: 6524 6e3d 9302 2c3d a5ff 71bc e35e 4a3d
0.02468694 -0.07255727 0.053332146 -0.017618628 0.02052081 0.06311123 -0.009555442 -0.04232889
-0.04972527 -0.07183275 0.023475394 0.052279104 -0.04094537 0.06290982 -0.061891615 -0.053880516
-0.036195934 -0.055651136 0.074031904 -0.016944656 0.03979437 -0.030506823 -0.046672545 -0.002950989
-0.06613797 0.03140794 -0.023550948 0.0039042765 -0.027031165 -0.007679728 -0.07402463 0.031188777
-0.04361758 -0.027516041 0.03422099 0.061444335 0.058140177 0.041994642 -0.014770423 0.049406897

fc1.weight f4 [1, 6760]
00000000: 2700 523c b660 e9b9 cc4e 943b e0c9 243c
00000010: d1c6 23bc 15e2 d1bb 4cff 3d3b c8fa 1ebc
00000020: 8c0e 10bc a630 f33b 2c40 603c 3139 bdb9
00000030: d039 54bb 4148 923a b281 02bb e222 fe3a
00000040: 05d7 13bc 63de 053c 30b4 b1bb 728d 023a
00000050: 2c87 9dbb b1bd 8fbb b997 18bb fa83 173c
00000060: 70d3 c73b 9ed0 0fbb 5a6c 6d3b 6cc9 d93b
00000070: bcda 393c d098 673c ed64 023c 99ac 1dbc
00000080: 4018 4e3c c116 03bb b3b1 c1bb e0bd c7ba
00000090: 10c3 c73a 6b01 5d3b 22e8 803a 31e3 0bbc
000000a0: 6c7e 3c3c e1ff 1c3c 286d e6bb fb49 edb8
000000b0: dadc ae3b 101d e5bb 5ca1 e5bb c59d 443c
000000c0: 47e1 d8ba 15e0 cf3b 1def 5d3c 05ea 843b
000000d0: 602e 533c 47ff fbbb f11b c5bb ad93 d83b
000000e0: 3ced 943b dd18 253c eccb ae3b 5bb5 0f3c
000000f0: ff68 2c3c afc0 3b3c 278c 87bb 24ad fc3b
00000100: becb 5cbb 3917 dc3b d361 493c 5f09 2a3b
00000110: 35d0 163c 7cf4 95bb 5d63 3e3c b4bd 94bb
00000120: 8298 8f3b 5123 a13b 4d92 86ba bb22 82bb
00000130: c9c9 c1bb ac02 ecbb 7a4b ab3b 30c6 293c
00000140: 1a3b 81bb 96eb fb3b e342 57bb 2646 513c
00000150: 3f81 643b bc35 343a dc39 edb9 2291 77bb
00000160: e887 393c 90b7 2f3c c3dc a63a ac75 c6ba
00000170: 3fed e5bb ffa7 783b d805 663c c78a e4ba
00000180: df42 cdbb 91b8 a4bb ca7a e43a a7a2 1b3b
00000190: 0e23 153c 5f1f 0ebc 50b2 22bc bcc7 ba3b
000001a0: 14c3 20bc f22e 003c ec75 9b39 e019 d93b
000001b0: 14f6 b73b ddb2 f43b 549b b03b 050e b33b
000001c0: 7af5 393c f337 20bc 1a3c d4bb 2589 68ba
000001d0: ab49 cbbb ecc8 473b df73 233c 9a56 d03b
000001e0: 8f2b 813b 81ce 733b 8e41 10ba e0ff 4a3a
000001f0: 76b1 01bc 47ac 3b3c aa63 fa3a c478 4f3a
00000200: c02f bfbb 6cdf 323b c6b0 1e3c c351 493c
00000210: 1f68 5bbb 7a04 163c 9b83 943b 2c1b 4b3c
00000220: c2b2 f53b 173d f03b a2fe d4b9 6d05 943b
00000230: 49e4 4c3b 4bb1 3f3c bf29 2a3c d560 c93b
00000240: 2ad9 debb 8e83 0fbc 6f38 3a3c c5e4 d53b
00000250: 63fc 09bb 90b7 da38 c713 553c 2544 dbbb
00000260: 9c0b 713b b7a2 493a b597 06bc 8a9f 1cbc
00000270: b6f4 e7bb 8b81 95b9 c1a5 0dbc 925e a1bb
00000280: dfe7 afbb 801e dcbb 84e1 17bb 98f8 193b
00000290: aafd 023c bb9b 0a3c 2f5d b7bb 7899 643c
000002a0: 67c9 17bb c411 cabb c6c4 aabb 7a25 c63b
000002b0: a185 973b b56d 3c3c 548e 21bc 9528 413b
000002c0: bc5a f9bb 86c3 f33b 79a4 14bc c1f7 9d3b
000002d0: 3249 2bbc b20a 1fbc 8f76 c23b 7cc0 383a
000002e0: be55 32bc 6921 b6bb 68f1 0c3c 354f 443a
000002f0: 2332 933b 81a5 25bc a055 153c 0d2e 3ebc
00000300: 0698 8b3a 26c1 81ba 1d4a febb 52f2 e5bb
00000310: af28 9f3b ae38 45bc 63a5 1abc 7fe2 313c
00000320: b09f 09bc ca1c 363c 5ec0 ce3b 9a09 01bc
00000330: a7ee 6b3b 605b 30bb caff 41bb 0b86 b73b
00000340: aba9 193c b697 fd3a 8313 57bb eb26 28bb
00000350: cd97 0d3b 6bae 233b 445e 44bc 9e43 c3bb
00000360: e776 c7bb 4b86 3bb9 7568 1e3c a304 8cbb
00000370: d56e a23b d781 7e3b bc3c febb e7c9 043a
00000380: 9096 37bc 96db 563b c5f6 9b3a aa89 643b
00000390: f709 2db9 09e9 443c 7c78 b7bb 7926 043c
000003a0: f00d 383a 9c6a 35bc 2f8d 853b 1964 09bc
000003b0: 9744 5ebb 0638 68bb c48a 9d3a b9f6 24bc
000003c0: bd4c ff3b baa3 15bc 9bdc 26bc b540 a5bb
000003d0: 7ac9 9b39 1e71 f7bb b787 ef3b 50c6 1ebc
000003e0: d800 1b39 b15a 36bc 515a b93a aef1 063c
000003f0: 9ca0 9dbb 76ba 423c f32d f13b da93 0abc
0.012817419 -0.00044513278 0.004525995 0.010057896 -0.009996132 -0.006405125 0.002899128 -0.009703346
-0.008792531 0.007421571 0.013687175 -0.000360915 -0.0032383092 0.0011160449 -0.001991373 0.0019389058
-0.009023433 0.008170697 -0.0054230914 0.00049801834 -0.0048073735 -0.0043866266 -0.0023283793 0.009247774
0.0060982034 -0.0021944414 0.0036227913 0.006646326 0.011343654 0.014135554 0.007958633 -0.00962367
0.012579024 -0.0020002576 -0.005911076 -0.0015239082 0.0015240628 0.003372277 0.0009834806 -0.008538053
0.011504751 0.009582491 -0.0070320554 -0.000113148206 0.005336386 -0.00699199 -0.007007761 0.012000506
-0.001654663 0.0063438513 0.013545779 0.0040562176 0.012889475 -0.0076903435 -0.0060152938 0.006609401
0.004544882 0.010076729 0.005334368 0.008771266 0.01052308 0.011459514 -0.0041365805 0.0077110697
-0.0033690776 0.0067166355 0.0122913895 0.0025945527 0.009204914 -0.004576264 0.01162037 -0.004539216
0.004382194 0.00491754 -0.001026699 -0.0039714254 -0.0059139472 -0.007202467 0.0052275034 0.010362193
-0.003943813 0.007687996 -0.0032846264 0.012773072 0.0034867076 0.0006874462 -0.0004524727 -0.0037775715
0.0113239065 0.010724917 0.0012730587 -0.001514127 -0.0070168073 0.003794193 0.014039479 -0.0017436378
-0.006264075 -0.005026885 0.0017431614 0.0023748071 0.009102596 -0.008674472 -0.009930208 0.0057000797
-0.009812135 0.007823693 0.00029651762 0.006625399 0.0056140516 0.007467611 0.0053896103 0.0054643177
0.01135003 -0.009778964 -0.006476891 -0.0008870534 -0.0062038503 0.003048475 0.009976356 0.00635798
0.00394196 0.0037201943 -0.00055029325 0.0007743817 -0.007915845 0.011454648 0.0019103189 0.0007914419
-0.0058345497 0.0027293814 0.009685701 0.01228756 -0.003347881 0.009156341 0.00453229 0.012396615
0.007498116 0.007331501 -0.00040625507 0.0045172484 0.0031263998 0.011699985 0.01038593 0.0061455765
-0.0068007903 -0.008759392 0.011365994 0.0065275156 -0.0021054975 0.00010429241 0.013005204 -0.006691473
0.0036780601 0.0007691788 -0.008214881 -0.009559521 -0.0070787324 -0.00028516012 -0.008645476 -0.0049246037
-0.0053682174 -0.006717503 -0.002317519 0.002349412 0.007995049 0.008459981 -0.005595825 0.013952605
-0.0023160817 -0.0061666686 -0.0052114455 0.006046948 0.004624084 0.011500766 -0.009860594 0.0029473652
-0.0076096933 0.0074390797 -0.009072416 0.0048207943 -0.010454463 -0.00970714 0.0059345434 0.00070477254
-0.0108847 -0.005558182 0.008602478 0.00074886094 0.0044920607 -0.01011026 0.009114653 -0.011607659
0.0010650165 -0.0009899482 -0.0077603 -0.007017412 0.004857145 -0.012037439 -0.009438845 0.0108572235
-0.008399889 0.011115262 0.006309553 -0.007875824 0.0036000402 -0.0026909932 -0.0029601925 0.005600696
0.009378831 0.0019347582 -0.0032818026 -0.0025657963 0.0021605373 0.0024975787 -0.011985365 -0.0059589883
-0.0060871723 -0.00017883738 0.009668459 -0.0042730137 0.00495706 0.0038834715 -0.007758705 0.0005065486
-0.0112053305 0.0032784692 0.0011899105 0.0034872093 -0.00016502278 0.012018451 -0.0055990797 0.008065813
0.000702112 -0.011072781 0.0040756683 -0.008385682 -0.0033915394 -0.0035433783 0.0012019505 -0.010068589
0.0077911303 -0.009133274 -0.010184432 -0.005043114 0.00029714016 -0.0075513264 0.0073098796 -0.009690836
0.00014782266 -0.011130021 0.0014141296 0.008236332 -0.004810406 0.011885276 0.007360214 -0.008458102
