ConvLSTM/Original/0.73_110_A_S.pt (torch, 84929 bytes, 7 tensors)

conv_lstm.conv.weight f4 [40, 13, 3, 3]
000000 05 f8 00 3d 96 ae 7b 3d 54 2f 94 bd 84 73 4b 3d
       0.03148653 0.061445795 -0.072355896 0.04967071
000010 56 69 27 bd be fb 0a bd ba e0 f5 3c b7 92 90 bd
       -0.04087194 -0.033931486 0.030014385 -0.07059234
000020 ed e0 de 3c 62 78 3e bd d0 ad 99 bd a2 70 c3 3d
       0.027206862 -0.046501525 -0.07503855 0.095429674
000030 aa 5f 70 bd a1 8f c7 bb 06 fe a4 3d cd 64 8e bd
       -0.058684982 -0.00609012 0.080562636 -0.0695282
000040 af 4b 07 bd be 5a d3 3b ec 1e a8 bd 1d f3 a8 bb
       -0.033031162 0.0064500263 -0.08209023 -0.0051559345
000050 b1 54 a3 ba a0 2f 61 3c 95 ea 84 3d 1a 1f 25 bc
       -0.0012461153 0.013744265 0.064900555 -0.010078216
000060 1d 77 00 bd 6a cd 81 3b 01 e9 da bb be 6e a6 bd
       -0.031363595 0.003961255 -0.0066806083 -0.08126591
000070 64 a1 45 bd fa 57 91 bd 63 24 56 bd 0b ab 6c 3d
       -0.048249617 -0.07096858 -0.052280795 0.057780307
000080 38 46 12 3c 8a 78 dd 3b 5b 92 20 bd 0d 23 22 bd
       0.008927874 0.006758754 -0.039202075 -0.03958421
000090 85 94 bf bd fd 48 b4 bd 91 37 73 bd c9 46 aa 3d
       -0.093545 -0.08802984 -0.059379164 0.083142824
0000a0 f0 8a 6b 3d 64 3d 6c bd 9c f7 c9 3c 81 10 af 3b
       0.057505548 -0.057675734 0.024654202 0.0053425436
0000b0 d5 14 90 3d d4 ea ba 3c 04 15 8a bd 41 1e 24 3d
       0.070352234 0.022817053 -0.0674229 0.040067915
0000c0 15 73 97 bd 0e 57 a0 bd f5 e5 4e 3d f4 ae 6d 3c
       -0.07394997 -0.07829104 0.050512273 0.014507044
0000d0 c7 c7 c5 3c 5a 32 f7 bc c6 9b 9e 3b f2 cd 79 bd
       0.024143113 -0.030175377 0.004840347 -0.06098742
0000e0 19 e9 c6 3d 29 0e 8f 3d 30 10 54 3c 9a 9c 1a 3d
       0.097124286 0.06985123 0.0129433125 0.037747003
0000f0 ff 7f 27 bd c1 8e 87 3d 05 63 ff bb ce 07 81 3d
       -0.04089355 0.06619025 -0.0077937865 0.06300317
000100 c2 33 66 bd fd ca 4e 3c a9 74 c5 3b 83 19 47 bd
       -0.056201704 0.012621638 0.00602587 -0.048608314
000110 df 47 50 3d 7d c7 58 bc 27 14 d4 3c f9 41 ea ba
       0.05084979 -0.013231155 0.025888516 -0.0017872445
000120 ea 0b 2b bd b6 1b 12 3b dc 13 11 3d cb 3d 86 3d
       -0.04175941 0.002229435 0.03541933 0.06554755
000130 68 28 23 bd 74 d5 94 3d 89 5d 51 3d 9f 06 6e bd
       -0.039833456 0.072672755 0.051114593 -0.058111783
000140 52 4a c2 3c b2 58 65 3b 23 07 8c 39 8b 31 a3 bd
       0.02371708 0.0034995493 0.00026708198 -0.07968434
000150 79 22 5d 3d 04 39 c4 bd 8b 2e 00 bd 82 42 56 bd
       0.053987954 -0.09581187 -0.031294387 -0.05230952
000160 4d fa aa 3d 4d 58 a6 bd 0b 93 07 bd f1 c3 a0 3d
       0.08348522 -0.08122311 -0.033099215 0.07849873
000170 f2 76 69 bd 07 c5 53 3c 2c 7f 83 bd 12 23 8b 3d
       -0.0569982 0.012925393 -0.064207405 0.067937985
000180 35 e1 b9 bc b3 c3 c0 bd b8 84 29 3d 12 6b 8a 3d
       -0.022690395 -0.09412327 0.041386336 0.06758703
000190 e9 ca 19 3d a5 01 72 3c 9e ce 79 bd a9 56 94 3d
       0.037547026 0.0147709 -0.06098806 0.072430916
0001a0 61 63 be bd 62 4d d7 3c ff 05 a1 3b 58 2b a0 3d
       -0.09296299 0.026282016 0.004914045 0.07820767
0001b0 b1 02 aa bd 71 78 ad 3a 51 34 9b 3d de e7 91 bd
       -0.083012946 0.0013234747 0.07578338 -0.07124303
0001c0 c5 0f 9f bd fe 91 fd bb f9 92 da bc ca d4 39 bd
       -0.0776668 -0.007738351 -0.02668141 -0.045368947
0001d0 38 f2 9a 39 80 75 3d 3d 4b 0b 9f bd a5 32 1c bd
       0.00029553636 0.046254635 -0.07765826 -0.038134236
0001e0 f8 27 6e 3d 15 35 cd 3c 05 f6 7d 3d 3f d1 d6 3b
       0.058143586 0.025049726 0.0620022 0.006555706
0001f0 de 2a 03 bd cf 8f 66 bd 65 fd 96 3c b9 7f 8d 3d
       -0.032023303 -0.05628949 0.018431375 0.06909127
000200 be 8b 96 bd a7 8b ca bc 10 54 16 bd fe 79 a6 3d
       -0.073508725 -0.024724795 -0.036701262 0.08128737
000210 e0 0a 3f bd e4 ce 7c 3d 3d e3 74 bd 58 11 4a 3c
       -0.04664123 0.061720744 -0.059787024 0.012333237
000220 d9 17 58 3c 7d 9c 0a bd 74 1f 88 bb ff fe 75 3d
       0.0131892795 -0.033840645 -0.00415414 0.060057636
000230 e7 e3 ac bd 0d b0 a8 3d dc f5 6f bc 22 62 8c 3d
       -0.084419064 0.08236704 -0.01464602 0.06854655
000240 83 26 fd 3c 40 ad 4e 3d d6 c2 93 3d b0 85 39 bd
       0.030902153 0.050458193 0.072148964 -0.04529351
000250 9f 29 f0 3c 12 c4 e5 bc 25 df 8a 3d 2d 75 48 3d
       0.029316721 -0.028047595 0.06780843 0.048939873
000260 73 79 38 bc e5 b9 90 3d 28 a7 bf bd ed 0e 7b 3d
       -0.0112594245 0.070667066 -0.093580544 0.06129353
000270 df ea 00 bd 13 49 93 38 34 a4 57 3c f8 cd 43 bd
       -0.03147399 7.023117e-05 0.013161708 -0.04780385
000280 f3 7c 41 3d 4e 21 c2 bd 60 44 b0 3c 9e 0f 20 bd
       0.0472383 -0.094790086 0.021516979 -0.039077394
000290 03 f9 36 bd c2 ec 4e 3d 26 9e 0a 3c 2e e2 23 3d
       -0.04467107 0.05051876 0.008460557 0.040010624
0002a0 36 24 8d 3d 56 46 8a 3d 64 3e 94 bb 75 2f b4 bc
       0.06891672 0.06751697 -0.004524039 -0.021995286
0002b0 98 85 97 bc bd 56 57 3d f4 78 ac bd e4 97 06 bd
       -0.01849632 0.052572954 -0.084215075 -0.032859698
0002c0 47 14 30 bd 07 b8 1c bd 39 b4 0c 3d 9e cf a9 3d
       -0.042988088 -0.03826144 0.03435156 0.08291553
0002d0 89 67 a0 3d dc 34 a4 3d 38 44 8f bd c7 48 f4 3c
       0.07832248 0.080178946 -0.069954336 0.02981986
0002e0 a6 8c 86 3d b7 06 47 bd f7 0a ae 3d 97 14 29 bd
       0.06569795 -0.04859039 0.08498185 -0.0412794
0002f0 e4 79 87 3d 23 fd 3d bd 4b a5 89 3d 6b 65 bd 3c
       0.06615046 -0.046383988 0.0672098 0.023119649
000300 68 38 8c 3d a8 d0 95 3c fe f0 68 3d 08 55 9c bd
       0.06846696 0.018287972 0.056870453 -0.07633406
000310 ad ad 9f bc 63 3a ff 3c 7c 23 b1 bd ae 3a 31 bd
       -0.019491995 0.03115577 -0.08649346 -0.043268852
000320 6d 38 95 bc df c7 51 3b 35 1c 13 3d e6 f1 62 bc
       -0.018215382 0.0032010002 0.035915572 -0.013851618
000330 09 3b f3 3c 5a a0 9f 3d 57 bf 90 bc f2 21 91 bd
       0.029691236 0.077942565 -0.017669363 -0.07086553
000340 7c 33 14 3a 73 ad 89 3a 7d fe 44 bd 9d fc 47 3d
       0.0005653424 0.0010503962 -0.04809426 0.048824895
000350 d1 51 c3 bd 3e e1 9b 3d 4d 53 e0 3b 85 09 2c bd
       -0.095370896 0.07611321 0.0068458677 -0.042001266
000360 79 cb 50 3c e3 07 21 bd 42 8d be bd b5 a4 20 3d
       0.012743824 -0.039314162 -0.093042865 0.039219577
000370 a8 0f 21 bd 1b 65 10 bc 5c 7a 28 3c 85 7a 8b bd
       -0.03932157 -0.008813168 0.010283079 -0.06810478
000380 21 4d 48 3c b2 9d 82 3d e9 2b 89 bd 35 19 76 bd
       0.01222542 0.06377734 -0.06697828 -0.060082633
000390 7f 09 05 3d d7 c9 16 3d 23 ff 9c bd 87 ae 9b 3c
       0.03247976 0.036813583 -0.07665851 0.01900412
0003a0 01 3c e4 3c a8 eb a0 bd 6c 04 9c bd bd 38 84 3d
       0.027860643 -0.07857448 -0.07618031 0.064561345
0003b0 41 48 21 bd bb b3 a3 bc f8 77 9d 3d df 97 42 3d
       -0.039375547 -0.019983163 0.07688898 0.047508117
0003c0 c5 2c 95 3b f8 27 b6 3a d3 ff 04 3c 3d aa b3 3d
       0.004552456 0.001389741 0.008117634 0.08772705
0003d0 cd cd bd 3d 18 e0 00 bc 3e 76 3e bd 83 27 5f bc
       0.09267769 -0.007865928 -0.046499483 -0.01362026
0003e0 85 fd 8b 3d be 9e 41 3c d1 4b 2c bd 42 c5 3c 3d
       0.068354644 0.011817632 -0.04206449 0.046086557
0003f0 8b f6 77 3d 41 57 27 3c 39 37 9d bc 5c 7c 84 bd
       0.060537856 0.010213674 -0.019191371 -0.06469032

conv_lstm.conv.bias f4 [40]
000000 54 3c 80 bd 3b 58 12 ba 76 88 a4 bc 07 b9 92 3d
       -0.06261507 -0.00055826054 -0.0200846 0.071641974
000010 02 75 a6 3d ec 9c b9 3c cd 0d 6d 3d 7e 21 94 bb
       0.08127786 0.022657834 0.05787449 -0.004520594
000020 e9 57 5a bd dd c1 b5 bd 4a d8 85 bd ca e9 81 bd
       -0.053306494 -0.08874867 -0.065353945 -0.0634342
000030 e1 c1 55 bd 36 bb b0 3d d6 97 9d bc 6a be e4 bb
       -0.05218685 0.08629458 -0.01923744 -0.006980707
000040 f9 7c 81 bd 0a ef b5 3d 55 f8 92 3d 42 b0 01 3c
       -0.06322665 0.08883484 0.07176272 0.007915558
000050 b8 e3 5d 3d ca 17 a5 bd f3 9b b2 bb f1 56 5c 3d
       0.054172248 -0.08061178 -0.0054507195 0.05379385
000060 c4 59 23 3d a0 90 a9 3d 85 6e 62 bd 8e 69 a6 bd
       0.03988053 0.08279538 -0.05528118 -0.08125602
000070 39 d8 8b 3d 17 2e a7 3c 46 cb e5 bc ae 60 aa bd
       0.068283506 0.02040772 -0.02805103 -0.083192214
000080 d2 6c b3 bd 03 d4 90 bd cc 97 95 3d 7a 9a 24 3d
       -0.0876099 -0.07071688 0.073043436 0.040186383
000090 c1 b6 6b 3b c7 a8 2a 3d 9f 37 8f 3b f5 b8 c7 3c
       0.0035967084 0.041664865 0.004370644 0.024380187

conv1.weight f4 [20, 10, 3, 3]
000000 31 48 41 3d ff f6 1c 3c b5 52 c4 bd 40 43 82 bd
       0.047187988 0.009580373 -0.095860876 -0.06360483
000010 ce 56 2a 3d 51 4e 4c 3d 5b 0f 2f bd 27 43 01 3d
       0.04158669 0.049879376 -0.042739253 0.031558182
000020 75 7e 14 bd cd 8f cc bd 8d f3 90 bd 7b 37 5b 3c
       -0.03625341 -0.09988365 -0.070777036 0.013379927
000030 05 0b 1a 3d a4 33 64 bc f6 b2 a8 bd ef 7f 5a bd
       0.037608165 -0.013928328 -0.08237259 -0.053344663
000040 15 62 63 3d fd a8 9a bd 22 e8 87 bd de d4 93 bc
       0.05551346 -0.07551763 -0.06636073 -0.018045839
000050 4e ea b6 3d d2 b0 b7 3d 0b 48 cb 3c c8 04 c9 3d
       0.08931409 0.08969273 0.024814626 0.09815365
000060 27 68 c6 bc d8 a6 54 bc ea 71 cc 3d 18 9b 64 bd
       -0.024219586 -0.012979232 0.09982665 -0.05581197
000070 02 da 50 bd 0f e9 32 bd 9e 83 d7 3c 98 04 6f 3d
       -0.05098916 -0.043679293 0.026307877 0.05835399
000080 b0 15 76 3c 0d 80 7a bd 71 4e 40 3c d5 be 20 bd
       0.015019819 -0.061157275 0.011737452 -0.03924449
000090 b1 94 8b 3d 70 8c a9 bd d0 5b 97 bd cc f7 4f bd
       0.0681547 -0.082787395 -0.07390559 -0.050773427
0000a0 72 3a c8 3d fc f5 99 3c a4 68 0a 3d b5 e4 b2 bd
       0.097767726 0.018794052 0.0337912 -0.08735029
0000b0 b0 d7 f6 bc c9 09 91 3c 17 92 89 bd cc 1c d5 bc
       -0.030132145 0.017704861 -0.067173176 -0.026014708
0000c0 4c 5b f9 bc 7e 1b cd bd 1d 1e 9f bd e4 9a 0d 3d
       -0.030439042 -0.10015009 -0.077694155 0.034571543
0000d0 47 9b 06 3d 82 81 d2 3a 0e 40 d0 3b e0 d8 86 3d
       0.032862928 0.0016060325 0.006355292 0.065843344
0000e0 c0 7a c6 bd 69 29 a9 3d 29 8f 02 3d c3 9a 43 3d
       -0.096913815 0.082598515 0.03187481 0.047755014
0000f0 04 aa ce 3d 3e a9 25 bd 31 79 3a 3d ec 82 a8 3c
       0.10091022 -0.040444605 0.045525733 0.02057024
000100 91 1e d8 bb 89 38 ce 3d d3 1a 62 3b cf 24 05 bd
       -0.0065954407 0.10069377 0.0034500852 -0.032505807
000110 99 f4 29 3d e0 36 b2 3d 49 2e b7 ba d8 f5 86 3d
       0.041493032 0.08701873 -0.0013975586 0.0658986
000120 e2 57 a4 bd 08 9a a5 bd ae e9 85 bc ec 17 13 3d
       -0.08024575 -0.0808602 -0.016346779 0.035911486
000130 5b 51 03 3d 1f c5 af bd 2d cc 92 bd dd 09 0c bb
       0.03206001 -0.0858252 -0.0716785 -0.0021368184
000140 35 57 df 3c 2d 0e 83 bd 4c f2 9a 3d 79 16 c5 3d
       0.027263263 -0.06399188 0.07565746 0.09623427
000150 2f 2d 73 bd f2 8c d7 bd 1d 6f ea bb 3b d4 16 3d
       -0.059369262 -0.1052493 -0.007154359 0.036823492
000160 c8 11 c0 3d 1d 2e 46 bd 3c ff c5 3d 62 d3 8b 3d
       0.093783915 -0.04838382 0.09667823 0.068274274
000170 ce 3d bf 3c 0e 37 89 bc 09 8a 11 bd f5 d5 6a bc
       0.0233449 -0.016749885 -0.03553203 -0.014333238
000180 fa dd 19 bd c4 5b 7b 3c 1f 3e de 3c 5b 98 d4 bd
       -0.03756521 0.015341703 0.027129231 -0.10380622
000190 c0 b3 ad 3d 4a a9 84 3d ef 4f 5a 3d cb 64 5a 3d
       0.0848155 0.06477602 0.053298887 0.05331878
0001a0 94 62 ad bd b0 af 9f 3d 22 1a 89 bd d9 fc d5 bc
       -0.08466068 0.077971816 -0.066944376 -0.026121544
0001b0 58 17 1e 3d 74 ea db bb 16 50 11 3c d1 08 ed bc
       0.03859648 -0.0067112986 0.008869192 -0.028934868
0001c0 42 ac b4 3d 22 1c 90 bd e8 7a 86 3d 44 ae a9 bd
       0.08821918 -0.07036616 0.06566411 -0.08285192
0001d0 34 89 ef bc eb c7 90 bd 35 f7 cb bd 50 1a 6e bd
       -0.029240228 -0.07069381 -0.099592604 -0.058130562
0001e0 51 bc a8 3c df ae f8 3c 95 3e cc 3d ea 12 04 3c
       0.020597609 0.030356823 0.09972874 0.00806115
0001f0 6a f8 e3 3c f9 eb 52 bd c2 5a 90 bd 12 d4 70 bd
       0.027828414 -0.051494572 -0.07048561 -0.058795996
000200 93 b3 37 bd ff b1 51 3d 54 38 71 bd 70 ef ae 3b
       -0.04484899 0.05119514 -0.05889161 0.005338602
000210 82 93 97 3d f5 4e a8 bc b2 ad 9e bd 36 b0 a4 3d
       0.07401182 -0.020545462 -0.077479735 0.08041422
000220 2e 97 78 3d 2b e8 c3 3d 77 02 90 3c 81 16 6f 3d
       0.06069105 0.09565767 0.0175793 0.05837107
000230 55 42 6a 3c 13 6e 4b ba 37 fb c1 bd 2d c5 c1 bb
       0.014298041 -0.0007760238 -0.094717436 -0.0059133978
000240 5a 94 8e bd 11 98 17 3d 58 1c 14 bd 0f f0 9f bd
       -0.069618896 0.037010256 -0.036159843 -0.078094594
000250 f1 f1 31 bd 53 d8 57 3c f2 e6 42 bc 62 64 20 3d
       -0.043443624 0.013174134 -0.011895882 0.039158233
000260 05 79 73 3d e1 15 a2 3d 5a 02 3f 3c 9f ba 7d bd
       0.059441585 0.07914329 0.0116582755 -0.061945554
000270 ab 1f 96 3d e3 89 8e 3d 78 ff ad bd 23 f9 93 3b
       0.07330259 0.069598936 -0.084959924 0.0045157834
000280 b5 6f 6e 3d 16 f4 98 3c 1d 16 7f 3d 17 d3 05 3d
       0.058212 0.018671077 0.06227695 0.032672014
000290 5e e7 85 bd 6e ee 5d bd 0f 7b 02 bd 15 ba 20 bb
       -0.065382704 -0.054182462 -0.03185564 -0.0024524976
0002a0 5f ba 08 3d f1 58 bc 3d a6 75 16 3d 17 50 41 bd
       0.033380862 0.09196652 0.036733292 -0.04719552
0002b0 72 f8 58 bd fc b7 b3 bd 63 e7 c0 bd e5 c9 ad 3d
       -0.05297131 -0.087753266 -0.094191335 0.08485774
0002c0 4b 26 92 bd ed e7 ce 3d ae 76 c0 3d 3c af c6 bd
       -0.0713621 0.1010283 0.09397636 -0.09701392
0002d0 12 6f 07 bd a4 87 f1 bb 30 aa 9e bd ce e2 ac bd
       -0.03306491 -0.007370906 -0.077473044 -0.08441697
0002e0 97 eb f5 ba 62 2d 9a bd 30 a4 be bd 85 89 54 3b
       -0.0018762228 -0.07528187 -0.0930866 0.00324306
0002f0 64 64 3d 3d 62 02 1e bc 7e 63 bb 3d e6 36 94 3d
       0.046238318 -0.009644123 0.09149836 0.072370335
000300 e2 d5 ae 3d a2 82 98 3d fd 52 82 3d e7 6b ef bc
       0.08536889 0.07446791 0.06363485 -0.029226257
000310 fa 2b cd 3d da ca c5 3c 89 c0 12 bd 42 87 78 bd
       0.100181535 0.024144579 -0.035828147 -0.060675867
000320 ee ab 95 3d b6 cb 73 bd f6 79 8e bd 6f a4 9c bd
       0.073081836 -0.059520446 -0.06956856 -0.07648551
000330 d5 3e 03 bc 31 51 1b bd 7b 05 3d bd 25 82 9d bd
       -0.008010586 -0.037919227 -0.046147805 -0.07690839
000340 fd 3a 55 3d 03 b0 18 bd b5 b9 12 3d 5c a1 4f 3c
       0.05205821 -0.037277233 0.035821635 0.012672748
000350 e5 06 78 bd 24 6e 8b 3c da a8 31 3d 70 ed 3f 3d
       -0.06055345 0.017020293 0.04337392 0.046857297
000360 fb 58 b6 bc 4c 82 97 3d 18 e5 9c bd e1 c1 33 3d
       -0.022259226 0.07397899 -0.07660884 0.04388607
000370 18 f6 c8 3c d5 b4 9b 3d 23 28 b8 bd 13 95 73 bd
       0.02453141 0.0760285 -0.089920305 -0.05946834
000380 8b 9b d1 3d 76 29 97 3d e3 a1 38 bc 75 18 c8 3d
       0.102347456 0.07380955 -0.011269066 0.0977029
000390 21 56 95 3d 81 86 35 bd 4c a1 45 bc b1 46 91 bd
       0.072918184 -0.044317726 -0.012062382 -0.070935614
0003a0 69 0a 8c 3d 96 25 c7 bd ec 35 7c bd a7 99 a8 3d
       0.06837923 -0.09723966 -0.06157486 0.08232432
0003b0 1f fe 9a 3d f0 d6 7b 3d 1a cb d2 bd d8 0b 9b 3d
       0.07568001 0.061484277 -0.10292645 0.075706184
0003c0 b3 f4 ee 3c c5 04 17 bd 99 b8 45 3d 44 19 89 3d
       0.029169416 -0.036869783 0.04827175 0.06694272
0003d0 3f 98 c2 3d 57 51 c9 bd ba ff a8 bb 7f cf a8 bc
       0.09501695 -0.098299675 -0.005157438 -0.020606754
0003e0 bd d6 95 bd 1a 84 52 bd ff 8f bd 3d e3 14 0a 3c
       -0.07316349 -0.051395513 0.09255981 0.008427831
0003f0 f9 66 8d bd d4 a2 ad 3d 49 6a 2a 3c 5a 60 b3 3d
       -0.06904406 0.084783226 0.010401317 0.08758612

conv1.bias f4 [20]
000000 76 8a 83 3d e9 27 17 bd 64 c3 50 3c 65 ec b1 3d
       0.06422894 -0.036903296 0.012741897 0.08687667
000010 8f d8 ca bd da 1b d7 bd 86 b2 ac 3d 3a 2f 9f 3d
       -0.099045865 -0.10503359 0.08432488 0.077726796
000020 79 d8 da 3d 03 d5 07 3d 52 fa f2 bb e3 35 75 bc
       0.1068582 0.03316213 -0.0074150944 -0.014966461
000030 c3 f8 c7 3c 68 67 c1 bd 06 3a 8b 3d e7 65 53 bc
       0.024410611 -0.09443551 0.067981765 -0.012902713
000040 78 55 5c 3d 50 36 6c 3c a0 74 ce 3d 56 3b a5 3d
       0.053792447 0.014417246 0.10080838 0.08067958

conv2.weight f4 [40, 20, 3, 3]
000000 9c 34 85 3d 4d 34 6c 3d ae 0b ad bc 48 f6 00 bd
       0.06504175 0.057667065 -0.021123733 -0.031484872
000010 f9 83 aa 3c 89 df 92 bd f3 dc 03 3d c7 7f 3f bd
       0.020814883 -0.07171542 0.032193135 -0.046752717
000020 78 3f 43 bd 0d b3 aa 3c c2 3f 6b bd 87 7f 35 3d
       -0.04766795 0.020837331 -0.05743385 0.044311073
000030 b5 01 19 bd 17 77 98 bb 4c c0 4d bc bb 89 54 3d
       -0.037355144 -0.0046528685 -0.012558054 0.051889163
000040 bd 44 91 bc 26 b3 86 39 60 07 d8 3c f2 8b 7e bd
       -0.017732972 0.00025691948 0.026370704 -0.06214518
000050 1c de 3d bd 0e e0 f9 3c e0 3a 00 3d 76 5e 7c bd
       -0.046354398 0.030502345 0.031306148 -0.061613522
000060 11 8f 93 bd 4b ae 47 3d 34 17 93 bd 75 6c 4d 3d
       -0.07205022 0.048750203 -0.0718216 0.05015226
000070 6c c1 e1 bb b1 f4 90 3c 9a da 64 3d a4 e4 bd bc
       -0.0068895128 0.017694803 0.055872537 -0.023180313
000080 f4 12 56 3d 5c a9 ca bc 2c c9 af bb f4 8a 8c bd
       0.05226417 -0.02473896 -0.0053645577 -0.06862441
000090 5d 27 f8 3c 4b db 13 3d cc 76 3e 3d fe 49 c0 3a
       0.030292207 0.036097806 0.046500012 0.0014670489
0000a0 f8 9d df 3c 7d 82 96 bd ee eb 49 3d 8e 72 70 bc
       0.027297005 -0.073491074 0.049297266 -0.0146757495
0000b0 49 ce 08 3d 1f 74 c8 bb 40 dc 54 bd 8d 2f 95 3d
       0.033399854 -0.0061173583 -0.05196786 0.0728446
0000c0 69 e5 41 3d 56 47 1b 3d f2 e5 47 bd d6 ea 37 bc
       0.047337923 0.037909828 -0.048803277 -0.011225423
0000d0 42 2b 55 3d a1 fc 9e 3c 90 00 8b bd 5e d1 19 bc
       0.052043207 0.019407572 -0.06787217 -0.009388296
0000e0 18 7e 29 3d d1 16 14 3d 09 c6 ab bc eb 5f c8 3c
       0.041380018 0.036154572 -0.020968454 0.0244598
0000f0 88 e9 57 bc 57 9c 8e bd c9 2b 27 bd 02 7e 63 3d
       -0.013178237 -0.06963413 -0.04081324 0.055540092
000100 39 c7 ac bb be 9c 43 bc 5d 27 d6 bc 62 ad fc bc
       -0.0052727726 -0.011939226 -0.026141817 -0.030844394
000110 cc 27 86 3b d8 58 d2 3c a4 ad 75 bb 30 8a 44 bd
       0.0040940996 0.02567713 -0.003748753 -0.04798335
000120 86 e2 30 3c 76 4d 77 bd 01 67 50 bc 1a b4 4b bd
       0.010796195 -0.060376607 -0.012719871 -0.049732305
000130 4f a0 4a 3c c1 96 22 3d 8c 8c 6b bc e7 5c 70 bd
       0.012367322 0.03969455 -0.014376771 -0.05868235
000140 c2 c3 0e 3c ec d2 27 3d db df 55 3d 81 78 70 bd
       0.0087136645 0.040972635 0.05221544 -0.05870867
000150 57 fe 67 bc ab 18 54 3c dc 9d dd 3c 96 e7 44 bd
       -0.01415976 0.012945334 0.027052812 -0.04807242
000160 14 e6 ce 3c b5 a2 c5 bc ea d4 9a bb 2c 88 cd bc
       0.025256194 -0.024125436 -0.0047250884 -0.025089346
000170 24 88 2e 3d cf b6 94 bd 72 ff 90 3d 1b 33 8a bd
       0.042610303 -0.072614305 0.07079972 -0.06748029
000180 cf 25 ca bc 4e a2 a4 ba 1b 7e 3b bd d0 69 a4 3c
       -0.024676232 -0.0012560578 -0.04577456 0.020069987
000190 90 be 71 bc cf 87 01 3d a5 e0 29 3d a0 ad 0c 3d
       -0.014754906 0.031623658 0.041474003 0.03434527
0001a0 9a 25 9d 3a 11 aa 47 bd c5 91 ca 3c ce 00 e1 3c
       0.0011989356 -0.048746172 0.024727711 0.027466204
0001b0 d4 8b d6 bb 06 dc 74 bd 89 c5 fd bc 36 bd 8e bd
       -0.0065474305 -0.059780143 -0.030977981 -0.06969683
0001c0 a5 5e 9a 3c ca b3 cf 3c 8a 64 f5 bb 6a 97 91 3d
       0.018843958 0.025354285 -0.007488792 0.07108958
0001d0 b7 dd 9a 3c d4 77 b4 3c 6c 59 45 3d 7c 46 37 bd
       0.01890455 0.022029795 0.048180982 -0.044744954
0001e0 2d df de 3c c5 3f e2 bc 9c 9f 3c 3d e6 d3 57 3c
       0.027206028 -0.027618298 0.046050653 0.013173079
0001f0 f2 32 04 bd 95 75 86 bd 93 a9 1c 3d 01 3d 1e 3d
       -0.032275148 -0.06565396 0.038247656 0.038632397
000200 17 9f c9 3b c5 43 85 3d 85 fe 60 3c b1 90 fb bb
       0.006152998 0.06507067 0.013732557 -0.0076771607
000210 56 5f 39 3c e0 25 12 3d 98 0a 96 bd 8a 1f 50 bc
       0.011314234 0.03568065 -0.07326239 -0.012702832
000220 3e d3 9c 3c b3 dc 31 3d 47 54 b9 bc 1f dc 09 3c
       0.019143697 0.043423366 -0.022623194 0.008414297
000230 dd 8f 69 3b 4a d2 f1 bc e6 16 ca 3c 4e 1f 40 bd
       0.0035638728 -0.029519219 0.024669122 -0.046904854
000240 f0 ab 88 3d 22 19 ca bc 24 54 a7 3c b4 b0 8d 3d
       0.066734195 -0.024670187 0.020425864 0.06918469
000250 3d a4 f7 bc 3e f9 69 bd 82 1e 8e 3d 79 f4 e7 3c
       -0.030229682 -0.05712246 0.06939413 0.028314816
000260 0e cb 4d 3d 57 10 ed bc 5a 2b 60 bd 2b 89 6c 3d
       0.050242476 -0.028938456 -0.054728843 0.057748
000270 bc b9 d5 bc 56 ec fa 3c 5c c5 97 3c d4 6a ad 3c
       -0.026089542 0.030630272 0.018526725 0.021169104
000280 88 fe 17 3d 56 d8 7f 3d 9a 86 65 3d db ec 55 3c
       0.037107974 0.062462173 0.05603657 0.013056959
000290 3b 7a 69 bd 99 e6 21 3b a3 5f 9e bc e0 38 2f 3d
       -0.057001334 0.0024704097 -0.019332713 0.04277885
0002a0 c4 86 28 bd 39 95 31 bd ac e4 d7 3c 70 8d 33 bd
       -0.041144148 -0.0433552 0.026354156 -0.043836057
0002b0 27 f9 84 bc f3 71 03 bd 55 3c 8b bd 7c 38 7b 3d
       -0.016232086 -0.032091092 -0.06798617 0.061333165
0002c0 0f 32 fd bb 01 73 3c 3d 3f 7a f4 bc b9 28 70 bd
       -0.0077269147 0.046008114 -0.029843448 -0.058632586
0002d0 6c 15 19 3d 42 80 8f 3d b1 f5 83 bd e6 c4 5c bd
       0.037373945 0.07006885 -0.06443346 -0.053898714
0002e0 f0 6b 0a 3d 2c a8 3d 3d e9 44 c7 bc b2 17 38 bd
       0.033794343 0.04630296 -0.024324851 -0.044944473
0002f0 b9 58 21 bc b8 2f c5 bc 70 84 a6 bc 5b 76 7a 3c
       -0.009847813 -0.024070606 -0.020326823 0.015287007
000300 27 2d 65 bd c7 99 0f bc 53 b2 67 bd a7 8d 90 3d
       -0.055951264 -0.008764691 -0.056566548 0.07058268
000310 93 8d 14 3d 6b d0 91 3c 96 df 87 bc 13 78 96 bc
       0.03626783 0.017799577 -0.016586106 -0.018367803
000320 e2 4c 1c bd ff 93 10 bc ce 32 fd 3c 3f f5 15 bd
       -0.03815926 -0.0088243475 0.030908015 -0.036610838
000330 41 78 ee bc cb 61 84 bc ad 87 95 3d 49 0d 63 3d
       -0.029110076 -0.016159913 0.07301269 0.05543259
000340 88 34 8f bd 1a c7 c0 bc 81 66 c5 bc 80 b8 a1 3c
       -0.069924414 -0.023532439 -0.02409673 0.019741297
000350 7d ff 04 3d 34 b9 8e 3b c1 76 27 3c 5a 81 af bc
       0.032470215 0.004355574 0.010221184 -0.021423984
000360 09 4b 72 3d db 5c 3e bd 1d 64 94 ba a3 23 69 3d
       0.05915359 -0.046475273 -0.001132134 0.05691875
000370 0d f6 8d bd 8d 0f 37 bd c1 ec 19 bd 71 dd e1 bb
       -0.06931696 -0.044692565 -0.0375793 -0.006892853
000380 7c 54 31 bd 9d fb 4b bd d7 b1 88 bd 0d ca f1 3c
       -0.04329346 -0.049800504 -0.06674545 0.02951529
000390 0f 04 fc 3c 90 a9 25 3d 84 9e 7c 3b 0c 41 87 3c
       0.030763654 0.04044491 0.003854663 0.016510509
0003a0 28 ee 1b 3d 32 44 d7 3b c3 1b 54 3d 55 f6 ee bc
       0.03806892 0.006569409 0.05178429 -0.029170195
0003b0 a5 24 36 3d 1e dd 97 3c 37 2e 37 3d 33 d3 2e 3c
       0.04446854 0.018538054 0.04472181 0.010670471
0003c0 1a 7a 32 bd 3b a3 68 3d 38 a4 36 3d 48 32 92 3d
       -0.043573476 0.056796294 0.044590205 0.07138497
0003d0 ef 83 1b bd 06 d8 69 3d 37 43 95 bd f9 79 1f bd
       -0.03796762 0.05709078 -0.07288211 -0.03893468
0003e0 4a 0b 8a 3d 09 a3 9c 3b 5a 65 42 3d 14 b4 6f bc
       0.067404345 0.0047801775 0.047459938 -0.014630336
0003f0 bd ac 79 3c 59 63 bc bc c2 15 2e bd d2 f4 84 bd
       0.015238938 -0.022996591 -0.04250122 -0.06492008

conv2.bias f4 [40]
000000 0e 7b f3 bb 96 20 24 bd 99 62 0b bd 77 ff 86 bc
       -0.0074304407 -0.04007014 -0.034029577 -0.016479237
000010 7a bc 85 3d c7 42 47 bd b3 0b 77 bd f4 6c 11 b9
       0.0653009 -0.04864767 -0.06031389 -0.00013868866
000020 c3 89 81 bd 26 55 1d bd a1 72 36 3d 33 c6 30 3c
       -0.06325104 -0.038411282 0.044542912 0.010789442
000030 e5 4c 32 bd 84 ab 96 3d 20 24 7b bd 47 a1 2c bd
       -0.043530364 0.07356933 -0.06131375 -0.042145994
000040 2e c2 8f 3c 3b 88 87 bc aa 70 dc 3c 25 39 7d 3d
       0.017548647 -0.016544452 0.026909191 0.061822075
000050 78 e7 0c bd 0b 55 2f bc 69 97 81 bd 9f 16 fd bc
       -0.034400433 -0.010701428 -0.06327707 -0.030894576
000060 c9 3f 0d bc 41 4c 8f 3c 8b 3c c0 bc d8 9d 87 3d
       -0.008621165 0.017492415 -0.02346637 0.06621903
000070 df a5 47 bd cf fa 08 3d 8f 0f 04 bd 85 67 2c bd
       -0.04874217 0.033442315 -0.0322414 -0.04209091
000080 8e 97 dd bb 2e 0a f1 bc e3 77 47 bd 80 70 d3 bb
       -0.0067624515 -0.0294238 -0.048698317 -0.00645262
000090 f8 27 2d 3d 80 71 89 3d f3 f7 88 bd 92 03 83 3d
       0.042274445 0.067111015 -0.066879176 0.06397165

fc1.weight f4 [1, 6760]
000000 8d 5f df bb 1a c4 34 bc fc e7 2d bc 07 30 07 3c
       -0.0068168105 -0.011033082 -0.010614391 0.008251197
000010 4e cf ea 3b 39 e9 09 3c 35 d1 19 bb 5b c3 d9 39
       0.007165826 0.008417421 -0.0023470644 0.00041535016
000020 51 1d bd 3b 39 f0 30 bc 62 b1 e0 bb 81 55 c1 3b
       0.005771317 -0.010799461 -0.006857083 0.0059000854
000030 48 01 c4 3b c6 2b 8d 3a 52 5b 4b bb 18 7d 32 3a
       0.005981598 0.0010770492 -0.0031029773 0.00068088016
000040 24 a9 da 3b 7e ac 1f bc 42 4c 87 bb 56 f1 27 3c
       0.006672995 -0.009745715 -0.0041289637 0.01025041
000050 5e 3b 20 bc 88 8a 45 3c ba 42 f6 3b cf fa 0d 3c
       -0.009779779 0.012056954 0.0075152786 0.008665754
000060 45 b9 af 3b 03 55 2e 3c 66 9e 43 bc cf f1 45 bc
       0.005362662 0.010640386 -0.011939621 -0.012081577
000070 40 3e 10 bb 19 4f db ba c4 1b 47 3c 55 4e d0 3a
       -0.002200976 -0.0016731947 0.012152616 0.0015892485
000080 63 b2 06 bc 0b 8b 19 3c fa 2a 68 3b c5 38 08 bc
       -0.008221242 0.009371529 0.0035426007 -0.008314316
000090 1a cd 43 3b 32 b4 1f bc 6a 58 db 3a ad c0 2e 3c
       0.0029876889 -0.009747552 0.0016734723 0.010666055
0000a0 11 c8 94 3b bb b7 f7 3b 79 b0 98 3b d1 72 31 3a
       0.0045404513 0.007559744 0.004659709 0.0006769123
0000b0 bb cf 91 3a fe 62 39 bb 51 a1 2e 3c 53 40 8c ba
       0.001112453 -0.0028287764 0.010658578 -0.0010700322
0000c0 90 be 1b 3b 29 66 44 bc 26 bf 04 3b ab 7c ec b9
       0.0023764707 -0.0119872475 0.0020255535 -0.00045106313
0000d0 60 3b 21 bc 9e 21 b3 3b 63 30 82 3a 50 62 ae 3b
       -0.009840816 0.005466654 0.0009932633 0.0053217784
0000e0 a2 f0 0c 3c fe 03 c6 39 41 ed d7 3b 1d 5f db 3a
       0.008602293 0.00037768477 0.006589562 0.001673672
0000f0 12 8e 2f bc 7b 31 07 bc 75 91 f7 3b fd 25 37 3c
       -0.010715025 -0.008251543 0.0075551816 0.011178491
000100 cc ee bb bb 4f 15 30 3c 02 5b 90 bb c5 e5 02 3b
       -0.005735254 0.010747268 -0.00440538 0.001997338
000110 1f 64 4e 3a 7b 78 7a 3b 5c 8d 66 3b c4 46 0d bc
       0.00078731956 0.0038218785 0.0035179472 -0.008622829
000120 17 d3 3d bc a6 d3 0c bb 0f 83 f0 bb 55 47 01 bc
       -0.011585972 -0.0021488457 -0.007339842 -0.007890542
000130 cf b5 9c bb 71 c8 85 bb fa 01 12 bc 76 51 f6 ba
       -0.0047824155 -0.0040827324 -0.008911604 -0.0018792588
000140 4c f9 18 bc 3a e9 bc bb ca 33 0e bc a8 56 35 bb
       -0.009336781 -0.0057651075 -0.00867934 -0.002767006
000150 3d 74 3c 3c 62 ba 83 ba fb 02 0b 3c 0a 78 b3 3b
       0.011502323 -0.0010050053 0.008484597 0.0054769563
000160 36 aa 81 bb a9 f4 82 ba 7e 2b 85 3a 52 a3 2a bc
       -0.0039570583 -0.0009991127 0.0010160056 -0.010414915
000170 14 54 30 3b 9a a8 44 bb 0c 1d d2 3b 46 d8 68 bb
       0.0026905583 -0.003000772 0.006412154 -0.00355293
000180 85 cd de bb 5d d0 8d bb bf ba 19 bc 84 e9 4b 3c
       -0.006799402 -0.0043278174 -0.009382903 0.012445811
000190 62 44 a4 3b 16 46 b1 3b 4b 2b d3 bb e8 e4 20 3c
       0.0050130347 0.005409966 -0.00644437 0.0098202005
0001a0 9e bf cb bb ce 38 38 3c 0e 9e 09 3c 60 be e1 3b
       -0.006217911 0.011244012 0.0083995 0.0068891495
0001b0 c3 fc ae 3b a3 13 a0 bb 00 1a 3e 3c a8 1e 67 bb
       0.00534019 -0.0048851534 0.011602879 -0.0035266075
0001c0 f6 7d 32 3c f7 54 44 3c d0 b1 4e 3b 07 96 fb 3b
       0.010894289 0.011983148 0.003153909 0.0076777968
0001d0 32 44 a6 3b 27 d7 e3 3b fc c1 3c bb a4 8f c8 3b
       0.0050740475 0.0069531384 -0.0028802147 0.006120639
0001e0 a6 b9 97 3b 80 b5 f3 3b f7 28 11 3c ea f8 70 bb
       0.0046302853 0.007437408 0.008859864 -0.0036769458
0001f0 28 a6 30 3c 80 81 ce bb eb 09 4e 39 99 94 aa bb
       0.010781802 -0.0063020587 0.00019649386 -0.0052057025
000200 97 92 b4 38 27 4f a9 3b fb 28 7a b9 81 0f a0 bb
       8.610373e-05 0.0051669064 -0.00023857124 -0.0048846607
000210 2f 1c f1 b8 15 26 14 bc 57 b3 43 bc ae 3a 07 bc
       -0.00011497025 -0.009042283 -0.011944613 -0.008253736
000220 22 60 23 3c 90 bf 58 bb 4b 83 f7 3b 36 20 3f 3b
       0.00997165 -0.0033073165 0.007553493 0.0029163486
000230 ab e5 47 3c 7e b0 ff 3a f1 7d 90 3b ba 4b 43 3c
       0.012200753 0.0019507555 0.0044095446 0.01191991
000240 31 b9 13 3b 38 bc c2 bb 8c 85 ca 3b 03 35 01 bb
       0.0022540803 -0.0059428476 0.006180471 -0.0019715435
000250 7d 65 34 bb 31 e6 95 3b 84 a0 9a ba 0d 39 45 bc
       -0.0027526312 0.00457456 -0.0011797105 -0.012037528
000260 9f 12 2c bc d1 47 86 3a 04 9d 2a bc af 33 4f b9
       -0.0105024865 0.0010244792 -0.010413412 -0.00019760312
000270 33 65 63 bb 8e c4 98 3b 07 ef 7c 3b 6e 38 09 3a
       -0.003469777 0.004662103 0.003859462 0.0005234544
000280 9e b8 94 bb 5d 63 2a 3b 88 01 64 bb 11 ae 48 3c
       -0.0045386096 0.0025999167 -0.0034790952 0.012248532
000290 68 84 13 bc 55 61 33 3c c3 4d f8 b9 c4 fb e7 bb
       -0.009003736 0.010948499 -0.00047360183 -0.0070795733
0002a0 96 75 32 3a af 58 26 bc 9f 81 b5 bb cf b2 6c bb
       0.0006807683 -0.01015298 -0.0055391337 -0.003611732
0002b0 73 f8 2b 3c 5f 40 e3 39 87 80 aa 3a 48 bc a3 bb
       0.010496247 0.00043344774 0.0013008275 -0.00499681
0002c0 4e ce 38 3c 0e 2e e5 bb f3 8f de 3b f9 ec d3 bb
       0.011279656 -0.0069940155 0.0067920624 -0.0064674583
0002d0 a1 77 c9 3b 4b 83 2f ba 18 8e 2f b8 cb 04 95 ba
       0.006148294 -0.00066952844 -4.1855586e-05 -0.0011369226
0002e0 5c 30 3f 3c 59 ff ba bb a6 17 45 ba 5a dc c5 bb
       0.011669245 -0.0057067093 -0.00075184775 -0.006038231
0002f0 11 2c 9c 3b 1c f5 b0 3b d1 e9 8c 3b c8 7b df 3a
       0.0047659953 0.005400313 0.004300334 0.001705044
000300 df a1 bf 3b 30 cc 45 bc 0e df cd 3a f3 47 ed 3a
       0.005848154 -0.012072608 0.0015706734 0.0018103108
000310 59 15 c7 bb 7c aa cf 3b ea fc ee bb 43 65 10 3c
       -0.006075543 0.006337462 -0.0072933333 0.008813205
000320 66 ea 05 bc f9 98 0f 3c 85 61 b6 3b 0d 2d 10 3c
       -0.008173561 0.008764499 0.0055658245 0.008799803
000330 00 5c c6 ba b0 e4 04 3c 40 e7 83 3b 1d 06 aa 3b
       -0.0015133619 0.008111164 0.00402537 0.005188717
000340 e7 05 de ba 51 96 c0 bb c1 1c f8 bb 30 a7 48 bb
       -0.0016939015 -0.005877294 -0.007571787 -0.003061723
000350 6b 4f 91 3b c4 ef 06 3c d2 b5 60 39 1c 02 2f bc
       0.004434516 0.0082358755 0.00021430038 -0.010681655
000360 51 2f 46 bc b4 e6 45 bc f1 9b 6f bb 2f b2 77 b9
       -0.012096242 -0.01207893 -0.0036561454 -0.00023622134
000370 9f 09 a5 3b bb ab 2f 3c 42 76 04 3c 29 04 27 bb
       0.0050365473 0.010722096 0.0080848355 -0.0025484657
000380 d5 2f 45 3c 70 2d 17 bb b3 1d b7 3b a6 56 04 bc
       0.01203533 -0.0023067854 0.005588257 -0.008077299
000390 18 94 a4 3b 96 a0 ac 3b b8 a5 28 bc 8d 1b ee bb
       0.005022537 0.005268167 -0.010293417 -0.007266468
0003a0 0d 43 71 3b 71 dc 65 3a a7 24 81 bb 51 3b ae 3b
       0.0036813647 0.0008768505 -0.003941137 0.0053171297
0003b0 96 58 b3 bb fd 4a 09 3c c4 c2 22 3c a3 fb 05 3c
       -0.0054732068 0.008379695 0.009934131 0.008177671
0003c0 cd 56 a0 bb d3 5d 56 bb 18 15 f6 ba 39 b6 8b bb
       -0.00489316 -0.0032709732 -0.0018774597 -0.004263666
0003d0 7d 36 e9 3a cb 14 a1 3b 44 3b f3 3b 42 1f 78 ba
       0.0017792728 0.004915809 0.0074228365 -0.0009465107
0003e0 fd b2 c6 ba e0 6d 35 bc 02 70 10 3c 0e 74 cf 3b
       -0.0015159544 -0.0110735595 0.008815767 0.0063309735
0003f0 df 4c 2f bc 63 02 41 bc f2 7d 83 bb db 0b d3 39
       -0.01069948 -0.011780354 -0.0040128166 0.0004025389
