ConvLSTM/Original/0.73_53_A_S.pt (torch, 84919 bytes, 7 tensors)

conv_lstm.conv.weight f4 [40, 13, 3, 3]
000000 ba 83 e5 bc c1 87 ae 3c c5 d2 cb bb bc 02 e2 bc
       -0.028016914 0.021304967 -0.006220194 -0.027589194
000010 e6 9b b9 3d 90 d1 96 bd 22 e3 a9 bc 7a c6 2f 3d
       0.090629384 -0.073641896 -0.020738188 0.04291389
000020 73 bf 33 3d 58 26 99 3c 69 d9 e7 bc 36 ca 49 3d
       0.043883752 0.018695042 -0.028301911 0.04926511
000030 be a2 46 bd 03 4f 12 3c 8d ba e2 3c 75 56 93 bd
       -0.048495047 0.008929971 0.027676845 -0.07194225
000040 08 ed 81 3d a4 5b 15 3d 9f 72 81 3c 52 4e 8f bd
       0.06344038 0.03646435 0.015801726 -0.0699736
000050 bf c8 44 3d d3 39 b2 3d cd e4 0c bd ec 1e 3d 3d
       0.04804301 0.08702435 -0.03439789 0.046172068
000060 66 6c 07 3d fc c2 9e bd f7 f1 8e bd 19 c1 d2 3c
       0.03306236 -0.07752034 -0.06979745 0.025726842
000070 ef ba e2 3c f1 1c 13 bc e6 61 29 bd 59 87 ae bd
       0.027677028 -0.008979068 -0.04135313 -0.08521909
000080 03 fd e2 bb 03 2d 09 bd 7f 93 56 bd 20 d0 06 bd
       -0.006927134 -0.033490192 -0.052386757 -0.032913327
000090 f9 99 a5 39 20 94 42 3d 71 05 5c bd 66 08 7c 3d
       0.0003158597 0.047504544 -0.053716127 0.061531447
0000a0 53 c5 2a 3c 70 76 40 3d 04 95 79 bd 6e 5e 36 3d
       0.010423022 0.04698795 -0.060933128 0.04452365
0000b0 d0 ac d5 bb 0b ab aa 3d d5 6b 92 bd ce 3b 9f bc
       -0.006520845 0.08333405 -0.071494736 -0.019437697
0000c0 4d 79 7c 3d 75 49 ea bc 5f 45 ef 3c 4a f1 3b 3d
       0.06163912 -0.02859948 0.029207883 0.045884408
0000d0 65 ed 90 3c 7d 05 ab 3d 84 ae 6e 3d 33 f8 6d 3d
       0.017691324 0.08350656 0.0582719 0.05809803
0000e0 4b a0 71 3d c2 17 be bb e5 74 bb bd 12 33 41 3d
       0.058990758 -0.005801172 -0.09153155 0.047167845
0000f0 12 80 40 bd 68 22 00 3c 4c d8 3d bd 65 0c 42 bc
       -0.046997137 0.007820703 -0.046348855 -0.011843775
000100 48 e7 4d 3a ed a3 b9 bd 38 22 61 bd 58 fd 2c bd
       0.0007854593 -0.090644695 -0.054964274 -0.042233795
000110 2a c3 1c 3b 57 b1 65 bd 5f e3 0d 3b aa 10 a4 bd
       0.0023920038 -0.056077328 0.0021650416 -0.08010991
000120 61 76 75 3d 7d 38 a9 3d a0 eb f3 3c 9c f1 7a bd
       0.059927348 0.082627274 0.02977544 -0.061265573
000130 33 37 a5 3c e0 74 02 bd ef 74 54 3d 64 dd 1f 3d
       0.020167923 -0.031849742 0.05186933 0.039029494
000140 12 56 a1 3d 32 4c 9c 3d 53 21 8e 3c 09 5a 65 3d
       0.07877745 0.076317206 0.017349875 0.055994067
000150 72 bd 78 bd e7 87 39 bc 74 a1 1d bd 9a 6e 88 3c
       -0.060727544 -0.011323906 -0.03848405 0.016654301
000160 52 bb 5a 3c f6 7f 08 3b 4d b5 ad 3a ee aa 02 bd
       0.013350325 0.0020828224 0.0013252884 -0.031901293
000170 17 33 64 3d 34 5b ea bc e3 eb 84 bd 09 a7 a0 bd
       0.055712786 -0.028607942 -0.06490304 -0.078443594
000180 84 4a 3f 3c 90 73 3a 3d ff f9 92 3d 19 75 92 3d
       0.011675481 0.045520365 0.07176589 0.07151241
000190 1c fc 19 3d fa 4a 3d 3c 91 7d 5b 3d b6 a2 25 3d
       0.037593946 0.01155352 0.053586546 0.040438376
0001a0 96 35 77 bb 0a da 6c bd 4a 50 83 bd 03 18 19 3d
       -0.0037721149 -0.057825126 -0.06411798 0.037376415
0001b0 2e 79 23 3c d4 d8 1c 3d 31 fc 7d 3d bf ea 32 bd
       0.009977622 0.03829272 0.062008087 -0.043680903
0001c0 40 55 6d 3d 34 f7 b8 3c 3e a1 a8 3d f5 c7 9f bd
       0.05794263 0.022578813 0.082338795 -0.07801811
0001d0 c0 19 63 bc aa e3 b7 3d f3 be 5f 3d 01 b2 a5 bd
       -0.01386112 0.0897897 0.054625463 -0.08090592
0001e0 89 42 20 3c f3 e7 00 3c 47 e7 66 3c 3b ed 94 3d
       0.009781488 0.007867801 0.014093227 0.072718106
0001f0 4b e9 db bc 94 d8 11 bb 7f a5 61 bd 37 6e b7 bb
       -0.026844641 -0.0022254335 -0.05508947 -0.0055978554
000200 ff c5 6c 3d c0 93 b4 3d e3 45 8b bc ab a2 86 bc
       0.05780601 0.088172436 -0.017001098 -0.016434988
000210 d7 6e b0 3b 3b 72 93 3d d4 82 40 3d 91 49 b1 bd
       0.005384307 0.07199522 0.046999767 -0.0865661
000220 ff 89 55 bd 6f 11 25 bd 69 0d 61 3c 33 d9 90 3d
       -0.052133556 -0.04029983 0.013736107 0.070726775
000230 80 a7 af bd 19 9b 0c bd 4c 9a 5e bd 8e 49 60 bd
       -0.0857687 -0.0343276 -0.054346368 -0.054757647
000240 78 88 07 3d 6c 5f 47 bd 16 0a a1 3d 43 97 d4 3c
       0.03308913 -0.048674986 0.07863252 0.025951033
000250 38 6e bb 3c 75 22 55 3d 8a b3 b6 bb e3 0d 64 3d
       0.022879705 0.052034814 -0.005575602 0.055677306
000260 03 43 35 3d a6 bb bd bd ad 37 37 bc 84 0d ba 3c
       0.04425336 -0.09264307 -0.011182708 0.022711523
000270 75 01 e2 3b 5c 12 ae bd ba 25 c2 bd a2 6a 94 3d
       0.0068971463 -0.084995955 -0.09479852 0.07246901
000280 f2 56 1f 3c 3a 4d a9 3c 0b de 12 3d 27 5e 5f 3d
       0.009725319 0.020666707 0.035856288 0.05453315
000290 e0 7f 67 bd d6 4f 81 bd a6 c8 7d 3d fa ca 8f bd
       -0.056518435 -0.063140556 0.06195893 -0.070211366
0002a0 db c4 b3 3c e8 a7 41 3d d7 95 e0 bc 44 a4 44 3d
       0.021944454 0.04727927 -0.0274152 0.04800822
0002b0 72 67 b1 bd fb 73 dc bc 2b 1b 12 3d 81 90 88 bd
       -0.08662309 -0.026910773 0.03567044 -0.06668187
0002c0 ca 46 ae bd cd 71 c4 3c 16 d6 c0 bd 59 77 d8 bc
       -0.08509596 0.023980046 -0.09415834 -0.026424097
0002d0 15 2e 7e ba bf 2d 4f 3d b4 a0 8d bd ab 4e 37 3d
       -0.0009696198 0.050580736 -0.06915417 0.044752758
0002e0 1f 7e a7 bd 5c 89 c5 bd 99 5e 13 bd 68 c6 13 bd
       -0.081783526 -0.0964534 -0.035978887 -0.036077887
0002f0 89 b5 23 bc 53 f5 20 bd 79 12 fa bc b9 a8 a8 bd
       -0.009992012 -0.03929646 -0.030526387 -0.08235306
000300 af dd 91 3c aa 6e 84 bd 5b 12 f3 bc 08 8c a9 bd
       0.017805902 -0.0646642 -0.029671839 -0.08278662
000310 36 09 e7 3c c2 b7 08 3d de 08 c2 3d 6d 00 5f b9
       0.028202634 0.03337837 0.094743475 -0.00021267096
000320 ab 99 bf bc 1b 59 67 bd fb d1 92 bd a8 7d 6f bd
       -0.023388704 -0.056481462 -0.07168957 -0.058469445
000330 57 f8 ae bd 18 73 d0 3a e1 0b a3 bd bd 50 2a bd
       -0.08543461 0.0015903441 -0.0796125 -0.041580904
000340 33 8e 44 bc 29 00 b5 3d e9 71 43 bd 8d 21 f3 bc
       -0.011996794 0.08837921 -0.047716055 -0.029679084
000350 2b d5 a7 3d d8 b7 a9 3d 68 fa 9a 3b 1d fc a4 bd
       0.081949554 0.082870185 0.004729558 -0.08055899
000360 37 63 ad bd 1d 2d b6 3b 68 db 42 3d de 33 88 bc
       -0.08466189 0.005559577 0.047572523 -0.016626295
000370 cf 77 75 3d 1d 30 8d 3d 9e db 87 3c af 03 d3 3c
       0.05992871 0.068939425 0.016584214 0.025758592
000380 78 dd 64 bc 9d 18 ef 3c 48 e0 15 3c 6f 86 98 3c
       -0.013968818 0.029186541 0.009147711 0.01861879
000390 d6 1a 98 bd a4 aa e4 3c c0 c3 35 bd 37 73 8a 3d
       -0.074269935 0.027913399 -0.044376135 0.06760257
0003a0 fd ed b0 3c 53 20 c7 3c 9f 47 8f 3d e4 0f 99 bd
       0.021597857 0.024307406 0.069960825 -0.07473734
0003b0 04 7b 42 bd 7e e2 9b 3d b1 77 38 bd c8 92 5a 3d
       -0.047480598 0.07611559 -0.04503602 0.053362638
0003c0 67 64 1d bd 16 fd 8c bc 94 b4 ac 3d ec 04 b9 bb
       -0.03842583 -0.017210525 0.0843288 -0.0056463387
0003d0 4f d6 85 bd 17 eb 90 bd 66 19 4d 3d b6 fa 87 3c
       -0.06535017 -0.0707609 0.05007305 0.01659904
0003e0 47 bf ac bd a6 c5 19 bc 0b 4d c3 3d 0d f1 33 3d
       -0.08434921 -0.009385502 0.09536179 0.043931056
0003f0 65 c9 91 bd 38 56 88 bd 99 71 a1 3d 9b 88 52 bd
       -0.07118491 -0.0665707 0.07882995 -0.05139981

conv_lstm.conv.bias f4 [40]
000000 ca 80 bb bc 7a 1a 93 bd 83 3c 4a bd 67 07 2b 3d
       -0.02288856 -0.071827844 -0.049374115 0.041755106
000010 c4 0f 1a bd 3f e8 d0 3c f9 00 10 3d 77 db 72 bd
       -0.03761269 0.025501369 0.035157178 -0.05929133
000020 14 28 84 3d bb 74 22 bd 4b 1f f1 3c 7f 69 47 3c
       0.06452957 -0.039662104 0.029433867 0.012171148
000030 d2 01 2b 3d 93 f5 b4 bd 43 ae 7b 3d 67 6b 47 bd
       0.041749783 -0.08835902 0.061445486 -0.04868641
000040 e6 8c 08 bd 46 26 e4 3c f9 ae 51 bd 0e 43 09 3d
       -0.033337496 0.027850281 -0.051192258 0.033511214
000050 14 10 5e 3d e4 c8 42 3d e0 33 e0 3c 1a b7 4c 3c
       0.054214552 0.047554865 0.027368486 0.012494827
000060 d5 d3 a0 3d 1a 28 07 3d 53 2b d2 3c 0a ff 8d bd
       0.07852904 0.03299723 0.025655424 -0.069334105
000070 5e e2 59 bb e3 cf bf bc 41 b5 82 3d 03 b5 7e 3d
       -0.0033246498 -0.023414558 0.06382228 0.062184345
000080 94 a8 89 3d 01 83 4c bd 7f 42 56 bd e3 6e 8c bd
       0.06721607 -0.049929623 -0.05230951 -0.068570875
000090 68 43 af bd 76 91 a2 3d e8 5a 53 bc ba 0e fe bc
       -0.085577786 0.07937901 -0.012900092 -0.031012882

conv1.weight f4 [20, 10, 3, 3]
000000 b0 16 d1 3d 22 e7 b9 bd 71 d0 4e 3d f0 ff 7c bd
       0.102094054 -0.09077288 0.050491754 -0.06176752
000010 b2 d5 8e 3d 60 ff 91 3d 43 3a d5 3d 84 d4 7f bd
       0.06974353 0.07128787 0.10411503 -0.06245853
000020 24 eb 52 bc fa 9d 4c 3d 12 a9 2e 3d 45 b4 d9 bd
       -0.012873445 0.049955346 0.042641707 -0.10630087
000030 ee d5 41 bd 22 e8 0c 38 1b 98 b7 3c 70 d6 63 bd
       -0.04732316 3.359479e-05 0.022411397 -0.055624425
000040 46 ff a5 3d a0 32 dd bd bb 5b 8c bd 28 44 1e 3d
       0.0810533 -0.108006716 -0.06853434 0.038639218
000050 de 9e 03 3d e6 65 f1 3b e0 c9 54 3d 7f 9c 6b 3d
       0.03213393 0.0073668836 0.051950336 0.057522293
000060 1f f8 fc bc 43 25 83 3d e3 9f 9d bd ad 38 a1 bd
       -0.030880032 0.064035915 -0.076965116 -0.07872138
000070 df 68 d0 3b 6d 4d b9 bc 06 2e 2c bd bc 3e d2 3d
       0.006360158 -0.022619927 -0.04203608 0.10265872
000080 f1 da 76 3d 66 95 42 3c 66 e9 60 3d 76 1b d7 3d
       0.060267393 0.01187644 0.054910086 0.10503285
000090 fd 8f be bd a0 ac 89 3c 7e fe 58 bd 53 61 25 bd
       -0.09304807 0.016805947 -0.052977078 -0.04037602
0000a0 79 45 5f bc 65 91 95 bd 43 dd 61 3d 86 f6 d5 3c
       -0.013627403 -0.073031224 0.055142652 0.026118528
0000b0 39 57 8c 3c 29 e2 b0 bd 15 aa 8d bc d8 89 c6 bd
       0.017131435 -0.086368866 -0.017293015 -0.0969426
0000c0 c1 4e ba bc c6 e3 52 3d ba e7 5b bd 2d fd 75 3d
       -0.02274263 0.051486753 -0.05368779 0.0600559
0000d0 2d 26 64 bd 96 e6 ca bc 5b 24 76 3a f2 b5 31 3c
       -0.05570047 -0.024768155 0.00093895727 0.010846602
0000e0 37 74 da 3d 90 c7 5c bc ab 95 d2 3d 06 10 86 bb
       0.106666975 -0.013475314 0.10282453 -0.0040912656
0000f0 2e a5 0d bd b0 da d6 3d ba 04 90 3d 88 ce 2d bd
       -0.034581356 0.1049093 0.070321515 -0.04243329
000100 05 e6 a2 bc 31 a4 52 bd cb 59 d4 bd 88 90 db bd
       -0.019885072 -0.051426116 -0.10368689 -0.107209265
000110 4b e0 12 bc 5e ff 41 bd 6d b0 cc 3d cb 61 c4 3c
       -0.008964608 -0.047362678 0.09994588 0.023972413
000120 fb 05 b3 bd 19 92 4a 3c 73 6e 2d bd 4f 04 65 3d
       -0.08741375 0.012363934 -0.04234166 0.055912312
000130 07 99 d8 3d 5c 2c 5e 3c 32 5e c4 3c 22 de 06 bd
       0.10576063 0.013560381 0.023970697 -0.032926686
000140 90 c2 83 3d 1d db 19 bd ae 55 9d bb 4d 35 b9 3d
       0.06433594 -0.03756248 -0.0048014736 0.090433694
000150 8e 6c b5 bd 91 25 a9 bd 36 97 63 bd b1 4e b8 bd
       -0.08858596 -0.08259118 -0.055564128 -0.08999384
000160 06 67 b3 3d 25 65 ab bd 54 e9 68 3d 91 c6 be bc
       0.087598845 -0.08368901 0.056863144 -0.023288043
000170 0d 0c 4f bd 50 ce 69 3d 7c 11 81 bd 01 ce 95 3d
       -0.050548602 0.05708152 -0.06302163 0.07314683
000180 79 54 a1 bd 6f bc 06 bd 9c 1b 82 bd 7a 0d 69 3d
       -0.0787744 -0.032894548 -0.06352922 0.056897618
000190 ba d8 a8 3d 23 91 73 3d d5 77 a3 3c b9 12 96 bc
       0.08244462 0.059464585 0.019954601 -0.018319475
0001a0 27 10 ac 3d b4 bd c3 3c e4 f8 06 bd 41 74 98 3d
       0.08401518 0.023894168 -0.032952204 0.07444049
0001b0 63 66 56 bd 11 b7 c3 bc d6 90 79 3d 0f 14 8b 3d
       -0.052343737 -0.023891004 0.060929142 0.06790935
0001c0 fe ae 10 bc 80 ad 92 3c 52 5d b1 3d fb 17 9e 3d
       -0.008830784 0.017904997 0.086603776 0.07719418
0001d0 5d 74 e9 3b 9e 55 8b bd 80 26 ab bc e7 6f 5b bc
       0.0071244673 -0.068034396 -0.020892382 -0.013393379
0001e0 29 75 22 3c 94 8e e4 bc c9 06 b3 bd d1 09 02 3d
       0.0099156285 -0.027900018 -0.087415285 0.031747643
0001f0 1e c4 6c 3c 32 d6 c9 bd 12 1d 07 bd 76 76 2b 3d
       0.014451055 -0.09855308 -0.032986708 0.04186102
000200 09 93 ac 3d 73 33 86 3d e6 ae e6 bc 98 dc e2 bb
       0.08426482 0.06552782 -0.02815957 -0.0069232695
000210 a4 4f ba bc b0 c6 9e bc eb 21 35 3d ef 66 bd bc
       -0.022743054 -0.019381851 0.0442218 -0.023120372
000220 7a f9 8c bd a4 5c 90 3c 44 f8 a6 3d f1 de c2 3d
       -0.068835214 0.0176223 0.08152822 0.09515179
000230 71 19 78 3d 8c 41 7e bd cd 1f cf bb 0b a6 60 bd
       0.060571138 -0.06207423 -0.0063209296 -0.05484585
000240 f9 1f 52 bd 92 58 34 bd 50 7d cc bd 1c a7 ac 3d
       -0.051300023 -0.04402978 -0.09984839 0.08430311
000250 df b1 31 3d 76 31 f2 3c 1d 55 13 bd 53 e0 d3 bd
       0.04338252 0.0295646 -0.035969842 -0.10345521
000260 27 9f a7 bd ee a7 0a bb b9 fc fa bb a7 5a 43 bd
       -0.08184653 -0.0021157223 -0.0076595214 -0.047693875
000270 f2 cf cb bc db 0a bb 3d a5 28 79 bd e8 f1 21 3d
       -0.02487943 0.0913293 -0.060829777 0.03953734
000280 2e 72 27 3c 84 6c 4d bd ff f6 1e 3c df f3 9c 3d
       0.010220094 -0.050152317 0.009702443 0.07663702
000290 63 37 7c 3c aa 5d b0 3d 7d f2 05 bd d2 b1 84 bd
       0.015394065 0.08611615 -0.032701958 -0.06479229
0002a0 26 19 4a bd 7d ea 3c 3c 9f 66 0b 3b c0 6b 4a 3c
       -0.04934039 0.011530516 0.0021270884 0.012354791
0002b0 23 eb db bc c9 ef 81 bc 31 8a f7 3b 2c bc a4 bd
       -0.02684552 -0.015861409 0.0075543155 -0.080437034
0002c0 55 40 10 bd 58 9e c6 bd e1 0e 28 bd 89 cc 1a 3c
       -0.0352176 -0.096981704 -0.041029815 0.009448179
0002d0 07 df c8 bd 09 f2 7e bb 6b 02 2f bd 77 a1 89 bd
       -0.09808164 -0.0038901588 -0.042726915 -0.0672025
0002e0 d1 bb 0a 3d d1 dc b5 3d d0 2f 7b bc 52 63 a0 bd
       0.033870522 0.08880008 -0.015331224 -0.07831444
0002f0 ea 24 e1 bd df be 72 3d 2d 00 bc bd 87 b9 c7 3c
       -0.10993369 0.05926406 -0.09179721 0.024380459
000300 f3 b8 71 bb 2e 05 9f bd 03 55 8e bd 27 60 86 bd
       -0.003688392 -0.0776466 -0.069498084 -0.06561308
000310 2c 65 8e bb 80 a7 64 3c 41 2e 23 3d 87 25 38 3c
       -0.0043455567 0.013955951 0.039839033 0.011239416
000320 fe 6b 8a 3d 08 4e 79 bc 49 ec c1 bd aa 4a 90 3d
       0.06758879 -0.015216358 -0.09468896 0.07045491
000330 86 8b 33 3d 6e ac 81 3d 06 da cc 3d 79 2d d2 3d
       0.04383423 0.063317165 0.10002522 0.102625795
000340 b8 5b a8 3d aa 8d 87 bd b5 c3 da bc e1 b5 0b bd
       0.08220619 -0.06618817 -0.026704649 -0.034109
000350 00 33 38 bd a2 9f cf 3d 80 41 be bd f1 39 17 3d
       -0.044970512 0.101378694 -0.09289837 0.03692049
000360 d9 99 a7 bc 04 2e 8a 3d d3 89 ed 3c 3e 28 9b bd
       -0.020459102 0.06747058 0.028996384 -0.07576035
000370 e9 e9 c6 bd 41 e3 90 3d 21 cf 50 bd f1 d2 bf bd
       -0.097125836 0.07074595 -0.050978784 -0.09366406
000380 97 8e 87 bd 8d 55 b0 bd 49 a3 ed 3c 75 6a 56 bb
       -0.06618994 -0.086100675 0.029008524 -0.0032717262
000390 06 82 4b 3d e6 33 4c bd 2a b7 f7 3c 02 bd a6 bc
       0.049684547 -0.04985418 0.030238707 -0.020353798
0003a0 4e df 7f 3d df 2e dd 3c bb 0f 92 3d 69 e8 d1 3d
       0.06246882 0.026999889 0.071319066 0.10249407
0003b0 4a 43 b9 bd 73 1b 3b 3d c0 cb 97 bb 0e 9c a8 bd
       -0.090460375 0.045680474 -0.004632443 -0.0823289
0003c0 c8 7f 1e bc ce b5 da 3c 30 51 79 bd 9e 15 16 3c
       -0.00967402 0.02669802 -0.060868442 0.009160427
0003d0 9a 56 b6 bd 0d 66 9b bd 00 a9 0d 3d 95 30 bd 3d
       -0.08903237 -0.07587824 0.034585 0.09237782
0003e0 ee 10 84 bd 37 cc 39 bc 87 f3 78 bc 9f 94 8c bd
       -0.064485416 -0.0113401925 -0.01519478 -0.06864285
0003f0 24 0f ae bd ec 7c c2 bd 1f 96 55 3d d3 2c ae 3d
       -0.084989816 -0.09496483 0.05214512 0.08504643

conv1.bias f4 [20]
000000 eb 5e a8 3c f7 01 a4 bc 17 dc b0 3d e4 21 c6 3d
       0.020553073 -0.020020468 0.08635729 0.09674433
000010 17 a4 21 3d 61 dd b5 3c 65 15 a0 bd 8e b4 98 bd
       0.03946313 0.022200288 -0.07816581 -0.07456313
000020 11 ca e6 3c a6 36 b9 3d 12 af 58 bd 6e 6f 4f bd
       0.028172525 0.090436265 -0.052901335 -0.050643377
000030 9f 1a 99 3d c4 c0 8b bd b6 34 7b 3d 8d e2 8d 3d
       0.07475781 -0.068238765 0.061329566 0.06927977
000040 19 c1 62 3d ab c3 86 3d 40 53 71 3d c1 f0 93 bd
       0.055359934 0.065802895 0.058917284 -0.072236545

conv2.weight f4 [40, 20, 3, 3]
000000 05 8b 5a 3c 7b 84 02 bc 61 0a ff bc 3e 6e e5 b8
       0.013338809 -0.007966156 -0.031132879 -0.00010940105
000010 88 cf 59 bd 7c 90 5c 3d ea 42 70 3c 4b ed 09 3d
       -0.053176433 0.05384873 0.014664391 0.033673566
000020 95 66 51 3d 41 50 19 bd 39 98 b1 bc 25 9c 94 3d
       0.05112322 -0.03743005 -0.02167903 0.07256345
000030 e6 45 13 3d 68 66 89 3c 12 b8 09 3d 97 ee 88 bd
       0.035955332 0.016772464 0.03362281 -0.066861324
000040 0a 3c 44 bd b9 11 dc 3c 1f f1 95 3c f4 8f 65 bc
       -0.04790882 0.02686392 0.018303452 -0.014011372
000050 70 49 0b bd 71 6c f1 ba d3 e6 20 bd be a1 86 bd
       -0.034005582 -0.0018419159 -0.03928263 -0.065738186
000060 b1 b7 f9 bc d2 d3 60 3c e6 d3 6f bc 10 13 8d 3d
       -0.030483099 0.013722377 -0.014637923 0.068884015
000070 27 c2 3d 3d c0 69 5d 3d a1 e0 78 3d 64 25 c3 bc
       0.046327736 0.05405593 0.060761098 -0.02382154
000080 fa 41 ae 3c 6b be ff bb a6 21 8c 3d 94 e4 81 bd
       0.021271694 -0.007804682 0.068423554 -0.06342426
000090 2c c7 89 bd 3c 4b 81 3c 6e f6 2e bd aa 16 1a 3d
       -0.06727442 0.015782945 -0.042715482 0.03761927
0000a0 61 9b 39 bc 75 91 af 3c 4d da 88 bd 58 23 78 3d
       -0.011328549 0.021431664 -0.066822626 0.06058058
0000b0 16 e6 47 3d 9e f3 62 bd 60 68 6f 3d 7e 9e 0c 3c
       0.04880341 -0.055408113 0.05844915 0.008582709
0000c0 54 f9 dd bc 04 cd a8 3c 36 0a bb 3c 49 b6 07 bc
       -0.027096428 0.020605572 0.022832017 -0.008283206
0000d0 37 84 55 3d 2b b3 5d 3d 14 53 7c bd 92 8d 1d bd
       0.052128043 0.054125946 -0.061602667 -0.03846509
0000e0 74 d0 89 bd d5 cc 80 3d 04 64 80 bd 66 9c d3 bc
       -0.067292124 0.062890686 -0.062690765 -0.025831413
0000f0 14 47 36 bd de fd 46 3d 69 89 f1 bc 54 25 84 3d
       -0.04450138 0.04858195 -0.029484468 0.06452432
000100 0b 5e 1d 3b ef 76 03 3b 52 b7 09 3c a0 da 65 3c
       0.0024012353 0.0020059904 0.008405523 0.014029175
000110 2d 3f 7b bd e2 80 65 bc 1a 7b a2 3d 0f 6d e2 bc
       -0.061339546 -0.014007779 0.07933636 -0.027639894
000120 d2 45 67 bd a1 45 f8 bc 6d 43 9c 3d 17 e8 8a 3d
       -0.05646307 -0.03030664 0.07630048 0.06782549
000130 63 bd 34 bd 9f b0 72 bd a9 93 fb 3c 54 9e 8d 3d
       -0.044125926 -0.05925047 0.030710058 0.06914964
000140 e3 0d 56 3d 5a 5a 4d bd 2e 99 7b 3d 93 20 65 bd
       0.052259337 -0.050134994 0.06142538 -0.05593927
000150 a7 74 f3 3c 9a 19 8a 3d 92 1f 31 3d c1 6e 19 3d
       0.02971871 0.06743164 0.043243 0.03745914
000160 f0 01 22 bc e0 2f ed 3c a1 c5 b7 3b 44 6e 33 bd
       -0.009888157 0.028953493 0.005608276 -0.04380633
000170 b9 57 49 3d c2 fe 4d bc 28 06 5a bd 41 ea 93 bd
       0.049155924 -0.012572946 -0.053228527 -0.07222415
000180 0a d2 0a bd 73 4a b4 bb a0 de 6f bc 18 36 42 bd
       -0.033891715 -0.005502039 -0.01464048 -0.04741487
000190 a0 e5 b6 bc 86 ae 65 3d de 0d 60 3c a5 33 8a bd
       -0.02232629 0.05607464 0.013675181 -0.06748132
0001a0 a7 9d 4f bc 99 b8 5d 3d 7b 32 83 bd 41 d4 2a 3c
       -0.012671865 0.054131124 -0.06406113 0.010426582
0001b0 66 22 52 3d b9 68 0d 3d c7 3f 1a bd 17 b8 69 3c
       0.051302336 0.0345237 -0.03765848 0.014265082
0001c0 2f 79 49 3d 5e b5 39 bd fe 70 9b 3d 00 fd 5d 3d
       0.049187835 -0.04533898 0.07589911 0.054196358
0001d0 2f 5e b8 3c e4 2f 3d 3c 07 62 85 3c c0 f2 6c bd
       0.022505848 0.011547063 0.016282095 -0.057848692
0001e0 e1 76 2f bd 63 ac 89 bd d2 5d 21 3d 43 04 0a bd
       -0.04283798 -0.06722333 0.039396115 -0.03369547
0001f0 de a2 8d 3c 62 55 e0 3a fd 16 8a bd 5f 7b dc bc
       0.017289575 0.001711529 -0.06742666 -0.026914297
000200 be 76 77 bd 49 8f 78 3d da 94 53 bb b2 68 35 3d
       -0.060415976 0.060683522 -0.0032284767 0.0442893
000210 6e b6 ff 3c 0f 33 9a bc 33 a4 a5 bc 37 56 d7 bc
       0.031214919 -0.018823175 -0.020219898 -0.026286228
000220 9d d3 34 3d 34 44 12 3d 49 bf 33 3d e6 d7 89 bd
       0.044147123 0.035709575 0.043883596 -0.067306325
000230 e6 59 03 bd dd 9b 50 3c 83 05 23 bd b0 9b 59 3d
       -0.032068156 0.012732473 -0.03980018 0.05312699
000240 58 bc 8a bd 8a 16 72 3c 49 63 31 3d d2 d6 6d bb
       -0.06774205 0.014775882 0.043307576 -0.0036291373
000250 79 05 10 ba 44 bc 40 bc c2 6d 51 3d b9 b8 88 bd
       -0.00054939796 -0.011763636 0.051130064 -0.06675858
000260 26 3c c1 bc e9 7f 86 bd 2e ef f5 3c 31 60 50 3c
       -0.023588251 -0.06567366 0.030021276 0.012718246
000270 f5 f1 01 bd af 6a 58 3d 9a a9 e4 bc ee 94 75 3d
       -0.03172489 0.052836116 -0.027912904 0.059956484
000280 46 9b 6b 3d 2c cd b4 3c b3 9c e9 bb 51 be 46 bd
       0.057521127 0.02207049 -0.0071292757 -0.048521344
000290 73 37 8b 3d 7f d5 be 3b 68 6e 67 3d 72 5b 26 bc
       0.067976855 0.0058237906 0.056501776 -0.010153638
0002a0 62 0c 71 bd 9a b8 26 3d 61 a8 98 3d 5f 8d 87 bd
       -0.0588497 0.040703394 0.07453991 -0.06618761
0002b0 fb 93 26 bd bf 6a 60 bd a7 54 9d bb 15 b9 64 3d
       -0.04066847 -0.0547893 -0.004801351 0.05584057
0002c0 10 23 70 bc 3d a4 9d bc d9 2e ef bc 2f ce ac bc
       -0.014656797 -0.019243354 -0.029197143 -0.02109441
0002d0 64 2a 7d 3b ea 09 76 bd 36 01 44 bd 11 29 23 bc
       0.0038630003 -0.06006805 -0.047852717 -0.009958521
0002e0 ba 42 8a bd 26 a1 bc 3c ea 1a 8c bc dd 49 03 3d
       -0.06751008 0.02302606 -0.017102677 0.032052863
0002f0 09 d3 57 bd a2 f8 c1 bc ea 82 c1 bc 6e ce 42 3d
       -0.052691493 -0.023678128 -0.023621995 0.047560148
000300 1c 3f eb 3a 74 4c cb 3c 56 7d ce bc 45 45 88 bd
       0.0017947885 0.02481673 -0.02520625 -0.06653837
000310 21 3f 82 3b 47 5e 9c 3c 1f f5 7a 3d 26 03 37 bd
       0.0039748107 0.019087924 0.061268922 -0.044680737
000320 43 ce 8d bc 2f 40 58 bd 1c 57 12 3d c1 c2 f7 3c
       -0.017310267 -0.052795585 0.035727605 0.030244233
000330 40 1b 78 3d 04 74 b1 bc f6 ab ec 3c a8 74 ca bb
       0.060572863 -0.021661766 0.028890591 -0.0061784573
000340 98 5f 56 bd f5 0c 8a bd 57 40 7a 3c 5b c7 6a 3c
       -0.05233726 -0.067407526 0.015274129 0.014329757
000350 71 11 8f bc 1e c6 bd bc c1 c4 17 bc d0 bd 1c 3d
       -0.017464371 -0.023165759 -0.009263218 0.038266957
000360 18 15 c0 bc 9a 2a 35 bd f6 3a 67 3d 41 ca 7c 3c
       -0.023447558 -0.04423008 0.056452714 0.01542908
000370 d0 fc 93 3d 8f db 99 3d 6e 58 8e 3d f1 de 30 bc
       0.072259545 0.075125806 0.069504604 -0.010795341
000380 92 61 24 3c e2 aa 5b 3d d4 2d 8f bc c1 4a 3c bd
       0.010033028 0.053629763 -0.017477907 -0.04596973
000390 f4 07 dc bc 35 f9 86 3d c3 95 e0 3c 36 9b e9 bc
       -0.026859261 0.06590501 0.027415162 -0.028516393
0003a0 af 09 12 bc c7 6e 30 3d f2 3a c4 bc fb f1 db 39
       -0.008913442 0.043074396 -0.023953889 0.00041951225
0003b0 cc d6 20 3d b9 ea b7 bb d0 09 8a bd 01 38 86 bd
       0.039267346 -0.005612698 -0.06740153 -0.06553651
0003c0 de ee 09 3d d1 92 65 3d 1f 68 d2 bb b5 27 6f bd
       0.033675067 0.05604822 -0.0064211036 -0.058387477
0003d0 81 3b 44 bc 27 19 14 bb a1 2c 33 3d 4a db 45 bd
       -0.011977077 -0.0022598 0.043743733 -0.048304833
0003e0 ce f2 d1 ba dd ee 7e 3d 05 05 7f 3d 5e 4f 1f bd
       -0.0016017796 0.062239517 0.062260646 -0.03889405
0003f0 f6 80 81 3b fc 9f b5 3c d0 8e 40 3d 69 61 73 3d
       0.003952141 0.022171013 0.047011197 0.05941907

conv2.bias f4 [40]
000000 c0 7a 09 bd 8b c0 8a 3d 4a 50 b4 bc 2d 21 a1 bc
       -0.03356433 0.06775006 -0.022010941 -0.01966914
000010 9b ba 0f bc c5 6e 93 3d 03 5d db bc db 28 df b9
       -0.008772518 0.07198862 -0.02677775 -0.00042564314
000020 50 e2 fb bb fa ac bb 3b 1e 40 96 3d 29 1e b2 3c
       -0.0076868907 0.0057274075 0.07336448 0.021742897
000030 a0 92 99 3d 86 05 86 bc f7 47 5f bd 5d be de 39
       0.074986696 -0.016360056 -0.05451199 0.0004248497
000040 a8 d8 3b bd e6 b1 23 3d d3 a4 2f 3d a3 b5 0b bd
       -0.045860916 0.03996458 0.042881798 -0.03410877
000050 36 0e 77 bb fd c9 2a 3b 51 d2 1b bc 75 0e 17 3d
       -0.003769768 0.0026060336 -0.009510593 0.03687902
000060 8f 22 94 bd db cc 1b 3d 8e be 5d bd c8 33 cd 3c
       -0.07233154 0.038037162 -0.054136805 0.025049105
000070 57 fb 90 3d d2 d6 c1 ba af 15 9f 3c 6f 0f 09 3d
       0.07079189 -0.0014788753 0.01941952 0.033461984
000080 a4 69 85 3d f7 c1 62 bb 97 e1 5d bc 56 2b 1b 3d
       0.0651429 -0.0034600475 -0.013542554 0.037883125
000090 d9 14 dc bc a3 30 84 bb c7 e3 68 3c 46 f6 1f 3d
       -0.02686541 -0.0040341183 0.014214463 0.039053224

fc1.weight f4 [1, 6760]
000000 a4 e9 44 3c 08 b0 be 3b e8 1d 11 bc 81 82 f0 3b
       0.012018595 0.0058193244 -0.008857228 0.007339776
000010 33 a6 ec 3b ed 71 0e bc ca d9 ae ba 0d 31 ac 3b
       0.007221961 -0.008694154 -0.0013340053 0.0052548707
000020 35 45 22 3b d1 ad dc bb 93 bf d5 ba bc b2 96 3b
       0.002476049 -0.0067345877 -0.0016307704 0.0045989435
000030 e9 bc 6b 3c 0d e6 aa bb 32 86 bb 3b c3 c5 75 3a
       0.014388301 -0.0052154125 0.0057227844 0.0009375477
000040 b1 02 61 39 07 12 c1 ba 9e 00 19 3b 47 53 bb 3b
       0.00021458675 -0.0014730104 0.0023346315 0.0057167145
000050 fc 2e 86 3b 6a 0a 91 bb 48 b8 02 bc 45 24 05 3c
       0.0040949564 -0.0044262903 -0.007978506 0.008126323
000060 ab 2a 9c ba 3b 6d f6 bb 10 62 cf 3b 02 1b 64 3b
       -0.0011914572 -0.0075203455 0.0063288286 0.0034806137
000070 21 63 a0 3b c4 41 6a 3c af 6f 12 3c 40 9f 7d bb
       0.0048946296 0.014297906 0.00893776 -0.0038699657
000080 32 84 9e ba b3 6a 19 bc de 8e 83 39 8f e8 5e 3c
       -0.0012093841 -0.009363818 0.0002509271 0.013605251
000090 51 87 02 3b 92 c9 05 bc 34 91 3c bb d7 0f 1e 3c
       0.001991708 -0.008165734 -0.0028773071 0.009647331
0000a0 ea 14 d7 bb 78 3c dd bb f2 8c 00 bc 40 0d 96 bb
       -0.0065637724 -0.006751593 -0.007846104 -0.0045792162
0000b0 5a ae e3 3b 0c 54 0c 3b 1f c1 10 3c ec 34 26 3c
       0.0069482746 0.00214124 0.008835106 0.0101444535
0000c0 06 02 ec 3b aa bf b2 bb 2a cc 1b 3c 43 d7 b0 bb
       0.0072023897 -0.005454977 0.009509126 -0.005396755
0000d0 d0 e3 26 3c c3 2a be bb cf 10 15 bb 23 ca 1f 3c
       0.010186151 -0.0058034374 -0.0022745614 0.009752783
0000e0 e4 77 46 3c 5b 71 0c bc 49 33 33 bb ff d4 2a 3c
       0.012113545 -0.008571948 -0.00273438 0.010426759
0000f0 fd 6c 07 3b af b0 09 3c 77 3f 57 3c 57 65 01 bb
       0.0020664327 0.008403941 0.01313769 -0.001974424
000100 05 00 55 3c e2 e0 44 3c c3 c7 8c bb 98 74 59 3c
       0.013000493 0.012016507 -0.0042962744 0.013272427
000110 ad a9 07 3c 39 db 56 bb eb b4 32 3c cf c8 04 3c
       0.0082802 -0.0032784475 0.010907392 0.008104517
000120 c7 38 ba 3b ce 67 c3 3a bb 1c ea 3b 34 9e 00 bc
       0.005683038 0.0014908256 0.007144538 -0.007850219
000130 e1 09 9c 3b 08 18 ca bb 30 9f a4 ba 56 92 9b bb
       0.00476192 -0.0061674155 -0.0012559649 -0.004747669
000140 22 a3 44 bb b3 68 49 3c 2d 54 2f 3c 04 4b 43 3b
       -0.0030004461 0.012293029 0.010701221 0.0029799351
000150 31 39 c3 3a 5f f9 10 ba b2 b4 83 3b c7 1a f6 bb
       0.0014894364 -0.0005530323 0.0040193433 -0.0075105163
000160 10 5d 90 3a c9 bb 57 3c 8d 3b 4d 3c cd 2e 67 3c
       0.0011014063 0.01316733 0.012526405 0.014110279
000170 2e db 83 bb 2a ca b0 ba 79 2d 9a bb 2b ae 36 bb
       -0.004023931 -0.0013487984 -0.004705128 -0.0027874808
000180 89 da 60 3b 17 66 eb bb 1f 3d 42 3b ec b8 cd bb
       0.0034309945 -0.007183801 0.0029638482 -0.006278148
000190 ca a9 d2 3b 4d 6c 28 39 36 f0 b8 3a c2 d1 8a 3b
       0.006428932 0.00016062074 0.0014109674 0.004236431
0001a0 2d 65 0d 3c fb 99 93 bb 31 94 15 bc e1 a4 94 bb
       0.008630079 -0.00450444 -0.00912957 -0.0045362567
0001b0 d5 d4 b5 3b f2 ed 72 bb 50 a9 55 bb 98 94 4d 3c
       0.005549053 -0.0037068096 -0.0032602139 0.012547635
0001c0 1b 07 cc bb 17 aa 4f 3c 39 29 b5 3b fe d8 40 3c
       -0.006226433 0.01267483 0.0055285958 0.011770485
0001d0 11 60 08 ba 1d b7 58 bb a7 9b 30 3c e8 89 13 bc
       -0.00052023033 -0.0033068128 0.010779298 -0.009005047
0001e0 24 84 f5 3b 80 ed 0d bc f2 9e 10 3c 4e 04 ff ba
       0.007492559 -0.008662581 0.008826958 -0.0019456239
0001f0 d2 6b 1f 3c 7a c4 b8 3a 7e 41 06 3c 31 ec 45 3c
       0.009730296 0.001409664 0.0081943255 0.012080238
000200 a8 8b 1f 3c b1 3c c5 bb 27 1c 05 bc c2 7f f3 bb
       0.0097378865 -0.006019198 -0.008124388 -0.0074310014
000210 1a 22 87 3a a2 2b 11 bb 4a c1 18 3b e3 36 59 3c
       0.0010309846 -0.0022151251 0.0023308569 0.013257715
000220 ce df 15 bb 18 fd 1a bc 25 8a 62 3b 47 84 dd 39
       -0.0022868994 -0.009459756 0.0034567204 0.0004225096
000230 e3 af a5 3b 19 4e 12 3c 24 cc d1 3b 57 46 3e 3c
       0.0050563677 0.008929753 0.0064025093 0.01161345
000240 b8 38 4b bb 7f bf 59 3c 02 b4 6b 3b c0 e6 dd 3b
       -0.0031009149 0.013290285 0.0035965447 0.0067718923
000250 f1 6c df 3b 3d 1e 5e 3c 8c 77 05 bc 7d eb fb 3b
       0.0068184067 0.013557014 -0.008146178 0.0076879845
000260 50 d7 16 3c e9 49 05 3c f1 b5 0a 3b 8a f8 4b 3c
       0.009206608 0.008135297 0.0021165574 0.012449393
000270 92 d4 2a 3c fc db 5a bb b7 0d 8b bb 03 1e 36 ba
       0.010426657 -0.003339528 -0.0042435783 -0.0006947221
000280 56 94 ae bb a3 ab 15 bc 27 9e 1f bb be 8f 2a 3c
       -0.0053277416 -0.00913516 -0.002435574 0.010410247
000290 03 b5 7f ba 7b 43 6b 3c 54 cb 06 bc 9e 12 03 3c
       -0.0009754451 0.01435935 -0.008227188 0.008000044
0002a0 5a 2b c1 3b ab a2 0c 3c b1 36 9d bb 52 02 66 ba
       0.0058950605 0.008583705 -0.0047977795 -0.00087741495
0002b0 4f 5e 43 bb be 3f 6a 3c d9 dd a1 bb ec 25 e1 3b
       -0.002981085 0.014297424 -0.0049397764 0.0068709757
0002c0 e3 2c ac bb 6d ef 1a 3b 81 a2 03 bc 5c e1 2a 3b
       -0.0052543744 0.0023641244 -0.008034349 0.0026074266
0002d0 da 73 95 bb a1 58 4f 3c 14 f8 07 3c f7 28 1b 3c
       -0.0045609297 0.012655408 0.0082988925 0.009470216
0002e0 63 24 21 bb b4 fa 62 bb 49 3e 10 bb 01 2d 51 3c
       -0.0024588339 -0.0034634294 -0.002200978 0.012767077
0002f0 0e 7d 04 bc e8 c9 7b 3b ea e6 c9 3b 17 0e ae bb
       -0.008086456 0.0038419906 0.0061615603 -0.0053117382
000300 ce a4 43 3b 4a 56 4c 3a 19 01 ef 3b 63 20 a1 bb
       0.002985287 0.00077948405 0.007293832 -0.004917191
000310 21 8c 18 3c 6f 7c f1 bb 7f 37 54 ba c0 b3 2d 3a
       0.009310753 -0.00736957 -0.0008095428 0.0006626211
000320 5d d1 18 3b f9 62 fe bb 76 d4 54 bb 5b 7a 8c 3b
       0.002331815 -0.0077632633 -0.003247527 0.004287047
000330 d3 41 e0 b9 41 5b ff 3a 34 8f b4 3b d3 3c a9 bb
       -0.00042773652 0.0019482152 0.005510235 -0.0051647215
000340 81 79 b6 bb 99 9f 12 bc 21 75 71 3c a8 14 b8 bb
       -0.0055686836 -0.008949184 0.014737398 -0.005617697
000350 b7 44 67 3c ad ac 58 3b e7 22 02 3c 86 70 a6 3b
       0.014115504 0.0033061907 0.007942892 0.005079332
000360 57 01 ab 34 8a cd 0f 3c eb d9 31 3c c8 15 a4 3a
       3.1852207e-07 0.008777032 0.010855178 0.0012518698
000370 6c 1a de bb 42 79 e0 3b e9 02 16 bb 7d 37 bb bb
       -0.006778052 0.0068503926 -0.0022889918 -0.005713402
000380 cd 68 2c 3b 80 5a 2b 3c eb 2a 29 3c b8 b0 b5 bb
       0.0026307583 0.010458589 0.010325174 -0.005544748
000390 68 9a 72 3c 31 4a af 3a 59 cd 5f 3b b8 dc 87 3b
       0.014807321 0.0013373551 0.0034149496 0.004146185
0003a0 dd 90 04 bc 65 39 e8 37 62 5f 19 3c 2c d0 53 3c
       -0.008091179 2.7683282e-05 0.00936112 0.01292805
0003b0 ae 40 35 3c a9 3a 0e bc ff 91 14 bc f3 6f 11 3c
       0.011062784 -0.008680978 -0.009068011 0.008876788
0003c0 a0 05 b1 3b 96 fe 41 bb fc a2 64 3c 6a c3 53 bb
       0.005402282 -0.0029601208 0.013954874 -0.003231252
0003d0 95 36 ba 3a 4c 19 06 bc 40 7d e3 bb 6d d5 e6 3b
       0.001420694 -0.008184742 -0.006942421 0.0070444853
0003e0 ce ff 93 bb b1 97 03 bc e9 75 1f b9 7b 0d 40 3c
       -0.0045165783 -0.0080317715 -0.00015207347 0.011721964
0003f0 c4 70 4f ba cd 9e 04 bc 6d 6b 39 3b e9 13 ae 3b
       -0.0007913227 -0.008094502 0.002829279 0.005312432
