ConvLSTM/Sequence/0.73_107_A_S.pt (torch, 84929 bytes, 7 tensors)

conv_lstm.conv.weight f4 [40, 13, 3, 3]
000000 d9 00 08 3d 0d e9 87 bd d3 a6 6e 3d a2 62 10 3c
       0.033203933 -0.06636248 0.058264565 0.008812578
000010 93 e3 cd 3d 50 f6 6a 3d 9e 8b 93 3c 73 cd bf bc
       0.10053172 0.05736381 0.01801091 -0.023413396
000020 45 98 93 3c a6 9c 95 bc f0 a8 3d bd 44 7b 6f bd
       0.018016944 -0.018263172 -0.04630369 -0.058467165
000030 e0 db 74 3d 49 6f 2a bd 12 d2 99 bc 91 f0 7c 3d
       0.05978 -0.041610036 -0.018776927 0.06175286
000040 3a fc e1 ba 78 7b be 3d 87 82 9b bd 04 b3 91 3d
       -0.0017241307 0.093008935 -0.075932555 0.07114223
000050 7a ad 98 3c 9b 9f a9 bc 07 48 89 bd 54 b4 94 3d
       0.018637408 -0.020705989 -0.06703191 0.07260957
000060 ff 5d 70 bd 3b 66 79 3d 00 aa f2 3c 35 dd eb bb
       -0.05868339 0.06088851 0.029622078 -0.007198001
000070 1d de 20 bd 69 f3 42 3d 18 ef 38 3c 4e 5f 13 bd
       -0.039274324 0.047595415 0.011287473 -0.03597956
000080 32 a7 bf 3c 12 06 42 bd 8c 09 03 3d b0 ae a5 3d
       0.023395155 -0.04736907 0.031991526 0.080899596
000090 6e 04 0c 3c fb f0 dc bc 30 dc a0 3c 08 ae 05 3e
       0.008545978 -0.026970377 0.019636244 0.13054669
0000a0 a2 86 ee 3c b3 24 41 3d 19 d9 fe 3c 60 d0 0a 3e
       0.029116932 0.04715414 0.03110938 0.13556051
0000b0 83 68 bb 3d f6 d3 6a bd ec 78 c7 3c cf fa 55 3d
       0.091507934 -0.057331048 0.024349652 0.052241143
0000c0 94 57 88 3d 7c 2d 0a bc 5b 8c b2 3d 92 aa a2 bc
       0.06657329 -0.008433696 0.08718177 -0.019856725
0000d0 90 83 b8 3d 74 df 69 3c f0 32 d2 3d 34 e4 cc 3b
       0.090094686 0.014274467 0.10263622 0.00625279
0000e0 28 29 71 bc cd 56 18 3d 7d 91 8e bb 5d 30 26 bd
       -0.014719285 0.037192155 -0.0043508396 -0.040573467
0000f0 2d 90 86 bd 1c 11 76 bd c2 cd 3c bd 4b 00 89 bd
       -0.06570468 -0.06007491 -0.046094663 -0.06689509
000100 d0 86 9a bd 2c 0c dd 3b 7b 12 72 3d 06 fb ba bc
       -0.07545245 0.0067458358 0.059099656 -0.022824775
000110 c6 a8 62 bd a2 c5 8f 3d 97 56 c5 bd 9b de ee bc
       -0.055336736 0.07020117 -0.09635656 -0.029158881
000120 16 a1 ad 3c c1 9f 4e 3d c1 1b 82 bd 93 10 db 3d
       0.021194976 0.050445322 -0.0635295 0.10696521
000130 3a 22 f3 3b 86 84 cb 3d f4 fd 2e bd 77 20 c5 3b
       0.0074198516 0.09937386 -0.042722657 0.006015833
000140 79 2e 86 3d 48 ae 47 bd 98 f4 59 3d ce c3 a8 bd
       0.06551833 -0.048750192 0.05321178 -0.08240472
000150 c1 7e ae bd e9 4c 88 3d 39 b8 e0 bc 07 fa c5 bd
       -0.0852027 0.066552944 -0.027431594 -0.096668296
000160 fe f3 94 3c 3f fc 72 bd f9 93 15 bd 0d a9 9f bb
       0.01818275 -0.059322592 -0.03651807 -0.0048724473
000170 c8 64 3d bd d0 f5 8b bc 92 4e e9 bb f3 33 14 bc
       -0.04623869 -0.017084986 -0.007119962 -0.009045589
000180 33 e8 f5 3c 5a 00 9f bd de 36 25 bc 1c 13 6f 3c
       0.030017948 -0.07763739 -0.010083882 0.014591958
000190 39 99 d4 bc db 83 8e bc 72 dc fe 3b 8c d8 e8 3d
       -0.025951969 -0.017396858 0.007777744 0.11369428
0001a0 72 d6 8d 3d 78 c3 02 3e ac 06 1c bc e5 fb 8f 3c
       0.06925668 0.12769878 -0.009523075 0.017576167
0001b0 41 99 c6 bc 1c 94 a5 3c ab 07 91 3d 35 a3 e7 ba
       -0.024242999 0.020212226 0.07081541 -0.0017672541
0001c0 6c d0 18 3d 78 32 0f 3d 08 ba 11 bd e5 3f 5d bd
       0.03730814 0.03496024 -0.035577804 -0.054016013
0001d0 e3 49 74 bd d7 15 b7 3c 48 e7 a7 3b 18 0a c5 3d
       -0.059640776 0.022349281 0.0051240064 0.09621066
0001e0 07 2a 09 3e 3b 3f 28 3c 14 70 0e 3e 0d 36 f2 3d
       0.13394938 0.010268982 0.13909942 0.118267156
0001f0 8a 2f d2 3b 9e 16 b0 3d 34 dd 95 bc 45 ce 2f 3b
       0.0064143585 0.08598064 -0.018293954 0.0026825827
000200 73 77 6f bc ad 5e b6 3d 8d b3 f4 3d ee f4 c5 3d
       -0.014615881 0.08904777 0.11948309 0.09665857
000210 59 68 75 3d 90 79 ca 3d c9 ab 3b 3d 6a 66 c0 3d
       0.059913967 0.098864675 0.045818124 0.09394534
000220 5d 82 ce 3d ea e0 21 3d 50 e3 c2 3c 54 64 dd 3c
       0.100834586 0.039521135 0.023790032 0.02702538
000230 f5 1f fa 3d f4 94 9a 3d 0b 3c 0e 3c 47 3a 14 bc
       0.122131266 0.07547942 0.008681308 -0.0090470975
000240 a8 dc 5b bc 81 30 81 3d 86 2a 83 3d e1 20 9a 3d
       -0.013419308 0.063080795 0.06404595 0.075258024
000250 8c 9d 72 3d d1 67 9d bc 9e f3 0e 3e a2 e7 0c bc
       0.05923228 -0.019214543 0.1396012 -0.008600147
000260 16 a1 67 bc 8a ff 54 bd 74 64 b3 3d f9 c3 bc bc
       -0.014137527 -0.052001514 0.08759394 -0.023042666
000270 b2 4a a1 3c da 30 95 3d f2 1d fb 3d d1 35 fb 3d
       0.019688938 0.07284708 0.12261571 0.12266124
000280 f7 0c fc 3d c8 6b 17 bd 24 8a 10 3e 11 55 e2 3d
       0.1230716 -0.036968023 0.14115196 0.110513814
000290 4a a7 77 3d c8 26 d5 3d 14 7e 79 3d 9f 44 dc 3c
       0.060462274 0.104077876 0.060911253 0.02688819
0002a0 dd 3d 0c 3e 74 c4 a6 3d a1 f8 54 3d 9c 1e 41 3d
       0.13695474 0.08142939 0.051994924 0.047148332
0002b0 de 25 00 3e ff 86 64 3c ef ff 18 3d b9 eb 79 3d
       0.12514445 0.013948201 0.037353452 0.06101582
0002c0 4a e1 8e 3d 92 e2 e5 bc 85 b5 84 3d f5 a3 93 bc
       0.06976564 -0.028062139 0.064799346 -0.018022517
0002d0 f9 48 01 3d d3 65 bf bd 1f b5 9a 3c da ef b5 bd
       0.031563733 -0.09345593 0.018885193 -0.08883639
0002e0 17 ad 75 bd 6a 95 c9 bd 25 46 95 3b e0 ac 87 bb
       -0.059979524 -0.098429516 0.004555481 -0.0041404814
0002f0 e2 bb a1 3c 95 23 0e 3e 57 36 cf 3d 4a 8c cc 3d
       0.01974291 0.13880761 0.101177864 0.099876955
000300 38 f9 af 3d 0a 21 d7 3c 8f a3 84 3d 31 62 da 3d
       0.085924566 0.026260871 0.06476509 0.1066326
000310 19 f9 b3 3b 44 a6 98 3d 2d b4 c1 bd 0e 85 af bd
       0.0054923412 0.07453588 -0.09458194 -0.085703
000320 19 e9 b0 bd c9 0d 00 bd 34 03 08 be 61 f3 f9 3c
       -0.0863821 -0.031263147 -0.13282472 0.03051156
000330 9f 55 d3 3c 23 e2 18 3d e7 b7 89 bd ce 63 5b bd
       0.025797663 0.037325036 -0.0672453 -0.053561978
000340 ec d2 a1 3c fb a4 02 bd e8 2a f9 bd 7a d1 2f 3d
       0.019753896 -0.03189562 -0.12166387 0.04292438
000350 60 fb 20 3a 50 c6 b7 bd 18 9f 29 bd 2d 3f c3 bb
       0.00061409734 -0.08973372 -0.04141149 -0.005958459
000360 2d 33 4c bc 9c 3d ec 3c a7 13 ea 3d 57 b0 1f 3d
       -0.012463373 0.028837971 0.1142953 0.03898653
000370 61 82 ee bc 24 15 23 bd fc 35 c7 3d 17 e3 d1 bc
       -0.029114904 -0.039815083 0.097270936 -0.02562098
000380 3e f5 05 3e 10 e4 53 bd 6d 15 4f bd a1 14 8a bd
       0.13081834 -0.05173117 -0.050557543 -0.06742216
000390 d3 88 4e bd 7e 22 ca bd c4 9b 0f be da c2 c9 bc
       -0.050423454 -0.0986986 -0.14024264 -0.024629045
0003a0 6b 99 04 be 73 af 1f 3d f0 58 e7 bc 8d 83 5e bd
       -0.1294915 0.03898568 -0.02824065 -0.054324675
0003b0 33 69 c2 3d bf 00 88 3d 1f ab 74 3d ad ac b1 3d
       0.094927214 0.06640767 0.059733506 0.086755134
0003c0 91 1f 80 3d f2 b6 15 bd d1 da 86 3d cc 26 e0 3d
       0.06256021 -0.036551423 0.06584705 0.109449
0003d0 bc 4e a4 3c dd f5 ce 3d f6 9c 39 bd ca 73 9a 3c
       0.020057075 0.101054884 -0.045315705 0.01885404
0003e0 e2 4e 4b 3d e9 b4 a5 3d a3 ca 65 bd c1 7b 52 bd
       0.049635775 0.080911465 -0.056101453 -0.051387552
0003f0 67 59 8f bd ed fd 11 bd 02 45 8c bd 83 d7 a4 3c
       -0.06999474 -0.035642553 -0.068491 0.020122295

conv_lstm.conv.bias f4 [40]
000000 1e 75 ed ba 03 76 87 bb 42 31 0b 3d 60 1d d1 3d
       -0.0018116569 -0.004133941 0.033982523 0.10210681
000010 56 15 b0 3d 5b f2 88 bd 73 9b 00 3d 7a 74 af 3d
       0.085978195 -0.06686851 0.031398248 0.08567138
000020 79 01 5a 3d 74 08 99 3d 5c 1f 91 3d eb 94 d1 3d
       0.05322406 0.074723154 0.070860595 0.10233482
000030 30 fa 80 bd 69 68 b9 3d 3c 88 83 bd 1d 9f 40 3d
       -0.062977195 0.09053118 -0.06422469 0.047026742
000040 17 7e 31 bd ec 93 bc bd ee 33 63 bd ee 24 31 bd
       -0.04333314 -0.09207901 -0.055469446 -0.04324811
000050 0b 1a 4b bc 87 c0 04 3c 5b 65 90 bc d1 7e a1 3d
       -0.012396346 0.008102543 -0.017626455 0.078855164
000060 af fc 94 bd 14 cc a6 3d 18 25 45 bd 2e c1 84 3d
       -0.07274758 0.081443936 -0.04813108 0.064821586
000070 aa 9a 73 3d 64 ad c2 3d 0f 4c 96 3c c7 30 8d bd
       0.05947367 0.09505728 0.018346814 -0.06894069
000080 69 6b 1b 3c db 8e 82 3b eb 8f 38 bd 38 2c 2e 3c
       0.009486058 0.003984315 -0.045059126 0.01063066
000090 0e c8 d4 bc 98 3d 45 bd ff ed a3 bc e1 0e 98 bc
       -0.0259743 -0.048154444 -0.020010946 -0.018561782

conv1.weight f4 [20, 10, 3, 3]
000000 77 b0 1d 3d 04 64 43 bd b3 50 a7 bd 60 de 77 bc
       0.038498368 -0.047702804 -0.08169689 -0.015128702
000010 5b 5b 6a bd 1e 70 70 3d 0a a1 9d bd 1b c5 09 bd
       -0.05721603 0.058700673 -0.076967314 -0.03363524
000020 e9 63 b5 bc 57 56 88 bd 0d a4 db bd 5c 02 4c bd
       -0.022142367 -0.06657093 -0.107246496 -0.049806938
000030 bf 54 44 3c 1d e8 0e be 2f 2a 83 bc 41 7e 3d bc
       0.011983096 -0.13955732 -0.016011326 -0.011565746
000040 34 d0 27 3d d5 63 ff bd 1a af a8 3d db 29 1b 3d
       0.040970042 -0.12470213 0.08236523 0.037881713
000050 63 4b 3a bc b6 61 f2 3b 47 bd a3 bd 83 99 a1 bd
       -0.011370513 0.007396902 -0.07995086 -0.07890608
000060 1d c5 f4 bc 01 a9 31 3d 27 06 c3 bd b6 4d 7f bd
       -0.029879147 0.043374065 -0.09522658 -0.06232997
000070 75 f1 12 bd 63 46 ca 3d c4 08 e4 bc 81 20 41 3d
       -0.035874803 0.098767065 -0.027836211 0.04715014
000080 38 ef 91 bd 48 38 c6 3d 16 49 a6 3d e1 45 9f 3b
       -0.071257055 0.096787035 0.08119409 0.004860625
000090 81 02 a6 3d e4 81 ab 3d f9 d6 b4 3c d4 18 ad bc
       0.08105946 0.08374384 0.022075163 -0.021130003
0000a0 99 c5 5d bd ea 4a 8b bd c8 62 7c bd 56 e6 c4 bd
       -0.054143522 -0.06801398 -0.061617643 -0.096142456
0000b0 3f 06 29 bb 36 ba 54 3c 86 dd 88 3d 2d 0e 29 3d
       -0.0025791076 0.012983849 0.06682877 0.041273285
0000c0 d9 a4 56 3d 2f 8e 86 bd d1 70 5f bc 9a 13 42 3d
       0.052403305 -0.06570088 -0.013637737 0.047381975
0000d0 4d 54 3d 3d 51 90 00 3d 77 f8 86 bd b1 a2 cf 3c
       0.046222974 0.03138763 -0.0659036 0.025346132
0000e0 eb 1a 20 bd 69 aa c3 3d e4 2d b1 bd 60 35 95 bc
       -0.03908817 0.095539875 -0.08651331 -0.018213928
0000f0 3e 5a 74 3d cc ed bf bd 96 ba 74 3d 51 a3 a1 bd
       0.059656374 -0.09371528 0.059748255 -0.07892478
000100 25 e6 91 3d cb e9 b1 bd 15 d6 94 3d 99 a9 95 bd
       0.07123975 -0.086871706 0.072673954 -0.07307739
000110 69 14 64 3d bd 77 04 3d 69 90 7f 3d 33 48 2d bd
       0.055683527 0.032340754 0.06239358 -0.042305183
000120 36 5f d7 bd b3 eb 65 bd 79 b1 34 bd bf 10 6a 3d
       -0.10516207 -0.056132983 -0.044114564 0.057144877
000130 4a b6 a7 bd 31 97 d9 bc 74 86 a1 3c e0 ea a0 3d
       -0.08189066 -0.026561351 0.019717433 0.07857299
000140 7d d1 43 bc 92 30 bf 3d 86 bb a2 3c c7 9b ae bd
       -0.011951801 0.09335436 0.019864809 -0.08525806
000150 25 35 b6 3d 07 de 2f bd a7 d7 36 bd 08 dc 20 3c
       0.08896855 -0.04293635 -0.044639256 0.009818085
000160 04 f4 3e 3d 17 91 d3 bd d3 a3 c1 bc cf 4b 9e bd
       0.04661943 -0.10330408 -0.023637688 -0.07729303
000170 cc 51 cc 3c 60 01 11 bb a1 de d0 bc c6 b3 68 3d
       0.024941348 -0.0022126064 -0.025496783 0.05681207
000180 55 90 de bc 4f 80 80 bd fc de df bc c5 57 42 bd
       -0.027168432 -0.06274473 -0.027328007 -0.047446985
000190 2f d3 17 bb f1 59 d6 3d ac 9a ff 3d 55 96 18 bd
       -0.0023166647 0.10466374 0.12480673 -0.037252743
0001a0 95 53 e0 3c 80 c1 d2 3c f8 24 f2 3d 7e b4 d5 3d
       0.027383605 0.025727034 0.118234575 0.10434817
0001b0 51 61 89 3d b7 56 b8 bd b9 14 76 3d 72 8b 0a 3d
       0.06708015 -0.090009145 0.060078356 0.03382439
0001c0 8c 32 d5 3d 22 eb 23 3d 19 7f a6 bd 3b 29 a1 3d
       0.10410032 0.040019162 -0.08129711 0.07869192
0001d0 bf 6f 78 bd 74 cc 82 3d 3b 61 9f 3d 0b bd 24 3d
       -0.060653444 0.063866526 0.07782217 0.040219348
0001e0 37 75 2f 3c 48 d1 94 bd d3 2b ba 3d 26 1d 1c 3d
       0.010709099 -0.0726648 0.0909039 0.038113736
0001f0 c3 6c 3f bc 26 71 f2 3d df 3e 02 bc 1d 10 c9 bd
       -0.011683646 0.118379876 -0.00794956 -0.098175265
000200 49 a8 b0 bd c5 63 bb 3d 80 c5 54 3c 68 e9 c2 bd
       -0.08625848 0.09149889 0.012986541 -0.09517175
000210 d4 18 18 3d fa 8d 83 bc f6 11 63 bd 57 43 ec 3d
       0.037133053 -0.01605891 -0.05543705 0.115362816
000220 b2 42 9e 3d 56 3b 8b 3d f9 20 ad 3d 59 53 e8 3d
       0.07727565 0.06798427 0.08453555 0.11344022
000230 78 0b 50 bc 13 da aa bb 89 d5 df 3d 98 0e 75 3c
       -0.012698047 -0.0052139848 0.109294005 0.014957093
000240 25 07 1a bd 38 4a a5 bc b5 2d 86 3d 5b fd e4 bc
       -0.03760447 -0.020176992 0.06551687 -0.02795284
000250 01 ec d9 bc b6 f1 88 3c 4f 84 34 bc 5e e2 99 bc
       -0.026601793 0.01671682 -0.011017873 -0.018784698
000260 79 af c5 3c b7 4a 54 3d d8 19 b5 3d b4 43 a4 3d
       0.024131523 0.051829066 0.0884282 0.08020726
000270 d6 ff 49 bb 6f 84 d7 bc 0d 9f 9e bd 59 eb 0d 3d
       -0.0030822656 -0.026308266 -0.0774518 0.034648273
000280 e3 c1 c9 3b c5 31 d9 bd bd 14 49 3d 7b 28 a1 bd
       0.0061571463 -0.10605196 0.049092043 -0.07869049
000290 04 b7 cc 3d fa a7 9e bd 0d 31 b9 bd 8e 79 bd 3d
       0.09995845 -0.07746883 -0.09042559 0.092517
0002a0 da 34 eb ba 85 01 b2 bc 3a a8 86 bd 5b fc e0 bc
       -0.0017944828 -0.02172924 -0.065750554 -0.027464082
0002b0 12 5a a2 3d 35 ff 3d bd 9c 3b 7a 3c 83 90 1b 3d
       0.07927336 -0.046385963 0.015273001 0.037979614
0002c0 ea 91 82 3d bf 83 af bc b7 7c b3 bd 3c 39 b0 3d
       0.06375487 -0.021425126 -0.08764022 0.086046666
0002d0 f8 71 a4 bc 40 dd db bd 99 44 af bd 8c 4b 88 3d
       -0.020073876 -0.107355595 -0.08558006 0.066550344
0002e0 7f a5 99 3d 6b f8 a8 3d 93 ab 61 3d f6 dc d5 bd
       0.07502269 0.08250507 0.055095267 -0.104425356
0002f0 a3 5a 23 3c b3 c2 34 bd f0 4a 68 bd 1a 60 96 3d
       0.00997034 -0.044130992 -0.05671209 0.07342549
000300 fa fe 3e 3d ea 93 62 3d 86 2e ba 3d 97 f9 c2 bb
       0.046629883 0.055316843 0.09090905 -0.0059501636
000310 39 3c 10 bd ca e1 64 3b 57 04 ce bd ca 3b 21 bd
       -0.035213683 0.003492462 -0.100594215 -0.03936366
000320 6e e8 d7 bd f2 18 ca bd aa 41 fa 3c 24 0e 9c 3d
       -0.10542379 -0.09868039 0.03054889 0.076198846
000330 80 82 69 bd 1e e8 81 bd ee 44 90 bd 7b 51 c1 bc
       -0.05700922 -0.06343101 -0.07044397 -0.023598423
000340 fa 29 77 3d 4b 2f 27 3a d5 f7 9b bd a2 25 d9 bd
       0.060342766 0.00063775916 -0.076156296 -0.10602881
000350 78 45 d0 3d 98 a1 ce 3d f5 4a ba bd f5 32 27 bd
       0.101695 0.10089415 -0.09096328 -0.04082008
000360 be ba 40 bd c6 34 ea 3c a9 db 9d 3d d6 d9 c6 bd
       -0.04705309 0.028589617 0.077079125 -0.09709518
000370 2b f6 8b 3c fa aa b4 bd 62 df ce 3d 73 d9 ba bd
       0.017085155 -0.08821674 0.10101201 -0.091235064
000380 cb af 25 3b 19 c5 1b bd e0 11 d3 3d d9 70 a0 bd
       0.0025281783 -0.038029764 0.10306144 -0.07834024
000390 d8 5d bd 3d 3c 69 83 3d e1 31 8f 3c df 8f 82 3d
       0.09246415 0.06416556 0.017479839 0.063750975
0003a0 35 a1 7b 38 c9 71 9a bd f4 7e 37 3d 1d 72 c6 3d
       5.99932e-05 -0.07541234 0.044798806 0.09689734
0003b0 b9 b8 75 bd 16 b2 b8 bd 2a 73 b7 3d 57 b8 cd bb
       -0.05999062 -0.09018342 0.08957513 -0.0062780785
0003c0 88 25 bf 3d 05 06 86 bd d0 e5 68 3b f7 a2 c2 3d
       0.093333304 -0.06544117 0.003553737 0.09503739
0003d0 f1 22 c0 3c 28 50 06 bd fc 97 22 bd d7 ca e4 3c
       0.023454161 -0.032791287 -0.039695725 0.027928753
0003e0 70 15 82 3d 10 85 84 bd 15 00 00 bd 1d 0b 5a 3d
       0.06351745 -0.06470692 -0.03125008 0.053233255
0003f0 49 b4 b8 bb 47 b7 52 3d cd 85 06 3d 1b d0 9d bd
       -0.005636726 0.05144432 0.032842446 -0.077057086

conv1.bias f4 [20]
000000 d3 73 90 3d 14 3e 7e bd fa b7 ac bc 02 a4 b3 3d
       0.07053342 -0.06207092 -0.02108382 0.087715164
000010 c0 e6 94 bb 36 c5 4b bd 40 2b 91 bd d1 3b 7f 3c
       -0.004544109 -0.049748622 -0.070883274 0.015578226
000020 df f6 08 3d 38 1f 80 bd be d0 78 bb 48 93 b7 bc
       0.03343856 -0.062559545 -0.0037966217 -0.022409096
000030 db 5f d1 bd 6f 14 85 bc e6 ab b8 3d 79 79 fe 3d
       -0.10223361 -0.016245095 0.09017162 0.12425513
000040 f6 b5 5f 3d a2 6d a9 bd cd f7 b3 bd 15 71 ab 3d
       0.05461689 -0.08272864 -0.087874986 0.08371178

conv2.weight f4 [40, 20, 3, 3]
000000 0d 31 81 bd 05 e6 0b 3d 10 52 9b bd 3e 5e a9 bb
       -0.06308184 0.03415491 -0.075840116 -0.0051687052
000010 05 57 4a 3d da 42 84 bd 3c 94 63 3d 71 ab 24 bd
       0.049399395 -0.064580634 0.05556129 -0.04020256
000020 80 ca 14 bd a2 6d c4 3c 8b f4 b4 bc 6f 52 71 bd
       -0.03632593 0.023978058 -0.022089263 -0.058916505
000030 88 53 3c bd fd 45 8e 3b aa 72 91 bd 62 06 50 bc
       -0.0459781 0.0043418393 -0.071019486 -0.012696834
000040 d0 f2 99 bd 7f ab 3d bb e2 c3 42 bd fb a8 8b 3d
       -0.07517016 -0.002894133 -0.04755009 0.0681934
000050 3d 09 82 bc ea 87 18 bd 74 e6 88 3c ea 85 65 3d
       -0.015873546 -0.037238993 0.016711451 0.056035914
000060 22 9d 85 3b 6b 88 08 3d 2d 82 1c 3d a6 9f 95 bd
       0.0040775696 0.033333223 0.038210083 -0.07305841
000070 17 4a cb bc 58 05 6a 3d ae ca d2 3c 33 36 5d 3d
       -0.024815602 0.057134002 0.02573141 0.054006767
000080 22 03 82 bc 29 51 92 bd 03 93 4b 3d 83 28 6c bd
       -0.015870634 -0.07144386 0.04970075 -0.057655822
000090 30 6e 89 3d 7b 1c 83 bc 38 e7 4e 3d df 49 5a 3d
       0.0671047 -0.016004791 0.050513476 0.053293105
0000a0 91 ab 92 3d e7 c7 0c 3d 35 ee 3a 3d ee 48 73 3d
       0.0716163 0.03437033 0.04563733 0.059395723
0000b0 2d 9e 8f 3c f7 aa 10 bc bc 4d 76 3c be 52 4c bd
       0.017531479 -0.008829824 0.015033182 -0.049883597
0000c0 4b ad 1a bd 24 c1 7c 3d 48 12 1d 3d 81 8e 61 3b
       -0.03776292 0.06170763 0.038347512 0.0034417214
0000d0 01 78 f6 3c c2 f4 30 3c f8 6f 61 3d 0e 58 87 3d
       0.03008652 0.010800542 0.055038422 0.06608592
0000e0 72 6c 7c bd af b2 94 bd 68 b0 8d bd 61 28 cf ba
       -0.06162686 -0.07260644 -0.069184124 -0.001580488
0000f0 f7 c9 88 bd b6 21 2e bd 41 56 03 bd ad b5 32 3d
       -0.06679147 -0.042512618 -0.03206468 0.04363029
000100 d4 7a 30 3d c6 71 26 3d 45 d3 a0 bd ec 2a c8 bc
       0.043085888 0.040635847 -0.078527965 -0.02443453
000110 f0 e5 14 bd 33 fa 81 bc 96 e4 1d bd 94 27 3a bb
       -0.036352098 -0.015866375 -0.038548075 -0.0028404938
000120 d7 06 51 3d df 0f 8e bd 2f 4a 1f 3d f6 03 42 bd
       0.051031914 -0.06936621 0.038889106 -0.04736706
000130 21 4a 06 3c 3d 3f 52 bd ad 7b 6b bd 2c c4 94 bd
       0.008196385 -0.05132984 -0.057490993 -0.07263979
000140 cc 48 30 3b 94 db 94 bc 53 13 09 3d 64 ba 8e bd
       0.002689886 -0.01817111 0.033465695 -0.06969145
000150 71 aa aa 3c 94 8a 70 bd 7b fc 0b bc 91 87 5d bc
       0.020833226 -0.05872591 -0.008544083 -0.013521091
000160 ae 83 63 3d 36 41 54 bd 50 8b 8f bd 57 4b 47 3d
       0.0555455 -0.051820002 -0.070089936 0.048655834
000170 9d 9f 54 3c 54 b0 3a 3d f9 3a 89 bd 17 d4 e8 3c
       0.012977508 0.045578316 -0.06700701 0.028421445
000180 37 f4 7b 3c e4 95 36 bd 3a 9a 97 bd 5b 59 91 3d
       0.01537805 -0.04457654 -0.07402463 0.07097121
000190 76 e7 da bc 9c ba 94 bc ce 66 7a bd 1a 61 28 3d
       -0.026721697 -0.018155389 -0.0611332 0.04110823
0001a0 ba 01 28 bd 40 24 8a 3d 2e cc 69 bd eb 90 06 3d
       -0.04101727 0.067451954 -0.057079487 0.03285305
0001b0 85 66 71 bd 08 ee 19 3d 94 a4 bd 3c 13 9f 39 3d
       -0.05893566 0.03758052 0.023149766 0.04531772
0001c0 7e d4 6e bd c1 bc d0 3c 30 05 27 bd ab cf 74 3d
       -0.058308117 0.02548063 -0.04077643 0.05976836
0001d0 75 c9 fb 3c cd ab 15 3d 10 d1 8d 3c c5 55 26 bd
       0.03073571 0.036540795 0.017311603 -0.04060914
0001e0 ae 59 98 bd 63 09 66 3b 51 c3 39 3c b0 c0 89 bd
       -0.0743898 0.003510081 0.011338071 -0.06726205
0001f0 27 43 83 bd d6 e7 7f bc b1 7b a4 bc 7c c2 fe bc
       -0.06409293 -0.015619239 -0.020078512 -0.031098597
000200 f4 ce a8 bc 50 65 0a bd f7 52 33 3d b6 a5 2f bd
       -0.020606495 -0.033788025 0.043780293 -0.042882644
000210 91 24 83 bd 69 97 bf 3c c3 5e b8 bc 70 77 8a 3d
       -0.06403459 0.023387628 -0.022506123 0.06761062
000220 fb c6 96 3c 5c d2 33 bc fc 24 b2 3c 1d ab 2f 3d
       0.018405428 -0.010975447 0.021746151 0.042887796
000230 ac 89 66 3d 8a d5 72 3d a9 ff a2 3c ec c4 23 b8
       0.056283638 0.059285678 0.019897299 -3.9045626e-05
000240 16 c7 01 3d c2 19 9a 3c c5 ab 29 bd f4 8e 7f bd
       0.031684004 0.01881111 -0.041423578 -0.06239219
000250 a3 cc 85 bc 3d 9c 9a bd 04 cb a6 bb 15 81 3d bd
       -0.01633293 -0.07549331 -0.0050901193 -0.04626568
000260 e6 95 03 3d 12 e7 23 bb c4 08 26 bd be bc 80 bd
       0.032125376 -0.0025009555 -0.040535703 -0.06286
000270 aa e1 4a 3d 52 fe 06 bc ed b3 48 bb 16 b1 8b 3d
       0.049531616 -0.008239346 -0.0030624822 0.06820886
000280 a9 8e bb 3c 0e 42 3a bd ba 10 f0 bc 71 06 6b bd
       0.022895174 -0.04547315 -0.02930485 -0.05737919
000290 e1 cd 8c bd 11 25 c7 3c 42 1a 3d bd b8 d6 b1 bc
       -0.06875206 0.024309667 -0.04616762 -0.021708831
0002a0 d0 c2 70 3d 67 b9 34 3d d9 a9 2c bd ef 5e 3d 3d
       0.058779538 0.044122126 -0.042154167 0.046233114
0002b0 82 71 50 bd 16 3a 35 39 82 7e f6 ba 20 dc 7c bd
       -0.0508895 0.00017283144 -0.0018806013 -0.061733365
0002c0 96 67 5b 3c 63 ca 4e 3c e4 3d 76 bd 08 1b 06 bd
       0.013391396 0.012621495 -0.060117617 -0.032740623
0002d0 fa 3d c2 3c c1 d1 7a bd 6c ff 12 3c 8f 6d ca bd
       0.023711193 -0.061235193 0.00897203 -0.09884178
0002e0 85 f0 28 3d e3 42 be bd d2 4d 22 bd e7 db d6 bc
       0.041245002 -0.092901014 -0.039624996 -0.026227904
0002f0 2c 52 be bd 49 b8 0d bd e0 88 20 bd da c8 99 3b
       -0.09293017 -0.034599576 -0.039193034 0.004693133
000300 fb dd 50 bc 20 cb c4 3c 23 e0 a6 3d ab ec a9 3d
       -0.012748237 0.024022639 0.081482194 0.08297094
000310 8e 0a b4 3d 47 15 ae 3c 49 8f dd 3a 4b 1f 92 3d
       0.08791076 0.02125038 0.0016903664 0.07134875
000320 94 83 98 bc 1d 26 62 3c 77 d8 80 bc b2 db e5 3b
       -0.018617429 0.013803032 -0.015728218 0.007014715
000330 ef 70 05 bc 59 8f 25 bd 34 98 cc bc de 3b 88 bb
       -0.008144601 -0.04041991 -0.02497492 -0.0041575273
000340 00 ab d4 bc b8 21 f0 3c 59 be 60 bc ee ff 5d bc
       -0.025960445 0.029312953 -0.013717257 -0.013549788
000350 55 d8 a5 3c 45 03 65 bd 85 a9 2f bd a6 77 37 3d
       0.020244757 -0.05591132 -0.042886276 0.04479184
000360 9f 2d 91 3d ec e8 42 bd fe 52 99 3d e9 4c ce 3c
       0.0708878 -0.047585413 0.07486533 0.025183158
000370 8c 36 62 3d 66 2e 80 3d 4c 46 92 3c b4 12 a5 bb
       0.0552278 0.0625885 0.017855786 -0.00503763
000380 40 89 b2 bc c6 59 eb 3a 57 da f0 bc 5a 25 76 bc
       -0.021793962 0.0017955832 -0.029400988 -0.015023554
000390 19 ea 88 3d 46 30 83 3d a7 44 a9 3d 5e 0d 7f bc
       0.066852756 0.06405692 0.082650475 -0.015567152
0003a0 6d ff 27 bc ed 49 5c 3d 9f f5 22 3d 84 58 cd 3c
       -0.010253769 0.05378144 0.039785024 0.025066622
0003b0 ec 0a 8a 3d fe c1 45 3d 20 b1 31 3d 44 33 7c bd
       0.067403644 0.04828071 0.04338181 -0.06157233
0003c0 47 34 4a bd 88 67 7a 3d 82 fa f9 3b 8d 2d b0 bd
       -0.04936626 0.06113389 0.00762874 -0.08602438
0003d0 eb 1e 13 bd b6 16 6a bd 37 2a 53 bd bb e6 72 3d
       -0.035918158 -0.057150565 -0.05155393 0.059302073
0003e0 a4 09 90 bc 14 16 06 bd 42 ef 34 3c 0a 59 76 bd
       -0.017582722 -0.0327359 0.011043372 -0.060143508
0003f0 5d a5 4c bd 9e 94 5c bc 74 5c 08 3d 55 1c 9d bd
       -0.04996239 -0.0134631675 0.033291295 -0.076714195

conv2.bias f4 [40]
000000 de 9b 81 bd db e3 e3 3b 30 52 78 bb b8 d4 af 3b
       -0.063285574 0.0069546527 -0.0037890784 0.005365934
000010 0c 3b 5d bc 2a 65 3e 3d 6c b9 08 3d 34 06 c9 bc
       -0.013502847 0.046483196 0.033379957 -0.02453909
000020 46 fc e5 bc d6 90 29 3d 14 f2 86 3d ab 6f 9e bc
       -0.028074395 0.041397892 0.065891415 -0.019340357
000030 d6 5d b2 bc 95 4c 20 bd cd fa 88 bd b4 73 6b bd
       -0.02177326 -0.039135534 -0.066884615 -0.05748339
000040 9a 31 b3 bc d4 0d 95 bd de b7 71 bd 01 f1 8f bd
       -0.021874238 -0.07278028 -0.05901324 -0.0702839
000050 c2 4d 1a 3d 1c c6 61 bd bd 41 76 3d 82 a3 a1 3d
       0.037671812 -0.055120572 0.060121287 0.07892515
000060 f7 e2 71 bc 08 ec 17 3c 20 b8 ea 3c 64 77 e5 3c
       -0.014763585 0.009272583 0.02865225 0.028011031
000070 c3 4c b3 3c 74 f6 fe 3b 2b 97 ca 3c 93 28 9f bc
       0.021887189 0.0077808443 0.024730286 -0.019428527
000080 2f 59 93 bd 4a 9d 93 bd 35 a0 65 3d a3 9c a2 bc
       -0.07194745 -0.07207735 0.05606099 -0.01985008
000090 3b 08 6e bb 75 b2 a7 3d 39 e4 8e 3d 8b f4 9d bc
       -0.0036320824 0.08188335 0.06977124 -0.019281646

fc1.weight f4 [1, 6760]
000000 a6 3f 36 3c 73 27 34 bc 50 bc 8e bb bd 56 80 3b
       0.011123573 -0.010995734 -0.0043559447 0.00391659
000010 3d 61 d1 ba 64 dd 05 bc 86 7e 32 bb d3 ba 40 3c
       -0.0015974414 -0.008170459 -0.0027236058 0.011763292
000020 57 45 d7 3b d1 a1 ee bb 9d 31 cd bb e2 f4 37 3b
       0.0065695453 -0.0072824736 -0.006262018 0.0028069546
000030 db f6 41 bc 4d 87 20 3c 74 40 41 3c d1 22 2f 3c
       -0.01183864 0.009797883 0.011795152 0.010689453
000040 a0 5e b8 3b 26 7b 94 3b 9f 4c 1d bc cd d0 3f bc
       0.0056265146 0.004531282 -0.009600787 -0.011707497
000050 36 72 55 ba 6c 0f 16 3b 8e 7a 12 bb 87 aa 20 bb
       -0.0008142324 0.0022897376 -0.002235088 -0.0024515705
000060 7b 49 3a 3c 91 f8 38 bc e9 87 40 3c ec c6 63 3b
       0.011370058 -0.011289732 0.0117511535 0.0034756018
000070 59 08 d5 3a b4 9c 3b bc f1 65 88 bb 0c 0f 5e b9
       0.0016253098 -0.011450935 -0.004162543 -0.00021177175
000080 0d 7d fd b9 69 3e 6f 3b b2 14 ba 3a 4b db f8 3a
       -0.0004834909 0.0036505705 0.0014196842 0.0018986253
000090 fb 70 70 bb 2d ee c3 bb 4b 1a 17 3c e3 b1 98 bb
       -0.0036688435 -0.0059793205 0.009222577 -0.0046598776
0000a0 d5 21 5b 39 2d 24 a3 bb a7 28 12 3b 80 4e 3e bc
       0.00020898071 -0.0049786777 0.0022302063 -0.011615396
0000b0 d8 42 0a 3c c1 bb 32 3c 1b f6 dc bb b2 21 f7 3a
       0.008438788 0.010909022 -0.0067432052 0.0018854646
0000c0 ce e4 e7 b9 4c ba b4 bb 4a f6 21 3c 7b d8 c8 3b
       -0.00044230226 -0.0055153724 0.00988538 0.006129322
0000d0 0f 0f 3b bc e7 24 47 3b ae bf 29 bb 48 47 52 bb
       -0.0114171645 0.0030386986 -0.0025901604 -0.0032085944
0000e0 86 27 91 bb 1e 49 2a 39 01 64 9b 3b 69 88 08 3a
       -0.0044297604 0.00016239702 0.004742146 0.0005208315
0000f0 43 89 b1 bb c6 1f 24 ba eb 7c 31 3b ab 39 de 3a
       -0.005417974 -0.0006260838 0.0027082514 0.0016954442
000100 af 4a 2c bc 2e 43 43 bc b2 35 d2 3b 44 7b b1 ba
       -0.010515853 -0.011917872 0.0064150924 -0.0013540764
000110 ae a0 d8 3b 43 3d 37 bc db 28 a6 bb e7 43 0f 3a
       0.0066109514 -0.0111840395 -0.0050707883 0.00054651353
000120 52 ae 21 ba aa 48 54 3a 7e 8c 09 bc 56 24 d3 bb
       -0.00061676383 0.0008097986 -0.008395312 -0.0064435406
000130 dc 4a 61 3b 53 0f 23 bc 4c 61 ea bb 64 cc 28 bc
       0.0034376895 -0.009952384 -0.007152712 -0.010302637
000140 7a 63 07 bc 20 bd b9 bb 5f fc 2c 3c ec 00 a9 ba
       -0.008263463 -0.0056682974 0.010558217 -0.0012893951
000150 1f 5f 41 bb 13 c1 dc 3b d5 5e 60 3a 98 4d eb 3a
       -0.002950616 0.0067368834 0.0008559053 0.0017952202
000160 85 5b d3 bb 39 ca 80 3b 3b bb 38 3a bf 09 0e bc
       -0.006450119 0.003930357 0.00070469425 -0.008669316
000170 dc ec 33 3b 01 79 c0 3b 3f e9 33 bc 07 82 fb 3b
       0.0027454412 0.0058738 -0.010980903 0.0076754126
000180 36 ee d5 bb 9b c4 10 3b 10 92 35 bc 1e 27 04 3b
       -0.006528641 0.0022089842 -0.011082187 0.0020164917
000190 2e 72 39 bb f2 63 45 3c 22 40 16 bc af 57 40 bc
       -0.0028296816 0.012047755 -0.009170564 -0.011739655
0001a0 d3 74 60 39 7a a3 8d bb b9 83 22 bc de 43 04 3c
       0.00021405825 -0.0043224664 -0.0099191 0.008072821
0001b0 5b d1 d8 bb de c9 03 3c 8d 8a 5d 3b fe 37 80 bb
       -0.006616754 0.008043734 0.0033804507 -0.003912925
0001c0 4b 86 81 3b d4 5c 27 3c 94 d3 59 3b a3 4a d4 3b
       0.0039527765 0.010215003 0.0033237683 0.006478624
0001d0 9d 5c 3d 3c e0 67 3b 3c 68 35 8d 39 97 ea 6b 3b
       0.011557725 0.01143834 0.00026933406 0.003599798
0001e0 13 78 22 3c 13 82 ed 3b 01 3d 2a bb 8d 5e 12 bc
       0.009916323 0.007248172 -0.0025976303 -0.0089336755
0001f0 80 2c fc 3b b3 38 18 3c 77 a3 04 bb fa da a5 bb
       0.0076957345 0.009290862 -0.0020239034 -0.0050615044
000200 f5 4a 28 bc 67 53 3c 3c 3c c6 b2 39 cf aa 20 bc
       -0.010271777 0.011494494 0.00034098502 -0.009806349
000210 d0 85 69 bb c8 97 b5 bb de b7 89 3b d5 70 12 bc
       -0.0035632737 -0.0055417754 0.004202827 -0.008938034
000220 f8 a8 c3 bb 48 c7 2c bc 92 c1 c5 bb d7 15 35 3c
       -0.0059710704 -0.010545559 -0.0060350383 0.01105257
000230 b4 0d 20 bc f3 05 ce 3b 2d d7 d4 bb 0d 06 bc bb
       -0.009768892 0.0062873303 -0.0064953775 -0.005738026
000240 4d dc 9f 3a c6 c4 43 bc 69 85 af bb b9 fe 0d bc
       0.0012196392 -0.01194877 -0.00535648 -0.008666688
000250 aa e3 1f 3c a8 11 11 bc 3d 30 03 bb 52 bb 3c bb
       0.009758869 -0.008854307 -0.0020017766 -0.0028798175
000260 99 e5 ef bb 4f e8 76 bb 64 e3 f9 bb c6 26 2f bc
       -0.0073210713 -0.0037675088 -0.007625984 -0.010690397
000270 dd d2 f2 3b 32 5c f0 3b 77 26 64 bb 0e e0 24 bc
       0.007410391 0.0073352093 -0.0034812966 -0.010063184
000280 c7 a7 04 bc b5 30 04 3c ce 58 9b 3a 12 ce 51 b7
       -0.008096642 0.008068253 0.0011852027 -1.250535e-05
000290 56 1c 98 3b af e5 64 3b 8e 4d 2e 3c d3 f2 8f 3b
       0.00464205 0.003492694 0.010638608 0.0043929606
0002a0 d8 93 eb 3a 71 ea 7a 3c 22 48 5f 3b 70 43 a2 3c
       0.0017973138 0.015314684 0.0034070094 0.019807547
0002b0 25 03 93 3b 46 db 36 3c ed 27 86 3c c1 ae 96 3c
       0.004486459 0.011160677 0.01637646 0.018393876
0002c0 42 af 8d 3c 81 75 f7 3c 66 5d 83 3c 7e c6 98 3c
       0.017295483 0.030207397 0.016035747 0.018649336
0002d0 67 fb 3f 3c a4 1b 65 3c a0 c0 09 3c 42 46 bf 3c
       0.011717654 0.013983641 0.008407742 0.023348931
0002e0 c4 c3 c2 3c 7f f8 ea 3c a8 47 94 3c 5a 7e b2 3c
       0.023774989 0.028682945 0.018100575 0.021788765
0002f0 6d c4 c6 3c a3 e0 be 3c 70 8b ff 3c 32 c3 c6 3b
       0.024263585 0.023300475 0.031194419 0.0060657496
000300 57 09 83 3c a4 d9 cf ba f2 00 c6 3b a4 ca ac 3c
       0.015995665 -0.0015857709 0.006042593 0.02109272
000310 57 27 38 3c 53 01 11 3c f1 f3 85 3c 4d f3 a9 3c
       0.011239848 0.008850413 0.016351672 0.020745898
000320 a2 a1 c6 3c 7e 7d bc 3c 4f dc d3 3c e9 cc fa 3c
       0.024246994 0.023009058 0.025861887 0.030615287
000330 e0 7e 87 3b 30 1e 8e 3a 06 a0 20 3c 2a 2f fb 3b
       0.0041349977 0.0010842737 0.009803778 0.0076655345
000340 e2 70 bf 3b 6a bf 63 3c 52 b3 86 3c e7 34 8a 3c
       0.005842314 0.013900617 0.016442928 0.016870929
000350 45 6c c5 3c e1 e3 db 3c 20 da f4 3c ff 2f f0 3b
       0.024099478 0.02684206 0.029889166 0.0073299403
000360 49 64 bc 3b 45 eb c0 3c 76 02 9b 3b 47 79 87 3c
       0.0057492596 0.023549685 0.004730518 0.016537322
000370 56 6c 02 3b 62 df 75 3b aa 5f 06 3c 1f bb b0 3b
       0.0019901 0.003751718 0.008201519 0.0053934003
000380 1c 80 b7 3c 75 6a f9 3c ae 33 3b 3c 34 89 14 3c
       0.022399954 0.03044627 0.011425896 0.009065915
000390 75 2d 0c 3c 53 39 66 3c 3e 6b 1f 3c d9 c7 95 3c
       0.00855576 0.014051753 0.009730158 0.018283771
0003a0 74 e6 cb 3c 21 de ac 3b 15 84 26 3c e4 39 76 3c
       0.024890162 0.0052755033 0.010163327 0.015028451
0003b0 53 b8 43 3c d8 a8 3d 3b 70 c0 c1 3c 3c cd a5 3b
       0.011945802 0.002893975 0.023651332 0.0050598662
0003c0 15 cf 01 3c 5e 4b bd 3c 14 9d 8c 3c 0b 26 db 3c
       0.007922907 0.023107227 0.017164744 0.026751539
0003d0 6c 6e 48 3c 13 ac 9d 3c ff cf 32 3c 63 9d d6 3c
       0.012233358 0.01924709 0.010913848 0.026198095
0003e0 2d fd 62 3c 08 ed bd 3b b1 5f b3 3c 0e f3 da 3b
       0.013854307 0.0057960786 0.021896215 0.0066818064
0003f0 bd 3e d9 3b 39 e8 6d 3b 9b ed 87 3b 24 d9 b5 3b
       0.0066297934 0.0036301746 0.004148198 0.005549567
