ConvLSTM/Sequence/0.82_137_A_S.pt (torch, 84929 bytes, 7 tensors)

conv_lstm.conv.weight f4 [40, 13, 3, 3]
00000000: 4652 a93d 5ec7 f4bb daba afbc ca98 ed3d
00000010: 2199 4abd 6061 9c3d c633 3d3b 45b9 87bc
00000020: 118a 19bd c32b 8b3d f2bf 06bd dd6b 423c
00000030: 1496 debc 9041 16bd b593 ea3d 00b8 2a3d
00000040: e3ab 6c3d 5009 1a3d bb71 fd3d 078b 3abb
00000050: 3df2 53bd abb5 063d 45dd 433d a768 be3d
00000060: e013 65bd 44f8 f33d e698 32bd 21c6 d03c
00000070: a64c 09bd 206e 11bd 6708 e83c f8d3 a93c
00000080: 9ca5 8d3d 9098 e03b 8f06 893d 1a8f 38bc
00000090: ca68 773d b96b e13d 452c 263d fefd 003e
000000a0: 51d0 d93d 13f4 023e 5acd 513c 758d 98bc
000000b0: 4173 b83c d0ca 0e3b 7b2f ca3d 7d87 32bc
000000c0: bd98 113c bcb4 d63d 23b3 a53d b849 023c
000000d0: 460f 093e 9142 973d bbc1 b6bd afd4 bcbc
000000e0: 0073 18bd 362c 4d3d be54 febd 5c16 e1bd
000000f0: 0e53 493c 3f46 fcbc 15e5 05bd 4080 13bc
00000100: b808 b43d 7a7a cb3c 69dc 653c 321f c2bc
00000110: acdc cb3d 6daa 0c3c 4200 54bc 6cca 123d
00000120: b3ce 04bd fd18 cc3d fc22 cd3d 041c 9cbc
00000130: f8d7 bf3d 6dec d239 5577 e23d 683a 35bc
00000140: a77f 8e3d 51e2 b0bd 1855 d3bd 1b68 08be
00000150: 69f7 2d3c d3de 91bd df90 d43c b64d 95bc
00000160: 21cf 05bd c004 463d 35ad 903d 614a c53c
00000170: 9722 2e3d c8fb 373d 3e5a 6ebd 9201 8ebd
00000180: b0ab 87bd d6ad 463d e165 82bc 5b89 cbbd
00000190: cbb9 b33c c41c a1bd 1b65 dabd d4e3 033d
000001a0: 6edb 8d3b 89b3 7fb8 ba39 8bbc ff5c 933c
000001b0: 998a bdbc 557c 593c 9b16 b53c 9db6 edbd
000001c0: 24ce f3bd 0638 2e3d 0df5 ff3c 3ade 033d
000001d0: cded f33c f8bf 213d da7e a9bc 92d4 873c
000001e0: 4525 32bd 9c0b c23d 38dd 403a 23d6 d4bc
000001f0: 3903 97bb df7f df3d d37e 02bd 1195 8cbd
00000200: 3e39 0fbd 7587 7b3d 1149 703c 796a ad3d
00000210: c5af 5dbc 1dfc 0c3d 9c96 c73d 21ed ac3c
00000220: bffd 72bd cca8 9a3d f012 3abc 3c3f e03d
00000230: 0246 8c3d 3cac 633c 59a0 a83d 45c2 ac3d
00000240: 8560 69bc f4d5 153b fb71 6a3d 130b ed3d
00000250: c42b 9c3c 9d02 05bd 556b 01bc 8693 2dbd
00000260: 3e4c ae3d d221 b3bc 4bac b13a b004 383d
00000270: b285 b53c b2d7 d3bc f694 a53c ca42 7a3c
00000280: 4f23 253c e12e 673d b9d9 8ebc a4d7 34bd
00000290: 0d05 c43d 7ec8 9bbd 1dde 0e3d 910d 3c3d
000002a0: 96ce ca3d 10e5 913b 1295 75bd 829e d33c
000002b0: fa64 833d 042c 6bbd 9ba6 87bd 4cd1 553d
000002c0: ea98 62bc b936 543d f14c 833d e3fd 78bd
000002d0: 851e c73c 4600 373d a147 6d3d 3aba 3a3d
000002e0: d9ee 8bbb f8e4 6dbc ffcd 8e3a 3190 f63a
000002f0: 306b 7a3d e571 64bd e987 c7bc bc51 a33d
00000300: bf8a 093c 7b41 ce3d 24ac c03d 2f72 34bd
00000310: d28a 7bbd 4c55 c33d fa8c 05bd cac6 4d3d
00000320: 3e3c 5fbd 0fd8 cf3c 2aa6 593d be31 89bd
00000330: 2650 443d 8257 b7bc cd27 293d 66cf 6abd
00000340: 41b7 27bd 5505 a33c 0074 30bd 4f49 debd
00000350: c075 243b 4c1e dfbd 6113 0c3d a45b 84bd
00000360: 7beb c2bd 1839 b03c 04b4 d43c e56e e3bb
00000370: ef32 803c d3b2 f7bd ef3f 9cbd 9a25 f33c
00000380: f6c9 b5bd 7bf5 c4bb ddfe 4dbc 58ae a7bd
00000390: e429 c0bd f538 313c 2832 993b 6992 5f3d
000003a0: bf3f cabd afcd a93b ea64 823d 04bd 8c3d
000003b0: 332b ff37 41b5 aa3d 46bb 4dbd c6dd 293d
000003c0: 0fe9 1ebd 3101 95bd 9b4f 7a3d 12af d23c
000003d0: 774a 1e3c 5c7d 993c 2988 58bd 999a 8d3d
000003e0: 0af5 5d3c 5068 73bd cc70 243d dbe8 403d
000003f0: a4b5 9bbd 1fc3 68bd 26b0 c53d b75a b23c
0.082676455 -0.0074700555 -0.021451402 0.11601408 -0.04946244 0.0763576 0.002886997 -0.016567836
-0.037485186 0.06795456 -0.032897897 0.011866537 -0.027171172 -0.03668362 0.11453954 0.041679382
0.05778111 0.037606537 0.12375208 -0.0028464214 -0.05174469 0.032888096 0.04781844 0.092973046
-0.055927157 0.11912587 -0.043602847 0.0254851 -0.033520363 -0.035505414 0.028324319 0.020730957
0.06916353 0.0068541244 0.06690704 -0.011264587 0.06040267 0.110068746 0.040569562 0.1259689
0.10635436 0.1278842 0.012805307 -0.01862214 0.022515895 0.0021788366 0.098723374 -0.010896561
0.008886513 0.10483691 0.08090808 0.007952146 0.13384733 0.073857434 -0.0892367 -0.023050634
-0.037219048 0.05009099 -0.12418507 -0.10990593 0.012287868 -0.030795215 -0.032689173 -0.009002745
0.087907255 0.024838675 0.014029601 -0.023696516 0.09954199 0.008585555 -0.012939515 0.035837576
-0.032423686 0.09965704 0.10016438 -0.019056328 0.09367365 0.00040230472 0.11057917 -0.011061288
0.069579415 -0.086369164 -0.10318965 -0.13320963 0.010618069 -0.071225785 0.025947986 -0.018225532
-0.032668237 0.048344374 0.070642866 0.024083318 0.042513456 0.04491785 -0.05819153 -0.06933893
-0.06624544 0.048505627 -0.01591772 -0.09938308 0.021939179 -0.07866815 -0.106638156 0.032199696
0.0043291366 -6.0963943e-05 -0.0169953 0.01798868 -0.023137378 0.013274272 0.022105506 -0.11607096
-0.119045526 0.042533897 0.031244779 0.032194354 0.029776478 0.039489716 -0.02069037 0.016580854
-0.043492574 0.094748706 0.0007357183 -0.025981015 -0.0046085385 0.10913061 -0.03185923 -0.0686437
-0.0349667 0.06140848 0.014665858 0.08467574 -0.013530676 0.03442012 0.09745523 0.021109166
-0.059324022 0.07551727 -0.011357054 0.10949561 0.068492904 0.013896044 0.08233709 0.084354915
-0.014244203 0.0022863122 0.057237606 0.11574378 0.019063838 -0.032473195 -0.007899125 -0.042377017
0.08510636 -0.021866713 0.0013555376 0.044926345 0.022158477 -0.025859687 0.020212632 0.015274713
0.010079219 0.05644119 -0.017437803 -0.044150963 0.09571276 -0.076066 0.034879792 0.045911375
0.099026844 0.004452355 -0.059956618 0.025832418 0.06415744 -0.057415023 -0.06623574 0.052201554
-0.013830403 0.05181 0.0641116 -0.060789 0.024306545 0.044677995 0.05792964 0.045587756
-0.004270416 -0.014519922 0.0010895132 0.0018811283 0.06113738 -0.05577268 -0.0243568 0.07974574
0.008394896 0.10071083 0.09407833 -0.044054206 -0.061411686 0.095377535 -0.03260515 0.05023841
-0.05450081 0.02537158 0.053136982 -0.06698941 0.047927998 -0.022380594 0.041297723 -0.057326697
-0.04094625 0.019900003 -0.043079376 -0.10853826 0.0025094599 -0.108944505 0.03419817 -0.064627916
-0.095175706 0.0215116 0.025964744 -0.00694071 0.015649287 -0.12094655 -0.07629382 0.029681016
-0.088764116 -0.006010709 -0.012572971 -0.0818755 -0.0938299 0.010816802 0.0046751685 0.054582987
-0.0987544 0.00518199 0.06366904 0.06871989 3.0418485e-05 0.08335353 -0.050227426 0.041471265
-0.03879648 -0.07275618 0.061111074 0.025718246 0.0096613085 0.018736534 -0.052864227 0.06914253
0.013547191 -0.059425652 0.040146634 0.04709707 -0.076030046 -0.056826707 0.09652738 0.021771772

conv_lstm.conv.bias f4 [40]
00000000: 2fe3 de3d 2402 67bd 84f1 86bd 8822 a8bc
00000010: 3b22 f33c aad1 3e3d 9360 79bd c596 babc
00000020: c3f2 a33d 6311 2abc 11c4 c3bc aa21 0a3d
00000030: 04aa 533d d151 963b c231 ac3d 248f c1bc
00000040: 7c0c a3bd e31b d83c f4b9 a03b b602 de3c
00000050: 296f d83d 7637 a13d 79ab b53d cea5 c83d
00000060: 52cc 66bd daba d939 c71b 353d 6e4b c73c
00000070: feda f1bc 354f 1dbb dd35 abbd 144f 22bd
00000080: e661 613d 76d4 1d3d 6161 413d c0d1 a3bb
00000090: d672 2cbb 0cc2 a23d 1243 4a3d ac7a 7ebd
0.108831756 -0.056398526 -0.06589034 -0.020524278 0.029679408 0.04658667 -0.060883116 -0.02277697
0.080052875 -0.010380122 -0.023897203 0.03372351 0.05167581 0.00458739 0.08407928 -0.023627825
-0.079613656 0.026380485 0.00490498 0.027100902 0.10568077 0.078719065 0.088705964 0.0979725
-0.0563472 0.0004152868 0.044215944 0.02432796 -0.029523369 -0.002400351 -0.08359883 -0.039626196
0.055025004 0.038532697 0.04721201 -0.0049993694 -0.0026313565 0.07947168 0.04938037 -0.062128708

conv1.weight f4 [20, 10, 3, 3]
00000000: 59ff d43d f3fd aa3b ce8a 99bd aa85 c13d
00000010: f648 32bd dc0b 24bd 3c93 c23d c090 da3c
00000020: a813 b83d 0219 a53c afdd 203d 882f 963d
00000030: 6487 98bd 48c4 f73d 2069 943a 6f58 0dbc
00000040: fdcc cd3d 1ab4 2abc c150 473d cc04 18bc
00000050: 00a9 043b d177 93bc e99f 6f3d ac99 933d
00000060: 622e 163c f7c6 6d3d c52b 513c 4ca9 e2ba
00000070: f881 563d 823e e3bd f84f dd3c d2d3 753d
00000080: d63d 8ebd b8da 6cbd fa75 a0bd 9146 9f3d
00000090: 2355 463d ea3e e43c 6d0c 91bd e56f a33d
000000a0: 070a c53d 3728 61bb 0ef6 933d 201c aa3d
000000b0: b2d7 473d 0a0d 2bbd 3db4 d13d 9650 3f3d
000000c0: 7497 a33d f877 8f3c 6870 92bc b167 12bd
000000d0: 536b b83c 85fb 8ebd 590f 23bd 4f42 d1bc
000000e0: dee8 ebbd e55e 2c3b ebc8 7d3d 9b7e 1f3c
000000f0: 7824 623c 1d7b febc 7cca 093c 9f6e 08bd
00000100: 82fb 1cbd 0bac 4dbd 4485 3cbc b57b e1bd
00000110: d3e6 ccbd afdf 603c 5d47 d4bd 38ad 1bbd
00000120: 6639 cabd 17f5 423d e25a 603c c2b6 59bc
00000130: 6cf1 b53d 23f0 8bbd 0c08 193c d585 bfbd
00000140: 95b7 c1bd 0c7d acbd c98d a2bd 3160 c8bc
00000150: ab63 383d 778d 0a3c 3131 efbb d3a3 b4bd
00000160: 5bd6 68bd 0729 83bd 2111 72bd cca5 b23d
00000170: b3bf b8bd 9be7 5f3c 5e17 7ebc cfc6 83bc
00000180: fae8 cabd 1599 9dbd 1f3f 87bd c4bf 82bd
00000190: be0d 933d 2722 6bbd 22e8 22bd 6eb5 79bd
000001a0: 0b78 bfbc ccc4 8fbd 163b 683c 3248 ab3d
000001b0: caed 33bd 6a1f 83bd 2b7a f0bc 7b66 3dbd
000001c0: 4395 4ebd 8e58 723d e382 93bd c9f4 c1bd
000001d0: adc5 883d 4be5 10bd 42db 063d 810b 333d
000001e0: 22d3 703b 97ac 7abd f91e 563c b3aa ac3d
000001f0: b2b3 73bd c95d 37bd befb 713d 97a4 dfbc
00000200: c593 d2bc 5364 503d 26df c8bd 0c0e 11bc
00000210: 09c9 443c 44a2 67bd cab7 a43d 10bd 543d
00000220: 46e2 17bd f1c4 d6bc 40d9 4d3c 65fe c03d
00000230: cae3 d2bd f873 0c3d 2a7a d0bd 4c95 163d
00000240: c013 b1bd 4d19 84bd eb1d 8d3d 26ee bf3d
00000250: e68c 63bc 54fb 623c ad41 953d 6a50 a23d
00000260: c306 903d 0903 ac3c 6c7e 543d e274 743d
00000270: 5a88 8b3d 680d c2bc a9ef 973d 2391 86bd
00000280: 2511 6bbd 19f5 a1bc 10f5 313d 63d0 0bbd
00000290: 3cb2 69bd eb47 6abc f32f 91bd 441c 0fbd
000002a0: 31c8 63bc cb19 843c e390 833d 46fe 34bd
000002b0: d100 15bd da11 f13c 1a1d 1d3d 7c97 9b3d
000002c0: bebc 073d b232 3d3d fe96 943d 4b43 80bd
000002d0: 3596 febc 70b4 b3bd d0a2 6b3d 0699 853d
000002e0: 1557 b4bd 4a58 11be 06cd a6bd a9d7 dfbd
000002f0: 263c a9bc 87f0 603d e53b b0bd 7f89 aabd
00000300: 40e5 89bd c9ad e0bc 3c33 eabc 87d4 9cbd
00000310: 66c8 c5bd 481f b93d e7b3 d03d 9ff5 b93d
00000320: a9c1 1dbd 5646 b63d 6110 6e3d 17eb d53d
00000330: 20f2 5cbd 99e1 9abd fce7 dc3d 6726 31bd
00000340: a2e3 943d d621 943d 2ddc 9e3c b9d5 d2bd
00000350: 41f7 623d 1594 07bd 75d3 3cbd 8826 7d3d
00000360: af47 75bd d164 d63d da62 83bd 3fe5 6bbc
00000370: 1061 463b a7de 3abd b085 473a 2bee 94bd
00000380: 98c8 703d 5136 85bd 8ea9 a43d 6bac a0bd
00000390: f763 52ba 1389 8fbd 65df 72bd f8e1 66bd
000003a0: fb58 a3bd d848 b1bd 70ec 3d3c 39c0 5cbd
000003b0: bd32 bdbb 98de 99bc 6a03 63bb db13 a13d
000003c0: 6910 7cbd e4d0 24bd 90da 64bb 4cda 9e3d
000003d0: b280 d73d 6aaa 1fbd f1cf ee3d 18a2 973d
000003e0: 147f d43d 9000 70bd d690 013e e5fe 8b3d
000003f0: 11d0 cd3c 8cc7 b93d 8b7f 633b 61b8 a9bd
0.10400266 0.0052182614 -0.07497178 0.094493225 -0.043526612 -0.040050372 0.09500739 0.02668035
0.08988124 0.020153526 0.039273914 0.073332846 -0.07447699 0.120979846 0.0011322834 -0.008627041
0.10048864 -0.010418916 0.048660997 -0.009278487 0.0020242333 -0.018001469 0.05850211 0.07207045
0.009166332 0.058051076 0.012766783 -0.0017292886 0.05237004 -0.11095907 0.027015671 0.06001646
-0.06945388 -0.057825774 -0.07835002 0.07777131 0.048421036 0.027862031 -0.07082448 0.079803266
0.09621053 -0.0034356245 0.072246656 0.08306146 0.048789687 -0.041760482 0.10239456 0.046707712
0.07987872 0.01751326 -0.017875865 -0.03574342 0.022512114 -0.06981567 -0.03980956 -0.025544314
-0.11519025 0.0026301679 0.06195919 0.009734775 0.01380264 -0.031064564 0.008410092 -0.03330862
-0.038325794 -0.0502129 -0.011506382 -0.11009923 -0.10004964 0.013725205 -0.10365174 -0.03800699
-0.09874229 0.047597017 0.013693543 -0.013288202 0.08883938 -0.06832912 0.009340297 -0.09351698
-0.094588436 -0.08422288 -0.079371996 -0.02445993 0.045016926 0.008456579 -0.0072995652 -0.088203095
-0.05684505 -0.0640431 -0.059098367 0.087230295 -0.09020939 0.013666059 -0.015508501 -0.01608601
-0.09907718 -0.07695214 -0.06603836 -0.06384233 0.071803555 -0.057405617 -0.03977216 -0.06096404
-0.02337267 -0.07019958 0.014174243 0.083633795 -0.043927945 -0.06402476 -0.02935513 -0.04624031
-0.050435316 0.059166484 -0.07202699 -0.09470517 0.06678329 -0.03537492 0.032923944 0.043712143
0.0036746939 -0.06119975 0.013068908 0.08430996 -0.059497543 -0.044767175 0.05907797 -0.027300162
-0.025705228 0.050876927 -0.09808187 -0.008853447 0.012010821 -0.056551233 0.080428675 0.051938117
-0.037081026 -0.026216956 0.0125640035 0.09423522 -0.102973536 0.034290284 -0.10179551 0.036763474
-0.08646345 -0.06450138 0.06890472 0.09371595 -0.013888573 0.013853867 0.07287917 0.07925494
0.0703254 0.020997541 0.051878378 0.05968178 0.06813116 -0.023688033 0.074187584 -0.065706514
-0.057389397 -0.019770192 0.0434466 -0.03413428 -0.057054743 -0.014299373 -0.07089224 -0.034939066
-0.01390271 0.01612558 0.06424119 -0.044187807 -0.03637773 0.029427458 0.03835783 0.07597253
0.033138983 0.046190925 0.07255362 -0.06262835 -0.031077484 -0.0877465 0.057528317 0.065233275
-0.08805672 -0.14193836 -0.08144574 -0.10929806 -0.020658564 0.054916885 -0.08605174 -0.083270065
-0.06733179 -0.027426617 -0.028588884 -0.07657724 -0.096573636 0.090391695 0.10190564 0.09080052
-0.038514767 0.08900134 0.05812109 0.104452305 -0.053941846 -0.075625606 0.10786435 -0.043249514
0.0726998 0.07233016 0.019392097 -0.102946706 0.05541158 -0.033100206 -0.0461001 0.061804324
-0.059882816 0.10468448 -0.06415339 -0.014397918 0.0030270256 -0.045622494 0.00076111685 -0.072719894
0.05878505 -0.06504501 0.080401525 -0.07845386 -0.000802576 -0.07008567 -0.059295077 -0.056367844
-0.07975956 -0.08656472 0.011592016 -0.053894255 -0.0057738707 -0.018782899 -0.0034639486 0.07865115
-0.061539087 -0.040238276 -0.0034920312 0.077564806 0.105225936 -0.03898088 0.116607554 0.07403964
0.10375801 -0.058594286 0.12652907 0.06835727 0.025123628 0.09071264 0.0034713473 -0.082871206

conv1.bias f4 [20]
00000000: e913 a3bd ddd6 a1bd ae0c da3d b1ce 873d
00000010: 8373 a23d da93 81bd 5f63 a13b 2e56 d53d
00000020: 8c11 ca3d 4724 d5bc ccf7 94bd 9315 933d
00000030: 43e4 d83d 9b8e 973d 5348 4dbd a6fd 443d
00000040: e2ec 363d c4e1 6dbd c39d 79bd 4501 9f3d
-0.07962782 -0.0790231 0.1064695 0.0663122 0.07932188 -0.063270286 0.004925176 0.10416828
0.09866628 -0.026018275 -0.07273826 0.07181849 0.105904125 0.07400247 -0.050117802 0.04809346
0.044659503 -0.058076635 -0.06094147 0.07763914

conv2.weight f4 [40, 20, 3, 3]
00000000: 08d6 1a3b 0283 a83d 42d0 1a3d 1ad0 323d
00000010: c07a ac3c eb1e 7c3d 8e7c f3bc 6df4 4bbc
00000020: e687 8bbc b02b 4bbc d00e 1cbd 5349 41bd
00000030: e873 60bd 3cc5 d23c 3def 913d c4a0 24bd
00000040: ae75 313d 9fa1 963d 7e8e 2b3d c3ef b9bd
00000050: e60e 21bd a71d b8bc 303f 3d3d a8f0 81bd
00000060: 68fd b0bb 20bf 95bc b176 e03a e13f 883d
00000070: 0ce7 4c3d cd31 96bd 9307 15bb acfb e4bc
00000080: ae00 f7bc a4d7 86bd 5a70 313c 0500 f33c
00000090: 391a 8fbd ff84 82bc ce0b 89bc c37a f23c
000000a0: f6e5 7dbc f576 3fbd fb3e f5bc cb20 113c
000000b0: 9470 74bd c037 ab3d 488f 183c b5f4 6ebd
000000c0: b368 a3bc 67de 8a3d bd3b 863b 2a4a 12bc
000000d0: 48ec 1c3d 455e a13b 2913 763d 2cb5 94bd
000000e0: 8dae 353d a9fc 19bd 371c 053d 5498 5c3d
000000f0: bdc8 2fbd 3ff1 47bd c2ba 32bc bf00 c5bc
00000100: 4eae b13c 3d52 94bd c438 463d c6c6 2dbd
00000110: b70d 583d 1848 16bd 4801 343d 7f1c 95bd
00000120: c752 7f3c d4d5 cebc 029a 613d 64bd e5ba
00000130: 21ee 51bd 8667 973d 934e 103d ac1d 73bc
00000140: b396 8e3d 2067 41bc d667 62bc 57c1 083c
00000150: 47be 653d f5db a8bc a89e 3a3d eca2 0dbd
00000160: 2939 05bd 6287 353d ae5b 79bd 15eb e1bc
00000170: 2fa3 1e3d 7259 a63d 9e24 943d dd64 97bc
00000180: e622 8a3d b526 ab3b 0a7a 233d e3fe 23bd
00000190: a7a7 2b3b b7da 2bbc 361a 8a3d 2386 1e3d
000001a0: 6f68 4e3d 7b54 77bc ef6b ae3a 423a f73b
000001b0: 13e8 e43b 3500 b5bd 4711 243d 266d 4a3d
000001c0: da15 333c 356b 303c e047 273d caa4 92bd
000001d0: f034 97ba 35ae 1dbd 82fb df3c cdb1 db3c
000001e0: 3429 87bd 9e3d 33bd c1c8 693d d52d a03d
000001f0: a9d5 2a3d a998 4b3d 677d 77bd b4fb 89bc
00000200: a40e 3abd a025 0f3d 4a36 febb 4016 ad3d
00000210: 7c9d 46bd 9345 32bd ac57 b53d 35ad 44bc
00000220: 2bdb d2bc fda2 963d df3f 30bd a39a a13d
00000230: eb8e bb3c c5a9 a83c 804a b6bc 7f55 70bd
00000240: 6b08 2fbc ecc8 e1bc a915 f639 02b5 ebbc
00000250: d46c 4bbd fe37 1f3b ef67 0bbc 2514 06bd
00000260: 1ade 85bd 0f74 193c e9d0 7d3d a175 05bd
00000270: 1c27 953d 6b4a e6bc 5fbf 883c 7379 cc3c
00000280: 6a2d b83c 73ea ddbc 2c74 51bd 5bf5 64bd
00000290: be51 6b3d 5aeb 4fbd 9116 21bc b9f7 933d
000002a0: ac1c 7a3d e23f 75bd b499 893d 1f5b 923d
000002b0: ec69 4c3d 9e27 5d3d a7c0 e53a 250e 16bd
000002c0: 60c2 883d 3b7a 2d3d dfe1 67bd 02dc 81bd
000002d0: df15 32bd 54e6 133d 4a6e 26bd a56e 11bc
000002e0: 65b8 943d 8f85 edba ba4c 733d ef53 1d3d
000002f0: 13d6 0abd 507d 1c3d cbaa dc3c 7db6 4eba
00000300: b0c0 a0bc 243c 5f3d a2b7 c83c ddc2 8dbb
00000310: f73b 65b8 7cae b4bc 5bc2 09bc 16b9 a0bb
00000320: 62bd 2dbd e191 48bd 86fb 7cbd 3e53 1abc
00000330: f24d 4b3d fe7a 4abd 1068 47bd 0520 6fbd
00000340: c76d 3cbd c822 233d 41ab 463d 0b38 643d
00000350: cb16 35bd 7fe4 87bd f398 6cbc 088e 6a3b
00000360: d604 7fbc 4e31 3f3c 2294 43bd e7b6 44bd
00000370: d85b 3abd 446a 03bd f2fb a0bd 650c 763d
00000380: 822f 41bc c769 f3bc 94b6 b6bc e443 db3c
00000390: 07b5 cbbb 3c34 1dbd 5924 483b e23c 1ebd
000003a0: a264 073d c4a5 113c ec57 17bd ecb6 5cbd
000003b0: a676 12bd b193 e8bc ef02 693d 5832 01bd
000003c0: 98d7 743c 0bbf 12bd 2f5b 7cbd f579 b5bc
000003d0: 608b 21bd 54d6 7bbd 634f f5bc d81e c13c
000003e0: 1353 5bbd fe9e 25bd e36f 66bd 9e5a 32bb
000003f0: 8bfb b03c a821 f2bc ac56 85bd 46cb 0dbd
0.0023626108 0.08228113 0.037796266 0.043655492 0.021054626 0.061552923 -0.029722478 -0.012448412
-0.017032575 -0.012400553 -0.038100064 -0.047189068 -0.054798037 0.025728814 0.07125709 -0.04019238
0.04332512 0.073550455 0.041883938 -0.09078934 -0.03932085 -0.022475077 0.04620284 -0.0634473
-0.005401302 -0.018279612 0.0017125217 0.06652809 0.05002503 -0.073337175 -0.002274011 -0.027952038
-0.030151691 -0.06584099 0.010830009 0.029663095 -0.069874234 -0.015932558 -0.016729262 0.029599553
-0.0154967215 -0.046744306 -0.029937258 0.008857916 -0.059677675 0.08360243 0.009311505 -0.05833884
-0.019947385 0.06780701 0.004096477 -0.008928815 0.038311273 0.004924568 0.060076866 -0.07261118
0.044355918 -0.03759447 0.03249761 0.05385621 -0.04291605 -0.048814055 -0.010908784 -0.024048207
0.02168956 -0.07242248 0.04839398 -0.042425893 0.052747454 -0.036689848 0.043946534 -0.07280826
0.0155837005 -0.025248446 0.055078514 -0.0017527756 -0.051252488 0.073927924 0.035231184 -0.014838617
0.06962337 -0.011804372 -0.013818702 0.008346877 0.056089666 -0.020612696 0.045561463 -0.034579203
-0.032525215 0.044318564 -0.06087845 -0.027577916 0.038729843 0.08122529 0.07233547 -0.018480713
0.067449376 0.00522312 0.039911307 -0.040038 0.0026192458 -0.010489157 0.067432806 0.03870214
0.050392564 -0.015095825 0.0013307313 0.0075447867 0.006985673 -0.0883793 0.04005554 0.0494205
0.010930503 0.010767748 0.04084003 -0.07160337 -0.0011536162 -0.038496215 0.027341608 0.02681818
-0.06599656 -0.043759935 0.05707622 0.07821242 0.04170767 0.049706135 -0.060422327 -0.016843654
-0.04542412 0.03494799 -0.0077579366 0.084515095 -0.048490033 -0.043523382 0.08854613 -0.012004186
-0.025739273 0.07355306 -0.043029662 0.07890823 0.022895297 0.020588765 -0.022252321 -0.058675285
-0.010683159 -0.027561627 0.00046936914 -0.028772835 -0.049664333 0.0024294849 -0.008508666 -0.032734055
-0.06536503 0.009366049 0.06196681 -0.032582883 0.0728285 -0.028111657 0.016692815 0.024960255
0.022482593 -0.027089333 -0.05113618 -0.05589805 0.057451002 -0.050761558 -0.00983204 0.07224984
0.0610625 -0.059875377 0.0671877 0.07146286 0.049905702 0.05399286 0.0017528728 -0.036634583
0.06677699 0.042352896 -0.05661189 -0.06340791 -0.04347789 0.03610833 -0.040632524 -0.008876477
0.07261733 -0.0018121469 0.059399344 0.038410123 -0.033895563 0.038205445 0.02693691 -0.0007885469
-0.01962313 0.054500714 0.024501625 -0.004326208 -5.46537e-05 -0.022055857 -0.008408154 -0.0049048765
-0.042416938 -0.048967246 -0.06176331 -0.009419261 0.04963488 -0.0494337 -0.048683226 -0.058380146
-0.04600313 0.03982809 0.048503164 0.05571751 -0.04421119 -0.06635379 -0.014440763 0.0035790224
-0.015565118 0.01166947 -0.047748692 -0.04802599 -0.045497745 -0.032083765 -0.07860555 0.060070414
-0.011791112 -0.029713525 -0.022303857 0.026765771 -0.0062166485 -0.038379893 0.0030539243 -0.03863228
0.033054955 0.008889619 -0.036949083 -0.053885385 -0.035757683 -0.028390737 0.056887563 -0.031542152
0.01494398 -0.035826724 -0.061610397 -0.02215288 -0.03943956 -0.061483696 -0.029945081 0.023574278
-0.053546023 -0.04043483 -0.056259047 -0.0027214657 0.02160432 -0.029557064 -0.06510672 -0.034617685

conv2.bias f4 [40]
00000000: e80f 6dbd 50b0 323d d5ba a63c a755 8b3b
00000010: ed0f 5abc 6cd1 8fbd aeba 2dbc 32e1 73bc
00000020: 45ce 70bb 2ff4 83bc 649f f73c 4355 e6bb
00000030: 4852 37bc 0331 973d 8de4 be3c df79 a53c
00000040: 123e 19bc 9531 40bd 15e4 84bc e081 833d
00000050: acb7 813b ad9a 80bc 2e1b 1bbd 5009 5dbd
00000060: 94e8 1c3b d4e7 6ebd 28cb 323d 7394 4e3c
00000070: a830 ddbb 697f 883b 2293 803d d921 973d
00000080: 25d6 8dbc a2b7 90bb b75f 81bd 3833 943c
00000090: c61e 93bc 5de3 8fbd 2fa8 d83c 701d 343d
-0.057876498 0.043625176 0.02035276 0.004252154 -0.013309461 -0.07022366 -0.01060359 -0.014885234
-0.003674404 -0.016107647 0.03022737 -0.007029207 -0.011189051 0.07382395 0.02330234 0.020199714
-0.009353178 -0.046922285 -0.01622204 0.06421256 0.003958663 -0.015698755 -0.037867717 -0.05396396
0.0023942338 -0.058326557 0.043650776 0.012608635 -0.006750185 0.004165579 0.06278063 0.07379503
-0.017314026 -0.004416422 -0.06317084 0.01809083 -0.01795901 -0.07025788 0.026447384 0.043973386

fc1.weight f4 [1, 6760]
00000000: 7521 443c ecd2 afbb 1396 263c 30b5 0e3c
00000010: 2ec7 f63c a3ee 053d 49b4 2e3c 2f66 dc3c
00000020: 111c f83c 6527 1b3c 3a04 533c fe5b 0e3b
00000030: bdf9 31bb 4d4d 3f3c d730 803c d53b 473c
00000040: dcee 993c d000 843c 7b79 863c 1493 a43c
00000050: d6ea 643c 6793 be3c 7703 5a3c da07 a83a
00000060: fabf 833c 0d3c ae3b 838f 523c 1c0d ac3b
00000070: 8783 b83c 558b b73c f838 fb3c 0d11 8a3c
00000080: 54a3 0c3d fea8 903c 6e81 a43c 5664 ba3c
00000090: 9608 f93b dfdb c93b b04a 733a 6c9a 953c
000000a0: dcb1 ee3b 6bc3 373c 5fe0 9b3c 48f2 823c
000000b0: 78bc 163d 4ed7 883c 8e40 113d e546 733c
000000c0: a288 a93c 1a53 213c 463c b33c aa5e 983c
000000d0: e781 2c3b 31db d93a 66ac b63b 764f 873b
000000e0: 4502 743c 02e3 a63c fd29 0b3d 1d9a d03c
000000f0: c4a9 793c 5bcc b63c 546b 143c d6e6 1a3c
00000100: 5b30 2f3c b016 9c3b 4b44 b53b f70d 093c
00000110: bf91 443c b47a b63c 0cc0 843c 96ee 613c
00000120: 2a76 4f3c 8cc1 6e3c a4ed bf3c 3431 ab3c
00000130: 783b e93c 90ef 143d 7810 7db9 56d5 093c
00000140: 01bc 903c 3d25 693c 71c5 333c 7aa5 a03c
00000150: 56cf 403c cfe4 c03a 0cc7 623c c9cc bc3c
00000160: 2d73 753c ff0a 033d 37c0 e23c b445 4f3c
00000170: 9a8f 51ba ed2c adbb 2267 c13a ac90 603c
00000180: 823d 5a3c af2a 7c3c e3af bd3b 26d0 99ba
00000190: f701 ae3c 17b3 ed3c 09e1 e83c c8e2 893c
000001a0: d158 5d3a 186f 90bb ede6 ecbb e7d4 813b
000001b0: 6ddd bebb 1938 933b 84fa 22ba 6a93 99b7
000001c0: 4cdf 5ebc ceb1 b53b 9c72 aa3c 4adf ac3c
000001d0: b101 b63b 13a3 1b3c 4f95 593b bd1a b4ba
000001e0: ae44 fd3b d741 babb d050 153a b488 823b
000001f0: 19d6 2cbc 6fd2 30bb bab9 bebb 7ba9 a539
00000200: 6dad c2ba 19c9 663c 8264 d83b 061e 32ba
00000210: 081f c5bb 4de3 8f39 8e00 2a3b 9cad 1bbc
00000220: 2271 a2bb 2118 5739 d269 89bc 24f2 34bc
00000230: 7524 583c 1cab af3a 568b 0b3b b04c 2c3b
00000240: 07db 1c3c 6bce b03b 60c9 b73b 0013 19bc
00000250: 59bb 563a a85b 9cbb 4e1a 9639 3817 b83b
00000260: 1247 ae3b 556e 363c bd29 47bb 0c33 cbbb
00000270: db76 8d3b 5a48 3a3c 7884 543c 5db0 903b
00000280: 4132 d93b e2f4 383c 6af4 4fbb adca 92bb
00000290: 63eb f53a 0f54 09bb 8f15 273b 9b16 313c
000002a0: 48dd 93bb 51a8 013c ebb6 1abb bc8e 4b3c
000002b0: fdc4 7d3c 2fcf b23c c73c e13c ed99 8d3c
000002c0: 5a2a d03c 7629 8f3c 3f50 cb3c 9286 983c
000002d0: beea 913c c189 713c c660 66b9 1cd5 a13b
000002e0: 3450 1a3c a7d4 a13c 695c f13c f79c 8a3c
000002f0: 9e85 ab3c e7b3 e83c 51cf dd3c 160a 703c
00000300: 5156 2f3c 8e62 2fbb 258b b7bb 903d 3d3b
00000310: be97 233c 1176 3e3c 1a7f 043c 5918 9b3c
00000320: 7ce1 e03c 0f9d ff3c 1c7f 083d 646f 063d
00000330: 2a26 903c 19cc 883c 701e 243c 9ebf 5ebb
00000340: ca14 a4bb f3a1 36bb 8cf6 e539 6281 c73c
00000350: 1ab6 e73c e27d ad3c 9fb3 033d fadb 8a3c
00000360: 9c89 d13c e34b 063c c003 18ba 806b 82bb
00000370: d157 173c b447 42ba ffed 763c ce13 0cbb
00000380: 6705 6f3b 2e83 a93c 3685 0c3c 7b95 fd3c
00000390: 7bd9 433c 73b1 513c 18c2 523c a76f 463b
000003a0: ff0e 473c ceb4 943c f0f8 6e3c 8e1d f4ba
000003b0: f9f9 8dba 8b44 5e3c 2a09 8e3c 6e00 d53c
000003c0: a29b ea3b dfe5 173c c64f b03a 61c3 5f3c
000003d0: deb7 623c 976e e73c 9a3d b13c 5eb3 e33b
000003e0: 64d5 913b f751 c23b 9e10 6d3b c039 733b
000003f0: 8f29 823a 034b b53c a49c 3e3c 6998 58ba
0.011970867 -0.00536572 0.010167616 0.008710191 0.030124273 0.032698285 0.0106631005 0.026904194
0.03028682 0.009469842 0.012879426 0.0021722312 -0.0027156912 0.011676145 0.015648289 0.012160261
0.018790655 0.016113669 0.016415348 0.020089664 0.013972005 0.023263646 0.01330649 0.0012819723
0.016082752 0.005317217 0.012851599 0.005250586 0.022523655 0.022405306 0.030666813 0.016853834
0.03433545 0.017658707 0.020081248 0.022752922 0.0075999005 0.006160244 0.00092808437 0.01826211
0.007284386 0.011216025 0.019027887 0.01598467 0.03680083 0.016704228 0.035461955 0.014848446
0.020695034 0.009846473 0.021879327 0.018599827 0.0026322545 0.001662111 0.0055747507 0.0041293455
0.014893119 0.020371918 0.03397559 0.025464112 0.015238229 0.022314241 0.009058792 0.00945445
0.010692681 0.0047634467 0.005531823 0.008365146 0.011997639 0.022275306 0.016204856 0.0137897935
0.01266245 0.014572512 0.023428746 0.020897485 0.02847074 0.036361277 -0.00024134095 0.00841268
0.017667772 0.01423007 0.010972367 0.019610155 0.011768183 0.0014716628 0.013841402 0.023046868
0.014981073 0.03199291 0.027679546 0.012650896 -0.00079941156 -0.0052848966 0.0014755467 0.013706367
0.013320329 0.015391036 0.0057887896 -0.0011735007 0.021241171 0.02901606 0.028427618 0.01683177
0.00084437156 -0.0044077747 -0.007229677 0.0039621475 -0.005824736 0.0044927713 -0.00062171393 -1.8307666e-05
-0.013603043 0.0055448776 0.020806603 0.021102566 0.005554401 0.009499329 0.0033200567 -0.0013740879
0.0077291345 -0.0056841183 0.0005695941 0.0039835814 -0.010549092 -0.0026980897 -0.00582048 0.00031597525
-0.001485271 0.014086031 0.0066037783 -0.0006794635 -0.006015662 0.00027444438 0.0025940272 -0.009501841
-0.004957334 0.00020512987 -0.016774092 -0.011044059 0.013192286 0.0013402435 0.0021292767 0.0026290826
0.009573705 0.0053957007 0.0056087226 -0.009342909 0.0008191369 -0.0047716685 0.00028629828 0.0056180023
0.005318531 0.011134704 -0.0030389868 -0.0062011536 0.004317147 0.011369789 0.012971036 0.0044155554
0.006628305 0.011288853 -0.0031731375 -0.0044797272 0.0018762167 -0.0020954644 0.0025495028 0.010808612
-0.0045124628 0.007913665 -0.0023607563 0.012424167 0.01548886 0.021827308 0.027494801 0.017285312
0.02541082 0.017475825 0.024818538 0.018618856 0.01781213 0.014742316 -0.0002197056 0.0049387347
0.009418536 0.01975472 0.02946301 0.01692055 0.020937737 0.028406097 0.027076395 0.014650842
0.010701732 -0.0026761624 -0.005601304 0.0028875805 0.009984909 0.011624829 0.008086944 0.018932508
0.02745127 0.031202821 0.033324346 0.032821074 0.017596323 0.016698884 0.0100170225 -0.0033988724
-0.005007361 -0.0027867525 0.00043861975 0.024353687 0.028285075 0.02117819 0.032153722 0.016950596
0.025578313 0.008196804 -0.00057988986 -0.0039801 0.009237246 -0.00074111973 0.015071391 -0.002137411
0.0036471726 0.020692434 0.008576682 0.030955067 0.011953707 0.012798655 0.012863658 0.0030278952
0.012149571 0.01815262 0.0145857185 -0.0018624531 -0.0010831944 0.013566147 0.017338354 0.026001181
0.007159666 0.009271114 0.0013451509 0.013657422 0.013837783 0.028250976 0.02163582 0.0069488725
0.004450487 0.005930181 0.0036173235 0.003711328 0.0009930598 0.022130495 0.011634026 -0.0008262457
