ConvLSTM/Sequence/0.82_62_A_S.pt (torch, 84919 bytes, 7 tensors)

conv_lstm.conv.weight f4 [40, 13, 3, 3]
0	0x3dc37ce5	0.09545306
1	0xba53882c	-0.00080693024
2	0xbd5a33a5	-0.05327191
3	0x3dce409a	0.100709155
4	0x3d2ba482	0.041904934
5	0x3d8b7a27	0.06810408
6	0x3db2bcc8	0.087274134
7	0x3d95543f	0.07291459
8	0xbcfc406e	-0.030792441
9	0x3c109857	0.008825383
10	0xbcf83390	-0.030298024
11	0xbd7e43f6	-0.06207653
12	0x3d351476	0.044208966
13	0xbd1b0753	-0.03784878
14	0xbd488866	-0.048958205
15	0x3da35780	0.07975674
16	0xbc87e27f	-0.016587494
17	0x3cffd9ef	0.031231849
18	0x3d1f0487	0.038822677
19	0x3ce3f827	0.02782829
20	0xbbfe65f6	-0.0077636195
21	0xbd0fb444	-0.035084024
22	0x3d463ba2	0.048396714
23	0x3d9e275b	0.0772235
24	0xbd4e3bd4	-0.050350025
25	0x3db6126a	0.08890231
26	0x3d253fb5	0.04034396
27	0xbd7afa04	-0.06127359
28	0xbd87a2da	-0.06622858
29	0x3cc812dc	0.024423055
30	0x3d38b006	0.045089744
31	0x3d908d59	0.0705821
32	0x3d81e8f3	0.0634326
33	0xbcb0495e	-0.02151936
34	0xbd10be50	-0.035337746
35	0xbd31c34d	-0.043399144
36	0x3de94bc2	0.11391403
37	0x3d91503e	0.07095383
38	0x3dd84fd8	0.10562104
39	0xbd68489d	-0.056709874
40	0x3d98ba53	0.074574135
41	0xbcc4d4b1	-0.0240272
42	0x3cc6e2bb	0.024278035
43	0x3d20363f	0.039114233
44	0x3d4f0fd2	0.050552197
45	0xbd9fb9f0	-0.07799137
46	0x3db3670b	0.08759888
47	0x3a46fd9a	0.000759089
48	0xbcf8b292	-0.030358586
49	0x3d9247fe	0.07142638
50	0xbd327426	-0.0435678
51	0x3cbc028e	0.022950437
52	0x3d2a123b	0.041521292
53	0x3d955c6a	0.07293017
54	0xbd29745e	-0.041370742
55	0x3ca286ef	0.019839732
56	0xbd9bbaa4	-0.07603958
57	0xbd285a99	-0.041102026
58	0xbd10682e	-0.035255603
59	0x3d357d0f	0.04430872
60	0xbda74755	-0.081679024
61	0x3beb9ce7	0.007190335
62	0xbb4814ab	-0.0030529897
63	0xbd592874	-0.053017095
64	0x3d1bbd86	0.03802254
65	0x3b9f567e	0.0048626056
66	0x3dcd8c56	0.100365326
67	0xbc717295	-0.014736791
68	0x3ca05a7f	0.019574402
69	0xbd035360	-0.032061934
70	0xbc835197	-0.016030116
71	0xbcfe0905	-0.03101016
72	0xbd092c29	-0.03348938
73	0x3d54194f	0.05178195
74	0x3cd931ea	0.026513059
75	0xbc99d3f6	-0.018777829
76	0x3c839896	0.01606397
77	0xbca2e8e9	-0.01988645
78	0xbd15e3c4	-0.036594167
79	0xbdc40d63	-0.09572866
80	0xbd9fa4f9	-0.07795138
81	0x3dc7a26f	0.097477786
82	0x3c7cb53a	0.015424067
83	0x3dd9f7ca	0.10642965
84	0x3c6aa0c9	0.014320561
85	0x3d60706c	0.054794714
86	0x3d9cbab0	0.07652795
87	0x3d6765f5	0.05649372
88	0xbd157894	-0.036491945
89	0xbd8d612f	-0.06903302
90	0xbcfdb82f	-0.030971615
91	0xbd38bc83	-0.045101654
92	0xbdbc1b97	-0.0918495
93	0x3b495953	0.0030723407
94	0x3d33dc76	0.04391142
95	0x3b0df3b9	0.0021660163
96	0xbcc8cb82	-0.024511103
97	0x3d8316da	0.06400843
98	0xbd57b490	-0.052662432
99	0x3df784d1	0.120858796
100	0xbc89109b	-0.01673155
101	0x3cd6a395	0.026201049
102	0x3cb2577e	0.021770235
103	0x3d0931e7	0.033494856
104	0x3dbaa7d5	0.09114043
105	0x3cb649b2	0.022251938
106	0xbca8c3fd	-0.020601267
107	0x3d68f4e5	0.056874175
108	0x3d6d583c	0.057945475
109	0x3c84704f	0.016166834
110	0xbda28fdf	-0.079375975
111	0xbd87e07a	-0.066346124
112	0x3d8d7dff	0.069087975
113	0x3db26bed	0.087119915
114	0xbdab625b	-0.08368369
115	0xbdbdbac9	-0.09264142
116	0xbd50f67d	-0.05101632
117	0x3dc15bf4	0.09441367
118	0xbd2f7993	-0.04284055
119	0xbd57d661	-0.052694682
120	0x3c03868f	0.008027687
121	0xbd20050d	-0.039067317
122	0x3d9d7c9f	0.07689785
123	0xbd12665c	-0.03574215
124	0x3dca59f7	0.09880441
125	0x3c9bd5a1	0.019022765
126	0x3c29d8f6	0.010366669
127	0x3de352ec	0.110998005
128	0x3dd93fa5	0.10607842
129	0x3d09e7a9	0.033668194
130	0x3c4467f3	0.011987674
131	0x3d16bd9e	0.036801927
132	0xbcc68daa	-0.024237473
133	0xbd5ca054	-0.05386384
134	0xbd5ee17f	-0.05441427
135	0x3d2c8eba	0.042128302
136	0x3d803887	0.06260782
137	0x3d8691a9	0.06570751
138	0x3bed5a7d	0.007243453
139	0xbd8429ff	-0.064533226
140	0x3d9a403f	0.07531785
141	0x3d8a9d2c	0.067682594
142	0x3dc3be43	0.09557774
143	0x3da83ef2	0.08215131
144	0x3d42b260	0.047533393
145	0x3d1c1309	0.03810409
146	0x3cf43f14	0.029815234
147	0xbddc5ac7	-0.10759502
148	0xbde323ac	-0.11090788
149	0xbd3f77e5	-0.0467452
150	0xbdab0abb	-0.08351656
151	0x3d627fb4	0.05529757
152	0xbdd3f220	-0.10348916
153	0xbcbc1569	-0.022959428
154	0x3cea2b6d	0.02858516
155	0xbce900df	-0.028442798
156	0x3ced2d0e	0.028952148
157	0x3c3c925a	0.011509502
158	0xbd1a4dc4	-0.03767182
159	0x3dfc5970	0.12321746
160	0xbc60400b	-0.013687144
161	0x3d352bfa	0.044231392
162	0xbd9730d0	-0.07382357
163	0xbc9a9493	-0.018869674
164	0x3cdd8e2a	0.027045328
165	0x3d1b7852	0.037956543
166	0xbdad7042	-0.08468677
167	0xbd2d725e	-0.042345397
168	0xbd6ab8de	-0.05730521
169	0x3d156b29	0.03647915
170	0x3d65ef11	0.056136195
171	0xbdda20dd	-0.106507994
172	0xbdafb34e	-0.085791215
173	0xbd84fbff	-0.06493377
174	0x3c99face	0.01879635
175	0xbda50c22	-0.08058955
176	0x3d102e76	0.03520056
177	0x3d145a26	0.036218785
178	0xbdfed8ff	-0.124437325
179	0x3d20efee	0.039291315
180	0x3db9ce31	0.09072531
181	0x3d8b72af	0.068089835
182	0xbbae2be7	-0.005315292
183	0x3d1c5c76	0.038174115
184	0x3ce10670	0.02746889
185	0xbd2c5225	-0.042070527
186	0x3d633058	0.055466026
187	0x3d854509	0.06507308
188	0xbd5ffec8	-0.054686338
189	0xbbe0453a	-0.00684419
190	0x3b66b31c	0.0035201972
191	0xbd29f042	-0.041488893
192	0xbdad6514	-0.08466545
193	0x3c1536ef	0.0091073355
194	0x3c81da84	0.015851267
195	0xbd867a1c	-0.06566259
196	0xbcbae0c6	-0.022812258
197	0x3d7b659f	0.06137621
198	0xbcc41228	-0.023934439
199	0x3dca1af5	0.09868423
200	0x3cc9b82f	0.024623958
201	0xbc13502c	-0.008991282
202	0xbd68dc7b	-0.05685089
203	0x3d3df9e0	0.046380877
204	0x3dc4bdf3	0.096065424
205	0xbcd01a8f	-0.02540329
206	0x3dce3887	0.100693755
207	0x3d1358fb	0.03597353
208	0x3cc2e7ea	0.023792226
209	0xbd35ce64	-0.044386283
210	0x3c2a2ac7	0.0103861755
211	0xbc02838d	-0.007965934
212	0xbd9c99c2	-0.076465145
213	0xbdc6bd97	-0.0970413
214	0x3be5d0ea	0.00701343
215	0x3cf453b9	0.029825078
216	0xbaafde5f	-0.0013417712
217	0x3dd7c92e	0.10536419
218	0x3cbfaf2e	0.023398962
219	0x3cea122f	0.028573124
220	0x3df13a7f	0.11778735
221	0x3d44947c	0.04799317
222	0x3d999b86	0.07500367
223	0x3d5a4959	0.053292606
224	0x3d11c619	0.03558931
225	0xbd8bd357	-0.06827419
226	0xbc8d5701	-0.0172534
227	0x3a2089da	0.0006124057
228	0xbd6c6a98	-0.057718843
229	0x3d433c2c	0.047664806
230	0x3c304a0b	0.010759841
231	0xbd887e8d	-0.06664763
232	0x3d8540e1	0.06506515
233	0x3c13371c	0.008985307
234	0x3ce4f2a0	0.027947724
235	0x3d3ce084	0.046112552
236	0xbd67265f	-0.056433078
237	0x3d272f14	0.04081638
238	0xbd6bc23a	-0.057558276
239	0xba3d88ba	-0.00072301517
240	0xbd2c29eb	-0.042032164
241	0x3dcd6c53	0.10030427
242	0xbcd349bb	-0.025791993
243	0x3c58c18b	0.013229738
244	0x3c412818	0.011789344
245	0xbc719f54	-0.014747459
246	0x3d8705ce	0.06592904
247	0x3d121e72	0.035673566
248	0xbd88f00f	-0.066864125
249	0x3d9c2ef6	0.076261446
250	0x3da2b657	0.07944935
251	0x3d5f543f	0.054523703
252	0x3daba680	0.08381367
253	0x3dccc443	0.099983715
254	0xbd2f18cb	-0.042748254
255	0x3c992a17	0.018696828

conv_lstm.conv.bias f4 [40]
0	0xbd5dc944	-0.05414702
1	0x3da207d7	0.079116516
2	0x3d4e2b17	0.050334062
3	0x3dbe1208	0.09280783
4	0xbd6aa3e1	-0.057285193
5	0xbd9af671	-0.07566536
6	0xbd3e1a7a	-0.04641197
7	0x3cf3401d	0.029693658
8	0x3d088e86	0.033339046
9	0x3db2da8a	0.08733089
10	0x3b6f026b	0.0036469947
11	0x3dd78c95	0.10524861
12	0x3d9d4916	0.07679956
13	0xbd189f71	-0.03726143
14	0x3d06a863	0.03287543
15	0xbce65bd1	-0.028119953
16	0x3c327fa4	0.01089469
17	0x3dae7927	0.08519202
18	0x3d8d9453	0.06913056
19	0x3dd363aa	0.10321744
20	0x3ceb3dfe	0.028716084
21	0x3cb70674	0.022341944
22	0xbd24535c	-0.04011856
23	0xbd53f374	-0.051745847
24	0xbd825432	-0.06363715
25	0x3cdf7adc	0.027280264
26	0x3ce07d64	0.02740354
27	0xbd2bedcf	-0.04197484
28	0xbd5fb508	-0.054616004
29	0x3ce02eaf	0.02736601
30	0xbc8fbc00	-0.0175457
31	0xbcab5b73	-0.02091763
32	0xbd91e98b	-0.07124623
33	0x3cbf44cd	0.023348236
34	0xbb9e4070	-0.004829459
35	0xbdb913c0	-0.0903697
36	0x3c8bccb7	0.01706539
37	0xbd2f5c87	-0.04281285
38	0xbd85d9e2	-0.065356985
39	0x3dc09ce9	0.09404928

conv1.weight f4 [20, 10, 3, 3]
0	0x3d819f42	0.06329204
1	0xbd44ca02	-0.048044212
2	0xbd45507d	-0.048172463
3	0xbd3e1098	-0.046402544
4	0xbdc67681	-0.096905716
5	0x3cf7eb68	0.030263618
6	0x3d97fda2	0.074214235
7	0x3da3d5c5	0.07999758
8	0x3d2e32a8	0.04252878
9	0x3d314ac4	0.043284193
10	0x3d49d93e	0.049279444
11	0xbd1af8ec	-0.037835047
12	0x3cd464e6	0.025927018
13	0x3dc539ba	0.09630151
14	0xbd8584cb	-0.06519469
15	0xbd1b6af6	-0.037943803
16	0xbd6a68a2	-0.057228692
17	0x3deb4734	0.1148819
18	0xbd0dc43d	-0.034610976
19	0x3da69572	0.08133973
20	0xbcb65695	-0.022258082
21	0xbc601788	-0.013677485
22	0x3d2a1b60	0.041530013
23	0xbd854733	-0.06507721
24	0x3ce8b742	0.028407697
25	0xbd6b91be	-0.057512037
26	0x3ce59080	0.028023005
27	0xbd4ef4ef	-0.050526556
28	0xbdbbd273	-0.091709994
29	0x3ac99084	0.0015378152
30	0xbdc92c44	-0.09822896
31	0xbd00280e	-0.0312882
32	0xb91b1a68	-0.00014791789
33	0x3c258d97	0.010104558
34	0xbddbbf48	-0.107298434
35	0xbcb5fb67	-0.022214605
36	0x3dc80a10	0.09767544
37	0x3dd38783	0.10328581
38	0x3d9e0918	0.07716578
39	0xbd39defa	-0.045378663
40	0x3dabf19c	0.08395693
41	0xbd7441ec	-0.05963318
42	0xba6ddf9b	-0.00090741523
43	0x3d45c084	0.0482793
44	0xbdb97fc5	-0.09057573
45	0xbd5326c6	-0.05155065
46	0xbd9c8937	-0.07643359
47	0x3dcfa9cd	0.10139809
48	0xbd7dd8ef	-0.061974462
49	0x3d6922bf	0.056917902
50	0xbd4d5273	-0.050127458
51	0xbd3f4a42	-0.046701677
52	0x3d0d2195	0.034455854
53	0xbd19eb6c	-0.03757803
54	0xbdb77bb6	-0.08959143
55	0xbd84229d	-0.064519145
56	0x3dcaece8	0.099084675
57	0x3dbb4fab	0.09146055
58	0xbd6bd0a0	-0.057572007
59	0x3d3993e3	0.04530705
60	0x3bc8677c	0.006115852
61	0x3d42e6ac	0.047583267
62	0x3b65656d	0.0035003081
63	0xbde8d8ab	-0.11369451
64	0x3d52bef5	0.051451642
65	0x3da43b0c	0.08019075
66	0xbd34badb	-0.04412351
67	0x3c5b7a6d	0.013395888
68	0xba85f19c	-0.00102191
69	0xbd1d33f4	-0.038379624
70	0x3ce32321	0.027726712
71	0x3d64da53	0.055872273
72	0x3db5d0a7	0.08877688
73	0x3cad7978	0.021176085
74	0xbd3927e6	-0.045204066
75	0x3dbee9bf	0.09321927
76	0x3c575a0f	0.01314403
77	0xbd5699d8	-0.05239281
78	0x3df48da5	0.11941079
79	0x3c295886	0.010336047
80	0x3d42a8a0	0.047524095
81	0xbd62d5c5	-0.055379648
82	0x3c7988e2	0.015230389
83	0xbd00ccee	-0.031445436
84	0xbda5cbc4	-0.08095506
85	0x3be85852	0.0070906067
86	0xbd8472c5	-0.06467203
87	0x3d11b204	0.03557016
88	0xbdd2b51d	-0.10288451
89	0x3dbca143	0.09210446
90	0x3db1fe04	0.08691028
91	0x3d9b96c0	0.07597113
92	0x3b062c32	0.002047312
93	0xbd3bb4fc	-0.045826897
94	0x3db6b702	0.08921625
95	0xbc18641c	-0.009301212
96	0x3da1bf70	0.07897842
97	0xbdbd48f9	-0.09242434
98	0xbdaa9565	-0.08329276
99	0xbd828989	-0.06373889
100	0x3d0b1629	0.03395668
101	0x3aa3ffd0	0.0012512151
102	0xbd8309df	-0.06398367
103	0x3cfb8e94	0.030707635
104	0x3d6db0d3	0.05802996
105	0x3dae2e4f	0.085049264
106	0x3b98b3aa	0.0046600895
107	0x3dad2c0f	0.08455669
108	0x3da12e5e	0.07870172
109	0x3c43a909	0.011942157
110	0xbdcf9b2a	-0.10137017
111	0x3d1b6075	0.037933785
112	0x3c4bbc37	0.012435011
113	0xbddfd46f	-0.1092919
114	0xbd2b99ee	-0.041894846
115	0x3c2a152c	0.010381024
116	0xbcf5371d	-0.029933507
117	0x3d61fdbf	0.05517363
118	0xbda2b747	-0.07945114
119	0x3d0504cc	0.032475278
120	0xbd417584	-0.047231212
121	0xbd1c0b1a	-0.038096525
122	0x3d9ad52b	0.0756019
123	0x3b9ce189	0.004787628
124	0xbc780062	-0.01513681
125	0x3d4836d3	0.04888041
126	0x3ba0e668	0.004910279
127	0x3d8784d2	0.0661713
128	0x3da27695	0.07932774
129	0x3db184d0	0.0866791
130	0x3aacb905	0.0013177699
131	0xbbf9e6bb	-0.007626382
132	0xbd5e6b33	-0.054301452
133	0x3d0afddb	0.0339335
134	0x3dbd5770	0.09245193
135	0xbcd7149b	-0.026254943
136	0x3d1abe0a	0.03777889
137	0x3d4cfd51	0.05004627
138	0xbd091dcc	-0.033475682
139	0x3d977cfd	0.073968865
140	0x3bbdf8ce	0.005797482
141	0x3d85213c	0.065004796
142	0x3d19681c	0.037452802
143	0xbca181e0	-0.01971525
144	0x3d7b2413	0.0613137
145	0xbd685751	-0.056723896
146	0xb918c771	-0.00014570147
147	0xbd6345a5	-0.05548634
148	0x3cb7109a	0.022346783
149	0xbc5ec073	-0.013595688
150	0xbd36cc7c	-0.044628605
151	0xbd142349	-0.036166463
152	0xbda88507	-0.08228498
153	0x3c804c28	0.015661314
154	0x3d8e2c10	0.06941998
155	0x3da81c79	0.08208556
156	0xbc27ad46	-0.010234183
157	0x3d1b81d4	0.03796561
158	0xbd4af621	-0.049551133
159	0x3dc71db4	0.09722462
160	0x3dda9379	0.106726594
161	0xbdd4524f	-0.103672616
162	0xbdc57e86	-0.09643273
163	0xbc19e441	-0.009392799
164	0x3d982644	0.074291736
165	0xbcddb87e	-0.027065512
166	0x3dade129	0.084902115
167	0x3d1e01d9	0.03857598
168	0x3d881b1a	0.06645794
169	0xbdf08f5a	-0.11746092
170	0x3da56c70	0.080773234
171	0x3d32bad2	0.043635197
172	0xbc5d356d	-0.013501507
173	0xbc8ffba3	-0.017576044
174	0x3dc6e705	0.09712032
175	0xbc39901a	-0.01132586
176	0xbdb4a586	-0.088206336
177	0x3d3890c5	0.045059938
178	0xbda1355d	-0.07871506
179	0x3deea030	0.11651647
180	0xbd885a89	-0.06657893
181	0x3c8e98f7	0.017406924
182	0xbd0d9103	-0.034562122
183	0xbd5df8bf	-0.0541923
184	0xbd1e0430	-0.038578212
185	0xbdd4724b	-0.10373362
186	0xbcd042c6	-0.025422465
187	0xbd5dd622	-0.05415929
188	0x3ce24d21	0.027624669
189	0x3dd0c515	0.101938404
190	0x3d5313b0	0.051532447
191	0xbd8db045	-0.06918386
192	0x3dd695e8	0.10477811
193	0xbd8a0af0	-0.067403674
194	0x3df56aed	0.11983285
195	0xbdb47224	-0.08810833
196	0xbd858b27	-0.06520682
197	0x3de27996	0.11058347
198	0xbd40f4c3	-0.047108423
199	0x3d52e073	0.051483583
200	0x3c5fb924	0.013654981
201	0x3da4fc1a	0.08055897
202	0x3d0458b0	0.03231114
203	0x3b81320f	0.003942735
204	0xbbeb8211	-0.007187136
205	0xbdb2a628	-0.08723098
206	0xbd0d2d80	-0.03446722
207	0xbb365596	-0.002782201
208	0xbba71a4f	-0.005099572
209	0x3d7def0e	0.06199556
210	0xbdeb3355	-0.114844
211	0xbd569cc6	-0.052395605
212	0x3da4db0a	0.08049591
213	0xbc8934b0	-0.016748756
214	0xbde0f34e	-0.10983907
215	0xbdf260ea	-0.11834891
216	0xbda40cd1	-0.08010257
217	0xbdb031e0	-0.08603263
218	0xbcc42dc8	-0.023947611
219	0xbc507541	-0.012723268
220	0x3d62e986	0.055398487
221	0xbdcade7f	-0.09905719
222	0xba635c6a	-0.00086731336
223	0x3b5301fb	0.0032197225
224	0x3d6846b9	0.05670807
225	0x3d4076c1	0.046988253
226	0x3dadf882	0.08494665
227	0x3d576db4	0.052594855
228	0x3dc6b5ca	0.09702642
229	0xbd7d4f1e	-0.06184303
230	0xbda2673a	-0.07929845
231	0x3d4a8cd9	0.04945073
232	0x3d84b7d3	0.06480374
233	0xbdb26494	-0.0871059
234	0x3dac8245	0.084232844
235	0x3d94e749	0.07270677
236	0xbd58ce9c	-0.052931413
237	0xbd858ccf	-0.06520998
238	0x3da220c6	0.07916407
239	0xbd0de87f	-0.034645554
240	0x3d9ebb79	0.07750601
241	0x3da37b8d	0.0798255
242	0xbd8372e7	-0.064184
243	0x3dc5abd3	0.096519135
244	0xbd999b92	-0.07500376
245	0x3db28c92	0.08718218
246	0x3cdbed0b	0.02684643
247	0xbdca9676	-0.098919794
248	0xbd677b73	-0.056514215
249	0xbdde267d	-0.10847185
250	0xbd89523c	-0.06705138
251	0xbd946782	-0.07246305
252	0x3d3f3424	0.046680585
253	0xbcc57848	-0.024105206
254	0x3b87d926	0.004145759
255	0xbd20f60b	-0.039297145

conv1.bias f4 [20]
0	0x3d31ef13	0.04344089
1	0x3d8bb9b5	0.0682253
2	0xbcf71484	-0.03016115
3	0xbd4300db	-0.047608238
4	0x3d738441	0.0594523
5	0xbc0621fc	-0.008186813
6	0x3de57ed2	0.1120583
7	0xbb964f08	-0.004587058
8	0xbc11f45e	-0.008908359
9	0x3d4e1e74	0.05032201
10	0xbd788c77	-0.060680833
11	0x3d71c552	0.05902607
12	0x3dda3aef	0.10655772
13	0x3cdfe2b1	0.027329775
14	0xbd8b1aab	-0.06792196
15	0x3dd06d52	0.10177101
16	0xbcc7aca1	-0.024374308
17	0x3d5bfc3b	0.053707343
18	0xbc8a1aa0	-0.016858399
19	0xbc141cc1	-0.009040059

conv2.weight f4 [40, 20, 3, 3]
0	0x3d8f10dd	0.06985638
1	0xbd349cdd	-0.04409491
2	0xbd299a73	-0.04140706
3	0x3ce82101	0.02833605
4	0x3d6c6f7c	0.057723507
5	0x3d48a4c7	0.04898527
6	0xbd535f1a	-0.051604368
7	0xbd8c8811	-0.0686189
8	0xbd8df921	-0.06932283
9	0x3d3c4e31	0.045973007
10	0xbd5cd867	-0.053917315
11	0xbcb36722	-0.021899763
12	0x3c16166f	0.009160622
13	0xbd84e963	-0.064898275
14	0xbd136591	-0.035985533
15	0xbd3eca13	-0.04657943
16	0x3c6eb140	0.014568627
17	0x3d04cdad	0.03242271
18	0x3db502a1	0.08838392
19	0x3d8ad09b	0.067780696
20	0x3d9182e8	0.071050465
21	0x3d76df7f	0.060271736
22	0x3d96ed4f	0.07369482
23	0x3d4a01d8	0.049318165
24	0x3d414d65	0.04719295
25	0x3d5d0bb0	0.053966224
26	0xbd1a3663	-0.037649523
27	0x3d87b06e	0.06625448
28	0xbd1297cd	-0.0357893
29	0x3c99f408	0.018793121
30	0xbcc4d074	-0.02402518
31	0x3d02b5e0	0.03191173
32	0x3d48e874	0.04904981
33	0xbccaf756	-0.024776142
34	0x3d33e945	0.043923635
35	0x3cd6f4ff	0.02623987
36	0xbbc90461	-0.006134555
37	0x3bba113a	0.005678323
38	0xbdafa145	-0.085756816
39	0xbc3e1dd1	-0.0116037885
40	0xbd67dcda	-0.056607105
41	0xbd0c22a8	-0.03421274
42	0x3d6a4c17	0.05720147
43	0xbc9a57d5	-0.01884071
44	0x3bebaa68	0.007191945
45	0xbd09baa0	-0.033625245
46	0xbd502bcc	-0.050823018
47	0xbd45bac7	-0.048273828
48	0xbd5681d0	-0.052369893
49	0xbbb0d249	-0.0053961617
50	0x3c30a23a	0.010780865
51	0xbd47c8fb	-0.048775654
52	0xbbbba16c	-0.00572603
53	0x3d8612b5	0.06546537
54	0xbd8b0374	-0.06787768
55	0x3d490acf	0.049082574
56	0x3c9a9c4f	0.018873362
57	0x3d50b031	0.05094928
58	0x3d76bd95	0.060239393
59	0x3bf6c772	0.0075311
60	0xbd467d70	-0.04845947
61	0xbd966ae1	-0.07344604
62	0xbd3b87f8	-0.045783967
63	0xbb4426c8	-0.0029930342
64	0x3d8570f1	0.065156825
65	0x3d7f0569	0.06226102
66	0x3c70de76	0.014701476
67	0x3cebb0f5	0.028770903
68	0x3db002d8	0.085942924
69	0x3da01d2f	0.07818066
70	0xbb9b6fa2	-0.0047435323
71	0xbce53cb3	-0.027983045
72	0xbd5569f4	-0.052102998
73	0x3c76599e	0.015036015
74	0x3ca5ae1c	0.020224623
75	0xbcaa0a05	-0.02075673
76	0xbd6fd86d	-0.05855601
77	0xbc96e139	-0.018417941
78	0xbd1bf62e	-0.038076572
79	0xbd413a88	-0.04717496
80	0x3c1417ad	0.009038848
81	0x3c886d63	0.016653722
82	0xbdcc4991	-0.09974969
83	0xbc39c5ea	-0.01133869
84	0xbd72e291	-0.0592981
85	0x3b5b2db7	0.0033443996
86	0xbdb2f545	-0.08738188
87	0xbd923f2e	-0.07140957
88	0xbdcd2288	-0.10016352
89	0xbdbe34fa	-0.09287448
90	0xbd39580a	-0.045249976
91	0xbd7c62da	-0.06161771
92	0x3cb58d75	0.022162179
93	0xbd4534a4	-0.048145905
94	0x3d834055	0.06408755
95	0xbd4798e7	-0.048729803
96	0x3ca3dc6a	0.020002563
97	0x3d82c4a2	0.06385161
98	0xbd18330c	-0.037158057
99	0xbd4aef5b	-0.049544673
100	0x3d2ab8c2	0.041680105
101	0x3d959bc6	0.07305102
102	0x3d75afcc	0.059982106
103	0xbd46296b	-0.048379343
104	0x3d889639	0.06669278
105	0x3cddf0c9	0.027092354
106	0xbc6ea0f8	-0.014564745
107	0x3c0435af	0.00806944
108	0xbd9b3d3e	-0.075800404
109	0xbc6a9e8c	-0.014320027
110	0xbd4e77ea	-0.050407328
111	0xbd38d6bc	-0.04512666
112	0xbda30537	-0.07959979
113	0x3c29b22a	0.010357419
114	0x3d267ff3	0.040649366
115	0xbd90df59	-0.0707385
116	0xbd053884	-0.0325246
117	0x3da0356f	0.07822692
118	0x3d6bd13b	0.057572585
119	0x3c9f4ba1	0.019445242
120	0xbcd909d0	-0.026493937
121	0xbcd2f429	-0.02575119
122	0x3c4d62ff	0.01253581
123	0xbd205672	-0.03914494
124	0xbc9b8a22	-0.018986765
125	0xbcb07681	-0.021540882
126	0x3d6dc2af	0.058046993
127	0x3d5bc077	0.053650346
128	0xbd3eae24	-0.046552792
129	0x3cc48608	0.023989692
130	0x3d7df506	0.06200125
131	0x3d755ac0	0.059901
132	0xbb28a198	-0.0025731083
133	0x3da5aa39	0.08089108
134	0x3d951dbd	0.07281063
135	0x3ca5ffa7	0.020263506
136	0x3d2c6938	0.042092532
137	0x3d4281c9	0.047487054
138	0xbca2a8fb	-0.019855967
139	0x3ca66115	0.020309964
140	0xbd8e339d	-0.06943438
141	0xbcc23482	-0.023706678
142	0xbd394227	-0.045229103
143	0xbcff158c	-0.031138204
144	0xbd0238c6	-0.031792425
145	0x3b4dea8e	0.0031420323
146	0x3d84cda9	0.06484539
147	0xbd3af0a6	-0.045639656
148	0xbd0ed893	-0.03487451
149	0x3c4bcb1e	0.012438564
150	0x3bc4c66e	0.0060051
151	0xbd002b38	-0.031291217
152	0xbd3e1cdb	-0.046414237
153	0xbd90cdbb	-0.0707049
154	0xbace891e	-0.0015757417
155	0xbd2cc04a	-0.04217557
156	0xbd9c0710	-0.076185346
157	0xbd803eaa	-0.06261952
158	0x3d5591f4	0.052141145
159	0x3cbfdeb8	0.02342163
160	0xbd48694f	-0.048928555
161	0xbd941b24	-0.07231739
162	0x3d1e3cf7	0.03863236
163	0xbd8c601b	-0.06854268
164	0xbd04bf7a	-0.03240917
165	0x3d79ed93	0.061017584
166	0x3d1e4aff	0.03864574
167	0xbd3e3169	-0.04643384
168	0xbc9eb7b9	-0.019374715
169	0x3d9236f1	0.071393855
170	0x3b7ef48d	0.0038903088
171	0x3bbc67f3	0.0057496964
172	0xbd756fa4	-0.059920922
173	0xbd3e875f	-0.04651582
174	0x3d91f150	0.07126105
175	0x3d3e0c68	0.04639855
176	0x3d883f4b	0.06652697
177	0xbd20b0f4	-0.039231256
178	0xbd85b8f3	-0.06529417
179	0xbc7ccfc9	-0.015430399
180	0xbd479039	-0.048721526
181	0xbd6b824d	-0.05749731
182	0xbd51d376	-0.051227055
183	0xbcd2293d	-0.02565443
184	0x3cf7a713	0.030231034
185	0xbc064b40	-0.008196652
186	0xbcf742c8	-0.030183211
187	0x3c7128ca	0.0147191975
188	0x3d029864	0.031883612
189	0xbd847729	-0.064680405
190	0xbc239d8b	-0.009986292
191	0xbd605c70	-0.054775655
192	0xbc80a45e	-0.015703376
193	0x3d2963bf	0.04135489
194	0x3bf1c8c2	0.0073786685
195	0xbd51d8d1	-0.051232163
196	0xbbd29084	-0.006425919
197	0x3c2e68d8	0.010645114
198	0x3c5ff99c	0.013670351
199	0x3cedbed6	0.029021662
200	0x3cbb0d51	0.022833498
201	0xb99cbfbd	-0.00029897495
202	0xbcb3dd90	-0.021956235
203	0xbd4bedea	-0.04978744
204	0xbd60d2a2	-0.054888375
205	0xbd55b4e3	-0.05217446
206	0xbd75ae33	-0.059980582
207	0x3b94896e	0.0045329845
208	0xbcd7c452	-0.02633873
209	0x3d6caacb	0.05778007
210	0xbcfad170	-0.030617446
211	0x3c93e241	0.018052222
212	0x3d3f5475	0.046711404
213	0x3d7fb98c	0.06243281
214	0x3c00aee9	0.007854202
215	0x3cfb56d1	0.030681046
216	0x3d4d7ffe	0.05017089
217	0xbce322ba	-0.02772652
218	0x3d59c567	0.053166773
219	0x3c06cb31	0.008227156
220	0x3d8fccd1	0.070214875
221	0x3d874687	0.06605249
222	0x3d855073	0.06509485
223	0x3ceb4923	0.028721398
224	0x3cb7e1a2	0.022446457
225	0xbd3d0872	-0.046150632
226	0x3d994a5f	0.07484888
227	0x3d94d65f	0.072674505
228	0xbc1f8279	-0.009735697
229	0xbb2120ec	-0.0024586273
230	0x3d6b37c0	0.057426214
231	0xbd41c217	-0.04730424
232	0x3c8a94b2	0.016916607
233	0xbcaf0988	-0.02136685
234	0x3d4eab8e	0.050456576
235	0x3d23e6e2	0.04001511
236	0x3cb9f916	0.022701781
237	0x3d66f376	0.056384526
238	0xbab5a5a9	-0.0013858575
239	0x3d9ba4a8	0.07599765
240	0xbd4cd313	-0.050005984
241	0xbd6e4cf9	-0.058178876
242	0xbd0df5ef	-0.03465837
243	0xbdb527c6	-0.08845477
244	0xbc434441	-0.0119181285
245	0xbcfe57fe	-0.031047817
246	0x3c6c766a	0.014432529
247	0xbd8997b6	-0.0671839
248	0xbd5047ed	-0.050849844
249	0xbc4c7363	-0.012478682
250	0xbd964713	-0.07337775
251	0xbc3506b1	-0.011048959
252	0xbd1b5918	-0.037926763
253	0xbc9426e4	-0.01808495
254	0xbd03bd8e	-0.032163195
255	0x3d89cd44	0.067286044

conv2.bias f4 [40]
0	0x3cbaffe1	0.02282709
1	0x3d79cbaa	0.060985245
2	0x3d4a41f6	0.04937931
3	0x3d394bb3	0.045238208
4	0xbcfca847	-0.03084196
5	0x3c8a2237	0.016862018
6	0xbc964dde	-0.018347677
7	0x3da0c3ff	0.07849883
8	0x3d323d89	0.043515716
9	0x3cedf277	0.02904628
10	0xbd819386	-0.06326966
11	0xbd7c1317	-0.061541643
12	0xbd25f6a9	-0.040518437
13	0xbc32ea7b	-0.010920162
14	0xbcd0bf65	-0.025481889
15	0x3d834060	0.06408763
16	0xbd650acd	-0.055918504
17	0xbc9fc757	-0.019504232
18	0xbd8a8b4f	-0.06764852
19	0xbcf0faf3	-0.029416537
20	0x3c7b6247	0.015343255
21	0xbd5c9b22	-0.053858884
22	0xbd51cc64	-0.051220313
23	0xbcc43dc2	-0.02395523
24	0xbce24aa7	-0.027623488
25	0x3cc18d99	0.02362709
26	0xbd5d8e44	-0.054090753
27	0xbd211e28	-0.0393354
28	0xbac4106d	-0.0014958509
29	0xbd07751c	-0.03307067
30	0xbce4dfb7	-0.027938707
31	0xbd2b740a	-0.04185871
32	0x3b98fabf	0.004668563
33	0xbd066bef	-0.032817777
34	0xbbea960e	-0.007159001
35	0xbcc483d9	-0.023988651
36	0x3cff9f00	0.031203747
37	0x3d83e58a	0.064402655
38	0x3cab8fe3	0.020942634
39	0x3d7c7231	0.06163234

fc1.weight f4 [1, 6760]
0	0x3b87d6ef	0.004145495
1	0x3c2c2799	0.010507488
2	0x3c008f93	0.007846731
3	0x3c64c170	0.013962135
4	0x3be19c61	0.006885097
5	0x3cb29eec	0.021804295
6	0x3cf3ed82	0.029776338
7	0x3ce4c674	0.027926661
8	0x3c900a1d	0.017582947
9	0x3c08f87b	0.008360024
10	0x3ccbbeaf	0.024871198
11	0x3ca38102	0.019958977
12	0x3c6d0e81	0.01446879
13	0x3ca3bdc6	0.019987952
14	0x3cb7b7b1	0.022426458
15	0x3ca6ca26	0.020360064
16	0x3cec63c8	0.028856173
17	0x3cbe1460	0.023203075
18	0x3cfae509	0.03062679
19	0x3d0dcf17	0.034621324
20	0x3cbcadcb	0.02303209
21	0x3c50d738	0.012746625
22	0x3c806961	0.015675249
23	0x3c30e9a2	0.01079789
24	0x3cb4aa68	0.022053912
25	0x3c974b2e	0.018468466
26	0x3c019755	0.0079096155
27	0x3ca90e67	0.02063675
28	0x3bc0240f	0.0058636735
29	0x3cf0692a	0.029347021
30	0x3c99ddf2	0.01878259
31	0x3cf5b021	0.029991211
32	0x3c55d000	0.013050079
33	0x3cf795b3	0.03022275
34	0x3ce526d1	0.02797261
35	0x3c063df0	0.008193478
36	0x3abdcfcf	0.0014481487
37	0xbaf71a98	-0.001885253
38	0x3cb731ad	0.022362554
39	0x3be2a9c4	0.0069172103
40	0x3c9288fc	0.017887585
41	0x3c00b88c	0.007856499
42	0x3c7ebb7f	0.015547632
43	0x3b8a655d	0.004223509
44	0x3ce2a460	0.02766627
45	0x3c80828b	0.015687248
46	0x3ccbdd76	0.024885874
47	0x3c74f182	0.014950158
48	0x3c8ea1f3	0.017411208
49	0x3c98c5e1	0.018649044
50	0x3c8a6b2c	0.016896807
51	0x3c9793ce	0.018503096
52	0x3a6fd585	0.00091489434
53	0xbb902b45	-0.0043996894
54	0x3ab4bfbc	0.0013790051
55	0x3c2708d7	0.010194979
56	0x3cf57206	0.029961597
57	0x3c14cde2	0.009082289
58	0x3c42c0a8	0.011886753
59	0x3cd2ad43	0.025717383
60	0x3bab4691	0.005226918
61	0x3ca357d7	0.019939346
62	0x3c3e509f	0.011615901
63	0x3c273636	0.010205796
64	0x3c1928fc	0.00934815
65	0x3c04d062	0.008106323
66	0xbb9e6691	-0.004834004
67	0xbb94d3bc	-0.0045418423
68	0x3bf1ce70	0.0073793456
69	0x3c79a2f5	0.015236606
70	0x3c6b3968	0.014356948
71	0x3c2baf95	0.010478874
72	0x3c333979	0.0109389955
73	0x3c31829f	0.010834365
74	0x3c1eb940	0.009687722
75	0x3c5b1167	0.013370848
76	0x3c9e6163	0.019333547
77	0x3cad5ebd	0.021163339
78	0x3c4ba3fe	0.0124292355
79	0x3c13efe8	0.009029366
80	0x3c83e14e	0.016098645
81	0x3b9a72fa	0.0047134133
82	0x3ca497b9	0.020091878
83	0xb9a837e3	-0.00032085096
84	0x3bbb3e92	0.005714246
85	0x3c25e4f1	0.010125385
86	0x3c87b3a7	0.016565157
87	0x3ca43bf5	0.020048121
88	0x3cad107b	0.021126023
89	0x3ce1b150	0.02755037
90	0x3c4e8286	0.012604361
91	0x3c1031f1	0.008800969
92	0x3c1bc1ab	0.009506623
93	0xbac8c3df	-0.0015317163
94	0x3c30eae9	0.010798194
95	0x3c7cde8a	0.015433917
96	0x3bbb5a59	0.0057175574
97	0xba4aa35d	-0.00077300315
98	0x3c8c7942	0.017147664
99	0xbba7c57d	-0.005119978
100	0x3c072aa6	0.008249914
101	0x3c8397c0	0.016063571
102	0x3ce111a3	0.02747423
103	0x3cb07450	0.021539837
104	0xbb4704a9	-0.0030367768
105	0xbb6d8802	-0.0036244397
106	0x3b0bba8c	0.0021320907
107	0x3b897f65	0.004196095
108	0x3be2fdca	0.0069272267
109	0x3c7a5027	0.015277899
110	0xbb5dfeb2	-0.0033873734
111	0xbc46b9ef	-0.012129291
112	0xbc395ecf	-0.011314108
113	0x3b9fa06b	0.0048714182
114	0x3bc38748	0.0059670545
115	0x3c6e42b9	0.014542275
116	0x3c259eef	0.0101086935
117	0x3ac928d2	0.0015347248
118	0x3aaa7e52	0.0013007617
119	0xbbbb8b91	-0.0057234247
120	0x3c472e10	0.012156978
121	0xbb43a9be	-0.0029855813
122	0x3c4dc83d	0.012559948
123	0x3ba92c96	0.0051627858
124	0x3b82202c	0.0039711203
125	0x3b604afb	0.003422438
126	0x3c22be49	0.009933063
127	0xbbff0877	-0.0077829915
128	0x3c69ddc0	0.014274061
129	0xbae1ca66	-0.0017226457
130	0x3ba9e4bb	0.0051847375
131	0xbb16b2f3	-0.0022994846
132	0x3bf54d70	0.007486038
133	0xbbaac968	-0.005211998
134	0x3c817854	0.015804447
135	0xbbf70e8a	-0.007539575
136	0x3c77ec76	0.01513206
137	0xbab0bbec	-0.001348374
138	0xb85ab79d	-5.2146253e-05
139	0xbb28dd98	-0.0025766846
140	0x3c37f014	0.011226673
141	0x3c676043	0.014122072
142	0x3b252c9e	0.0025203596
143	0x3ca4df4b	0.020126006
144	0x3b6a4f97	0.0035753006
145	0x3c3ffeb3	0.01171844
146	0x3c2d804f	0.010589673
147	0x3a1cae8d	0.0005976938
148	0x3afc66bf	0.0019256695
149	0xbc20f7f5	-0.009824743
150	0xbb8296d8	-0.003985267
151	0xbba5edf3	-0.005063766
152	0xbb10c5e4	-0.0022090608
153	0x3c91184a	0.017711777
154	0x3c9845fc	0.018588059
155	0x3c603d78	0.01368653
156	0x3c1b7b62	0.009489866
157	0x3a9ce622	0.001197044
158	0x3cab577f	0.020915745
159	0x3b715599	0.0036824702
160	0x3c37cc8a	0.0112181995
161	0xba587fa4	-0.0008258766
162	0xba385e56	-0.00070331
163	0xbbab2a28	-0.0052235313
164	0xbacb7e95	-0.0015525395
165	0xbb073716	-0.00206322
166	0xba9e4d15	-0.0012077416
167	0x3c6eb3bd	0.01456922
168	0x3b18ae2e	0.0023297179
169	0x3b9b98e9	0.004748453
170	0xbc77cbce	-0.015124274
171	0x3b7fb8e1	0.0039020109
172	0xbc773ecc	-0.015090656
173	0xbb91d324	-0.0044502188
174	0xbc5e56dd	-0.0135705145
175	0xbc254210	-0.010086551
176	0x3b12a7c9	0.002237784
177	0xbb2ba87f	-0.002619296
178	0xbbe16539	-0.0068785218
179	0xbc219b8a	-0.009863744
180	0x3a670367	0.00088124577
181	0xbc8febc3	-0.017568475
182	0x3baef4bb	0.0053392327
183	0xbbb2e13b	-0.0054589785
184	0xbc83df9f	-0.016097842
185	0x3b8da9dd	0.004323228
186	0xbc256f73	-0.010097372
187	0xbc625106	-0.013813263
188	0x3b1f1782	0.0024275486
189	0xba8cd65d	-0.0010745038
190	0xbc6cac17	-0.014445326
191	0x3aa52cbb	0.0012601832
192	0x3b92cf42	0.0044802735
193	0x39b9ebea	0.0003546172
194	0x3ae516a2	0.0017478059
195	0xbc2a8daf	-0.010409757
196	0xbc3084be	-0.010773836
197	0xbc25f0fe	-0.010128258
198	0xbc6f5e96	-0.014609953
199	0xb9f39489	-0.0004645924
200	0x3b7074ab	0.0036690633
201	0xbc046ab4	-0.008082081
202	0x3b3ba000	0.0028629303
203	0x39b139ba	0.0003380308
204	0x3b453a00	0.0030094385
205	0x3913b362	0.00014085838
206	0x3b734e28	0.0037125442
207	0xbb6e214f	-0.0036335771
208	0xbc64f218	-0.013973735
209	0x3b0125b6	0.0019706315
210	0xbc81a5c8	-0.015826121
211	0x3b2cfa53	0.0026394322
212	0xbc0c4cbc	-0.008563217
213	0x3b3e3a95	0.0029026617
214	0xbc47e363	-0.012200209
215	0xbc387d2a	-0.01126031
216	0xbc8eb021	-0.01741797
217	0xbbd404f9	-0.0064703193
218	0xbc6de240	-0.014519274
219	0xbb010ae1	-0.0019690322
220	0xbc924d37	-0.017859085
221	0xbc8b9c70	-0.017042369
222	0x3aedd20c	0.0018144264
223	0xbbfbfc0d	-0.007689959
224	0x3b31d1fc	0.0027133217
225	0xbc0ec645	-0.008714263
226	0xbc44359c	-0.011975672
227	0xbc9ae21f	-0.018906651
228	0xbbc23d28	-0.0059277005
229	0xbc5e6400	-0.013573647
230	0xbc3786e1	-0.011201591
231	0x3b797513	0.0038064166
232	0xbc8036d0	-0.015651137
233	0xbc032e89	-0.0080067
234	0xbc394d63	-0.011309954
235	0xbbdb2156	-0.0066873236
236	0xbb89d59e	-0.0042063734
237	0xbc6ca8a6	-0.014444506
238	0xbc61bf6b	-0.013778548
239	0xbc5cf1cb	-0.013485382
240	0xb9c1600b	-0.00036883386
241	0xbc223aa5	-0.009901677
242	0x3b6d9380	0.0036251247
243	0xbb505691	-0.003178988
244	0x3afcdf09	0.0019292544
245	0x3aeeaa90	0.001820879
246	0x3ae1670e	0.001719685
247	0x3a87d74d	0.0010363847
248	0xbbd2af65	-0.0064296
249	0x3a37e6dd	0.00070152973
250	0xbc6fc980	-0.014635444
251	0xbc6634e7	-0.014050699
252	0xbc1d303a	-0.009594018
253	0x3b9c60bb	0.0047722734
254	0x3ab86f79	0.0014071307
255	0xbc1aede2	-0.00945613
