ConvLSTM/Sequence/0.82_98_A_S.pt (torch, 84919 bytes, 7 tensors)

conv_lstm.conv.weight f4 [40, 13, 3, 3]
0	0x3d7c0e2d	0.061536957
1	0x3ceaa009	0.028640764
2	0x3b97a419	0.0046277163
3	0x3d2ea6e9	0.042639647
4	0xbae5b195	-0.0017524237
5	0x3d1ace2a	0.03779427
6	0x3c20b660	0.009809107
7	0x3dc71db0	0.09722459
8	0xbc641e0c	-0.013923179
9	0xbd3803c7	-0.044925477
10	0x3d7807f5	0.060554463
11	0xbd85d7fc	-0.065353364
12	0x3d841084	0.064484626
13	0xbd63dd85	-0.05563118
14	0x3de3c216	0.11121003
15	0x3db55c93	0.08855548
16	0x3a1869b1	0.0005814089
17	0x3da4ae93	0.0804111
18	0x3da387f4	0.079849154
19	0xbd73c634	-0.059515193
20	0xbd79b06b	-0.06095926
21	0xbd9a1033	-0.07522621
22	0xbd8273cf	-0.06369745
23	0x3d7cf3c3	0.061755907
24	0x3db80199	0.0898468
25	0xbd9c2074	-0.076233774
26	0xbd4643b9	-0.04840443
27	0xbd8c7b45	-0.06859449
28	0x3dc3b134	0.09555283
29	0x3c297773	0.01034342
30	0xbc401fa4	-0.011726294
31	0xbb90c80e	-0.0044183796
32	0xbd556bf5	-0.05210491
33	0x3c32c06a	0.010910133
34	0x3d65d9ec	0.05611603
35	0x3bab0c96	0.005220006
36	0x3d779895	0.060448248
37	0xbdb04fee	-0.086089954
38	0xbd5ba480	-0.053623676
39	0x3d5e4a4e	0.05427008
40	0x3d504eec	0.050856516
41	0xbd306ef0	-0.04307455
42	0xbd02f4f5	-0.03197189
43	0xbcef9da0	-0.029249966
44	0x3d30d379	0.043170426
45	0xbba79ae2	-0.005114899
46	0x3bc4a32e	0.006000898
47	0x3d2b6cc9	0.041851792
48	0x3d0a9160	0.033830047
49	0x3d736ce8	0.059430033
50	0xbd740ab3	-0.059580516
51	0x3d91aabf	0.07112645
52	0x3dc13a8a	0.094349936
53	0x3da9ae38	0.08285183
54	0xbdd357e5	-0.10319499
55	0xbdeb0c03	-0.114769004
56	0xbc966a80	-0.01836133
57	0x3d215f5b	0.03939758
58	0xbdbcd331	-0.09219969
59	0xbde91eb9	-0.11382813
60	0x3b5c5854	0.0033621984
61	0xbda24196	-0.07922666
62	0xbc806f9d	-0.015678221
63	0xbd558967	-0.05213299
64	0x3d3a6fdf	0.045516845
65	0xbc8128b5	-0.015766481
66	0xbcea7b02	-0.028623108
67	0x3da263b3	0.07929172
68	0xbc816fab	-0.015800318
69	0x3d9b1750	0.07572806
70	0x3d959c91	0.07305253
71	0xbc48f068	-0.012264349
72	0xbd1542c4	-0.036440626
73	0xbc5c155f	-0.01343283
74	0xbcb73c8b	-0.022367736
75	0x39e827e2	0.00044280203
76	0xbd5156da	-0.05110822
77	0xbc244932	-0.010027217
78	0xbd166db3	-0.03672571
79	0xbd0c2109	-0.034211192
80	0xbab82a8e	-0.0014050768
81	0xbc930dfe	-0.017951008
82	0xbb9285b0	-0.004471503
83	0xbd67042b	-0.05640046
84	0xbd2aca58	-0.041696876
85	0x3b81a74c	0.003956711
86	0xbdc485de	-0.09595846
87	0xbd7d286d	-0.06180613
88	0xbdd00801	-0.101577766
89	0x3d5b5512	0.053547926
90	0xbd756c49	-0.059917722
91	0x3d1db96c	0.03850691
92	0xbd7cdd71	-0.06173462
93	0x3d1ece7e	0.038771145
94	0xbd9f5e2a	-0.07781632
95	0xbbc1765f	-0.0059040035
96	0x3d2117dd	0.0393294
97	0x3a3c3def	0.00071808597
98	0xbd8ceda7	-0.06881266
99	0xbd9d9275	-0.0769395
100	0xbd0d16c1	-0.034445528
101	0xbd922010	-0.07135022
102	0x3cbdcae8	0.023168042
103	0x3ce923f8	0.028459534
104	0x3d29ac46	0.04142406
105	0xbd2c9070	-0.042129934
106	0xbdcfbd8e	-0.101435766
107	0xbdc22ae4	-0.09480837
108	0xbcd87438	-0.026422605
109	0x3d40928e	0.047014765
110	0xbe03e31a	-0.12879601
111	0x3cf47653	0.029841578
112	0xbddc5ac9	-0.107595034
113	0xbccac280	-0.024750948
114	0xbd20e744	-0.039283052
115	0xbdb9adf9	-0.09066386
116	0xbdaa3de7	-0.08312588
117	0xbbb377e6	-0.0054769395
118	0xbd7cb0c2	-0.061692007
119	0x3c56dc52	0.013114052
120	0x3dbb5bdc	0.0914838
121	0x3ce1fd4a	0.027586598
122	0x3cd80d4b	0.026373526
123	0x3d1d35bf	0.038381334
124	0x3db3c2c3	0.08777382
125	0x3dbba8b5	0.09163038
126	0xbc7c2252	-0.015389042
127	0xbd3ff975	-0.04686876
128	0xbd86002a	-0.06543
129	0x3d7a87ac	0.061164543
130	0x3da262fd	0.07929037
131	0x3cf7d307	0.030251993
132	0x3c4deab0	0.012568161
133	0xbd0952d2	-0.03352625
134	0xbd53e395	-0.05173071
135	0x3dd0803a	0.10180707
136	0x3d90214e	0.07037602
137	0x3b00a72e	0.0019630897
138	0x3c304b2e	0.010760112
139	0xbce00068	-0.027343944
140	0xbd77e259	-0.060518596
141	0x3d2fc153	0.042908978
142	0xbc6496dd	-0.013951984
143	0x3d921c41	0.07134295
144	0xbd1682f1	-0.03674597
145	0x3d5b7810	0.053581297
146	0x3d61655f	0.055028316
147	0xbb9651b1	-0.004587375
148	0x3d81fce7	0.063470654
149	0xbc07612e	-0.008262916
150	0x3dde51d0	0.10855448
151	0x3d5ca914	0.053872183
152	0x3cf7f550	0.030268341
153	0xbde009ea	-0.10939391
154	0xbd18bbff	-0.037288662
155	0xbc82f87d	-0.01598763
156	0xbddfb957	-0.10924023
157	0x3d6c805d	0.057739604
158	0x3d930d09	0.07180221
159	0x3cb235f7	0.021754248
160	0xbc4eb1c7	-0.012615628
161	0x3d14f188	0.036363155
162	0x3db5ea4a	0.08882578
163	0x3c8f8da7	0.0175236
164	0xbd1c5f9b	-0.038177114
165	0x3c0ab6c9	0.008466431
166	0x3d9c14a1	0.07621122
167	0x3bc2378d	0.0059270323
168	0xbd0e7697	-0.034781065
169	0x3d2d6e45	0.04234149
170	0xbcd630bc	-0.026146285
171	0xbd72f687	-0.059317138
172	0xbdc3f0e0	-0.09567428
173	0x3d0ed1c6	0.034868024
174	0xbd8be182	-0.068301216
175	0x3d6e09ff	0.058115
176	0x3d0be2e8	0.03415194
177	0xbde6b362	-0.11264683
178	0xbd96cd19	-0.07363338
179	0x3b86be90	0.0041120723
180	0x3c82a9db	0.015950134
181	0xbd5bb085	-0.05363514
182	0xbb1ffb5e	-0.00244113
183	0xbcd4724b	-0.025933405
184	0xbad73a03	-0.0016420487
185	0xbcb0d2f5	-0.021584967
186	0xbd504a18	-0.05085191
187	0xbccb24d0	-0.024797827
188	0xbcb19c54	-0.021680988
189	0x3c885533	0.016642189
190	0x3d48581e	0.04891216
191	0x3c95f8d0	0.01830712
192	0x3d6a98b3	0.05727453
193	0x3d991c3c	0.074760884
194	0xbc568e28	-0.013095416
195	0x3cf3301c	0.029686026
196	0x3cc81edf	0.024428783
197	0x3de60530	0.11231458
198	0x3d96155e	0.07328294
199	0xbd0a6870	-0.033791006
200	0x3d873aab	0.06602987
201	0x3c5a3a7d	0.013319609
202	0xbdc0c995	-0.09413449
203	0x3d13edc7	0.036115434
204	0x3d397d36	0.045285426
205	0x3cad4f49	0.02115597
206	0xbda8d0e4	-0.08242968
207	0x3da282c2	0.07935096
208	0xbce468a8	-0.027881935
209	0x3c813d30	0.015776247
210	0xbcffd937	-0.031231506
211	0x3d20cb61	0.039256457
212	0xbc0bacc3	-0.008525076
213	0xbb91d877	-0.0044508534
214	0xbd176e29	-0.03697029
215	0x3d8c0aa4	0.06837967
216	0xbdc41be0	-0.09575629
217	0x3b957392	0.004560896
218	0x3d3e3f2d	0.046446968
219	0xbdef9e5d	-0.11700127
220	0xbd4912dc	-0.04909025
221	0x3d829b2b	0.06377252
222	0xbd0f3210	-0.034959853
223	0xbd9af089	-0.0756541
224	0xbdcfbaba	-0.10143037
225	0xbdaafb71	-0.0834874
226	0xbdadb429	-0.084816284
227	0x3d4f3a26	0.050592564
228	0x3d53dc0b	0.05172352
229	0xbda1abb7	-0.0789408
230	0xbcec6616	-0.028857272
231	0xbd954d76	-0.07290165
232	0xbd5ca81d	-0.053871263
233	0xbd92ff30	-0.071775794
234	0x3cf5f24c	0.030022763
235	0x3d5e39f6	0.054254495
236	0x3da1925b	0.07889243
237	0xbd22b516	-0.03972348
238	0xbd6451b0	-0.055741966
239	0xbcdbe997	-0.026844783
240	0x3d39ec44	0.045391336
241	0x3d8d38de	0.06895612
242	0x3d6f1a02	0.058374412
243	0x3cc77f22	0.024352614
244	0x3d6b0714	0.057379797
245	0xbc967209	-0.018364923
246	0xbca9b4d7	-0.020716114
247	0x3d8ac0f1	0.06775082
248	0xbdb02ac7	-0.08601909
249	0x3d21085f	0.039314624
250	0xbd6c6f3b	-0.057723265
251	0x3d12db05	0.035853405
252	0xbd949d1b	-0.07256528
253	0xbb8d6164	-0.0043145884
254	0xbd5c741d	-0.05382167
255	0xbdbb54c4	-0.09147027

conv_lstm.conv.bias f4 [40]
0	0xbd71799e	-0.058953874
1	0x3a9ddaf7	0.0012043406
2	0x3d8e1782	0.069380775
3	0xbd04bddb	-0.032407623
4	0x3d93a53f	0.072092526
5	0x3c276320	0.010216504
6	0xbce50c4e	-0.027959969
7	0xbb4ff434	-0.003173125
8	0x3dadef69	0.084929295
9	0x3d48f8ba	0.04906533
10	0xbd0ac77e	-0.033881657
11	0x3d87a09d	0.066224314
12	0x3c4e7f72	0.0126036275
13	0x3c83e3b9	0.016099798
14	0xbc041cc5	-0.0080635
15	0x3dbebd60	0.09313464
16	0x3d8f12c3	0.069860004
17	0xbd8c1657	-0.068401985
18	0xbcae5d75	-0.021284798
19	0xbd2e1b5a	-0.042506553
20	0x3d9d3da4	0.07677773
21	0x3dd3f4c8	0.10349423
22	0x3da0ac35	0.07845346
23	0xbcb7cd03	-0.022436624
24	0x3c52ca71	0.012865649
25	0x3d8eaa42	0.06966068
26	0xbc008971	-0.007845269
27	0x3d2117c5	0.03932931
28	0xbc5dd632	-0.013539838
29	0x3c9c780f	0.019100217
30	0x3cf0cbe0	0.02939409
31	0xbd61dcc7	-0.05514219
32	0xb9d246ad	-0.0004010698
33	0x3c2df02f	0.010616346
34	0x3cfb6561	0.03068799
35	0xbd6a699c	-0.057229623
36	0xbdb3196b	-0.087450825
37	0x3d8507ed	0.06495652
38	0x3c592b0d	0.013254893
39	0x3da59bcb	0.08086356

conv1.weight f4 [20, 10, 3, 3]
0	0x3cdeece7	0.027212573
1	0xbcc9370c	-0.024562381
2	0xbdb89b50	-0.090139985
3	0x3daf18be	0.08549641
4	0xbd1ec4ee	-0.038762026
5	0xbd1d7c16	-0.038448416
6	0x3d997bd6	0.07494323
7	0xbdc0905f	-0.094025366
8	0x3d9f8abc	0.07790133
9	0x3bed7025	0.0072460347
10	0xbd4037ba	-0.046928145
11	0xbde41dbe	-0.11138485
12	0x3dd32afe	0.103109345
13	0xbd4313e4	-0.04762639
14	0xbde100d2	-0.109864846
15	0xbd8ff86d	-0.07029805
16	0xbcb80abe	-0.02246606
17	0x3cb65c8b	0.022260925
18	0xbd1ef0b2	-0.038803764
19	0x3d4d350a	0.05009941
20	0xbda8b1bf	-0.082370274
21	0xb9e0ffcc	-0.00042915193
22	0x3bf8cb0c	0.0075925644
23	0x3d0006eb	0.031256597
24	0x3dcb0350	0.09912741
25	0x3dcde493	0.10053363
26	0xbb88df78	-0.00417703
27	0x3d978ece	0.07400285
28	0x3d2e762a	0.04259316
29	0x3dc5d16f	0.09659087
30	0x3d5a834a	0.053347863
31	0x3dcc9eef	0.09991252
32	0xbdbfa53b	-0.09357687
33	0xbdaacf11	-0.08340276
34	0x3dc6cecf	0.09707414
35	0x3d80a706	0.06281857
36	0x3db1e941	0.08687068
37	0xbd2289d0	-0.03968221
38	0x3d7ee803	0.062232982
39	0xbde24cef	-0.1104983
40	0xbdeebf7f	-0.11657619
41	0xbdb8c841	-0.090225704
42	0xbd4ca1b1	-0.04995889
43	0xbb0b83e6	-0.0021288334
44	0x3cf9f32b	0.03051146
45	0xbd21689b	-0.0394064
46	0x3d8a700e	0.06759654
47	0x3ca695a7	0.020335032
48	0xbd1828ae	-0.03714817
49	0x3d696c5f	0.056988116
50	0x3ddb359c	0.107035846
51	0xbd57887f	-0.052620407
52	0xbdaf0bed	-0.085471965
53	0xbda70e9b	-0.08157083
54	0x3d2033f4	0.039112046
55	0xbdd7daca	-0.105397776
56	0x3db70eac	0.08938345
57	0xbbadcac5	-0.005303713
58	0xbda4ac20	-0.08040643
59	0xbdae904e	-0.08523618
60	0x3d28a025	0.04116835
61	0xbd5506aa	-0.05200831
62	0xbcc2f333	-0.023797607
63	0xbce07de8	-0.027403787
64	0x3bc60ca7	0.0060439887
65	0xbcb60d01	-0.022222998
66	0x3d03c729	0.032172356
67	0xbb2c42c8	-0.0026284922
68	0xbd8244f3	-0.06360807
69	0xbd94ce13	-0.07265868
70	0xbd1fed61	-0.03904474
71	0xbd4c3cc2	-0.04986263
72	0x3da0890e	0.07838641
73	0x3a1d66e2	0.00060044054
74	0xbc159ac8	-0.009131141
75	0xbc8ec7d4	-0.01742927
76	0x3dcb4e47	0.099270396
77	0xb906470d	-0.00012805704
78	0x3b2460b6	0.0025082058
79	0xbd35cb3e	-0.04438328
80	0xbc3eca15	-0.01164486
81	0x3da1a508	0.07892805
82	0xbdc1a537	-0.0945534
83	0x3cff171a	0.031138945
84	0x3c7f46e7	0.015580869
85	0x3d0f0654	0.034918144
86	0xbcea6a59	-0.028615164
87	0x3d0588a3	0.03260101
88	0xbdc166d2	-0.094434395
89	0xbd3146a0	-0.043280244
90	0xbcf7b46b	-0.030237397
91	0xbcca55cb	-0.024699112
92	0x3d22061f	0.03955662
93	0x3d7bb3fb	0.06145094
94	0xbd148293	-0.036257338
95	0x3d217e4a	0.03942708
96	0xbd986151	-0.07440437
97	0x3d0f5469	0.03499261
98	0xbb9af28f	-0.0047286223
99	0x3d3c4b93	0.04597051
100	0xbd5b8419	-0.053592775
101	0x3d67cdcd	0.05659275
102	0x3d8ba8d0	0.06819308
103	0x3db1dca9	0.08684666
104	0x3d34fabe	0.04418444
105	0x398d27fb	0.00026923403
106	0xbd858afd	-0.065206505
107	0x3d8f63ab	0.07001432
108	0x3d031185	0.03199913
109	0x3db26286	0.08710198
110	0xbc6aed4e	-0.014338804
111	0xbd59ded1	-0.05319101
112	0x3dc58959	0.096453376
113	0xbdbe03e9	-0.092780896
114	0xbd3c37d3	-0.045951676
115	0xbc3eb3c5	-0.01163954
116	0x3a999e16	0.0011720087
117	0x3cf211a1	0.029549422
118	0xbc8e659b	-0.017382434
119	0x3cb1ea9a	0.021718312
120	0x3d75393f	0.059869047
121	0xbc13e701	-0.009027244
122	0x3d286c10	0.04111868
123	0xbd0b46d3	-0.03400309
124	0xbd744ada	-0.059641697
125	0x3da64e4e	0.08120404
126	0xbd3c4f65	-0.045974154
127	0x3d6cfeca	0.057860173
128	0xbdd62431	-0.10456122
129	0xbd3fd43c	-0.04683326
130	0x3d9103e9	0.07080824
131	0xbb93a31f	-0.0045055295
132	0xbd0aaf86	-0.0338588
133	0xbdb5fa3c	-0.08885619
134	0x3dbff7e6	0.09373455
135	0x3da6b2d5	0.08139578
136	0x3dc83f60	0.09777713
137	0x3ccf4132	0.025299642
138	0x3cb97b57	0.02264182
139	0xbd3deeff	-0.046370503
140	0xbdcb0e01	-0.099147804
141	0x3db808dd	0.089860655
142	0xbdc4ef27	-0.09615927
143	0xbdaf0245	-0.08545355
144	0xbc2cc45b	-0.010544862
145	0x3d8d9063	0.06912305
146	0x3d14091b	0.036141496
147	0x3db2eb54	0.087362915
148	0x3d96a9a6	0.073565766
149	0xbc455605	-0.012044434
150	0xbdc80103	-0.09765818
151	0x3cbce2dd	0.023057396
152	0xbcd891e5	-0.026436755
153	0x3cfa87f2	0.030582402
154	0x3dacfab6	0.08446257
155	0xbd69d775	-0.05709024
156	0x3d3d61fd	0.046236027
157	0x3dbdb55f	0.092631094
158	0x3bb5db43	0.0055498197
159	0xbd95f24c	-0.07321605
160	0x3a6c59c2	0.00090160605
161	0x3ceaacd2	0.02864686
162	0xbdb292fb	-0.087194405
163	0x3cec17bf	0.028819917
164	0x3dd4db42	0.103933826
165	0x3b5d3a13	0.0033756539
166	0xbd3361c4	-0.04379441
167	0xbcfad23c	-0.030617826
168	0xbd6d1c39	-0.057888243
169	0x3cf34b46	0.02969898
170	0x3cc63970	0.02419731
171	0xbd0eb7d6	-0.03484329
172	0xbbb1e720	-0.0054291636
173	0x3d26e750	0.04074794
174	0xbcee3786	-0.02907921
175	0x3c07d1b8	0.008289747
176	0x3d8bc9ae	0.06825577
177	0xbc20dd57	-0.0098183965
178	0xbdace683	-0.08442404
179	0xbd96a3ff	-0.073554985
180	0x3d217bd5	0.039424736
181	0xbdbf734a	-0.093481615
182	0xbcbf6304	-0.023362644
183	0x3d90cc94	0.0707027
184	0x3dc3b033	0.09555092
185	0xbcb04932	-0.021519277
186	0xbd434f04	-0.047682777
187	0xbd6ab6cf	-0.057303246
188	0x3dcdc8bc	0.10048053
189	0xbd453edd	-0.048155654
190	0x3dc636b8	0.096784055
191	0xbd5bdb24	-0.053675786
192	0xbd0e7a2b	-0.034784477
193	0xbd322390	-0.043490946
194	0xbd4a607a	-0.049408413
195	0xbdcbc27b	-0.099492036
196	0xbdd0bf5b	-0.10192748
197	0x3a7f5046	0.00097394397
198	0x3dd1ad3f	0.10238122
199	0xbda75e23	-0.08172252
200	0x3d0300be	0.03198313
201	0x3daea262	0.08527066
202	0x3d8ca53e	0.06867455
203	0x3db7571e	0.08952163
204	0xbdd3e597	-0.10346525
205	0x3d9f08fb	0.07765385
206	0xbd89fe86	-0.067379996
207	0xbdde9252	-0.10867752
208	0x3d353c27	0.04424682
209	0xbc32a665	-0.010903929
210	0xbc2b15cc	-0.0104422085
211	0x3d64d64c	0.055868432
212	0xbcb22cf2	-0.021749947
213	0xbd25a496	-0.040440165
214	0xbcf8dc9f	-0.030378638
215	0xbd9be2c5	-0.07611612
216	0x3d8f9170	0.07010162
217	0xbd003d05	-0.031308193
218	0xbd9ba643	-0.07600071
219	0xbdb1f838	-0.08689922
220	0x3cef7755	0.029231707
221	0x3ca35ebc	0.019942634
222	0x3ca81f71	0.020522805
223	0x3d50e6a0	0.05100119
224	0x3dad285d	0.08454964
225	0x3cf11a3e	0.029431459
226	0x3d9231d6	0.07138412
227	0xbb761044	-0.0037546316
228	0x3c16f422	0.009213479
229	0x3daa5197	0.08316343
230	0xbc1f1971	-0.009710656
231	0xbca80209	-0.020508783
232	0x3dd2ec79	0.1029901
233	0xbb920733	-0.0044564246
234	0x3cd2642e	0.025682535
235	0xbd930470	-0.07178581
236	0x3db57bb2	0.08861484
237	0xbda160a1	-0.078797586
238	0x3dd81a29	0.10551865
239	0xbdaeaaec	-0.085286945
240	0x3dcf5dce	0.10125314
241	0xba5f4e09	-0.0008518403
242	0x3c232c5c	0.009959307
243	0x3dccef69	0.10006601
244	0x3db81638	0.08988613
245	0xbb877cff	-0.0041347737
246	0x3d97faf7	0.074209146
247	0x3c84a888	0.016193643
248	0xbd37e813	-0.044899058
249	0x3cf85191	0.030312331
250	0xbc0b78fb	-0.008512731
251	0x3dcea839	0.1009068
252	0xbd10b8f3	-0.03533263
253	0xbc8c7f7b	-0.017150631
254	0x3d5784d6	0.052616917
255	0xbdc1f235	-0.094700254

conv1.bias f4 [20]
0	0xbcf077af	-0.029353945
1	0xbdd7a2ea	-0.1052912
2	0xbc64cc1c	-0.013964679
3	0x3b95524b	0.004556929
4	0xbd5fcfa9	-0.0546414
5	0x3cc1f2e1	0.023675384
6	0xbddbf62d	-0.10740314
7	0x3de654b8	0.112466276
8	0x3d9ed7ec	0.077560276
9	0x3d8b7a6c	0.068104595
10	0x3da01c51	0.07817901
11	0x3d077d1d	0.0330783
12	0xbdb8ee52	-0.09029831
13	0x3d4b0b96	0.049571596
14	0xbd77ab86	-0.060466312
15	0xbd9ac499	-0.07557029
16	0x3dc5e91e	0.09663604
17	0xbd0516a1	-0.032492284
18	0xbd8650ab	-0.06558355
19	0xbd1f0fc1	-0.038833383

conv2.weight f4 [40, 20, 3, 3]
0	0xbcb94107	-0.022614015
1	0xbd4c717c	-0.049912915
2	0xbce6e375	-0.028184632
3	0x3c0bd71d	0.008535174
4	0x3d4a1540	0.04933667
5	0xbc928a8d	-0.017888332
6	0x3d6fc86b	0.058540743
7	0xbd8c17ff	-0.068405144
8	0xbd212018	-0.039337248
9	0x3ce717ea	0.028209645
10	0xbb7b3fc0	-0.0038337559
11	0x3d90a6b4	0.07063046
12	0xbcf82da0	-0.030295193
13	0xbd84e21b	-0.06488439
14	0x3ce16f38	0.027518854
15	0x3d19100c	0.03736882
16	0xbd0f85de	-0.035039775
17	0xbd8d03bb	-0.06885477
18	0x3d33b34a	0.043872155
19	0xbcda0f0c	-0.026618503
20	0x3bc677a4	0.0060567427
21	0xbd8b8545	-0.068125285
22	0xbc8a22bf	-0.016862271
23	0x3cb29f46	0.021804463
24	0xbcf24927	-0.029575897
25	0x3c77ed0a	0.015132198
26	0xbbc42b08	-0.005986575
27	0x3cc475cb	0.02398195
28	0xbcc1f160	-0.023674667
29	0x3d9142af	0.07092797
30	0xbd805d40	-0.06267786
31	0x3c8946b3	0.016757345
32	0xbd84bee5	-0.06481723
33	0x3d8b565f	0.06803583
34	0xbcfd7461	-0.030939283
35	0x3d32a4f3	0.04361434
36	0x3d68bcb4	0.056820586
37	0xbccbab4b	-0.024861952
38	0x3d53d2f6	0.05171486
39	0xbc8b48ce	-0.01700249
40	0xbd8f41e8	-0.069949925
41	0x3cf2192c	0.029553019
42	0x3b073977	0.0020633617
43	0xbd186598	-0.037206262
44	0xbcd3cd5a	-0.025854755
45	0xbba34508	-0.0049825944
46	0x3c37c76e	0.011216981
47	0xbd353655	-0.04424127
48	0x3bd4c8c7	0.006493661
49	0xbd8585be	-0.0651965
50	0x3d0a5668	0.03377381
51	0xbd6c6baa	-0.057719864
52	0xbd2731a6	-0.040818833
53	0x3d832ac0	0.06404638
54	0x3d9787c9	0.07398946
55	0x3c557056	0.013027271
56	0xbb337916	-0.0027385405
57	0x3d26ed78	0.04075381
58	0x3be0c877	0.006859835
59	0xbd936231	-0.07196463
60	0x3d2eb29a	0.042650796
61	0xbca5e2c0	-0.020249724
62	0x3b92418b	0.0044633797
63	0x3be77f7b	0.0070647574
64	0xbce21d4c	-0.02760186
65	0xbd601803	-0.0547104
66	0x3d27df94	0.040984705
67	0x3d91b53b	0.07114645
68	0xbc5166f0	-0.01278089
69	0x3cff9562	0.031199161
70	0xbd6f6b10	-0.058451712
71	0x3d8b41e0	0.06799674
72	0xbd72f51c	-0.059315786
73	0x3c921904	0.017834194
74	0x3d395a6d	0.045252252
75	0xbcb5a093	-0.022171294
76	0xbc0b063a	-0.008485371
77	0x3d4f71c5	0.05064561
78	0xbc96eb1a	-0.018422652
79	0x3d163609	0.036672626
80	0xbd1cd653	-0.038290333
81	0xbd482b75	-0.04886957
82	0xbb63767e	-0.0034708078
83	0x3d292d87	0.041303184
84	0xbcdbc851	-0.026828917
85	0x3c69293a	0.014231021
86	0xbd42c949	-0.04755524
87	0x3d90549f	0.0704739
88	0x3d01ec20	0.031719327
89	0x3d4b24f8	0.049595803
90	0xbd9124f4	-0.070871264
91	0xbd826b0e	-0.06368075
92	0xbcb733c2	-0.022363547
93	0x3c86b035	0.016441444
94	0x3d046d51	0.032330815
95	0x3cfd9764	0.030955978
96	0x3aa88ebf	0.0012859924
97	0xbc9b00b9	-0.018921243
98	0xbd85ce30	-0.06533468
99	0xbd388211	-0.045045916
100	0x3d8463d8	0.06464356
101	0xbd95e3db	-0.073188506
102	0xbd655e32	-0.055998035
103	0x3cb68178	0.022278532
104	0xbc219e87	-0.009864456
105	0x3c8affd6	0.016967695
106	0xbc872bb6	-0.016500335
107	0xbd8c6347	-0.06854873
108	0xbd96888a	-0.073502615
109	0x3d5f9434	0.054584697
110	0xbd8ae2e1	-0.06781555
111	0xbd421d9f	-0.04739153
112	0xbd32802f	-0.043579277
113	0xbc818e03	-0.015814787
114	0x3d93807a	0.07202239
115	0xbcd4a28f	-0.02595642
116	0x3b968236	0.004593159
117	0x3d1e83d6	0.038699947
118	0xbcb4962b	-0.022044262
119	0xbd6739ca	-0.056451596
120	0xbd3d231a	-0.046176054
121	0x3d6768e0	0.0564965
122	0xbd0093fc	-0.03139113
123	0xbd91422a	-0.07092698
124	0xbd0c5f3e	-0.034270518
125	0x3c3d873f	0.01156789
126	0x3d602f6f	0.054732736
127	0xbd357416	-0.04430016
128	0xbd7e29ad	-0.062051464
129	0xbc5c343e	-0.01344019
130	0x3ce4b839	0.027919875
131	0xbaae291c	-0.0013287398
132	0x3d205134	0.03913994
133	0x3d4bf319	0.049792383
134	0xbd2018bc	-0.03908609
135	0xbb1932d8	-0.0023376253
136	0xbd84077e	-0.064467415
137	0x3b8de67e	0.0043304553
138	0x3d6bd9bb	0.05758069
139	0x3d384850	0.044990838
140	0x3d0a887f	0.03382158
141	0x3cbe8f59	0.023261713
142	0x3d484a2d	0.048898865
143	0x3cd301c2	0.025757674
144	0xbca3ed93	-0.020010745
145	0x3cfabbad	0.030607069
146	0x3d86f0da	0.065889075
147	0xbd42c90e	-0.047555022
148	0x3ce46e90	0.027884752
149	0x3ba942e6	0.0051654456
150	0xbd7692ce	-0.060198598
151	0x3d7bffae	0.061523132
152	0xbbadaa1a	-0.0052998187
153	0x3cc4b648	0.0240127
154	0xbd81b7ed	-0.06333909
155	0x3ce708f3	0.02820251
156	0x3c5efb6d	0.013609749
157	0x3c868b8e	0.016423967
158	0x3be0885d	0.0068521933
159	0xbc604d25	-0.013690268
160	0x3c2e0352	0.010620909
161	0x3d96478f	0.073378675
162	0xbc5876d6	-0.013211926
163	0xbd1b95ed	-0.037984777
164	0xbc083d7b	-0.008315439
165	0x3d68e1d5	0.056855995
166	0xbc9e49f3	-0.019322371
167	0xbd96d5a9	-0.07364971
168	0xbd620fca	-0.05519084
169	0xbd832a72	-0.0640458
170	0xbd412d16	-0.047162138
171	0xbb394373	-0.0028268963
172	0x3d931fa8	0.07183772
173	0x3cc85b78	0.024457678
174	0xbca1a245	-0.019730696
175	0xbd94d81f	-0.07267784
176	0x3c765406	0.015034681
177	0xbd45e349	-0.04831246
178	0x3d7bd192	0.06147916
179	0xbd125cb6	-0.035732947
180	0xbd247477	-0.040150132
181	0xba47a392	-0.00076156214
182	0x3d737394	0.059436396
183	0x3cf8edd5	0.030386845
184	0xbc68af10	-0.014201894
185	0xbca1bd4f	-0.01974359
186	0x3b257a03	0.0025249727
187	0x3c93cd0c	0.01804211
188	0xbca8f583	-0.020624882
189	0x3ca675f1	0.02031991
190	0x3d66fe81	0.056395058
191	0x3d8b0a4a	0.06789072
192	0x3cbe10ba	0.023201335
193	0x3cd849d1	0.026402386
194	0xbc9e11e1	-0.019295635
195	0xbc26cc11	-0.010180489
196	0x3cd2cd23	0.025732582
197	0xbc3b28a4	-0.011423264
198	0xbd3205a3	-0.043462407
199	0xbd9b5a94	-0.07585636
200	0x3d5ab9b1	0.053399745
201	0xbd9a690f	-0.075395696
202	0xbd8b284c	-0.067947954
203	0xbd2645b9	-0.040593836
204	0x3d7d2ebc	0.061812147
205	0x3ca85fd0	0.0205535
206	0x3cd8277c	0.026386015
207	0x3cfeeb67	0.031118108
208	0x3d6c43a3	0.05768169
209	0xbd25beb7	-0.040465083
210	0xbd629599	-0.05531845
211	0x3d2dd4f3	0.042439412
212	0x3c7e1c4a	0.015509674
213	0xbcaa8dd6	-0.020819586
214	0xbc4cf39f	-0.012509256
215	0x3d80405d	0.06262276
216	0x3d707794	0.05870779
217	0x3d5e1980	0.054223537
218	0x3d429cb9	0.047512744
219	0x3cbe40b6	0.023224216
220	0xbd0e3a8a	-0.034723796
221	0xbc583167	-0.013195372
222	0x3bb40799	0.00549407
223	0x3d08a4e9	0.033360396
224	0xbd5c849a	-0.053837396
225	0xbadad666	-0.0016695976
226	0xbc831466	-0.016000938
227	0xbc0c1a63	-0.008551213
228	0xbcfb45f3	-0.030673003
229	0x3be76545	0.007061633
230	0xbd3bc421	-0.04584134
231	0xbd486289	-0.048922095
232	0xbc81c5ff	-0.015841482
233	0xbcdd48c6	-0.02701224
234	0x3b943d0e	0.00452388
235	0x3d8d97f9	0.06913752
236	0xbd238bd5	-0.039928276
237	0xbca20c56	-0.019781273
238	0x3b53456b	0.0032237421
239	0xbc8cbde0	-0.017180383
240	0xbd76c928	-0.06025043
241	0xbc015077	-0.0078927195
242	0x3c17a754	0.009256203
243	0x3b8f37e4	0.0043706764
244	0x3ce37a78	0.027768359
245	0x3c361e26	0.011115586
246	0xbd16d28a	-0.03682188
247	0xbd283a9b	-0.041071516
248	0xbd681662	-0.05666197
249	0xbd587ac7	-0.052851465
250	0x3d5095a1	0.050923947
251	0xbd0c7c86	-0.034298442
252	0xbc4961b1	-0.012291358
253	0x3d51a941	0.051186804
254	0x3c2b53f5	0.010457029
255	0xbcc445d8	-0.023959085

conv2.bias f4 [40]
0	0xbd2ed3c0	-0.04268241
1	0x3c76b301	0.015057326
2	0xbd91bfa9	-0.071166344
3	0xbae7fb8e	-0.001769887
4	0x3da14e76	0.07876293
5	0xbcd7cbbb	-0.026342263
6	0x3d13c355	0.036074955
7	0x3cfc6d48	0.030813828
8	0xbd70c326	-0.058779858
9	0x3c93f3f0	0.018060654
10	0x396f299a	0.00022808314
11	0xbd851878	-0.06498808
12	0x3b6c34ab	0.0036042135
13	0xbb75cc87	-0.003750594
14	0xbd3c86f2	-0.04602713
15	0x3d3048d6	0.04303821
16	0xbc7f4a91	-0.015581743
17	0xbcdac537	-0.026705367
18	0x3d92b163	0.0716274
19	0x3d8327b5	0.06404058
20	0x3c022baf	0.007944985
21	0x3c43cedf	0.011951177
22	0x3d66ad97	0.056317892
23	0x3d835775	0.064131655
24	0xbd1d3335	-0.038378913
25	0xbc896615	-0.01677231
26	0xbd2da58f	-0.042394217
27	0x3cad4640	0.021151662
28	0x3d0bf2cb	0.034167092
29	0x3d0ceb92	0.034404345
30	0x3d4e5d77	0.050382104
31	0x3da3603f	0.07977342
32	0x3d5b3cea	0.05352489
33	0x3da95ddf	0.082698576
34	0xba9fe89f	-0.0012200064
35	0xbd92502e	-0.07144199
36	0x3d4edc52	0.050503083
37	0x3d3c2f70	0.045943677
38	0x3d502712	0.05081851
39	0x3d1fb9eb	0.038995665

fc1.weight f4 [1, 6760]
0	0xbc1824c0	-0.009286106
1	0xbb809993	-0.0039245575
2	0x3c35d55f	0.011098235
3	0xbb577cb1	-0.0032880718
4	0xbad5b7d4	-0.0016305395
5	0xbbe3fe5a	-0.0069578113
6	0xbbceb77d	-0.0063084946
7	0xbc03991e	-0.008032111
8	0x3bc2da57	0.0059464383
9	0x3b68c573	0.003551808
10	0xbc187cf3	-0.009307134
11	0x3c09fde0	0.008422345
12	0x3b1b24a6	0.0023672967
13	0x3b35c29b	0.0027734402
14	0xbc362c27	-0.011118925
15	0xbbe06582	-0.006848038
16	0x3c451f81	0.012031437
17	0xbbb2c888	-0.005456034
18	0xbaa133d2	-0.0012298769
19	0x3bf97a7a	0.0076134773
20	0xbc3333d0	-0.010937646
21	0xb9bedcfc	-0.0003640427
22	0x3aea69d0	0.0017884318
23	0xbb39eaa3	-0.0028368614
24	0x3c36751c	0.0111363195
25	0x3c3f30eb	0.011669378
26	0x3b3ad59f	0.0028508676
27	0x3c448ec5	0.0119969295
28	0xbb4eca73	-0.0031553775
29	0xbc208178	-0.009796493
30	0x3ab6e52b	0.0013953795
31	0x3aa1ac6d	0.0012334712
32	0xbc2c1d8f	-0.010505094
33	0xbc1a333a	-0.009411627
34	0xbc0f7f01	-0.008758307
35	0x3b83b2c2	0.0040191123
36	0xbbb77a42	-0.005599291
37	0xbb82fb7a	-0.0039972635
38	0xbc14ca6d	-0.009081465
39	0xba0265fa	-0.0004974302
40	0xba660773	-0.0008774914
41	0xbba14918	-0.0049220435
42	0xbc28838b	-0.010285269
43	0xbc2caead	-0.010539693
44	0xbb82fa88	-0.003997151
45	0x3b78685b	0.0037903998
46	0x3a921413	0.0011144899
47	0x3c01078d	0.007875335
48	0xbb5999db	-0.0033203277
49	0x3acbce5f	0.0015549174
50	0xbc0180d2	-0.007904248
51	0xbbdb745e	-0.0066972217
52	0x3b213aa8	0.0024601612
53	0x3a649fd3	0.00087213254
54	0x39f56905	0.00046808287
55	0xbab88dbe	-0.0014080328
56	0x3c096816	0.008386632
57	0x3bb477b8	0.0055074356
58	0x3ba85939	0.0051375893
59	0xbab716f0	-0.0013968628
60	0xbc1042b1	-0.008804963
61	0xbbe2ab6e	-0.0069174087
62	0x3c2cf7b5	0.010557105
63	0x3bb16a7e	0.005414306
64	0x3a358603	0.00069245714
65	0xbc220f32	-0.009891318
66	0xbc3968ad	-0.011316461
67	0xbc3c6378	-0.011498325
68	0xbbe7c340	-0.007072836
69	0x3b5e694c	0.0033937274
70	0xbb91ba0c	-0.0044472273
71	0xba34914c	-0.0006888106
72	0xbc033fa9	-0.008010783
73	0xbb80b519	-0.0039278385
74	0x3a11c3a8	0.0005560466
75	0x3c2e65bb	0.010644372
76	0x3c0903ca	0.00836272
77	0x3bd826bd	0.006596415
78	0x3c27be8d	0.010238302
79	0xbbf5ab57	-0.007497232
80	0xbbeb90fd	-0.007188915
81	0x3b84de52	0.004054823
82	0x3bc1537b	0.005899844
83	0xbae99c8e	-0.0017823146
84	0x3bf329ab	0.0074207387
85	0xbaeff7ea	-0.0018308137
86	0x3c1e7bd2	0.009673076
87	0x3c39ee1c	0.011348274
88	0xbb877e99	-0.0041349647
89	0xbb820b98	-0.0039686672
90	0x3bd28f14	0.0064257476
91	0xbb938055	-0.0045013824
92	0xbc44489f	-0.011980205
93	0xbb895755	-0.004191319
94	0xbbe19a86	-0.0068848757
95	0xbc0b8713	-0.008516091
96	0xbbd95c5d	-0.006633325
97	0x3c3c1585	0.01147974
98	0xbabc5608	-0.0014368901
99	0x3c1cf812	0.009580629
100	0x3bf2c03a	0.007408169
101	0xba282e44	-0.00064155855
102	0x3bab121d	0.005220665
103	0xbc18a3e6	-0.00931642
104	0x3a8dc2ee	0.001081554
105	0xbc400bc1	-0.011721552
106	0xbbbc2daa	-0.0057427483
107	0xbb86bda6	-0.0041119633
108	0xbc0ea8eb	-0.008707265
109	0x3c17f3a8	0.009274401
110	0x3bbf16d1	0.0058315773
111	0x3b937fdf	0.0045013274
112	0xbb80302f	-0.003911994
113	0xbb83034d	-0.003998196
114	0xbbf50fce	-0.0074786907
115	0x3adf8ce8	0.0017055543
116	0x3b703a14	0.003665571
117	0x3aed2655	0.0018093089
118	0x3b63a85d	0.0034737804
119	0xbc09b12e	-0.008404059
120	0x3c236f03	0.009975198
121	0x3bea6a37	0.007153775
122	0xbb0d3b51	-0.0021550248
123	0xbb4437e7	-0.0029940547
124	0xbbbfff77	-0.005859311
125	0xbbf89d95	-0.0075871446
126	0xbbabefed	-0.0052471072
127	0xbc1087ce	-0.008821441
128	0x3c37fed5	0.01123019
129	0x38ef67dc	0.000114157534
130	0xbb74b4fd	-0.0037339323
131	0xbbb9bb3d	-0.0056680725
132	0xbb9cb9fb	-0.004782913
133	0x3c0e9f13	0.008704918
134	0x3c076e18	0.0082659945
135	0x3bca4db7	0.006173815
136	0x3ad2cdae	0.0016083026
137	0x3c1c2562	0.009530397
138	0xbbafe358	-0.0053676777
139	0x3bc3d669	0.0059764874
140	0x3bb7bed2	0.0056074644
141	0xbc2df285	-0.010616903
142	0xbbea6550	-0.0071531907
143	0x3bb66092	0.0055657113
144	0x3b6a7a48	0.0035778452
145	0x3c3ef757	0.01165565
146	0x3c28efe3	0.0103111
147	0x3b9261ce	0.0044672256
148	0xba78f267	-0.000949657
149	0xbc18683b	-0.009302194
150	0x3bdbd205	0.006708386
151	0x3bff5598	0.007792186
152	0x3c0fab6e	0.008768899
153	0xbb8a754a	-0.0042254077
154	0xbb0cef1b	-0.0021504823
155	0x3a7b3718	0.00095831
156	0x3b725e77	0.0036982575
157	0x3be02c3f	0.006841212
158	0xbc2bca8b	-0.010485302
159	0xbbf88fe0	-0.0075855106
160	0x3a6aa400	0.00089508295
161	0x3c25db1e	0.010123042
162	0xbb069728	-0.0020536873
163	0x3c38065f	0.011231988
164	0x3c26b80a	0.010175714
165	0x3bf6d6a3	0.007532911
166	0x3c260898	0.010133885
167	0x3bd6cb82	0.0065550217
168	0x3b318015	0.00270844
169	0xbba38cc0	-0.004991144
170	0x3b8fbf3b	0.00438681
171	0xbc22c76b	-0.00993524
172	0x3b81cf7d	0.003961502
173	0xbc0423ab	-0.0080651445
174	0xbbae360a	-0.0053165006
175	0x3c347e07	0.011016375
176	0x39cbb240	0.00038851984
177	0x3a4f578f	0.00079094706
178	0xba544511	-0.000809745
179	0x3c0ebc4b	0.008711885
180	0x3b9e1ed2	0.0048254514
181	0x3bae6c49	0.005322967
182	0x3b5806a4	0.0032962942
183	0xba5c2158	-0.00083973026
184	0xbbf4d8f7	-0.0074721533
185	0xbbb4cc5f	-0.005517527
186	0xbbef75a1	-0.0073077236
187	0xbaa53658	-0.0012604697
188	0xbc2ae98e	-0.01043166
189	0x3b8796ab	0.004137834
190	0xbbff3566	-0.007788348
191	0x3b937e40	0.004501134
192	0xbb0f4b77	-0.002186505
193	0x3b8352e4	0.004007684
194	0x3c0d0f48	0.0086096
195	0xbaa40375	-0.0012513237
196	0x3c1a1f3d	0.009406862
197	0x3c1aca0f	0.009447589
198	0x3bd68c81	0.006547511
199	0xb9658ab5	-0.00021890814
200	0xbaefcd58	-0.001829545
201	0x3b19885d	0.0023427226
202	0x3c42a86c	0.011880975
203	0x3c0c4532	0.008561419
204	0x3b71425f	0.0036813242
205	0xbbbd9f1a	-0.0057867886
206	0x3c080f87	0.008304483
207	0xbb0a918e	-0.0021143886
208	0xbb9e7a71	-0.0048363735
209	0x3c29285a	0.010324562
210	0xbbd40f99	-0.006471586
211	0x3bb264a1	0.005444125
212	0xbb27eaaa	-0.0025622048
213	0x3c0ef880	0.008726239
214	0xbbc0570f	-0.005869753
215	0xbbeec206	-0.007286313
216	0xbaaebd62	-0.0013331587
217	0x3c0d1338	0.008610539
218	0x3bd0221e	0.0063517233
219	0xbadb5ed7	-0.0016736638
220	0xbbacdbe4	-0.0052752364
221	0xbc101606	-0.008794313
222	0xbbfb66bc	-0.007672159
223	0xbb4a7f82	-0.0030898754
224	0xbc0d05a9	-0.0086073065
225	0x3a29cc47	0.0006477278
226	0x3bc1fbd9	0.005919915
227	0xbc1d2ce2	-0.00959322
228	0x3c46e06a	0.012138465
229	0x3bf0ef00	0.00735271
230	0x3a435060	0.00074506365
231	0x3c2fbbcf	0.010725929
232	0x3a4a2f94	0.0007712778
233	0x3b81c8d6	0.003960709
234	0x3b82819c	0.003982736
235	0xbb48a332	-0.003061485
236	0xbba706c3	-0.0050972416
237	0x3b890123	0.0041810437
238	0x3bbbfe92	0.0057371343
239	0x3bf252ab	0.0073951087
240	0xbbd4fab4	-0.0064996127
241	0x3bc1a091	0.0059090336
242	0xbc17a936	-0.009256652
243	0xbc08b87f	-0.008344769
244	0xbc329980	-0.010900855
245	0x3b74b52f	0.003733944
246	0x3bac11cf	0.0052511464
247	0x3ac1feb2	0.0014800637
248	0xbbd9a153	-0.006641546
249	0xbbdcf816	-0.0067434413
250	0xb8c6cb75	-9.4792726e-05
251	0x3be3f0b2	0.0069561834
252	0x3bae3d02	0.0053173313
253	0xbbbe1485	-0.005800786
254	0xbb125b01	-0.0022332075
255	0xbc3510a6	-0.011051333
