ConvLSTM/Sequence/0.82_134_A_S.pt (torch, 84929 bytes, 7 tensors)

conv_lstm.conv.weight f4 [40, 13, 3, 3]
0	0xbc0be648	-0.00853879
1	0x3d89bb26	0.06725149
2	0x3b723aa6	0.0036961227
3	0xbcffcc2a	-0.031225283
4	0x3c832da7	0.01601298
5	0xbd7cd8f9	-0.06173036
6	0x3c9e860b	0.019351026
7	0xbd947a74	-0.072499186
8	0xbd59f425	-0.05321135
9	0x3d43123a	0.047624804
10	0xbd66813e	-0.0562756
11	0x3d4a803d	0.049438704
12	0xbcbbd364	-0.022927947
13	0xbb9d2d06	-0.004796627
14	0xbd52bdb8	-0.05145046
15	0x3cc9e8fb	0.024647227
16	0xbda03806	-0.078231856
17	0x3b86ff31	0.0041197767
18	0x3d9f08d8	0.07765359
19	0xbd347e69	-0.044065867
20	0xbd930d82	-0.07180311
21	0x3cfcabeb	0.030843696
22	0xbd6a76c6	-0.057242177
23	0xbcf2c942	-0.029636983
24	0xbd77ed62	-0.06052912
25	0x3d976991	0.07393182
26	0xbc7787c8	-0.015108056
27	0xbba76c47	-0.005109343
28	0xbcf2a79e	-0.029620942
29	0x3decffce	0.11572228
30	0x3db78c3d	0.08962295
31	0x3de8d5db	0.11368915
32	0x3c5bb28e	0.01340927
33	0x3d85af03	0.065275215
34	0x3dcaeaef	0.09908091
35	0x3c164d3c	0.009173688
36	0x3d423a98	0.04741916
37	0xbcf221a6	-0.02955706
38	0xbcc8fb90	-0.024534017
39	0x3da0f96a	0.07860072
40	0x3dc1971b	0.09452649
41	0x3cef0ec7	0.029181851
42	0x3d5b7726	0.053580426
43	0xbd2cc8b1	-0.04218358
44	0x3df5171a	0.11967297
45	0x3d6b0c53	0.0573848
46	0xbc6bc711	-0.014390723
47	0x3d7349c6	0.059396528
48	0xbd408da5	-0.047010083
49	0xbd8b412d	-0.06799541
50	0xbd17dcbb	-0.03707574
51	0x3d82078a	0.06349094
52	0xbd8af430	-0.06784856
53	0x3d4dc2ab	0.050234478
54	0x3d49bb41	0.049250845
55	0x3cf111fb	0.029427519
56	0x3d5659d7	0.05233177
57	0x3c785a54	0.015158255
58	0x3c008da0	0.007846266
59	0xbc85a5a0	-0.016314328
60	0x3b66d5ae	0.0035222578
61	0x389af161	7.3882526e-05
62	0x3b1f22e1	0.0024282264
63	0xbd1576f7	-0.036490407
64	0xbdac3c16	-0.08409898
65	0xbd8cf598	-0.06882781
66	0xbdbce6be	-0.09223698
67	0xbdfd9ee7	-0.12383824
68	0xbd2fa02e	-0.04287737
69	0xbd9b9fbf	-0.075988285
70	0x3d0c871b	0.034308534
71	0xbbbb4ec1	-0.0057161753
72	0xbcfbc128	-0.030731753
73	0x3d70482f	0.05866259
74	0x3bc63d4f	0.006049789
75	0x3d407f4e	0.046996407
76	0xbdb08462	-0.08619
77	0xbd139457	-0.03603014
78	0xbc883b35	-0.016629795
79	0x3d1895b4	0.037252143
80	0xbdc33ad0	-0.09532702
81	0x3cda14d6	0.026621263
82	0xbcece502	-0.028917793
83	0xbd2166e0	-0.03940475
84	0xbd640a6a	-0.055673994
85	0xbd18435d	-0.037173618
86	0xbd85fdf8	-0.06542581
87	0xbdccdb1e	-0.10002731
88	0xbd6ab90c	-0.05730538
89	0x3b585bef	0.003301378
90	0x3ce21249	0.02759661
91	0xbc968edc	-0.018378668
92	0xbd943211	-0.07236112
93	0xbd30cf6b	-0.04316656
94	0xbd0f8b8a	-0.035045184
95	0x3cc1ecf1	0.023672553
96	0xbd31f519	-0.043446634
97	0x3cc4c2d5	0.024018684
98	0x3d4e3064	0.050339118
99	0xbdbb6652	-0.091503754
100	0x3d918896	0.0710613
101	0x3cd4b5eb	0.025965651
102	0xbc64a49e	-0.013955263
103	0xbd8dd4cf	-0.06925356
104	0xbd0a5202	-0.033769615
105	0x3c3191a9	0.010837951
106	0x3d1c2a59	0.038126323
107	0xbd586a7b	-0.052835923
108	0xbdf1d5a6	-0.11808328
109	0xbd6af0b6	-0.057358466
110	0xbd154600	-0.03644371
111	0x3d59df63	0.053191554
112	0xbd5202e4	-0.051272288
113	0xbddb069d	-0.10694621
114	0x3c1af3a9	0.009457507
115	0xbded9b1f	-0.116018526
116	0x3b189a79	0.0023285432
117	0x3dc1d7a3	0.094649576
118	0x3da7a730	0.08186185
119	0x3c812d73	0.015768742
120	0x3db866ed	0.090040065
121	0x3ddb41dc	0.10705921
122	0x3d845b0a	0.06462677
123	0xbd344433	-0.044010352
124	0x3cca13ca	0.02466764
125	0xbcb5dc87	-0.022199882
126	0x3d242573	0.040074777
127	0xbd8f2b23	-0.069906496
128	0x3da9f7ec	0.082992405
129	0xbd1ebac5	-0.038752336
130	0x3d872376	0.065985605
131	0xbcae4fe5	-0.021278331
132	0x3cb1f6f2	0.021724198
133	0xbd2b2c48	-0.041790277
134	0x3b44e90b	0.003004613
135	0xbd955af7	-0.07292741
136	0x3c48ba7c	0.012251493
137	0x3cf4c15b	0.029877355
138	0x3c84c4b1	0.016207071
139	0xbd0f29a1	-0.03495181
140	0xbcf0adcc	-0.029379748
141	0xbcb97531	-0.022638889
142	0x3d8f00cb	0.06982573
143	0xbd979969	-0.074023075
144	0x3d4fa6c2	0.050696142
145	0x3deb9497	0.11502951
146	0xbcf8d5b5	-0.030375341
147	0x3cd0cbd4	0.025487818
148	0x3ccb7d56	0.024840038
149	0x3dcf6869	0.101273365
150	0xbd18bbe1	-0.03728855
151	0x3cac8b77	0.021062596
152	0xbcd369d0	-0.025807291
153	0x3d819027	0.06326323
154	0xbd06fdac	-0.032956764
155	0x3daa61b3	0.08319416
156	0x3dec0ec2	0.11526252
157	0x3db94e28	0.0904811
158	0x3d0abe66	0.033872984
159	0xbce9e94b	-0.028553626
160	0x3dd9cd9e	0.106349215
161	0x3d7ff8cc	0.06249313
162	0x3cbc3a9d	0.022977168
163	0xbc3fad19	-0.011698985
164	0xbb540253	-0.0032350018
165	0x3d88dc71	0.06682671
166	0x3cc17ffd	0.0236206
167	0xbc6c81c6	-0.014435237
168	0xbda393c3	-0.07987168
169	0xbda239dd	-0.07921193
170	0xbd402ed5	-0.046919663
171	0xbd278c00	-0.040905
172	0x3c4d649b	0.012536193
173	0x3cc06697	0.023486419
174	0xbd246633	-0.040136527
175	0xbb32f510	-0.0027306713
176	0xbcc26502	-0.023729805
177	0x3d6bfa23	0.057611596
178	0xbdb433b1	-0.08798922
179	0x3d597b72	0.053096242
180	0xbd627520	-0.05528748
181	0x3bbfa183	0.005848111
182	0xbd84755b	-0.06467696
183	0xbdf4755e	-0.119364485
184	0x3cb9cd5c	0.02268093
185	0xbd383f00	-0.044981956
186	0xbd9fe4c3	-0.07807305
187	0xbd896a6f	-0.06709754
188	0xbd911f12	-0.07086004
189	0x3c2b30da	0.010448659
190	0xbc9322f9	-0.017961012
191	0xb9b2faec	-0.00034137757
192	0xbdc21f0d	-0.09478579
193	0xbd120bd8	-0.035655826
194	0x3cda31c3	0.026635056
195	0xbddbdb40	-0.10735178
196	0x3d35f3d5	0.04442199
197	0xbd2e282d	-0.042518783
198	0x3d308af9	0.043101285
199	0x3d5d6189	0.054048095
200	0xbc48afb7	-0.012248925
201	0x3d351ed2	0.044218846
202	0xbdc0b8ee	-0.094102725
203	0xbda20c97	-0.079125576
204	0xbd51add9	-0.051191185
205	0x3c4519d4	0.012030084
206	0xbd540b8f	-0.051768836
207	0x3d374677	0.044744935
208	0xbce3f181	-0.027825119
209	0xba9db883	-0.0012033138
210	0x3d5e0296	0.054201685
211	0xbd1c4c29	-0.03815857
212	0x3d8db4b2	0.069192305
213	0x3d152ad0	0.036417782
214	0x3dc16e2b	0.09444841
215	0xbbe4c9a8	-0.006982047
216	0xbcd4872c	-0.025943361
217	0xbd60b439	-0.054859374
218	0xbd1c0315	-0.038088877
219	0xbda12356	-0.07868068
220	0x3cf0373c	0.029323213
221	0xbd1ca90c	-0.038247153
222	0xbce7080a	-0.028202076
223	0xbd87d30b	-0.0663205
224	0xbd8c7f34	-0.068601996
225	0x3cc2c58a	0.023775835
226	0x3d0c7706	0.034293197
227	0xbcfbd4f4	-0.030741192
228	0xbd9346c4	-0.07191232
229	0x3cba7ee3	0.022765582
230	0xbd7236ca	-0.059134282
231	0x3d00bd8f	0.031430777
232	0xbc62e78a	-0.0138491485
233	0x3cec1914	0.028820552
234	0xbd10bd0b	-0.035336535
235	0xbcfd7057	-0.030937357
236	0xbca2341e	-0.019800242
237	0x3c9f3ee9	0.019439178
238	0x3d86bbaa	0.06578763
239	0x3d5642fc	0.052309975
240	0xbd1678dd	-0.036736358
241	0x3d57b2b0	0.052660644
242	0xbd24c569	-0.040227327
243	0x3d60db5b	0.054896694
244	0xbd642213	-0.05569656
245	0x3dd6e8fc	0.10493657
246	0xbd31ff7a	-0.043456532
247	0x3dda046e	0.10645376
248	0xbd02186f	-0.031761583
249	0xbcbbcf17	-0.022925897
250	0x3d84cb0b	0.0648404
251	0xbd9a1173	-0.075228594
252	0xbc8b5310	-0.01700738
253	0xbd72a672	-0.059240766
254	0x3db11c10	0.086479306
255	0x3dd5905d	0.10427926

conv_lstm.conv.bias f4 [40]
0	0x3c88980e	0.016674068
1	0x3da29fc7	0.07940631
2	0xbc404136	-0.0117342975
3	0x3dcd2b3d	0.10018013
4	0x3e0eb5bf	0.13936518
5	0xbc02b3a1	-0.007977397
6	0x3d8199cb	0.06328162
7	0xbd5e4619	-0.05426607
8	0x3da11620	0.07865548
9	0x3dcf3b65	0.101187505
10	0xbd63c163	-0.05560435
11	0x3d8198ee	0.06327997
12	0x3d82bbdf	0.0638349
13	0x3d28d077	0.041214433
14	0x3de48fa3	0.11160209
15	0x3d798699	0.060919378
16	0x3d9a90c2	0.075471416
17	0x3db64ce8	0.089013875
18	0x3d9d8fec	0.076934665
19	0x3da13056	0.078705475
20	0x3d80bbc7	0.06285816
21	0x3c59d75f	0.013295977
22	0x3d8f80ef	0.07007014
23	0xbd39c073	-0.04534955
24	0x3bd64792	0.0065392936
25	0x3d69a3c1	0.057040934
26	0x3d3376d2	0.043814488
27	0x3dbe191e	0.092821345
28	0x3d20add8	0.03922829
29	0xbcc3ae86	-0.02388693
30	0x3d2382ce	0.039919667
31	0x3dae67c2	0.08515884
32	0x398c9bb2	0.00026818883
33	0xbdba1a70	-0.09087074
34	0xbd31ec8d	-0.043438483
35	0xbd6709f2	-0.05640597
36	0xbc04141f	-0.008061438
37	0x3b813ca9	0.003943999
38	0xbc926564	-0.017870612
39	0xbd738233	-0.05945034

conv1.weight f4 [20, 10, 3, 3]
0	0xbd147a9d	-0.036249746
1	0xbd2bc2e9	-0.041933928
2	0x3d8aa87e	0.067704186
3	0x3d8b52b1	0.068028815
4	0xbd3084be	-0.043095343
5	0x3d8eb14a	0.06967409
6	0xbd82ee1a	-0.063930705
7	0xbde0a3e2	-0.10968758
8	0xbd5a27e6	-0.053260706
9	0xbd85c810	-0.065322995
10	0xbc4ab9eb	-0.012373428
11	0x3c184081	0.009292723
12	0x3d39a671	0.045324747
13	0xbdb8ebba	-0.09029336
14	0xbc274829	-0.010210075
15	0xbde885c1	-0.113536365
16	0x3c0627e2	0.00818822
17	0x3ca72cc2	0.020407084
18	0xbda149e4	-0.07875422
19	0xbdd2b775	-0.10288898
20	0xbc85b424	-0.01632125
21	0x3dabf8d4	0.083970696
22	0xbcc16de2	-0.023611967
23	0x3b8cf0d7	0.0043011713
24	0x3d066c7e	0.03281831
25	0xbb41592d	-0.0029502616
26	0x3d329efe	0.043608658
27	0x3dff58ba	0.12468095
28	0xbd3f0fa7	-0.046645787
29	0x3d3f54cb	0.046711724
30	0x3d92fc95	0.071770824
31	0x3c83efc2	0.016105536
32	0x3da669ff	0.08125686
33	0x3db686a0	0.089123964
34	0x3d1808b1	0.037117664
35	0x3dca855f	0.0988872
36	0x3b036f5d	0.0020055391
37	0xbc349ca6	-0.011023676
38	0x3ddc4e7b	0.107571565
39	0xbcf73838	-0.030178174
40	0x3e06b7a4	0.13155991
41	0x3e0cf722	0.13766149
42	0xbc8ac351	-0.016938837
43	0x3e053f19	0.13012351
44	0x3d18da64	0.03731765
45	0x3dc81816	0.09770219
46	0x3d9cab09	0.0764981
47	0x3ce027e5	0.027362773
48	0xbdb85036	-0.08999674
49	0xbbdb43e0	-0.006691441
50	0xbbe48d76	-0.0069748713
51	0xbd18bca5	-0.03728928
52	0xbcaa3fb5	-0.020782331
53	0xbd783c37	-0.0606043
54	0xbdd3c68c	-0.10340604
55	0x3d845224	0.064609796
56	0xbd90e373	-0.070746325
57	0xbd936ec9	-0.07198865
58	0x3d565303	0.05232526
59	0x3dacb2bf	0.084325306
60	0xbdb3e592	-0.087840214
61	0x3d377ed0	0.044798672
62	0xbcebb121	-0.028770985
63	0xbd47fd92	-0.048825808
64	0xbd921043	-0.07132008
65	0x3de7c114	0.113161236
66	0x3d62c6ee	0.055365495
67	0x3cdf19b4	0.027233936
68	0xbdaeee04	-0.08541492
69	0xbd99f4ae	-0.07517372
70	0xbcba2bb7	-0.022725923
71	0xbd95ba37	-0.07310908
72	0xbd3d408a	-0.046204127
73	0xbd975a80	-0.073903084
74	0x3dbf6738	0.09345859
75	0x3d9545c3	0.072886966
76	0xbd921c40	-0.071342945
77	0x3bab6d4c	0.005231535
78	0xbdaf9915	-0.0857412
79	0x3d776191	0.06039578
80	0xbdc406bf	-0.09571599
81	0xbd037791	-0.03209645
82	0x3d410d71	0.04713196
83	0xbcfcbb56	-0.030851047
84	0x3d3ea529	0.046544228
85	0xbd3ccf06	-0.04609587
86	0x3cf6a528	0.03010805
87	0xbcf5e531	-0.030016514
88	0x3b26f7db	0.0025477323
89	0x3d730d1e	0.05933868
90	0x3d83ae8e	0.06429778
91	0x3d8950da	0.06704874
92	0x3d02a2cf	0.031893548
93	0x3c2dafe1	0.010601015
94	0xbcda0e29	-0.02661808
95	0xbd4584a4	-0.0482222
96	0x3d1f7347	0.038928296
97	0xbd7ebf64	-0.062194243
98	0x3d861fb0	0.06549013
99	0xbd93af10	-0.07211125
100	0x3a4a6a5d	0.0007721538
101	0xbd43ec54	-0.047832802
102	0x3dafb944	0.085802585
103	0xbb25e92a	-0.0025315979
104	0x3da1c3a7	0.07898646
105	0x3d8711ec	0.06595215
106	0xbccd4c7f	-0.02506089
107	0xbdc1c347	-0.09461074
108	0xbcba6486	-0.022753011
109	0xbcaee291	-0.02134827
110	0xbcbdab22	-0.023152892
111	0x3d305e34	0.04305859
112	0xbc06e9a5	-0.008234416
113	0xbd7e5efc	-0.062102303
114	0xbccf70cb	-0.025322339
115	0xbdc86d54	-0.09786478
116	0x3d4c5a52	0.049890824
117	0x3d916511	0.07099355
118	0x3d63434c	0.0554841
119	0x3dc761db	0.09735461
120	0xbc871865	-0.016491124
121	0x3d9bdca2	0.07610442
122	0x3dc3d15b	0.09561416
123	0xbd854cab	-0.06508764
124	0x3d71af95	0.05900534
125	0xbb6b5123	-0.0035906516
126	0x3c933884	0.017971285
127	0x3d417a7a	0.047235943
128	0x3d7dbdc1	0.06194854
129	0x3ded604e	0.11590634
130	0x3d9e9928	0.07744056
131	0x3ddb7c7d	0.10717104
132	0x3ddfb8fc	0.10923955
133	0x3d4b6104	0.04965307
134	0x3ddc609f	0.107606165
135	0xbd9bfb2f	-0.07616269
136	0xbd09af4e	-0.03361445
137	0xbda11dcf	-0.07867014
138	0x3da671a8	0.08127147
139	0x3dbf9ba2	0.093558565
140	0x3d1d731e	0.038439862
141	0xbcef10d7	-0.029182835
142	0x3dc4e91d	0.09614775
143	0xbd78ee65	-0.060774226
144	0xbc253b22	-0.010084899
145	0x3d44c2a0	0.04803717
146	0xbdb17e56	-0.08666675
147	0xbd8d4896	-0.0689861
148	0xbc1d235e	-0.009590952
149	0x3d5eae5b	0.054365497
150	0xbdca6b79	-0.0988378
151	0xbd1a3276	-0.03764578
152	0x3c6ce6b2	0.014459299
153	0x3d962b31	0.07332457
154	0x3d6cea21	0.05784047
155	0xbc2b22d7	-0.010445318
156	0x3cf00a8e	0.029301908
157	0xbb1a1d0d	-0.002351585
158	0x3cee76cf	0.029109387
159	0x3d47a40c	0.04874043
160	0xbdc00eae	-0.093778
161	0x3daf23eb	0.08551773
162	0xbdba8425	-0.09107236
163	0xbd6db481	-0.05803347
164	0x3dbc89f7	0.09206002
165	0x3db529a2	0.088458315
166	0xbd0638da	-0.03276906
167	0xbd471af2	-0.04860968
168	0x3db3cac7	0.08778911
169	0xbd6b2117	-0.057404604
170	0x3db32735	0.087477125
171	0x3d3fbda8	0.04681173
172	0xbdaaeabd	-0.08345554
173	0xbd1c2373	-0.038119745
174	0xbd647fb2	-0.055785842
175	0xbc646c96	-0.0139419045
176	0xbda07b10	-0.07835972
177	0xbcd3f692	-0.02587441
178	0x3d2dd209	0.042436633
179	0x3d0abf34	0.03387375
180	0xbd6560f4	-0.056000665
181	0x3d833dfc	0.06408307
182	0x3db4babf	0.088246815
183	0x3d934a55	0.07191912
184	0xbd9d86c6	-0.076917216
185	0x3d3b71c6	0.0457628
186	0xbbe25d55	-0.0069080987
187	0x3c196338	0.0093620345
188	0x3df3c07a	0.11901946
189	0xbcc6e583	-0.024279362
190	0xbd9601af	-0.0732454
191	0x3d0fde64	0.035124198
192	0xbd01f0c2	-0.031723745
193	0x3bf19c79	0.0073733893
194	0x3c665fd8	0.014060937
195	0x3d9f4592	0.07776941
196	0xbd778199	-0.06042633
197	0x3de53079	0.11190886
198	0xbcd98874	-0.026554324
199	0x3d79dd66	0.061002158
200	0xbd9771a7	-0.07394724
201	0xbcd67831	-0.026180359
202	0xbcbf36dd	-0.02334159
203	0x3d5e391d	0.054253686
204	0xbdaa36a2	-0.08311202
205	0x3db71890	0.08940232
206	0xbdbfa1fc	-0.09357068
207	0x3cebc1ef	0.028778998
208	0xbdef069c	-0.116711825
209	0xbd8b472d	-0.06800685
210	0x3ce09795	0.02741603
211	0x3c6afad9	0.014342033
212	0xbdc28e3a	-0.09499784
213	0xbdab17b8	-0.08354133
214	0xbd77ecc3	-0.060528528
215	0x3d7cbda9	0.06170431
216	0xbdde2723	-0.108473085
217	0xbd475fc9	-0.048675332
218	0xbe0b2702	-0.13589099
219	0x3d5c55a5	0.053792614
220	0xbd7f2dfc	-0.062299713
221	0xbdddbd04	-0.108270675
222	0xbe0b1532	-0.13582304
223	0x3cfeac5c	0.031088047
224	0xbdfc1ddd	-0.123103835
225	0xbd896676	-0.06708996
226	0x3d131b13	0.03591449
227	0x3ca6b405	0.020349512
228	0x3db17a47	0.08665901
229	0x3b4185eb	0.0029529284
230	0xbdd04b03	-0.10170557
231	0xbb0ca137	-0.0021458396
232	0x3d373d5a	0.044736244
233	0x3ca0176e	0.019542422
234	0xbd2b88a9	-0.041878376
235	0x3d8d3b21	0.068960436
236	0x3bb94b67	0.0056547406
237	0x3d06514a	0.032792367
238	0x3c7654d0	0.015034869
239	0x3d814a76	0.063130304
240	0x3da00d32	0.07815017
241	0xbd84e4d4	-0.06488958
242	0x3d421746	0.047385477
243	0x3d49b6a3	0.04924644
244	0xbd325b80	-0.043544292
245	0xbd4a75b2	-0.04942865
246	0xbbc5b29c	-0.006033255
247	0x3d05b96e	0.032647543
248	0xbd68acbe	-0.056805365
249	0xbdc4368d	-0.09580717
250	0x3db2fc98	0.08739585
251	0x3d9da3eb	0.076972805
252	0xbd7e30fc	-0.062058434
253	0x3d854105	0.06506542
254	0x3da79242	0.08182193
255	0x3d204459	0.03912768

conv1.bias f4 [20]
0	0x39dbc58e	0.00041918125
1	0x3d1c7ba1	0.03820384
2	0x3ddb8b4c	0.10719928
3	0xbd416623	-0.047216546
4	0x3db653f8	0.089027345
5	0x3da2bc74	0.07946101
6	0xbc82c95c	-0.015965156
7	0x3d8acb3b	0.067770444
8	0xbc43f6cb	-0.0119606955
9	0x3d90b713	0.07066169
10	0xbd142053	-0.03616364
11	0xbd3e3ac3	-0.04644276
12	0x3d174256	0.036928497
13	0xbc8fa6b2	-0.017535541
14	0x3c688bc9	0.014193484
15	0x3dd3a0b5	0.10333387
16	0xbdb15a1e	-0.086597666
17	0x3de46a9b	0.11153146
18	0xbd35e63c	-0.04440902
19	0x3cf709a9	0.030155974

conv2.weight f4 [40, 20, 3, 3]
0	0xbc6c0e76	-0.014407745
1	0x3c133c78	0.008986585
2	0x3d914c62	0.07094647
3	0x3d619f02	0.055083282
4	0xbc665020	-0.014057189
5	0xbd1eab31	-0.03873748
6	0x3ce8717d	0.028374428
7	0xbc584a67	-0.013201333
8	0x3d8c1a91	0.06841005
9	0x3d5d4380	0.05401945
10	0x3da43b9f	0.08019184
11	0x3ce5fca6	0.028074574
12	0xbc593617	-0.013257525
13	0x3d978b90	0.07399666
14	0xbd636fd4	-0.05552657
15	0x3d084280	0.033266544
16	0x3d6c9bda	0.05776582
17	0xbd6e152d	-0.058125664
18	0xbdafd413	-0.08585372
19	0xbda929eb	-0.08259948
20	0x3cb9067e	0.022586104
21	0xbbd4864d	-0.0064857365
22	0xbd3bc1a8	-0.045838982
23	0xbcdb20fc	-0.026749127
24	0xbc35e144	-0.011101071
25	0xbdba9247	-0.091099314
26	0xbd264d9a	-0.04060135
27	0x3d8f31e7	0.0699194
28	0x3c572df2	0.013133513
29	0x3a6ebf31	0.0009107469
30	0x3caa7c74	0.020811297
31	0x3d1e54c7	0.03865507
32	0xbc934a68	-0.017979816
33	0xbd453123	-0.048142564
34	0x3d8302a3	0.06396987
35	0x3d85b193	0.0652801
36	0x3cc0c26b	0.023530206
37	0xbdaeb194	-0.08529964
38	0x3cfee504	0.031115063
39	0xbc9ff2a3	-0.019524878
40	0xbd8a8669	-0.06763918
41	0x3d5cf34d	0.053942967
42	0xbd8ddca5	-0.0692685
43	0xbd9aa49e	-0.075509295
44	0x3cb420d6	0.021988314
45	0xbd52c252	-0.05145485
46	0xbcc64c82	-0.024206404
47	0xbd15a57d	-0.036534775
48	0xbd5823cf	-0.052768525
49	0xbcff983f	-0.031200526
50	0x3d036bec	0.032085344
51	0x3ba2ac92	0.0049644196
52	0xbcb8cb2a	-0.022557814
53	0xbd8be007	-0.06829839
54	0x3d8552fd	0.065099694
55	0x3d0f873e	0.035041086
56	0x3d2118dc	0.03933035
57	0x3dbd8d76	0.09255497
58	0x3d2f8260	0.042848945
59	0x3d22dbce	0.039760403
60	0x3dad42dc	0.08460018
61	0xbc8b5cf8	-0.017012104
62	0x3d542906	0.051796935
63	0xbd533cfa	-0.051571824
64	0xbd04f531	-0.032460395
65	0x3bb36a3d	0.005475311
66	0x3cc3c67d	0.023898358
67	0xbd65ddde	-0.056119792
68	0x3cc13c84	0.023588426
69	0x3d8c818f	0.06860649
70	0x3cfee967	0.031117154
71	0x3d35e0cb	0.044403832
72	0x3cb77dd2	0.022398863
73	0xbd324101	-0.043519024
74	0x3cff0961	0.031132402
75	0xbd7ceac2	-0.06174732
76	0xbd5a7293	-0.053331923
77	0xbca9e502	-0.020739082
78	0x3c29101e	0.010318784
79	0xbd2327bc	-0.039832816
80	0x3cacfe0a	0.021117229
81	0x3d95cf2f	0.07314908
82	0xbd1c0ef7	-0.03810021
83	0xbc08884f	-0.00833328
84	0x3a8aecc2	0.0010599124
85	0xbd41654f	-0.047215756
86	0x3d7c2239	0.061556075
87	0xbc8991f6	-0.016793232
88	0x3d4349bf	0.04767775
89	0xbc8b50fa	-0.017006386
90	0xbd65fed3	-0.056151222
91	0xbd055540	-0.032552004
92	0x3c2a087a	0.0103779975
93	0x3c296e50	0.010341242
94	0xbc427594	-0.011868853
95	0xbd83483c	-0.06410262
96	0x3d8a1e15	0.06744019
97	0x3d2a32bd	0.041552294
98	0xbd4c8642	-0.049932726
99	0xbd290fa7	-0.041274693
100	0xbd4dab9a	-0.05021248
101	0xbc8dcd7c	-0.017309897
102	0x3c315792	0.010824101
103	0xbd44b491	-0.048023764
104	0x3d61ef5b	0.055159908
105	0xbbfbe876	-0.0076876236
106	0x3d526d6d	0.051373888
107	0x3ca5065c	0.020144634
108	0x3d1556e6	0.036459826
109	0x3c514410	0.012772575
110	0x396de3e6	0.0002268698
111	0x3d159d46	0.03652694
112	0xbd0b769c	-0.03404866
113	0x3daae727	0.0834487
114	0xbc1fce08	-0.0097537115
115	0x3d1876e2	0.03722275
116	0x3be90c4c	0.0071120616
117	0x3d834af8	0.064107835
118	0xbb2bb693	-0.0026201352
119	0x3da97106	0.08273511
120	0xbd33c7a6	-0.04389157
121	0x3daadffa	0.083435014
122	0xbd0035c9	-0.031301294
123	0xbcb5b124	-0.022179194
124	0x3d1cde62	0.03829802
125	0xbcd92c4d	-0.026510382
126	0xbd35d0fb	-0.044388752
127	0xbd84b715	-0.064802326
128	0xbd2168f4	-0.03940673
129	0xbd696436	-0.056980334
130	0xbd35ed60	-0.04441583
131	0xbd6edcc6	-0.058316015
132	0x3d220a66	0.039560698
133	0xbdb6fda2	-0.08935095
134	0x3b61f341	0.0034477266
135	0x3d550bad	0.052013088
136	0x3d3a9f8e	0.04556232
137	0xbcba5bdc	-0.02274888
138	0xbd1c9c12	-0.038234778
139	0xbc5b40c4	-0.013382141
140	0x3c5bbd03	0.013411763
141	0x3d29e0c3	0.041474115
142	0x3d545226	0.051836155
143	0x3d321e99	0.04348621
144	0x3d3980ec	0.045288965
145	0xbd8d5030	-0.0690006
146	0x3d362b93	0.04447515
147	0x3d1c14cd	0.038105775
148	0x3b9b7e55	0.0047452846
149	0xbb68d98c	-0.0035530059
150	0x3d70f1c2	0.05882431
151	0xbd01d872	-0.03170056
152	0xbcbc69d5	-0.022999683
153	0xbca47b91	-0.020078452
154	0xbd9f553d	-0.0777993
155	0xbd9c7496	-0.076394245
156	0x3cda4a0f	0.026646642
157	0xbccc2bef	-0.024923293
158	0xbd93a5f3	-0.07209387
159	0x3d697eb4	0.0570056
160	0x3c4c4263	0.012467
161	0xbd8f380a	-0.069931105
162	0x3d9bc496	0.07605855
163	0x3d0b7d67	0.03405514
164	0xbd61e27a	-0.055147626
165	0xbd884c51	-0.06655181
166	0xbd5b35b2	-0.053518005
167	0xbd211f94	-0.039336756
168	0x3b98100c	0.004640585
169	0x3cb89838	0.022533521
170	0x3d8f5be1	0.069999464
171	0x3d93dd4e	0.07219945
172	0xbcc4f130	-0.024040788
173	0xbd0ccbb5	-0.034373958
174	0x3d56f8fa	0.052483536
175	0x3c6aae97	0.014323852
176	0x3d72a748	0.059241563
177	0xbc1d40cd	-0.009597969
178	0x3d6cb334	0.05778809
179	0x3d0b39a8	0.033990532
180	0x3d115031	0.035476867
181	0xbd0453a0	-0.032306314
182	0xbc551dbb	-0.013007577
183	0x3c14ae80	0.009074807
184	0xbd298bba	-0.04139302
185	0x3d23cb05	0.039988536
186	0x3c7766f3	0.015100229
187	0xbd6b550b	-0.05745415
188	0xbd81a78a	-0.06330784
189	0xbcb96a8f	-0.022633819
190	0xb82ca0c4	-4.115772e-05
191	0xbd930692	-0.071789876
192	0x3d567ebd	0.05236696
193	0x3c7becbc	0.015376266
194	0x3d0e1ba1	0.034694318
195	0x3c5f40cf	0.013626291
196	0xbd7b2294	-0.061312273
197	0xbd8ad881	-0.06779576
198	0x3c7ec906	0.015550857
199	0xbd058511	-0.032597605
200	0xbb02f0e5	-0.001998001
201	0xbc8ea9a5	-0.017414877
202	0xbd963760	-0.07334781
203	0x3d8397b7	0.06425422
204	0xbd8a5a0b	-0.067554556
205	0x3d534b85	0.051585693
206	0x3cc4cf92	0.024024758
207	0x3d6f03cb	0.058353227
208	0x3d6adaba	0.0573375
209	0xbbcc97f1	-0.0062436988
210	0x3d1a701d	0.037704576
211	0xbd92ea11	-0.07173551
212	0xbcb53328	-0.02211912
213	0xbc7200c3	-0.014770689
214	0x3d33c8c4	0.043892637
215	0xbc3ebef5	-0.011642207
216	0x3d4f07d3	0.05054457
217	0xbd5e3259	-0.054247234
218	0xbce7c2ea	-0.028291184
219	0xbcc673ac	-0.024225079
220	0x3bac54cd	0.0052591325
221	0xbd21e44d	-0.039524365
222	0x3d0abd2a	0.033871807
223	0x3c2d953b	0.010594661
224	0xbd5e5d77	-0.054288354
225	0x3d774ecb	0.060377877
226	0xbd73628e	-0.05942016
227	0x3cf8b8ac	0.030361496
228	0xbd3b145b	-0.04567371
229	0x3d9715dc	0.07377216
230	0x39b1722b	0.00033845133
231	0xbce2be2a	-0.027678568
232	0xbd0bb9f8	-0.0341129
233	0x3c12888a	0.008943686
234	0x3d42add1	0.047529045
235	0xbc17ecde	-0.009272782
236	0xbd0ecb9f	-0.034862157
237	0xbd6bd4b8	-0.05757591
238	0x3d7f0e0c	0.062269256
239	0xbd14fa3f	-0.036371466
240	0xbc7a48ce	-0.015276147
241	0xbcbe7c68	-0.02325268
242	0x3d90fcd0	0.0707947
243	0xbd551891	-0.05202538
244	0xbc9977c3	-0.018733865
245	0xbd8b8f1e	-0.06814407
246	0xbd0d6cb4	-0.034527496
247	0xbd2bee65	-0.041975398
248	0xbd74a49f	-0.059727307
249	0x3d1f5a74	0.038904622
250	0x3ca6462b	0.02029713
251	0x3c560c46	0.01306445
252	0xbcc61195	-0.024178306
253	0x3ce551c4	0.02799309
254	0x3d490b02	0.049082763
255	0x3ccde5e6	0.025134038

conv2.bias f4 [40]
0	0xbc816fc6	-0.015800368
1	0xbcfd0788	-0.03088738
2	0xbd15be9d	-0.036558736
3	0x3b391a44	0.0028244415
4	0xbc90bfc1	-0.01766956
5	0xbd941542	-0.07230617
6	0xbd8e9f01	-0.06963921
7	0xbd0980f5	-0.03357025
8	0xbc392abc	-0.011301693
9	0xbcb6ca9d	-0.02231341
10	0x3d5496a2	0.051901467
11	0x3d07cee7	0.0331563
12	0x3ca32f22	0.019919936
13	0xbc15de71	-0.009147272
14	0xbd2d3409	-0.042285953
15	0x3bb07738	0.0053853057
16	0x3d57b114	0.05265911
17	0x3c875349	0.016519206
18	0x3d597b60	0.053096175
19	0xbd896c8a	-0.06710155
20	0x3d65ded9	0.056120727
21	0x3d166042	0.036712892
22	0xbd70c491	-0.05878121
23	0x3bf4da28	0.0074722953
24	0x3d830a80	0.06398487
25	0xbd52897e	-0.051400654
26	0xbd35e312	-0.044406004
27	0xbcd8424e	-0.026398804
28	0x3d82a99f	0.06380009
29	0x3c30f8e9	0.010801532
30	0x3cd13c30	0.025541395
31	0x3c5b538d	0.013386619
32	0xbceaaafc	-0.028645985
33	0x3cca7677	0.024714692
34	0xbc9a9a62	-0.018872444
35	0xbcb55d7c	-0.022139303
36	0x3b5e226b	0.0033895026
37	0x3cc77620	0.024348319
38	0xbd0bfb8d	-0.034175444
39	0xbd35c304	-0.044375435

fc1.weight f4 [1, 6760]
0	0x3c88db2e	0.016706076
1	0x3bb99d5c	0.0056645107
2	0x3cb78bbd	0.0224055
3	0x3cd43c4f	0.025907664
4	0x3cc9b4e6	0.024622392
5	0x3ce19af9	0.027539717
6	0x3cc8cb3d	0.024510974
7	0x3d1cef3a	0.03831408
8	0x3c7cf21c	0.015438583
9	0x3cfb69a2	0.030690018
10	0x3c39c43e	0.011338292
11	0x3cc07505	0.0234933
12	0x3cce6d75	0.025198678
13	0x3c375fb0	0.011192247
14	0x3c8dac63	0.017294114
15	0x3c9bd20c	0.019021057
16	0x3d1750eb	0.036942404
17	0x3cee05b4	0.029055454
18	0x3cbb49ec	0.022862397
19	0x3d350dc3	0.044202577
20	0x3d1f6955	0.03891881
21	0x3ced3769	0.028957086
22	0x3cddc116	0.02706961
23	0x3bbf847a	0.00584465
24	0x3bc1bb34	0.005912209
25	0x3c8bda62	0.017071906
26	0x3c6ebc4d	0.014571262
27	0x3c42c103	0.011886838
28	0x3c95381b	0.01821523
29	0x3d09d920	0.033654332
30	0x3ccb5108	0.024818912
31	0x3d25f077	0.04051253
32	0x3cc720cf	0.024307637
33	0x3d23c83c	0.03998588
34	0x3d18d663	0.03731383
35	0x3ce0d794	0.027446546
36	0x3c460067	0.012085057
37	0x3c80278b	0.015643856
38	0x3ca91b6f	0.020642964
39	0x3cb04aea	0.021520097
40	0x3caecd20	0.021338046
41	0x3c509e96	0.012733122
42	0x3cc3d781	0.023906471
43	0x3cfa6edf	0.030570446
44	0x3d0c7eff	0.0343008
45	0x3d117923	0.035515916
46	0x3d0f117b	0.03492878
47	0x3cdb0252	0.026734505
48	0x3ca8bcb9	0.020597802
49	0x3cacf5bb	0.021113267
50	0x3cb12c56	0.021627586
51	0x3cdac3c6	0.02670468
52	0x3c9c9087	0.019111885
53	0x3ca2543c	0.019815557
54	0x3b97f832	0.0046377415
55	0x3c9610c2	0.018318538
56	0x3cab2e90	0.020896226
57	0x3cd0555b	0.025431326
58	0x3c8fbdf6	0.017546635
59	0x3d094f28	0.033522755
60	0x3cf93e4f	0.030425219
61	0x3cc82c75	0.024435261
62	0x3cc4939a	0.023996163
63	0x3cf8a800	0.030353546
64	0x3c4fb179	0.01267659
65	0x3c6ba770	0.014383182
66	0x3c8059f0	0.015667886
67	0x3cb218a8	0.021740273
68	0x3c844b1b	0.016149094
69	0x3cf95a76	0.030438643
70	0x3cf810e7	0.030281497
71	0x3cf3244a	0.02968039
72	0x3d0c9f8d	0.034331847
73	0x3cac6cf3	0.021048045
74	0x3d0385e3	0.032110106
75	0x3d01689e	0.03159391
76	0x3c89d177	0.016823513
77	0x3cffe6ae	0.031237926
78	0x3c994821	0.018711152
79	0x3c1c181a	0.009527231
80	0x3c36b452	0.01115139
81	0x3b5cb806	0.0033679022
82	0x3c33fde6	0.010985827
83	0x3c14ce24	0.009082351
84	0x3c77d440	0.015126288
85	0x3cbadb0a	0.022809524
86	0x3ca204e8	0.01977773
87	0x3cc0a5af	0.023516504
88	0x3cd73940	0.026272416
89	0x3c8aecd4	0.016958632
90	0x3d172927	0.03690448
91	0x3ce397c6	0.027782332
92	0x3c839564	0.016062446
93	0x3cae0e77	0.021247132
94	0x3ca97b1b	0.020688584
95	0x3c55f41f	0.013058691
96	0x3b8b467a	0.004250345
97	0x3c82abed	0.015951121
98	0x3cad54e3	0.021158641
99	0x3c815198	0.015785977
100	0x3c36306c	0.011119943
101	0x3c97d3ac	0.01853355
102	0x3cc694c6	0.024240863
103	0x3cfdf707	0.03100158
104	0x3cd1de9f	0.02561885
105	0xba92e364	-0.0011206684
106	0xbb8b27a1	-0.0042466675
107	0xbb6cda06	-0.0036140694
108	0x3ab0dcbc	0.0013493518
109	0x3cb4de36	0.022078615
110	0xbb23f485	-0.0025017571
111	0x3c42ded1	0.011893944
112	0x3ba821a3	0.005130963
113	0x3cb06345	0.02153171
114	0x3cae5b38	0.02128373
115	0x3cd480e2	0.025940362
116	0x3cd60365	0.026124666
117	0x3c94b2df	0.018151699
118	0x3c2f5a68	0.010702707
119	0x3c4cd827	0.012502707
120	0x3c9a3def	0.01882836
121	0x3be07707	0.0068501267
122	0x3cb6d540	0.022318482
123	0x39ce688a	0.0003936927
124	0x3c66f6dc	0.014096942
125	0x3abce23d	0.0014410686
126	0xb821f0f1	-3.8609785e-05
127	0xbb385678	-0.0028127711
128	0x3c9b1e78	0.018935427
129	0x3baf7ee8	0.0053557046
130	0x3c6f7d59	0.014617288
131	0x3c1cddb2	0.009574341
132	0x3c5efb0d	0.01360966
133	0x3b9b5767	0.004740644
134	0x3c83da85	0.01609541
135	0x3c8e2969	0.01735373
136	0x3b17c8d9	0.0023160486
137	0x3bca7e97	0.0061796415
138	0xbbd182f6	-0.0063937856
139	0x3c4a2144	0.012337033
140	0x3c350492	0.011048453
141	0x3c8e3861	0.017360868
142	0x3c462164	0.012092922
143	0x3c4004e0	0.011719912
144	0x3cecc50c	0.028902553
145	0x3cb18d0c	0.021673702
146	0x3cbd1cd7	0.023085041
147	0x3ca89235	0.02057753
148	0x3c737d3a	0.014861399
149	0x3bd0f5a6	0.00637694
150	0x39f00990	0.00045783492
151	0x3c804d9d	0.015662009
152	0x3c82b7bd	0.015956754
153	0x3c983b68	0.018583015
154	0x3cac1056	0.021003883
155	0x3b25740d	0.0025246174
156	0x3cbd7532	0.023127172
157	0x3c23c6d5	0.009996136
158	0x3c66e9d9	0.01409384
159	0x3c5f4875	0.013628115
160	0x3c95ab17	0.018270059
161	0x3c934f6d	0.01798221
162	0x3bae0869	0.005311061
163	0x3be7ab93	0.007070014
164	0x3c633876	0.013868442
165	0x3bdb8d01	0.0067001586
166	0x3ce85f38	0.028365716
167	0x3cbb859d	0.02289086
168	0x3bd67bde	0.006545528
169	0xbb65c8aa	-0.0035062232
170	0xbc01b5fd	-0.007916925
171	0x3ab0e53a	0.0013496049
172	0xbb289833	-0.0025725483
173	0x3c154198	0.009109877
174	0xbb991080	-0.0046711564
175	0x3beec9f4	0.0072872583
176	0xbc454318	-0.012039922
177	0x3bf360ef	0.007427327
178	0xbbc00976	-0.005860503
179	0x3ba9e5bf	0.0051848586
180	0xbc0e538d	-0.008686912
181	0x3ac89b70	0.0015305113
182	0x3bd9311c	0.0066281687
183	0xbacfdd40	-0.0015858784
184	0x3c3ca175	0.011513104
185	0x3b419a80	0.0029541552
186	0x3c250234	0.010071326
187	0x3a3d95c3	0.0007232094
188	0x3c1b990a	0.009496937
189	0x3ade1aeb	0.0016945278
190	0xbb98afc2	-0.004659624
191	0xbb2ef952	-0.00266989
192	0x3bf9351a	0.007605207
193	0x3b47f0cc	0.0030508516
194	0x3c0dca99	0.00865426
195	0xbb897073	-0.004194313
196	0xbc0c8d56	-0.008578619
197	0x3c383824	0.011243854
198	0xbbca8f84	-0.006181659
199	0x3aaadc17	0.0013035563
200	0xbbddefd4	-0.0067729745
201	0xbbfa563e	-0.0076396754
202	0xbb879e26	-0.004138726
203	0x3aeec35f	0.0018216184
204	0xbc046b2c	-0.008082192
205	0x3b034b82	0.002003402
206	0x3b540f8d	0.0032357902
207	0x3b77028f	0.0037690734
208	0x3aa5ebe8	0.0012658807
209	0xbc0cfa4f	-0.0086046
210	0x3b958d96	0.0045639975
211	0xbc448aa9	-0.01199595
212	0x3bf054a7	0.00733431
213	0x3bc6a846	0.00606254
214	0xbb9599b0	-0.00456544
215	0xbb1c0aea	-0.0023810216
216	0xbc24d655	-0.010060866
217	0x3c314879	0.0108205015
218	0xbb3d3582	-0.0028871004
219	0x3bdc7b49	0.006728564
220	0x3b0ab7d1	0.0021166692
221	0x3a410e69	0.0007364513
222	0x3b7e9486	0.003884585
223	0x3c2d7d81	0.0105890045
224	0x3bbb7528	0.005720753
225	0xbb6705be	-0.0035251225
226	0xbc142205	-0.009041314
227	0x3c1719cb	0.009222458
228	0x3bd8a541	0.0066114967
229	0xbaf393a4	-0.0018583429
230	0xbaf7ec78	-0.0018915078
231	0x3bc2d5b4	0.0059458856
232	0x3b98d496	0.004664014
233	0xbc226727	-0.009912289
234	0xbb887103	-0.0041638627
235	0x3b97dfec	0.004634848
236	0x3aec5e92	0.0018033555
237	0x3bb64294	0.005562136
238	0xbc1a2429	-0.009408035
239	0xba9a11ba	-0.001175455
240	0x3b0a999b	0.0021148685
241	0x3c43daef	0.011954053
242	0xbb1a9d16	-0.0023592166
243	0xbb9c49c5	-0.004769536
244	0x3bbcb58b	0.0057589463
245	0x37553c1d	1.2709786e-05
246	0xb9e86253	-0.00044323746
247	0x3bf17270	0.0073683783
248	0x3c24630e	0.010033382
249	0xbc3444f3	-0.011002767
250	0xbc0e54ab	-0.008687179
251	0xbbfd0594	-0.007721612
252	0xb9829ff8	-0.00024914718
253	0x3ba3db11	0.00500048
254	0xbbb1f3b0	-0.005430661
255	0x3c367b2f	0.011137768
