ConvLSTM/Sequence/0.82_128_A_S.pt (torch, 84929 bytes, 7 tensors)

conv_lstm.conv.weight f4 [40, 13, 3, 3]
00000000: 794b 58bd b579 993d 537c 98bd 6c97 81bd
00000010: 3e06 39bd 65cc 8a3d 15c2 77bd 138e 223c
00000020: b886 7c3c 022a 503d 6338 4a3d 1978 00bd
00000030: d013 143d a55b a13d 2c86 243d 2490 593d
00000040: 5549 14bd 005b 663d b6db 49bd a9a0 22bc
00000050: 7ca7 cb3d 7d61 663d 48d3 ffbb 1beb 21bc
00000060: 1bc3 b83d 481a bdbc df3a 51bc 0570 91bd
00000070: 0539 c5bc cb05 393d d47d 1cbd 0d13 5d3d
00000080: b61c e3bc 0ad2 5dbd 7aa1 193d 1f92 ba3c
00000090: 55e3 7cbd ad61 80bd fbba 01bc 483e a0bd
000000a0: 5b11 d83c a329 8b3d 60d3 92bc 246d d33b
000000b0: 4acd 8d3d f945 73bd 3b3c cebb 63ed 68bd
000000c0: 1423 81ba 5571 ba3d 2e1c 43bd a61d 0e3d
000000d0: f60f d13d acdb 36bd b9ae 98bd dc83 06be
000000e0: a882 febd 73fc 33bd 5b33 82bd 92aa a9bd
000000f0: 24cc b0bd d6c2 1ebd d051 7bbd 84dc abbd
00000100: 0b9a 4bbd f3ac 7dbd 1423 1dbc dd06 023d
00000110: 671a 4abc c879 b13c b682 4fbd 6c4f 163b
00000120: f810 783d 70a5 a0bd 00c7 af3d dc7d 3bbc
00000130: f3a1 963d 9884 553d 047f 1cbd 9943 e8bc
00000140: 8568 8abc cd6c 413d f4f2 6d3d e2ef fcbb
00000150: db7e c1bd 76ed 4abd 0ee2 063d 9cb0 2dbd
00000160: d893 633d 0dfe 6f3d a20a 883c 79b8 5d3d
00000170: 11ba 1a3d 4ae9 3fbc 0586 2e3d 1e06 5bbd
00000180: b038 b13d 2099 6bbd 2cef d63d ac47 c63d
00000190: cfee 9f3d bf2a 9c3d 065a 343c e8ae f53d
000001a0: a6ed 82bd 51cb 0dbd c2fb 07bd 8275 863c
000001b0: 0a5a 9fbb 16a5 833d 66fd 9f3d e578 75bd
000001c0: 8af3 e3bc 73dd 513d cfa5 b4bd 6e18 2cbd
000001d0: 3f0e 923a 58d2 463d 285d 5c3d a626 13bd
000001e0: 9c35 b33d 40d0 77bd 964e c03d 103e 8e3d
000001f0: ffc5 853d 6aab d63d db39 273d 051c 1f3d
00000200: 4a43 a43d 395e ee3d fdc4 90bc 1899 bc3d
00000210: 04fc 65bd 8df0 db3d 07b8 30bc 5c10 b73d
00000220: e537 513d f3da 7ebb da0f 063c a1d6 ac3d
00000230: 8f21 893d 4a6a 993d 9787 ad3d fafc 173c
00000240: a22c ee3c 00bc b6bc 0b82 09bd d0a4 88bd
00000250: 8e19 99bd 1901 dcbd 2747 c6bd de20 b8bd
00000260: ac2a ffbc 47ad 8dbd 4afe 473c 3a06 6abd
00000270: cc0e 54bd 5cb2 c2bd 25fe 8f3d a4ee 37bc
00000280: 3659 723c 8062 e53c d728 79bd 316f 1b3d
00000290: 7236 44bd d8af 113b bd53 73bc ec6c 0c3d
000002a0: bc04 d43d de68 52bd ad0f fb3c dd0f 223d
000002b0: f23c bfbd f76f 8bbc daff c2bd 50f5 80bd
000002c0: 72cb 05bd 80ad 643d 4d66 f0bc 84aa 633b
000002d0: a9c5 803d 9628 d9bd fb7e 603d c50c c1bd
000002e0: a36a e0bd bab9 f139 e9c7 5d3d d25d 613d
000002f0: d4e7 70bc 22f1 a23b 15e7 c0bd c89b fa3c
00000300: 871f b83b bef8 84bd 323e 973d 0dcd 2abd
00000310: 190a 07bd 6f3e 353d d409 a23c e8ab 05bc
00000320: 7599 1bbd 3086 dabc 9ed8 99bd 3486 97bc
00000330: 5bc5 9cbd 03ea 63bc c781 01be bfb2 02bd
00000340: 12a2 d03d 2644 8a3d 3dae d13b 29c2 bcbc
00000350: b643 f13d e0b3 61bd bd2e a33d 4a9d c7bb
00000360: 0e37 913a 996c 1cbc f27d e63d cc8b 0dbc
00000370: 5de4 213d 1c8f 953d 86ea 79bd 7ade 7b3b
00000380: 369f d83c 3ed1 35bd 6210 12bd 5859 a5bc
00000390: 033e 3d3d 0728 ddbd 6767 4abd d8a6 a8bd
000003a0: 4ae8 93bc e727 f7bc c001 943d f0e0 1cbd
000003b0: 8b9a bcbc 9b64 1fbd c412 a43c 7e47 bebc
000003c0: 2000 e33c d48b b93d 9a82 ad3d b9e0 df3d
000003d0: 0636 c23c f859 60bb d4f7 233c ec98 db3c
000003e0: 87fc 473d d000 0bbd c2fd 2cbd da70 c9bc
000003f0: 89db dd3b 5942 093d 1630 09bd 021d 8cbd
-0.05280635 0.07493917 -0.07445588 -0.063277096 -0.04517197 0.067772664 -0.060487825 0.009921568
0.015412979 0.05082131 0.04937018 -0.031364534 0.036151707 0.07878808 0.04016702 0.05311598
-0.036202747 0.056239128 -0.0492818 -0.009926 0.099440545 0.056245316 -0.007807169 -0.009882714
0.090215884 -0.023083821 -0.012770384 -0.07101444 -0.02407504 0.04517154 -0.038205937 0.053973246
-0.027723651 -0.054155387 0.03750751 0.022774754 -0.06174024 -0.0626863 -0.007918115 -0.07824379
0.026375463 0.06795051 -0.017923057 0.0064522196 0.069239214 -0.059392903 -0.006293801 -0.056867015
-0.0009852373 0.091036476 -0.047634296 0.034696244 0.102081224 -0.04464309 -0.07455201 -0.13136238
-0.124272645 -0.043941926 -0.063574515 -0.08284487 -0.08632687 -0.03876003 -0.06135732 -0.083916694
-0.049707454 -0.061932515 -0.009590883 0.031744827 -0.012335396 0.021664515 -0.050661765 0.0022935523
0.060563058 -0.07844055 0.08582878 -0.011443581 0.07355108 0.052128404 -0.03820707 -0.028352546
-0.016895542 0.0472229 0.058093026 -0.007719026 -0.09448024 -0.049542867 0.032930426 -0.042404756
0.055560917 0.05859189 0.016606633 0.054131005 0.037775103 -0.011713335 0.04260828 -0.05347263
0.086533904 -0.05751908 0.10494837 0.09681639 0.07809221 0.07625341 0.011007791 0.11996251
-0.06392984 -0.034617726 -0.03319908 0.016413454 -0.0048630284 0.06427972 0.07812004 -0.059929747
-0.02782609 0.05123658 -0.08820688 -0.042015485 0.0011143162 0.048540443 0.05379978 -0.03592553
0.087504596 -0.060501337 0.09389989 0.06945431 0.065319054 0.104819134 0.04082666 0.03884508
0.08020647 0.11639065 -0.017672056 0.09208888 -0.056148544 0.10739241 -0.010786063 0.08938667
0.051078696 -0.0038887828 0.00818249 0.08439375 0.06695854 0.07490976 0.08473127 0.009276623
0.029074017 -0.022306442 -0.033571284 -0.066720605 -0.07475577 -0.10742397 -0.0968154 -0.08990644
-0.031148277 -0.06917816 0.012206623 -0.057134844 -0.051771924 -0.095066756 0.07030896 -0.01122633
0.014791777 0.02800107 -0.060829964 0.037947837 -0.047903486 0.0022230055 -0.014851508 0.034283563
0.103524655 -0.05136954 0.030647123 0.03956591 -0.09337796 -0.017021162 -0.09521456 -0.0629679
-0.032664724 0.055829525 -0.029345656 0.0034739086 0.06287701 -0.10603444 0.054808598 -0.09426264
-0.10957839 0.0004610548 0.054145727 0.055021115 -0.01470371 0.004972593 -0.094190754 0.03059186
0.0056189927 -0.06492756 0.0738491 -0.041699458 -0.032968614 0.044248994 0.019780077 -0.008158661
-0.037988145 -0.026675314 -0.075120196 -0.01849661 -0.0765483 -0.013910773 -0.12647162 -0.031908747
0.101871625 0.067512795 0.0063989446 -0.023041802 0.11780493 -0.055103183 0.07967899 -0.0060917484
0.001107903 -0.009547376 0.11254491 -0.008639287 0.039524425 0.073026866 -0.061014675 0.0038432167
0.026443105 -0.044389002 -0.035660155 -0.020184204 0.046201717 -0.1079865 -0.04941502 -0.08234948
-0.0180551 -0.030170394 0.07226896 -0.038300455 -0.02302291 -0.038914304 0.02002848 -0.02322745
0.02771002 0.09059873 0.08472176 0.10931534 0.023707401 -0.0034233313 0.010007817 0.026806317
0.048824813 -0.03393632 -0.04223419 -0.024589945 0.0067705554 0.03351054 -0.033493124 -0.0684147

conv_lstm.conv.bias f4 [40]
00000000: 5ffd 8b3d 62eb 9b3d 1b39 d03d b8dc 723d
00000010: 5693 903d f0e0 233d 2f27 013d 7ffd f43c
00000020: c0a2 a4bb 5f4f 433d dc31 b6bd 4ab8 5bbd
00000030: e2a3 943d a2e1 51bc 97be c13d 32b8 963d
00000040: 7fa4 8f3d b07b a1bd e00e 2abd 18fb bebb
00000050: b0b8 89bd 8d1a ecbc 65cb d43d c68b a83c
00000060: 4e3b 063b 94f0 fdbc a60f 2dbd 33c3 673d
00000070: e835 263d d554 d3bc ef28 b9bc c1ee b93c
00000080: 5c32 39bd 30d9 913d 808a bebd 3e6c 8b3d
00000090: b1ce 74bd 3b63 4cbc c2b1 afbc 0e3d 04bd
0.06835436 0.07613255 0.10167142 0.059292525 0.07059352 0.04000944 0.03153151 0.029906033
-0.005024284 0.047683116 -0.08896229 -0.05364255 0.07257821 -0.012810143 0.0946018 0.07359351
0.07013797 -0.0788492 -0.041518092 -0.0058282726 -0.067246795 -0.028821254 0.10390357 0.020574462
0.0020482126 -0.030998506 -0.04225125 0.05658264 0.040578753 -0.025797287 -0.022602526 0.022696855
-0.045214042 0.07121503 -0.093037605 0.06807755 -0.05976743 -0.01247483 -0.021447066 -0.03228479

conv1.weight f4 [20, 10, 3, 3]
00000000: 15ce fbbb 1de0 333d 898e 853d 2483 50bd
00000010: 60ad 47bd a731 a6bd ba3d 3f3d 8d59 7d3d
00000020: 4cab 98bd b4b0 59bd 2c45 f2bc 58f3 833d
00000030: 72ab 8c3d c888 30bd be8c a33d cfeb 413c
00000040: 2c16 f93c 87d2 19bd 99f4 78bc f972 ac3d
00000050: 5f94 de3c 7a46 70bd 6476 29bc 00b0 603d
00000060: 0a60 c33d dd7a 813d 626f 67bc 4260 a8bd
00000070: 08aa 5c3d cb40 983d d167 14bd f6ef b63c
00000080: a6c3 403d 9eae a6bc 8bfe ce3d b083 c13c
00000090: 5a32 89bd bf23 c3bd dfe4 cd3c bfe6 aa3d
000000a0: 2494 cf3d 0012 803d 5b47 a13d b363 bdbc
000000b0: 4182 acbd 1dfa ad3d 188b 5c3d 43d3 f63c
000000c0: e142 593c 5440 2d3d 7e46 973c 3f41 173b
000000d0: 8249 8abd b23a 5ebc a887 aebd f2ea 51bd
000000e0: 653c cc3d f687 cb3d 0d2a a6bd e74e ae3b
000000f0: 1a36 4cbd 747f c43d 52ce 82bd af5c cb3b
00000100: 4df1 993d ab5f 9ebb 6056 5f3d 38d6 303c
00000110: 26b2 44bd ad50 57bd 1481 b43d d607 5d3d
00000120: e236 b43d 897e 7ebd fe82 5bbc ab10 9f3d
00000130: c8eb 01bd 3fba bc3d ddb1 333d 1eb2 823d
00000140: 94fb 63bc 3fdb cd3d b6df 5f3d 55b2 873d
00000150: f302 763d e935 443d 97f9 95bd 8497 83bd
00000160: 18a2 4b3d 0495 fe3c 2aab 1b3c da0a 8bbd
00000170: d6b2 b9bd 2e68 993d 5a03 96bd c0e4 c8bd
00000180: b020 64bd 144c 253c b997 2dbd 8a71 cebd
00000190: 54a6 f53c e1a0 51bd 4757 acbd b95b 1f3b
000001a0: 68a8 f3bd 36d4 253b fbab c3bd 0c91 bcbc
000001b0: 1604 47bd cc1b 093d 3151 c93b d897 ce3a
000001c0: c1a4 933d 3499 ccbc 7b50 4c3d 8499 a33d
000001d0: 9b86 97bd 9568 213d 091e 8c3b d6c4 c8bd
000001e0: 0829 a8ba bc02 4bbd 4c3c 0cbd 7708 893c
000001f0: 0720 febd 3d45 8f3c b863 87bd 9bc6 303d
00000200: fb1d 993d bba5 913d 7270 82bd f5f8 653c
00000210: 2a77 f53c d91e 8c3d 8eee cfbc 9430 82bd
00000220: 2004 ecbd 862a d8bc aad2 7f3d fe7c f13c
00000230: 9ada 2bbd eedf f5bd bbaa 9d3d ad4b ebbb
00000240: ad81 123d 6450 87bd eb26 91bd 0ee1 3bbb
00000250: 33ca d4bc 0da7 0e3c fa7b 173d 5895 943c
00000260: f60d 373d 787e 803d 1571 7dbd 36ce e6bc
00000270: 2d49 57bd a9cc 8abc a408 a4bc 88df 4abc
00000280: 6c30 aabd 1a9c d63d ff9c cf3d 26b9 9439
00000290: 59c2 c7bc b126 b53d 30c5 483c 1503 0a3d
000002a0: e130 303d 31ac 0f3d 30a8 993d 8ce5 0a3d
000002b0: b82f debc dcab dbbd 9aa8 aabd d782 103b
000002c0: d8ce 583d 0a9c 4b3d 22af afbd 2272 b6bd
000002d0: c069 61bd 2189 aa3d ca30 7b3d 1fdf a9bd
000002e0: 9523 9d3d 8768 523c d4cd 1fbd d527 073b
000002f0: 55d1 ce3c 211b a73d 2f9f c0bc 371a 8c3c
00000300: 87fb 463d 6f6c c8bd 14e3 aebd d5ec 3dbc
00000310: 92f4 573d 5765 59bb 44f8 d33d 28c7 173d
00000320: e036 9ebd 41d4 603d 31ae 05bd 1ff2 10bd
00000330: 24ac d33d c179 843d bfec e63c e742 9a3d
00000340: 582f 3a3d e307 80bd fb60 c9bd dec0 dfbd
00000350: 43cf 0cbc 30ce 9bbd 8f2b babd ab6d 0fbd
00000360: 7d8e a83b 4fcd bebd 08f7 b0bc b79d 733d
00000370: e271 5bbc 10f5 32bd 2432 0f3d 886b 003d
00000380: d70a 663d a46d 9b3c 59cc a63d d062 6dbd
00000390: f119 be3c 307c 99bd 721a 153d 362a 31bd
000003a0: 3169 d0bc adcb b73d 067e ab3b 557d e4bd
000003b0: d352 c1bd a844 adbc 213d 06bd 8a31 d4bd
000003c0: afd5 71bd 70bd ecbd dd5a 1bbd 0d57 64bd
000003d0: 0cb2 5e3d 033c 773d 2a07 ba3d a429 e63c
000003e0: 88ad f23b 4a90 c6bb 8195 123d d3a7 80bd
000003f0: c18a 5c3d fff0 1e3a abb4 913d 0b75 a5bd
-0.007684479 0.043914903 0.06521327 -0.050906315 -0.048749328 -0.08114939 0.046689726 0.06185298
-0.07454547 -0.053147033 -0.029574 0.064428985 0.06868638 -0.043099195 0.07985829 0.011836006
0.03040608 -0.03755429 -0.015195035 0.08420367 0.027170358 -0.05866096 -0.010343168 0.054855347
0.09539802 0.063222624 -0.014125677 -0.08221485 0.053873092 0.07434233 -0.03623182 0.02233122
0.047061585 -0.020346936 0.10107144 0.023622364 -0.06699057 -0.095283024 0.025133548 0.083447926
0.101356775 0.06253433 0.07874938 -0.02311883 -0.084232815 0.08494971 0.053843588 0.030130034
0.013260574 0.042297676 0.01846623 0.0023079661 -0.06752302 -0.013563799 -0.08521968 -0.051249452
0.09972457 0.09938042 -0.08113489 0.0053194645 -0.049856283 0.09594622 -0.06387009 0.006206117
0.075167276 -0.004833182 0.054525733 0.010793261 -0.048021458 -0.052567173 0.08813682 0.05396255
0.087995306 -0.062132392 -0.01339793 0.07766851 -0.031719 0.09215211 0.043870796 0.063816294
-0.013914961 0.100515835 0.054656707 0.06625811 0.060061406 0.047902975 -0.07322996 -0.06425384
0.04971513 0.031076916 0.009501258 -0.06789179 -0.090673134 0.07490574 -0.07324858 -0.098092556
-0.055695236 0.010088939 -0.042381022 -0.100802496 0.029986538 -0.051178817 -0.08415084 0.0024316146
-0.11897355 0.002530349 -0.09554287 -0.023018382 -0.04858788 0.033473775 0.006143712 0.0015761806
0.07209159 -0.024975397 0.04988144 0.07988265 -0.07398721 0.039406378 0.0042760414 -0.098031685
-0.0012829611 -0.049563155 -0.03423719 0.01672767 -0.124084525 0.01748907 -0.06610817 0.043158155
0.074764214 0.07111689 -0.063691035 0.014036407 0.029964048 0.06841821 -0.025382306 -0.06356922
-0.11524224 -0.026387464 0.062456764 0.029478546 -0.04195652 -0.12005602 0.0769858 -0.007180652
0.0357682 -0.0660713 -0.07087501 -0.0028668079 -0.025975322 0.00870682 0.036983468 0.018137619
0.04469105 0.06274122 -0.06187542 -0.0281745 -0.05256002 -0.016943293 -0.020023651 -0.012382396
-0.08310017 0.10478993 0.101373665 0.00028366706 -0.024384664 0.088452704 0.012254044 0.033694346
0.043015365 0.035076324 0.07502782 0.03391032 -0.027122363 -0.10726139 -0.083329394 0.0022050643
0.052931637 0.049709357 -0.08578326 -0.08908488 -0.05503249 0.083269365 0.061325826 -0.0829451
0.07672802 0.012842304 -0.039014652 0.0020623107 0.025246302 0.08159471 -0.023513405 0.017102344
0.04857972 -0.09786307 -0.085394055 -0.01159211 0.052723475 -0.0033171976 0.10350087 0.037055165
-0.0772531 0.05488992 -0.032636825 -0.035387155 0.103355676 0.06468535 0.028189061 0.07532292
0.045455307 -0.06251504 -0.09832951 -0.10925458 -0.008594337 -0.076076865 -0.090903394 -0.035016697
0.005143939 -0.09316503 -0.021602169 0.05947658 -0.013393851 -0.04369074 0.034959927 0.03135255
0.05616268 0.01897318 0.08144445 -0.057955563 0.02320573 -0.0749439 0.036402173 -0.043253146
-0.025440784 0.08974395 0.005233529 -0.11156718 -0.094396256 -0.021150902 -0.03277314 -0.10361011
-0.059041675 -0.1155957 -0.03792845 -0.05574708 0.054369017 0.060359966 0.09083398 0.028096028
0.0074059404 -0.006059681 0.03578711 -0.0628201 0.053843264 0.0006063133 0.07114538 -0.08078965

conv1.bias f4 [20]
00000000: b626 d4bd 8d1c 803d 6e07 d93d 9007 543d
00000010: cb70 d5bc 7bd5 a2bd d975 913d b8ec b33d
00000020: 1b20 20bd fb61 9a3b 4778 8fbd 55b8 ee3c
00000030: 25e6 b1bd a435 d1bb 5098 9cbc 3361 a43d
00000040: 7431 b1bc 0eee c03c aeb6 23bd 045e d3bd
-0.10358946 0.06255446 0.1059712 0.051765025 -0.02605476 -0.079508744 0.07102556 0.08785385
-0.03909312 0.004711387 -0.07005363 0.02914063 -0.08686475 -0.0063845683 -0.019115597 0.08026352
-0.021630026 0.023551013 -0.03996914 -0.103206664

conv2.weight f4 [40, 20, 3, 3]
00000000: bf8c d83b cfe1 433d b56e 243d 3f23 4b3d
00000010: 3f34 163d b897 e0bb 4216 8dbc 23db 24bc
00000020: 03a1 a03c 3edf 873d 0786 12bd 1f93 613d
00000030: 4b12 893d 215c f6bc 8858 3c3d 2024 d93c
00000040: b80a 15bc 2d7c 673d 62b9 8f3d 5a13 af3c
00000050: 704c 2dbc cd48 203d c969 f0bc 83d5 013d
00000060: 91fc 643c 3085 253d a0ab dfbc 00a9 30bd
00000070: b320 123d 219b 3dbd 42f0 3fbd e1f2 11bd
00000080: a9a9 ca3c 5656 f83c 2dd4 8fbd bcf9 b0bd
00000090: e5de 2bbd fab3 8ebd d221 6f3d 99aa 89bd
000000a0: 40ef c63c 53b1 43bd 45b6 b43c a835 7d3d
000000b0: 591d 793d 98b4 3e3c 354f 1e3d 02d5 25bc
000000c0: 54b8 833d ba1d 9e3d 9abf f43c f7ff fdbc
000000d0: ada4 c73d 4a7d 0fbd 221c e7bc db5b 1abd
000000e0: 0089 ef3a 7320 70bd 81ae bcbd fe3e be3b
000000f0: cf44 a3bd d117 35bd dde0 443d bbda 233d
00000100: d3ab f139 ba44 8ebd 06e0 a53c d036 fe3c
00000110: b4cc a6bc d7aa 95bd 46a9 d63c c4fb 3abd
00000120: fe0a b13c f2ef 49bd ecbc 50bc b90e 51bd
00000130: 52dd 3f3d ab1c a83c aae8 5b3d 19d3 7b3d
00000140: 2e71 2f3c a4ea 00bd 5b5d e93c 9bb3 233d
00000150: c293 283d 3b2b 2c3d e546 363a 8332 12bd
00000160: 994b 8a3c 3be7 6d3d 13f0 7f3c 85a3 223d
00000170: b8a7 aa3c 338b 50bd 4615 80bd 9d0c 313c
00000180: 1ed4 223d 901c 7c3d 9d5d 303d 9e81 a73b
00000190: 9583 a73c 05a9 c63b 42eb 1b3d f3f9 7dbc
000001a0: 04cb 9bbd 0633 0ebc dc89 44bd 0984 83bc
000001b0: 813c c3ba 6e75 1a3d bf72 9dbb 0cad b1bb
000001c0: 516b 3cbb 8ec8 963d 99e8 ac3d 5aea 813c
000001d0: 94b3 463d bb8e a73d 649b c0bc 4f6c 02bc
000001e0: 4338 603d d6d1 74bd 5304 76bc 64d9 4c3d
000001f0: 014a 38bd 139e a23d 9371 b53c d04a d23a
00000200: 6401 c5bc 7644 aabb 3be1 5b3d 7c7b 6bbb
00000210: 99d7 153c 14fa 143d 35c5 16bd 5af6 483d
00000220: d21b b33c d4a5 edbc 5245 203c f739 d9bc
00000230: 8ec2 1e3d def1 ad3c b9e9 593c 0623 473d
00000240: 445a 5cbd 769a e23b 15f2 813d 6deb 8b3b
00000250: 4644 fa3c 8237 4e3d cea6 6fbd f832 52bd
00000260: 4aa9 acbc 2552 db3c 1ced 78bd 2428 ed3b
00000270: 670b 9a3c ffd7 b2bd 2215 7fbd 3024 163d
00000280: c54a 1c3d 9b95 1e3d acad b83a 02d2 e53c
00000290: 4d98 5f3d 4291 463d 0037 0cbd ccad d33b
000002a0: 7961 bb3d c21b 933c a7ce 41bd 7ee8 873c
000002b0: 0059 95bc 262a 90bd 03aa 4dbd 5ead 823c
000002c0: 29b1 893d 7f3c 843d c993 5ebd a258 853c
000002d0: d04b b2ba b510 0f3b 829b 89bd 0c56 01bd
000002e0: 47d2 93bd 64a4 753d e6e9 433d f1ac 2cbd
000002f0: c372 39bd 70c0 80bd 7acd 6bbd a8c9 923c
00000300: e330 3fbd 8425 1c3d 1c74 1ebd 4dbf 52bc
00000310: 8f5e c63c f290 14bd 71f1 9d3d 63af b93c
00000320: 4bba 2e3d 3810 9fbb 083e 27bc 3187 17bd
00000330: c790 7abd 5a54 18bc 11d4 41bd 4c2f 083d
00000340: f651 a23d ad36 863d f62d 06bd 970f 20bc
00000350: 337b 853d 9086 05bd 6e41 4cbc f2fc a2bb
00000360: 6869 71bd 754a 9bbb d6c3 793d 3ca9 dbb9
00000370: dc98 6cbd b890 843d 0eac 303b 12e8 953c
00000380: 71c4 053d 98d7 49bd cf28 b3bc ba9b 70bd
00000390: a660 db3c 6422 9a3b e366 17bd 9fda 7cbd
000003a0: 6ecb 9cbc 25c6 4cbd e5d5 b93d a41c 7fbc
000003b0: de7a d43c 51d5 f03a 086d ac3d a07a 7a3d
000003c0: 743a f93b eaa2 573d cc17 cd3c b3e2 273d
000003d0: 8c27 0fbd aa54 37bd 96f9 4b3d 5e1b 043d
000003e0: 19a5 d63c b6e6 19bd ef82 23bd 2d2e 733c
000003f0: 9a44 96bd 3c7c 29bd 3124 15bc f0c1 163b
0.006608575 0.04782277 0.04014464 0.04959416 0.03667092 -0.006854024 -0.017222527 -0.010062012
0.019608026 0.06634377 -0.03577235 0.055071946 0.06692942 -0.030073227 0.045982867 0.026506484
-0.009096794 0.056514908 0.07017781 0.021371532 -0.010577306 0.03913193 -0.029347317 0.03169776
0.013976232 0.04041022 -0.027303517 -0.04312992 0.035675716 -0.04629052 -0.046859987 -0.035632018
0.024739103 0.030314606 -0.07022891 -0.08641383 -0.041960616 -0.069679216 0.058381863 -0.06721992
0.024284005 -0.04777653 0.02205957 0.06181875 0.060819004 0.011639737 0.038649756 -0.010121586
0.06431642 0.07720514 0.029876519 -0.031005843 0.09748206 -0.035031594 -0.028211657 -0.037685256
0.0018275082 -0.058624696 -0.092129715 0.005805849 -0.079721086 -0.044212166 0.04806601 0.04000352
0.0004609512 -0.06946702 0.020248424 0.031031996 -0.020361282 -0.07307976 0.026203763 -0.04565026
0.021611687 -0.049301095 -0.012740355 -0.05103943 0.046841927 0.020521482 0.053688683 0.061480615
0.0107081365 -0.03147377 0.028486898 0.039966207 0.041156538 0.042033415 0.0006953313 -0.035692703
0.01688175 0.058081847 0.015621203 0.039706726 0.020831928 -0.050914 -0.062540576 0.01080623
0.039753072 0.061550677 0.043058027 0.005111887 0.020448485 0.006062629 0.038066156 -0.015501487
-0.076070815 -0.008679157 -0.047983035 -0.01605417 -0.0014895351 0.037709646 -0.0048049386 -0.00542224
-0.002875049 0.073624715 0.08442802 0.015858818 0.048511103 0.081815206 -0.023511596 -0.007960393
0.054741155 -0.059770428 -0.015015679 0.050012007 -0.04499245 0.079403065 0.022148883 0.0016044024
-0.024048515 -0.0051961495 0.053681593 -0.0035931757 0.009145641 0.036371306 -0.036809165 0.049063064
0.021863852 -0.029009737 0.009782152 -0.026516898 0.03875976 0.021233495 0.013300353 0.048617385
-0.05379702 0.006915386 0.063450016 0.0042700083 0.030550133 0.050345905 -0.058508687 -0.05131814
-0.021076817 0.026772568 -0.060773 0.007237451 0.018804265 -0.08732604 -0.062276013 0.036655605
0.038157243 0.038716894 0.0014089844 0.028054241 0.054588605 0.048478372 -0.03423214 0.006459927
0.09149451 0.017957572 -0.04731622 0.016590353 -0.018230915 -0.07039289 -0.050210964 0.015951809
0.06723244 0.06456851 -0.054340158 0.016277615 -0.0013602916 0.0021830027 -0.06719114 -0.0315762
-0.072178416 0.05997123 0.047830485 -0.042157117 -0.04527546 -0.062867045 -0.057569005 0.017918423
-0.04667748 0.038121715 -0.03868495 -0.0128629925 0.02421501 -0.036271043 0.07712067 0.022666639
0.04265813 -0.0048542283 -0.0102076605 -0.036994163 -0.061173227 -0.009297455 -0.047321383 0.03324823
0.07925789 0.06553397 -0.032758676 -0.009769342 0.06517639 -0.032599032 -0.0124667715 -0.004974001
-0.058938414 -0.0047391006 0.06097778 -0.00041897024 -0.057762966 0.064729154 0.0026958021 0.018299136
0.032658044 -0.04927787 -0.021870045 -0.058742262 0.026779484 0.0047038067 -0.036963355 -0.06173193
-0.019139972 -0.049993653 0.09074 -0.015570793 0.025937494 0.001837412 0.084192336 0.0611521
0.007605845 0.0526456 0.025035761 0.04098768 -0.034949824 -0.044758476 0.04979857 0.032252662
0.026201772 -0.03757354 -0.03991979 0.014842552 -0.073373035 -0.041378245 -0.009102867 0.002300378

conv2.bias f4 [40]
00000000: 2c1f 79bd a610 953d d016 c7bc 5fdf 873d
00000010: 06cc b13c 5eed 153d d47a 443d 2884 1bbd
00000020: aac7 36bc 9bde 4d3d f9b1 8ebd d677 993d
00000030: f36e 15bd 7eab 87bd 7666 9abc def2 c83c
00000040: 6f2c 97bd 45b5 aabc ba98 8a3d 1453 17bd
00000050: a95a 0ebd cc82 113c 0cc4 293c abbf 94bd
00000060: 52a1 653d 5286 4d3c 54b8 dd3c a651 973b
00000070: 1a67 87bd cd70 a7ba 05c3 0b3d b52c 8dbd
00000080: b36b fdbc f9c0 bcbc e43b 91bd 98dd 3fbd
00000090: 9810 6cbd ac6c 2abd b596 803d a313 63bc
-0.060820743 0.07278566 -0.02430287 0.066344015 0.021703731 0.036603324 0.0479687 -0.03796783
-0.011156002 0.05026112 -0.06967539 0.0749356 -0.036482763 -0.066245064 -0.018847685 0.02452987
-0.07381522 -0.02083839 0.067674115 -0.036944464 -0.03475443 0.008881282 0.010361683 -0.0726312
0.05606205 0.0125442315 0.027065434 0.0046178875 -0.06611462 -0.0012774706 0.034121532 -0.06893293
-0.030935144 -0.023041235 -0.07091501 -0.046842188 -0.057633013 -0.041607544 0.06278745 -0.013859662

fc1.weight f4 [1, 6760]
00000000: 009c 993a 4f3e f53b 7200 8b3c baf8 803c
00000010: 4ffc bd3c ec93 123d 4ba1 fb3c 0004 943c
00000020: f2ed fd3c de23 0e3d 3df0 483c 3588 673c
00000030: 3847 133c 9ce0 cb3c b5cf b13c 0790 513c
00000040: 980c c13c 20b8 193d ce47 0b3d 694b b23c
00000050: f553 b83c 322e 9b3c 4c56 a13c 4481 5a3c
00000060: 4050 9e3c fdd5 e63c 4622 4b3c 013d 8e3c
00000070: aa3b 223c ccc6 ea3c 9da5 e93c e0b3 0b3d
00000080: 0d33 cd3c 6564 ae3c aca9 b93c 3726 8e3c
00000090: 048f 9d3c d7e1 9d3c 498d d83c 981a 983b
000000a0: 05b9 393c fedb 743c 9f51 013d 255f 953c
000000b0: 011a 093d ca37 153d c0b4 f23c 622e c93c
000000c0: 97f5 f43c 8ede db3c 86e0 113c cde0 cb3c
000000d0: 8c63 583c 8f5b 2c3c 720e 973c 0cba 993c
000000e0: c3ec bd3c b79b a53c 25a1 253d 3860 db3c
000000f0: 2a4c 0d3d 1050 ca3c b0fd 5f3c 2eea 183d
00000100: caaa 0b3d a28b d33c 4b70 fc3b 97c7 3e3c
00000110: 0018 7a3c a956 c93c ab4d 003d 04a4 b73c
00000120: ab3e 903c 7548 5d3c 833a 553c 44e5 b03c
00000130: 1e3d 143d 70ed 213d 55fd 8b3c d3ab e73b
00000140: 857b d13b d05f 043b fbea bd3c 9ffa 8a3c
00000150: a408 4e3c 3377 b63c 039f c73c f528 9c3c
00000160: bd78 1c3d 8c8e 1d3d 5c22 033d 79ff 2e3c
00000170: 6516 5b3c 16df 843c 3745 503c 28a8 9d3c
00000180: 073c 833b ff18 a6ba b5b6 933c 3369 ac3c
00000190: 21ea 713c fdb2 9f3c e0ce bc3c ed1c 833c
000001a0: 4cb6 bf3c e5dd 00ba e9ac 913b d071 9fbb
000001b0: 73da 31bb 62e7 433c 7e07 323b 7397 ae3b
000001c0: b9ee 1d3c 38bd 1c3c 0f38 b13b 231d c93c
000001d0: 45f2 613c acc4 c03c a115 4d3c 098f 4a3b
000001e0: 5992 6c3c cda3 533c 48f2 5bba cd8a 9e3c
000001f0: 3a55 55bb 70c4 f0bb 213e 353b 2287 adbb
00000200: 4ceb a43b eb95 dcba 1219 8a3c df90 1bba
00000210: 654b 213c 8d97 653c 07e3 393c 8590 953c
00000220: 4e26 023c 6e01 983b 26aa 73bb 03e6 e6bb
00000230: a2ef 6dbb b0a4 063c 9f17 8a3c 12c8 a33c
00000240: 96d2 f63a ebfc bdb9 76e4 79bb 57a7 583b
00000250: 239a 8fb9 2a4d 0e3b 0017 863b e7e7 363c
00000260: 019d 343c b356 3b3c 9b46 e53b 7c3d 7c3b
00000270: fcbc 323c 7f96 013c 75cd 723c 5da1 c13c
00000280: b38a 483c 6aa5 773c ebb9 dfbb 3cf6 0fba
00000290: 5ddb f13a 05fa 3d3c 219b ba3b 2dae ad3c
000002a0: 25d7 d23c 6380 85bc 3e12 00bc 1694 21bc
000002b0: f52d fcbc fab7 98bc f844 26bc a496 adbc
000002c0: fa5b 30bc 031a cabc 2a4a ccbc 69cd 99bc
000002d0: 15dd bfbc cf93 9fbc a98e 62bc ee07 e5bc
000002e0: 670f 75bc 6a42 8abc 2998 50bc cf39 f6bc
000002f0: abf4 cfbc 214e 0dbd 1212 86bc 3ffc 3bbc
00000300: ca67 7dbc 870d 1ebc 5b29 78bc c807 8cbc
00000310: bc54 aabc afdc c2bc 705f 42bc af24 2fbc
00000320: 92b8 6cbc 7bcc 8dbc 98f2 eebc 3378 c5bc
00000330: d4ad 36bc 0ef6 77bc 1a05 c5bc 4747 b1bc
00000340: 608f a6bb 003c d7bc 3f25 edbc 9a45 8abc
00000350: e46d febc 4755 a6bc f761 bebc 8c17 dbbc
00000360: 880f b4bc 4480 bfbc 51f9 2abc 2d22 f1bb
00000370: 4d87 ddbb 57a7 9ebb a66f 6abc 11c9 a3bc
00000380: cc69 e7bc d830 7ebc b9da bfbc b02c acbc
00000390: 3016 b4bc 3b76 fbbc 85e7 8dbc d7b7 f9bc
000003a0: c992 babc 39bb 9bbc a7ae 84bc aa6d 8dbc
000003b0: 52c6 8abc 31b6 fdbb 8428 95bc 678e d2bc
000003c0: 2fd8 97bc 8365 67bc 70d7 94bc 36ea 78bc
000003d0: 4086 a5bc 7f97 e2bc 20d5 07bc eb00 05bc
000003e0: 7cf6 b5bc 1ac3 06bc 1506 5abb 9f44 55bc
000003f0: fe38 debc 6486 83bc dd52 aabc cb97 cfbb
0.0011719465 0.0074842344 0.016967986 0.015743602 0.0231916 0.0357856 0.030716559 0.018068314
0.03099725 0.034702174 0.0122643085 0.014131595 0.008989148 0.024887376 0.021705488 0.012790686
0.023565575 0.03752911 0.034004025 0.021764474 0.022500971 0.018942926 0.01969447 0.013336483
0.019325376 0.02817821 0.012398308 0.017363073 0.00990192 0.028659247 0.028521353 0.03410709
0.025048757 0.021288106 0.022663914 0.017352207 0.019233234 0.019272728 0.026434558 0.004641842
0.011335616 0.014945028 0.03157198 0.018233845 0.033472065 0.036430158 0.029627204 0.02455825
0.029902263 0.02683952 0.008903628 0.024887467 0.013207328 0.010519876 0.018439505 0.018765472
0.023184186 0.020215852 0.040436883 0.02677928 0.034496464 0.02469638 0.013671324 0.037332706
0.034098424 0.025823418 0.007703816 0.011644266 0.015264511 0.024577456 0.03132407 0.022417076
0.017608007 0.013506045 0.013014439 0.021593697 0.0361911 0.03953308 0.017088572 0.0070700436
0.0063928985 0.002019871 0.023183336 0.016965209 0.012575302 0.022273635 0.024367815 0.019062499
0.038201082 0.03846602 0.03201519 0.010681027 0.0133720385 0.016219657 0.012711815 0.019245222
0.0040049586 -0.0012672244 0.018031457 0.021046257 0.014765293 0.019494528 0.023047864 0.016005004
0.023402356 -0.00049158774 0.0044456613 -0.0048658624 -0.0027138263 0.011957021 0.002716511 0.0053281127
0.009639435 0.009566598 0.005408294 0.024550026 0.013790672 0.02353128 0.012517364 0.003090801
0.014439189 0.012917471 -0.000839029 0.019353295 -0.003255202 -0.007347636 0.002765544 -0.00529565
0.0050329324 -0.0016829347 0.016857658 -0.0005934368 0.009844636 0.014013183 0.011345631 0.018257389
0.007943703 0.0046388423 -0.0037180274 -0.0070464625 -0.0036306162 0.0082179755 0.016856967 0.019992862
0.001883107 -0.00036237328 -0.0038130558 0.0033058727 -0.00027389926 0.0021713474 0.0040920973 0.011163688
0.011023761 0.011434245 0.006996942 0.0038488796 0.010909315 0.007909416 0.014819493 0.023636514
0.0122401 0.015115121 -0.006827583 -0.0005491709 0.0018452216 0.011595254 0.0056947623 0.021201218
0.025737355 -0.016296571 -0.007816849 -0.009861967 -0.030783633 -0.018642414 -0.010148279 -0.021189995
-0.010764116 -0.024670606 -0.024937708 -0.018774705 -0.02342085 -0.01947966 -0.013827958 -0.027957883
-0.0149572855 -0.016877372 -0.01273159 -0.030056862 -0.025385221 -0.034498338 -0.016366038 -0.011473714
-0.01546664 -0.00964678 -0.015146579 -0.017093554 -0.020792358 -0.02378687 -0.011863574 -0.010689898
-0.014448302 -0.017309418 -0.029168412 -0.024105167 -0.011149842 -0.015134348 -0.024050284 -0.021640433
-0.0050830096 -0.026273727 -0.028948424 -0.016878892 -0.03105826 -0.020304335 -0.023240073 -0.026744626
-0.021980062 -0.023376592 -0.010435418 -0.0073588104 -0.006760514 -0.004841726 -0.014308846 -0.019993337
-0.02824869 -0.015514575 -0.023419725 -0.021017402 -0.021983236 -0.030696025 -0.017322311 -0.03048317
-0.02277507 -0.019010173 -0.016196562 -0.017264206 -0.01694027 -0.007742666 -0.018207796 -0.025702668
-0.018535702 -0.014123323 -0.018169135 -0.015192559 -0.020205617 -0.02766013 -0.008290559 -0.008117895
-0.02221226 -0.008225227 -0.0033267785 -0.013016849 -0.027126785 -0.016055293 -0.020791465 -0.006335234
