ConvLSTM/Sequence/0.82_59_A_S.pt (torch, 84919 bytes, 7 tensors)

conv_lstm.conv.weight f4 [40, 13, 3, 3]
0	0xbd811be4	-0.06304148
1	0x3dc620d0	0.09674227
2	0xbd5f1669	-0.05446473
3	0xbd6aa214	-0.057283476
4	0x3dd2dd67	0.102961354
5	0xbd05d70b	-0.032675784
6	0x3cf187ad	0.02948364
7	0xbcc6e59a	-0.024279404
8	0x3d7c1a07	0.06154826
9	0x3b6b1aa1	0.0035874026
10	0xbd2b5a18	-0.041833967
11	0x3dd83eb4	0.10558835
12	0x3d4ab4d4	0.049488857
13	0xbd24c147	-0.040223386
14	0x3ce47f4d	0.027892733
15	0xbd390cc6	-0.045178197
16	0x3dc2f5be	0.09519528
17	0x3c00b379	0.00785529
18	0x3ce59538	0.028025255
19	0xbd233ffb	-0.03985594
20	0xbc7a0c59	-0.015261733
21	0x3d7e4016	0.062072836
22	0x3caf79db	0.02142041
23	0x3ca3d41c	0.019998603
24	0xbd956156	-0.07293956
25	0xbd123ef9	-0.035704587
26	0x3d3ede1f	0.04659855
27	0x3d3ec215	0.04657181
28	0x3d408f71	0.047011796
29	0xbd59591b	-0.053063493
30	0x3ddc34ee	0.10752283
31	0x3d81229c	0.06305429
32	0x3d8cac42	0.06868793
33	0x3cd07d95	0.025450507
34	0x3db51a46	0.08842902
35	0x3d74635f	0.05966508
36	0x3d215e2d	0.039396454
37	0x3ddd4a10	0.10805142
38	0x3de71d01	0.11284829
39	0xbbe36113	-0.0069390624
40	0x3de13cbf	0.109979145
41	0x3db60171	0.08886994
42	0xbb58f58e	-0.0033105346
43	0x3d207cf3	0.03918166
44	0x3d0c83d8	0.034305423
45	0x3dcc16e0	0.099653006
46	0x3cd00b16	0.025395911
47	0xbd55c6b0	-0.052191436
48	0xbd811445	-0.06302694
49	0x3cba2464	0.02272243
50	0x3d84aab6	0.06477873
51	0x3d9fd16a	0.078036144
52	0xbb1024f6	-0.0021994687
53	0xbd284a2a	-0.041086353
54	0xbdaad48e	-0.08341323
55	0xbdad098f	-0.08449089
56	0xbd54b329	-0.051928673
57	0xbde01a42	-0.10942508
58	0xbc8a87f9	-0.01691054
59	0xbd2f7a23	-0.042841088
60	0xbdb2f88d	-0.087388135
61	0x3d79e615	0.06101044
62	0x3d830e31	0.06399191
63	0xbab60845	-0.0013887963
64	0x3d8a450f	0.06751453
65	0xbd202083	-0.039093506
66	0x3db2005d	0.086914755
67	0x3d868650	0.06568587
68	0x3c8abc8d	0.016935611
69	0xbc1593c7	-0.009129471
70	0xbd337639	-0.043813918
71	0xbb4e9c65	-0.0031526324
72	0xbb10d8b6	-0.0022101826
73	0xbd894ff4	-0.06704703
74	0x3ce01c8a	0.027357358
75	0xbd839a80	-0.06425953
76	0xbc0f5b65	-0.0087498175
77	0x3d88cdee	0.06679903
78	0x3d92888a	0.07154949
79	0x3d31e176	0.043427907
80	0xbd432be3	-0.047649276
81	0xbd891c88	-0.06694895
82	0x3dc22403	0.09479525
83	0xb9c68471	-0.0003786418
84	0x3bb65ed9	0.005565506
85	0xbd0f485f	-0.034981128
86	0x3dbda31a	0.09259625
87	0xbd30d13e	-0.0431683
88	0xbca2ebe6	-0.019887876
89	0xbd9b86fe	-0.07594107
90	0xbc5adfc3	-0.013359013
91	0xbacfeb77	-0.0015863021
92	0x3db34882	0.08754064
93	0x3d5ae9c3	0.05344559
94	0x3d15a8f1	0.03653807
95	0x3da93c02	0.08263399
96	0x3d969a29	0.073536225
97	0xb9e98ba9	-0.00044545278
98	0x3cd14f4c	0.025550507
99	0xbdc8d147	-0.098055415
100	0xbdd4174d	-0.10356007
101	0xbc8204b8	-0.01587139
102	0xbdd60fa1	-0.104522
103	0xbc289093	-0.010288375
104	0x3d0cb82b	0.034355324
105	0x3cc97aa0	0.024594605
106	0xbd2ce94e	-0.042214684
107	0xbda4c1cd	-0.08044777
108	0x3d788dcc	0.060682103
109	0x3d2f61dc	0.042817935
110	0xbd19e5e0	-0.03757274
111	0x3d4df47b	0.050281983
112	0xbd099ff7	-0.03359982
113	0x3dba0ccc	0.09084472
114	0x3d451f47	0.04812553
115	0x3dc289be	0.094989285
116	0xbc9f4e58	-0.019446537
117	0x3d27f569	0.041005526
118	0xbd4106d5	-0.047125656
119	0x3c6b45e3	0.014359924
120	0x3d489dfb	0.048978787
121	0x3c1fbfca	0.009750316
122	0x3cb94563	0.022616094
123	0x3a54b148	0.0008113575
124	0x3dabc29f	0.083867304
125	0xbcc42101	-0.023941519
126	0x3d334d04	0.04377462
127	0x3ca89dec	0.020583116
128	0xbd64c80c	-0.055854842
129	0x3da1458e	0.07874595
130	0x3db46aa3	0.08809402
131	0x3dc4e6d9	0.09614343
132	0x3ddbcfc7	0.1073299
133	0xbd0373e2	-0.032092936
134	0x3deb78c1	0.11497641
135	0x3dd456b1	0.103680976
136	0xbce6caeb	-0.02817293
137	0x3d09bc5c	0.0336269
138	0xbd732f64	-0.059371367
139	0xbc831822	-0.016002718
140	0xbc00126d	-0.007816893
141	0x3c83ff46	0.016112935
142	0x3d42d4cc	0.04756622
143	0x3da1a74a	0.07893236
144	0x3ce75067	0.028236581
145	0x3d5fb0d7	0.054612007
146	0xbc20915c	-0.009800281
147	0xbd2be955	-0.04197057
148	0x3dd7db68	0.10539895
149	0xbd187c93	-0.03722818
150	0xbd2a7aeb	-0.04162113
151	0xbc71fc11	-0.01476957
152	0xbd6848cd	-0.056710053
153	0x3d838041	0.06420947
154	0x3d8b33a7	0.06796961
155	0x3dbe05dd	0.09278462
156	0x3e01b40e	0.12666342
157	0x3dcbde01	0.09954453
158	0x3d999d90	0.07500756
159	0x3d827912	0.063707486
160	0x3dbe5b8c	0.09294805
161	0x3ce560ee	0.028000321
162	0xbdbb3034	-0.091400534
163	0xbd2800ac	-0.041016266
164	0x3db3047a	0.08741088
165	0x3d495089	0.04914907
166	0x3d19eb7c	0.03757809
167	0xbc86a845	-0.016437659
168	0x3d6abe92	0.05731065
169	0x3c4bc3ff	0.012436866
170	0x3d5f46cb	0.054510873
171	0x3d2ba57e	0.041905873
172	0xbd503278	-0.05082938
173	0xbd1733e8	-0.036914736
174	0xbbed39c4	-0.007239552
175	0xbdc481e0	-0.09595084
176	0xbde2d360	-0.11075473
177	0xbdef6c48	-0.11690575
178	0xbd239559	-0.03993735
179	0x3cc09e12	0.023512874
180	0x3dd3516c	0.10318264
181	0xbd5ba0fd	-0.053620327
182	0x3d0a1d52	0.03371937
183	0xbd88c7ef	-0.06678759
184	0xbcdc7248	-0.026909962
185	0xbb449072	-0.0029993323
186	0xbd3d24eb	-0.046177786
187	0x3bfc9d37	0.007709171
188	0x3db46b03	0.08809473
189	0xbc3518c4	-0.011053268
190	0xbd81babe	-0.06334446
191	0xbd5e3ece	-0.054259114
192	0x3d903db5	0.0704302
193	0x3c9e6010	0.019332916
194	0xbc747a12	-0.014921682
195	0xbd590346	-0.052981637
196	0xbc98e696	-0.01866464
197	0xbd868be2	-0.06569649
198	0x3d83664b	0.06415995
199	0xbd32c5a8	-0.04364553
200	0x3da1410d	0.078737356
201	0x3d5cc391	0.053897444
202	0x3cfe034c	0.031007431
203	0xbd8f056e	-0.069834575
204	0xbd859e72	-0.06524362
205	0x3d6d728f	0.05797058
206	0x3de2d70a	0.11076172
207	0x3d623185	0.055223007
208	0x3d3a77e9	0.04552451
209	0x3d228b7f	0.039683815
210	0x3dc72a4d	0.09724865
211	0x3c8da760	0.017291725
212	0x3deb24fe	0.11481665
213	0xbc80edfa	-0.015738476
214	0x3dbc12ab	0.09183248
215	0xbd5a6d00	-0.053326607
216	0x3c13e4be	0.009026704
217	0x3d2828d5	0.041054565
218	0x3d6456d8	0.055746883
219	0xbc8fa329	-0.017533856
220	0xbd7b6f37	-0.06138536
221	0x3b2e7089	0.002661737
222	0xbdc00a13	-0.093769215
223	0xbd8a8657	-0.067639045
224	0xbde6f6a6	-0.11277513
225	0x3d8d6ebf	0.06905889
226	0xbd805b87	-0.062674575
227	0x3ddb3c10	0.107048154
228	0xbd8336c0	-0.06406927
229	0x3d60c24a	0.05487279
230	0xbd47fdfe	-0.04882621
231	0x3c5c9c0d	0.01346494
232	0x3be081ff	0.0068514342
233	0xbc91ad95	-0.017782966
234	0xbcb8d4bd	-0.022562379
235	0x3d86848a	0.065682486
236	0xbc87a030	-0.016555876
237	0xbcc12b02	-0.023580078
238	0x3c3e3a72	0.011610614
239	0x3c307c39	0.0107718045
240	0x3df58e8a	0.11990078
241	0x3b614d02	0.0034378176
242	0x3da4d9d7	0.08049362
243	0x3de4a0ee	0.111635074
244	0xbd051107	-0.03248694
245	0x3dad3a29	0.08458359
246	0xbc9d387d	-0.019191975
247	0x3d8b6f3c	0.06808326
248	0x3ba9d1be	0.005182474
249	0xbd30e19a	-0.0431839
250	0xbd10de3a	-0.03536818
251	0xbd64af45	-0.055831213
252	0x3da0b04b	0.07846125
253	0x3ba2c197	0.0049669254
254	0x3d3909c8	0.045175344
255	0x3cb5886b	0.022159776

conv_lstm.conv.bias f4 [40]
0	0xbd756bff	-0.059917446
1	0x3d8e1d20	0.06939149
2	0xbcfa1001	-0.03052521
3	0x3d3c52c7	0.04597738
4	0x3d4fecb3	0.050762843
5	0x3db60567	0.08887749
6	0xbd7c9212	-0.06166274
7	0x3da1f09a	0.07907219
8	0x3c911f8c	0.017715238
9	0x3dbf6c01	0.09346772
10	0xbb3017a6	-0.0026869564
11	0x3de7b93d	0.11314628
12	0x3d8b2d9c	0.06795809
13	0xbd00b330	-0.031420887
14	0x3de119d0	0.109912515
15	0x3daf171a	0.08549328
16	0x3d8205ab	0.06348737
17	0xbd8d733e	-0.06906746
18	0x3beb1692	0.0071743215
19	0xbcd4ed2d	-0.025992
20	0xbce26ff2	-0.02764127
21	0x3d15623f	0.036470648
22	0x3ca04488	0.019563928
23	0x3da14cf8	0.07876009
24	0x3cf54080	0.029937983
25	0x3d9469d5	0.07246748
26	0x3c48f7e1	0.01226613
27	0x3d106945	0.035256643
28	0x3d9ddf84	0.07708648
29	0xbd526cd3	-0.051373314
30	0x3b802acb	0.0039113513
31	0xbd840fde	-0.06448339
32	0xbda3ddde	-0.08001302
33	0x3d1cf42b	0.038318794
34	0xbcd23fad	-0.025665129
35	0x3d7fd331	0.062457267
36	0x3dc18c16	0.094505474
37	0x3bf4bacc	0.007468557
38	0xbc3f5b0e	-0.011679424
39	0xbc3da61a	-0.011575246

conv1.weight f4 [20, 10, 3, 3]
0	0xbca58c24	-0.020208426
1	0x3dad5757	0.084639244
2	0xbd13e2a1	-0.036104802
3	0xbd6abd7f	-0.057309624
4	0x3c90e283	0.017686134
5	0x3dba165e	0.090862975
6	0xbda1a6df	-0.07893156
7	0x3d501506	0.0508013
8	0x3c345053	0.011005479
9	0x3d6f135c	0.058368072
10	0xbd16a1a9	-0.036775265
11	0x3da71774	0.0815877
12	0x3c920ccd	0.01782837
13	0x3d4082aa	0.04699961
14	0x3d524a3b	0.051340323
15	0xbd54eaa0	-0.05198157
16	0xbd474afe	-0.048655502
17	0x3ddcf672	0.10789193
18	0x3dc9fde8	0.09862882
19	0x3e0d0eeb	0.13775222
20	0x3e121b40	0.14268208
21	0x3d262415	0.040561754
22	0xbd192ce6	-0.037396334
23	0x3d9fd244	0.07803777
24	0x3d8d5f4b	0.06902941
25	0x3df10f67	0.11770516
26	0x3d0677e9	0.0328292
27	0xbd8e5554	-0.06949869
28	0x3c224c67	0.009905911
29	0xbdbe62a6	-0.092961594
30	0xbd1e76ee	-0.03868764
31	0x3d65b096	0.05607661
32	0xbd33ad03	-0.04386617
33	0x3c571483	0.013127449
34	0xbd046a9b	-0.03232823
35	0xbdd86caf	-0.10567605
36	0xbb416e70	-0.0029515289
37	0x3d45543f	0.048176046
38	0x3d76b600	0.060232162
39	0xbb9e36c8	-0.004828308
40	0xbc3bae27	-0.011455095
41	0x3cd91018	0.026496932
42	0x3dd4b781	0.10386563
43	0x3d9e70b5	0.07736341
44	0x3de5e86b	0.11225971
45	0xbdc318e9	-0.095262356
46	0x3da80d02	0.08205606
47	0xbdbad4fe	-0.09122656
48	0xbd77e189	-0.06051782
49	0x3da10a99	0.078633495
50	0x3d34cf11	0.044142786
51	0xbd072539	-0.032994483
52	0x3aa55f91	0.0012616982
53	0x3d3b6c75	0.04575773
54	0xbdd450ae	-0.10366951
55	0xbdabcb6e	-0.083884105
56	0xbb4d6b6e	-0.003134455
57	0xbdb5e7c0	-0.088820934
58	0x3c266f03	0.010158303
59	0xbcdc172b	-0.026866516
60	0x3dc11c4a	0.09429224
61	0x3d94e70b	0.072706304
62	0xbd593f72	-0.05303902
63	0x3b5cb059	0.0033674447
64	0xbc81ac7c	-0.015829317
65	0x3db1f392	0.086890355
66	0xbd35a242	-0.044344194
67	0x3d340a69	0.04395524
68	0x3dae1368	0.08499795
69	0xbd9550ce	-0.07290803
70	0x3b8496ec	0.0040463116
71	0xbd56631a	-0.052340604
72	0x3d9d1847	0.07670646
73	0xbdaf152b	-0.08548959
74	0x3d77ea8c	0.060526416
75	0xbd85de71	-0.06536568
76	0x3d83fa4b	0.06444224
77	0xbd95e650	-0.07319319
78	0xbd791955	-0.060815174
79	0xbcdf8fac	-0.027290188
80	0xbd95a50b	-0.0730687
81	0xbd073fff	-0.033020016
82	0xbd3c45ad	-0.045964886
83	0x3d82c6cb	0.06385573
84	0x3d6ab9f0	0.05730623
85	0x3daaec52	0.08345856
86	0x3c913bf6	0.017728787
87	0x3db5d566	0.08878593
88	0xbd360358	-0.044436783
89	0x3d38a374	0.045077756
90	0xbd83098f	-0.063983075
91	0x3daf0050	0.085449815
92	0x3cba0dcf	0.022711663
93	0x3d06182d	0.0327379
94	0x3ce76fcc	0.028251551
95	0xbcfe85d1	-0.031069668
96	0x3db1b5bc	0.08677241
97	0x3cbcfa0f	0.023068456
98	0x3db745e5	0.08948878
99	0x3dde6dc4	0.1086078
100	0x3d4faefb	0.050703984
101	0x3dcc7a6a	0.09984286
102	0x3d79bfec	0.060974047
103	0x3da8cdb9	0.082423635
104	0xbd8771e3	-0.06613519
105	0xbd47f00b	-0.048812907
106	0x3d290ce4	0.04127206
107	0x3c957494	0.018244065
108	0xbd87622d	-0.066105224
109	0xbda2e528	-0.07953864
110	0x3d564a1f	0.05231678
111	0xbc963197	-0.018334193
112	0x3dd45084	0.1036692
113	0x3da1c2f6	0.07898514
114	0x3cdf3e7f	0.02725148
115	0xbd74ebb2	-0.05979509
116	0xbd896a4f	-0.0670973
117	0x3c22ef77	0.009944788
118	0xbd57bd0f	-0.052670535
119	0xbdc77bcf	-0.097404115
120	0x3d4ebe2b	0.050474327
121	0x3d9ea343	0.077459835
122	0xbd668093	-0.05627496
123	0xbd6d2726	-0.057898663
124	0xbdba15dc	-0.090862006
125	0xbc428fd6	-0.0118751135
126	0xbb8e421a	-0.004341376
127	0xbd8f4ea6	-0.06997423
128	0x3dcf7a41	0.1013074
129	0xbda1763b	-0.07883879
130	0xbda5dc77	-0.08098691
131	0x3d87dae5	0.06633548
132	0xbae86b38	-0.0017732149
133	0x3de019ca	0.10942419
134	0x3ce7f73f	0.028316138
135	0xbbab57d7	-0.005228977
136	0xbce76a13	-0.028248822
137	0x3d11ed2c	0.035626575
138	0x3ddd9486	0.10819344
139	0xbd504d9a	-0.050855257
140	0xbdb2bdb1	-0.08727587
141	0x3ddafed8	0.10693139
142	0x3d8b036e	0.067877635
143	0x3bbba689	0.0057266396
144	0xbb6f2b62	-0.0036494364
145	0x3d90ff7e	0.07079981
146	0x3dcab6e5	0.098981656
147	0x3dde5b60	0.10857272
148	0x3d8fb9b0	0.07017839
149	0xbdbf99ba	-0.09355493
150	0xbd3726b2	-0.044714637
151	0x3dd785c7	0.10523563
152	0x3d903cc5	0.07042841
153	0x3da2678a	0.07929905
154	0x3dbc7916	0.09202783
155	0xbd734a76	-0.059397183
156	0x3cb40c77	0.0219786
157	0x3dd854c5	0.105630435
158	0x3dcd6918	0.10029811
159	0x3d4cdf28	0.050017506
160	0x3d994c68	0.074852765
161	0xbd17f30b	-0.03709702
162	0x3bb3d4cf	0.0054880152
163	0x3cc0f52c	0.023554407
164	0x3d4bd9d1	0.049768273
165	0xbc60b2d7	-0.013714514
166	0xbd33d90e	-0.04390817
167	0x3d4d5875	0.050133187
168	0xbd42c0aa	-0.04754702
169	0x3c66c550	0.014085129
170	0x3bdaa928	0.006672997
171	0x3de4680b	0.11152657
172	0x3c816195	0.015793601
173	0xbd95f9de	-0.07323049
174	0x3db09bda	0.08623476
175	0xbc0a772c	-0.008451264
176	0x3d61cf8f	0.055129584
177	0xbdb6363a	-0.08897062
178	0x3d205ae4	0.03914918
179	0x3dc020a8	0.09381229
180	0xbd84788f	-0.06468307
181	0xbd1a3879	-0.037651513
182	0x3d61e665	0.055151362
183	0xbd0aeb87	-0.033916023
184	0xbcdc9109	-0.026924627
185	0x3daed4b0	0.08536661
186	0xbd836459	-0.06415624
187	0x3dc6e3f2	0.09711446
188	0x3d7625a7	0.0600945
189	0xbd86348a	-0.0655299
190	0x3c412916	0.011789581
191	0x3d6260f3	0.05526824
192	0xbc40ede7	-0.01177547
193	0xbd9c76a4	-0.076398164
194	0xbd99d9c9	-0.07512242
195	0xbc755e9d	-0.014976171
196	0x3d86d588	0.065836966
197	0xbceed87a	-0.029155958
198	0x3cf7b61d	0.030238206
199	0xbdc5b020	-0.09652734
200	0xbe1248a2	-0.1428552
201	0x3ca54a03	0.020176893
202	0xbdf99d28	-0.12188178
203	0x3b086cdd	0.002081684
204	0xbd306c42	-0.043071993
205	0xbcb8b4e1	-0.022547187
206	0x3d4da092	0.05020196
207	0x3d6947e9	0.056953344
208	0xbdb0fed4	-0.086423546
209	0x3da4ef88	0.080534995
210	0xbd19b310	-0.037524283
211	0x3d8d2791	0.06892312
212	0x3cdfb5fa	0.027308453
213	0x3d84359d	0.064555384
214	0xbd77c57e	-0.060491078
215	0xbc2dc88c	-0.010606896
216	0x3d60082b	0.05469529
217	0xbd2a8627	-0.041631844
218	0x3d15411f	0.036439057
219	0x3d517dec	0.05114548
220	0x3cbf6d69	0.0233676
221	0x3cd4e291	0.025986942
222	0x3d994407	0.07483678
223	0xbde3dda4	-0.11126259
224	0xbd3a129a	-0.045427896
225	0x3d913f42	0.070921436
226	0xbbe98935	-0.007126952
227	0x3d8b4cf0	0.06801784
228	0x3d1fe3a7	0.039035466
229	0xbce47d0d	-0.02789166
230	0x3d84a81e	0.06477378
231	0xbd128d4b	-0.03577928
232	0xbcf429e0	-0.029805124
233	0x3de2a144	0.11065915
234	0xbc8a28ff	-0.016865252
235	0xbd847620	-0.06467843
236	0xbcf90e5b	-0.030402353
237	0x3b8edb90	0.00435967
238	0xbc0f8abd	-0.008761105
239	0xbcad6177	-0.021164639
240	0xbcc26ed5	-0.02373449
241	0xbd412144	-0.047150865
242	0x3ceaceb5	0.028663019
243	0xbc961ab7	-0.018323286
244	0xbc5c5311	-0.013447539
245	0xbb0cecce	-0.0021503451
246	0x3cf5e9d3	0.030018723
247	0x3cf6f8b7	0.030147893
248	0xbdb63059	-0.0889594
249	0xbd4cb142	-0.049973734
250	0x3c9db55c	0.019251518
251	0x3d2427df	0.040077087
252	0xbd4ca19f	-0.04995882
253	0x3dc87d41	0.09789515
254	0xbc265dd3	-0.010154205
255	0x3d823378	0.06357473

conv1.bias f4 [20]
0	0xbd25cd6c	-0.04047911
1	0x3d8a3e30	0.067501426
2	0x3d79a8f1	0.06095213
3	0x3db4b0a5	0.08822755
4	0x3dbd9604	0.09257129
5	0xbcc33d6c	-0.023833
6	0x3dc84bf5	0.09780113
7	0xbd00e8c4	-0.031471983
8	0xbda423c4	-0.08014634
9	0xbb9e8166	-0.004837203
10	0xbd75b0e0	-0.059983134
11	0xbd88bb08	-0.066762984
12	0x3da5f054	0.081024796
13	0x3dc32738	0.09528965
14	0xbd266cb4	-0.04063101
15	0x3d0b3e21	0.033994798
16	0x3897b42f	7.233803e-05
17	0xbc32c5c0	-0.010911405
18	0x3dcf8326	0.101324365
19	0xbca3ddf6	-0.0200033

conv2.weight f4 [40, 20, 3, 3]
0	0xbce8985d	-0.028392965
1	0xbdb3bcbf	-0.08776235
2	0xbdb3a020	-0.08770776
3	0xbdb73f42	-0.08947612
4	0xbd7ddd49	-0.061978612
5	0xbd90bbb4	-0.070670515
6	0xbd474d87	-0.04865792
7	0xbd074487	-0.033024337
8	0xbd708d9e	-0.058728807
9	0x3d6be28c	0.0575891
10	0xbb5202c0	-0.0032045096
11	0xba8c1ab1	-0.0010689107
12	0x3d7157fe	0.058921807
13	0x3d9c1e60	0.07622981
14	0x3cbe2350	0.023210198
15	0x3bcb12b3	0.0061972975
16	0x3d3452a2	0.044024117
17	0x3c0481b0	0.008087561
18	0xbd29e29e	-0.041475885
19	0xbd088160	-0.033326507
20	0x3dc81d47	0.09771209
21	0x3d51ac42	0.05118967
22	0x3dbffc14	0.09374252
23	0x3d7e8178	0.06213519
24	0xbaecc6af	-0.0018064583
25	0x3d1b0d5c	0.037854537
26	0xbd0490f3	-0.032364797
27	0xbd2e89c7	-0.042611863
28	0xbbb3bd88	-0.0054852404
29	0x3d9a13ec	0.07523331
30	0xbd3ec5ef	-0.046575483
31	0x3c5ff726	0.013669765
32	0xb9e3eab9	-0.00043471696
33	0x3d67d6c8	0.056601316
34	0x3da0dc2f	0.07854497
35	0x3d7ca6c6	0.061682485
36	0x3d4ee86d	0.050514627
37	0x3c8eab5d	0.017415697
38	0x3bf56a70	0.007489495
39	0x3bd6f5c8	0.006560061
40	0xbc0ed242	-0.008717122
41	0x3c32bec1	0.010909737
42	0xbd0371c0	-0.032090902
43	0xbd4882b4	-0.048952773
44	0x3daadc56	0.08342807
45	0xbd8c6f7e	-0.06857203
46	0xbd89bdf4	-0.06725684
47	0xbd99c650	-0.07508528
48	0xbd4a2ac4	-0.04935719
49	0x3d895b7a	0.06706901
50	0x3d787861	0.060661677
51	0x3d633d52	0.0554784
52	0x3d03c872	0.03217358
53	0xbd4979ff	-0.04918861
54	0x3dbc9b81	0.092093475
55	0x3d266d55	0.04063161
56	0x3dbc9234	0.092075735
57	0x3cddd5d1	0.027079495
58	0x3dad1723	0.084516786
59	0xbd3f8d09	-0.04676536
60	0x3d981e27	0.07427626
61	0xbd325d10	-0.043545783
62	0xbcb6b712	-0.022304092
63	0x3d4f53ca	0.050617017
64	0xbd39e316	-0.04538258
65	0xbdbcf26d	-0.092259265
66	0x3bc9683c	0.006146459
67	0xbcd1090f	-0.025517015
68	0xbcf47c09	-0.0298443
69	0xbc13a1e6	-0.009010768
70	0x3cc56b15	0.024098912
71	0x3cb43023	0.02199561
72	0x3d4d4582	0.050115116
73	0xbc9b62c0	-0.018967986
74	0xbc8091f0	-0.015694588
75	0xbd10d337	-0.03535768
76	0xbc2bbf3b	-0.010482605
77	0x3cf049b1	0.029332014
78	0xbc0e28c7	-0.008676714
79	0xbc8bfe1b	-0.01708894
80	0xbd0a10d8	-0.03370747
81	0xbc0651d8	-0.008198224
82	0xbd5b71c5	-0.053575296
83	0x3cf93bb9	0.030423986
84	0x3d6071f5	0.054796178
85	0xbd2587d9	-0.040412758
86	0xbd12b9df	-0.03582179
87	0x3c9d0a87	0.019170059
88	0x3d7e4599	0.062078092
89	0xb9c5435c	-0.00037624955
90	0x3d04d8e2	0.032433398
91	0x3d4d1b56	0.050074898
92	0xbd99df74	-0.075133234
93	0xbd1d6f2a	-0.038436092
94	0x3d27b996	0.040948473
95	0xbd3dda9a	-0.046351053
96	0xb92ac974	-0.0001628751
97	0xbc555d9f	-0.013022809
98	0x3c83dcd6	0.016096514
99	0xbce5eca4	-0.02806694
100	0x3cfbaaf9	0.030721175
101	0xbdb10ca5	-0.0864499
102	0x3cab4880	0.020908594
103	0xbd94f52c	-0.07273325
104	0xbd5c4b0e	-0.053782515
105	0xbc020e7d	-0.007938025
106	0xbd223c8e	-0.03960853
107	0x3cf792c8	0.030221358
108	0xbd0b45b3	-0.034002017
109	0xbcdf28a8	-0.027241066
110	0x3dab245a	0.08356543
111	0xbcbb788e	-0.022884633
112	0xbced9f5e	-0.029006656
113	0x3c59ff58	0.013305508
114	0xbccb6dbb	-0.024832597
115	0x3dacbb69	0.08434183
116	0x3d8a4354	0.06751123
117	0x3d3b8e72	0.045790143
118	0xbb9ad430	-0.0047250018
119	0x3c41c6c4	0.011827175
120	0xbd33e68c	-0.04392104
121	0xbd223795	-0.03960379
122	0x3da50989	0.08058459
123	0x3cf8616d	0.030319894
124	0xbc559a23	-0.013037237
125	0x3d3422d9	0.043978546
126	0xbd5b0595	-0.05347212
127	0x3d838a9b	0.06422921
128	0xbcd48874	-0.025943972
129	0x3d6a22ac	0.057161972
130	0x3cb2d327	0.0218292
131	0x3d44fdec	0.04809372
132	0x3d2085a3	0.039189946
133	0xbd22e9fa	-0.03977392
134	0x3d1c9770	0.03823036
135	0xbcdb847e	-0.026796576
136	0x3d6ed5a6	0.05830922
137	0x3db48ce3	0.088159345
138	0x3da7ad97	0.081874065
139	0xbd37b471	-0.044849817
140	0x3d8a3cfc	0.06749913
141	0x3db4afed	0.08822618
142	0xbd226fc2	-0.03965736
143	0x3c1356ba	0.008992845
144	0xbd1e2d2b	-0.038617294
145	0xbd318d53	-0.043347668
146	0x3d8152fa	0.06314655
147	0xbd71544f	-0.058918294
148	0xbd48c70b	-0.049017947
149	0xbd8e5f52	-0.06951775
150	0x3d03b24f	0.03215247
151	0x3b23d507	0.00249988
152	0xbd89421a	-0.06702061
153	0xbd2c6cd7	-0.042095985
154	0xbcfcb267	-0.030846788
155	0xbb8fa2b9	-0.0043834117
156	0xba8d92af	-0.0010801161
157	0xbd8aab6a	-0.06770976
158	0xbd9e90fc	-0.07742497
159	0xbd17dbbe	-0.037074797
160	0xbbc1e4d7	-0.0059171724
161	0x3d59ab9c	0.053142175
162	0x3c4d91e7	0.012546993
163	0x3d8fa7a7	0.07014399
164	0x3d1c6278	0.038179845
165	0x3d0241b0	0.031800926
166	0x3dbcdd97	0.092219524
167	0x3dadb8fd	0.08482549
168	0x3d2ed055	0.04267915
169	0xbd09d3b0	-0.033649147
170	0x3ad5c1d8	0.001630838
171	0xbd48e418	-0.049045652
172	0xbce96d34	-0.028494455
173	0xbd4bb701	-0.049735073
174	0x3cb75c79	0.022382962
175	0xbc85ec3c	-0.016347997
176	0xbc86029d	-0.016358668
177	0x3d82dd56	0.06389873
178	0xbcc985f2	-0.024600003
179	0x3cf1b25a	0.02950399
180	0xbd1d435d	-0.03839432
181	0x3da6e9ec	0.08150086
182	0xbd4e93d5	-0.050433952
183	0x3c30f76d	0.010801178
184	0xbd6477c9	-0.0557783
185	0x3d460a15	0.04834946
186	0x3c8e6d22	0.017386023
187	0x3c2786d7	0.010225019
188	0xbd42b309	-0.047534022
189	0xbd880fd8	-0.06643647
190	0xbd507e7b	-0.05090187
191	0x3cfdf7cb	0.031001946
192	0x3d964151	0.07336677
193	0x3d51c4ef	0.0512132
194	0xbd1e6e9c	-0.038679704
195	0x3c758577	0.014985434
196	0x3da66c73	0.08126154
197	0x3bac4ffd	0.005258559
198	0x3d93f3c4	0.07224229
199	0x3d59cc12	0.053173132
200	0x3cf0e2fe	0.029405113
201	0x3d8de372	0.069281474
202	0x3d5ebd40	0.0543797
203	0x3cc98c59	0.024603056
204	0xbcccc027	-0.02499397
205	0xbd97da8a	-0.0741473
206	0xbcfea748	-0.031085625
207	0xbd3dde69	-0.046354685
208	0xbcbc31c2	-0.022972945
209	0xbd37454c	-0.04474382
210	0x3d110afe	0.035410874
211	0xbd6eb9af	-0.05828255
212	0xbd217cd1	-0.039425675
213	0xbd10be30	-0.035337627
214	0xbd7dc9b8	-0.061959952
215	0xbc165dc9	-0.009177634
216	0x3c853593	0.016260898
217	0xbc3e69e9	-0.011621931
218	0x3d983fe7	0.074340634
219	0x3cde8b47	0.027166022
220	0x3ce64b5d	0.028112108
221	0xbb1b2e5a	-0.002367875
222	0x3cd1e5a6	0.0256222
223	0x3d6709a6	0.056405686
224	0x3d881426	0.06644468
225	0xbcefef0a	-0.029288787
226	0xbd53b3db	-0.051685195
227	0x3cfe10d0	0.031013876
228	0x3d7453bb	0.059650164
229	0xbd33acbc	-0.043865904
230	0xbc94b8aa	-0.018154461
231	0x3d911a7b	0.07085129
232	0x3cc0f127	0.02355249
233	0xbd513e8d	-0.051085044
234	0x3cc39b4b	0.02387776
235	0x3d734e21	0.05940068
236	0xbd7ae88d	-0.061256934
237	0xbd813f83	-0.06310942
238	0xbcec9bf6	-0.028882962
239	0x3d34ada7	0.04411092
240	0x3d818184	0.06323531
241	0x3c1a63d1	0.009423212
242	0x3c4e3527	0.012585915
243	0xbc5abe45	-0.013351028
244	0x3d876c23	0.06612422
245	0x3c70332b	0.014660637
246	0xbd468698	-0.048468202
247	0xbd2a43ac	-0.041568443
248	0x3d5480b0	0.05188054
249	0x3cf12c4e	0.029440071
250	0x3d0e155a	0.03468833
251	0x3d75d40c	0.060016677
252	0xbc9849fd	-0.018589968
253	0x3d26da1c	0.04073535
254	0x3ce3b8e0	0.027798116
255	0xbd10dc4f	-0.035366353

conv2.bias f4 [40]
0	0x3cb6916a	0.022286136
1	0xbd55b7ca	-0.052177228
2	0x3c6999fd	0.014257905
3	0x3c81e641	0.015856864
4	0x3d0d50f7	0.034501042
5	0xbd21ee73	-0.039534044
6	0xbba272ea	-0.0049575465
7	0xbb940d49	-0.0045181853
8	0x3d62f3fc	0.055408463
9	0x3da83f32	0.082151785
10	0x3bcbf0e4	0.0062237848
11	0x3d2b1dfe	0.04177665
12	0xbb452a98	-0.0030085202
13	0xbbcf9882	-0.006335319
14	0xbd27b955	-0.04094823
15	0xbd2de6c6	-0.04245641
16	0xbd643a47	-0.05571964
17	0x3d6e5b31	0.058192436
18	0x3d71b93e	0.05901455
19	0x3d89aed2	0.067227975
20	0xbc89146e	-0.016733374
21	0x3c0f6ebd	0.008754429
22	0xbd7f0e4e	-0.0622695
23	0xbd855a89	-0.06511409
24	0x3c7ed3dc	0.015553441
25	0x3d0ae187	0.033906486
26	0xbd17b2f1	-0.037035886
27	0x3d537081	0.051620964
28	0x3b276d3c	0.0025547286
29	0x3d888234	0.06665459
30	0xbcec6d84	-0.028860815
31	0xbd7b7438	-0.06139013
32	0x3da26147	0.079287104
33	0xbd0822fd	-0.033236492
34	0xbc97c079	-0.018524395
35	0x3cec48b3	0.02884326
36	0x3dab826d	0.08374486
37	0x3c6c7934	0.014433194
38	0xbd101136	-0.035172664
39	0x3cf3c633	0.029757595

fc1.weight f4 [1, 6760]
0	0xbd03703b	-0.032089453
1	0xbcc252c7	-0.023721112
2	0xbc1dbd2d	-0.009627623
3	0xbd0bfc91	-0.034176413
4	0xbcbd20aa	-0.023086865
5	0xbd127373	-0.035754632
6	0xbc73baa5	-0.0148760425
7	0xbcf6b5ce	-0.030115988
8	0xbce255a5	-0.02762873
9	0xbd05566c	-0.03255312
10	0xbc46d0b8	-0.012134723
11	0xbce1f365	-0.02758188
12	0xbcbb210f	-0.022842912
13	0xbca0d041	-0.019630553
14	0xbcfa8e28	-0.030585364
15	0xbce5c673	-0.02804873
16	0xbd019c7e	-0.031643383
17	0xbd12b38f	-0.03581577
18	0xbd15a711	-0.03653628
19	0xbcc952f4	-0.024575688
20	0xbcac24a1	-0.02101356
21	0xbd05a40c	-0.03262715
22	0xbcd3c277	-0.025849564
23	0xbc38a3d8	-0.011269532
24	0xbc5f99b8	-0.013647489
25	0xbc91b93a	-0.017788518
26	0xbc64b282	-0.013958575
27	0xbc8d27ec	-0.01723095
28	0xbca38927	-0.01996286
29	0xbcfd6d27	-0.030935837
30	0xbd05235d	-0.03250443
31	0xbcbbbe27	-0.02291782
32	0xbd151b3d	-0.03640293
33	0xbd1ef2ea	-0.03880588
34	0xbd01def4	-0.031706765
35	0xbcaba2d4	-0.020951666
36	0xbc5d9665	-0.013524626
37	0xbc9a9d75	-0.01887391
38	0xbceaf741	-0.028682353
39	0xbcce5b00	-0.025189877
40	0xbc7f7bbc	-0.015593465
41	0xbc892bce	-0.01674452
42	0xbcd86cb6	-0.026419025
43	0xbcf074d9	-0.029352592
44	0xbd0f6c7d	-0.03501557
45	0xbd0e9a67	-0.03481522
46	0xbd107216	-0.03526505
47	0xbce45c0a	-0.027875919
48	0xbc82c548	-0.015963212
49	0xbc6e1b98	-0.014532946
50	0xbc671bbb	-0.014105733
51	0xbcb29ff8	-0.021804795
52	0xbcb01719	-0.021495389
53	0xbc4f6d77	-0.012660376
54	0xbcd2386e	-0.025661673
55	0xbc3d943e	-0.011570988
56	0xbc5cd987	-0.013479597
57	0xbd0f728e	-0.035021357
58	0xbcc6d799	-0.024272727
59	0xbcd9046c	-0.026491366
60	0xbcdb97b1	-0.02680573
61	0xbd15b38c	-0.036548182
62	0xbcd63ef4	-0.026153065
63	0xbca5e469	-0.020250516
64	0xbcddb744	-0.027064927
65	0xbc64744e	-0.013943745
66	0xbc1e86d7	-0.009675703
67	0xbca7d42a	-0.02048691
68	0xbc948824	-0.018131323
69	0xbc828e92	-0.015937123
70	0xbd201dc4	-0.039090887
71	0xbcfca4b1	-0.03084025
72	0xbcfbcfb4	-0.030738689
73	0xbca84a04	-0.020543106
74	0xbd038f16	-0.03211888
75	0xbd16b900	-0.036797523
76	0xbcc1206a	-0.023575027
77	0xbcaedd33	-0.02134571
78	0xbc5f2ee6	-0.013622021
79	0xbc85c915	-0.016331235
80	0xbc3b4f28	-0.011432447
81	0xbc9d006a	-0.019165237
82	0xbcc54ca6	-0.0240844
83	0xbd049e78	-0.03237769
84	0xbcfa5faa	-0.030563194
85	0xbcd92734	-0.026507951
86	0xbc4637db	-0.012098278
87	0xbd164ee6	-0.036696337
88	0xbc8d8bd0	-0.017278582
89	0xbd160062	-0.03662146
90	0xbc8f658f	-0.017504482
91	0xbbb1c8d0	-0.00542555
92	0xbcd14e8b	-0.025550148
93	0xbcac68be	-0.021046039
94	0xbc913e06	-0.01772977
95	0xbc75804d	-0.014984203
96	0xbcb3f6d4	-0.021968283
97	0xbc8227ca	-0.015888114
98	0xbbf6149d	-0.0075097815
99	0xbccecdc9	-0.02524461
100	0xbcd7d2ad	-0.026345575
101	0xbce1878e	-0.027530458
102	0xbcf7d514	-0.03025297
103	0xbc86f93d	-0.016476268
104	0xbcdca097	-0.026932044
105	0xbb5c328d	-0.0033599467
106	0xbba9e574	-0.0051848236
107	0xbc34d35a	-0.011036718
108	0xbd08f9c7	-0.03344133
109	0xbcf6a031	-0.030105682
110	0xbccc3b7c	-0.024930708
111	0xbcd21545	-0.025644908
112	0xbc81c6a3	-0.015841788
113	0xbc0d790a	-0.008634815
114	0xbd036517	-0.03207883
115	0xbcc6d8a5	-0.024273226
116	0xbcd51a19	-0.02601342
117	0xbbc620b3	-0.0060463785
118	0xbcd0bad7	-0.025479717
119	0xbaff0696	-0.0019456919
120	0xbb3e3c25	-0.0029027548
121	0xbc329667	-0.0109001165
122	0xbcd5ab3e	-0.026082631
123	0xbc1c5712	-0.009542244
124	0xbc16f2c4	-0.009213153
125	0xbc9a7378	-0.018853888
126	0xbcc62091	-0.02418545
127	0xbc18f446	-0.009335583
128	0xbc96386c	-0.01833745
129	0xbc6674fd	-0.014065978
130	0xbcace2ef	-0.021104304
131	0xbc30860a	-0.010774145
132	0xbbee0a0b	-0.007264381
133	0xbca45e06	-0.020064365
134	0xbbe415c3	-0.006960602
135	0xbbd9274e	-0.006627
136	0xbc51011a	-0.01275661
137	0xbc3584ca	-0.011079023
138	0x3a8df71e	0.0010831093
139	0xbca9fc5b	-0.020750215
140	0xbbabdb0e	-0.005244619
141	0xbc5bc206	-0.013412958
142	0xbc11d7db	-0.008901562
143	0xbc9bbd2b	-0.0190111
144	0xbbc42ab5	-0.0059865364
145	0xbc3886c2	-0.0112625975
146	0xbc9d046e	-0.019167151
147	0xbc9c0d09	-0.019049184
148	0xbbc2f7e8	-0.005949963
149	0xbc33a0c5	-0.010963623
150	0xbcaa9288	-0.020821825
151	0xbbdeff22	-0.0068053165
152	0xbcdc5f5e	-0.026900943
153	0xbce196fd	-0.027537817
154	0xbc417afc	-0.011809107
155	0xbcd4e6c4	-0.025988944
156	0xbc454f01	-0.012042762
157	0xbc29fc1f	-0.010375052
158	0xbc8c2ac8	-0.017110243
159	0xbc99ac2d	-0.018758858
160	0xbc504b71	-0.012713299
161	0xbc5298e0	-0.012853831
162	0xbcec70e8	-0.028862432
163	0xbc89dcd4	-0.016828932
164	0xbcc249bd	-0.023716802
165	0xbc9f92c2	-0.01947916
166	0xbc905e9e	-0.017623242
167	0xbcee1aff	-0.029065607
168	0xbcb179cd	-0.021664524
169	0x3bced126	0.0063115535
170	0xbc0c2218	-0.00855305
171	0xb99853d8	-0.00029054168
172	0x3c0fa1a9	0.00876657
173	0x3c5b5ec4	0.013389293
174	0x3c014d8f	0.007892027
175	0x3c9048d7	0.017612858
176	0x3c0704b0	0.008240864
177	0x3a8186b7	0.0009882067
178	0x3b45ace7	0.0030162872
179	0x3c4cfdd5	0.01251169
180	0x3baa4058	0.0051956587
181	0xbc488fe8	-0.012241341
182	0x3b84348b	0.004034584
183	0x3a33a620	0.00068530627
184	0x3b3bc69e	0.002865232
185	0x3b86529b	0.004099203
186	0x3aa509c6	0.0012591414
187	0x3c7e8584	0.015534762
188	0x3ca0d6e2	0.019633714
189	0x399d2d2f	0.00029979038
190	0xbbc6e2cb	-0.0060695163
191	0xbbaa77ce	-0.00520227
192	0xbb137a1d	-0.0022503205
193	0xbaa586ee	-0.0012628713
194	0x3be40085	0.0069580697
195	0xbbcc1dcf	-0.0062291394
196	0x3c89d848	0.016826764
197	0x3c93f26c	0.018059932
198	0xbb29b819	-0.0025897084
199	0x3c635f5e	0.013877718
200	0x3b958811	0.0045633395
201	0x3b343743	0.002749876
202	0x3c21fe30	0.009887263
203	0x3c79902d	0.015232128
204	0x3badc988	0.0053035654
205	0xbb91d9fb	-0.004451034
206	0xbbafb795	-0.005362461
207	0x3c0b7fbd	0.008514342
208	0x3a2a9158	0.0006506643
209	0xbbb761ec	-0.00559639
210	0xba88338d	-0.001039134
211	0xbb69ce20	-0.0035675839
212	0x3c232431	0.009957359
213	0x3cb11a70	0.021619052
214	0x3c3649d4	0.011126
215	0x3bc465a1	0.0059935604
216	0x3c18a827	0.009317434
217	0x3c65831a	0.014008308
218	0x3b92c742	0.00447932
219	0xbc789a07	-0.015173442
220	0xbbdc62d7	-0.00672565
221	0x3bc6bb31	0.0060647954
222	0x3bb21f0d	0.0054358304
223	0xbb0c6918	-0.0021424945
224	0x3b1c192b	0.0023818712
225	0xbb0d3f0d	-0.0021552474
226	0x3be640b6	0.007026757
227	0x3a98c196	0.0011654373
228	0x3c645463	0.013936135
229	0xbbae8e9a	-0.005327058
230	0x3c5f2ee0	0.013622016
231	0x3c56646a	0.013085464
232	0x3c5962b4	0.013268162
233	0xbb52275e	-0.0032066922
234	0x3c0083b1	0.007843898
235	0x3be3991c	0.0069457423
236	0xba1594d8	-0.00057060784
237	0x3ace242f	0.0015727336
238	0x3aeaf5b9	0.0017926014
239	0x3c44c20b	0.012009154
240	0xbc06ded3	-0.008231836
241	0xbbbe761e	-0.0058124205
242	0xbc0f7d31	-0.008757875
243	0x3bd53874	0.006506974
244	0x3bd656ba	0.0065411003
245	0x3b092dfa	0.0020931945
246	0xbbf0db44	-0.0073503572
247	0x3ad837d9	0.0016496136
248	0xb8b9d59c	-8.861275e-05
249	0xbc7d60f1	-0.015465007
250	0x3c4470b7	0.011989764
251	0xbb7eea8b	-0.0038897123
252	0xb96f7a8e	-0.00022838471
253	0xbaa7c358	-0.0012799306
254	0x3c2882d9	0.010285103
255	0xbb754776	-0.0037426627
