ConvLSTM/Sequence/0.82_71_A_S.pt (torch, 84919 bytes, 7 tensors)

conv_lstm.conv.weight f4 [40, 13, 3, 3]
0	0x3dd47caa	0.1037534
1	0x3da99daf	0.08282029
2	0x3d459d07	0.048245456
3	0x3dc42675	0.095776476
4	0xbd11a460	-0.03555715
5	0xbbc985c5	-0.00614998
6	0x3daacf0d	0.08340273
7	0x3d582864	0.052772895
8	0xbbedce4c	-0.0072572585
9	0x3bb26f3e	0.00544539
10	0x3d64a1ab	0.05581824
11	0xbd2f27ec	-0.04276268
12	0x3d420d73	0.047376107
13	0xbd5e3bd1	-0.054256264
14	0x3d6371a8	0.055528313
15	0xbd0b48e3	-0.034005057
16	0xbc9c5323	-0.019082611
17	0x3ddebc0c	0.10875711
18	0x3d3b5464	0.045734778
19	0xbd2ed483	-0.042683136
20	0x3d85970d	0.06522951
21	0x3d33db73	0.043910455
22	0xbc37da2b	-0.011221449
23	0xbd8371ed	-0.06418214
24	0x3d3babbe	0.045818083
25	0x3da35b8c	0.079764456
26	0xbd8c985a	-0.06864996
27	0xbc8b68ea	-0.0170178
28	0xbde3862b	-0.11109575
29	0xbd6670df	-0.056259986
30	0xbdc08c1b	-0.09401723
31	0x3d7a9f7f	0.061187264
32	0xbd84f1f1	-0.06491459
33	0x3d65a43e	0.056064837
34	0xbdd731b6	-0.105075285
35	0xba4895d2	-0.00076517195
36	0xbc57bb1f	-0.013167172
37	0x3dc71bda	0.09722109
38	0x3d5fac4c	0.054607674
39	0xbb54212d	-0.0032368407
40	0x3dafd916	0.08586328
41	0x3d9f870a	0.077894285
42	0x3d8dd14a	0.06924684
43	0xbd8a0722	-0.06739642
44	0xba4d7ec1	-0.0007839017
45	0xbdc07968	-0.093981564
46	0x3d1cdea0	0.03829825
47	0x3cd1a3d3	0.025590813
48	0xbdbcc570	-0.09217346
49	0xbbd9b6c7	-0.006644103
50	0xbdd4ea64	-0.10396269
51	0xbcbbdd05	-0.022932539
52	0x3d2aaca1	0.041668538
53	0x3d3ec7d7	0.0465773
54	0x3d384f2a	0.04499737
55	0xbd6074da	-0.05479894
56	0x3d6f74e7	0.058461096
57	0x3db1076b	0.08643993
58	0xbd7e8b89	-0.06214479
59	0xbd8883a4	-0.066657335
60	0x3d8fd3f7	0.07022851
61	0xbcbfb3ad	-0.023401106
62	0x3d28d35e	0.0412172
63	0xbcc7912e	-0.02436122
64	0x3d65e492	0.056126185
65	0xbdd897ef	-0.10575854
66	0x3b37d0ed	0.0028048113
67	0xbaece607	-0.0018073925
68	0x3d2c11c1	0.04200912
69	0x3d6bcec5	0.057570238
70	0xbd016c49	-0.03159741
71	0xbdb32280	-0.08746815
72	0x3d321c65	0.04348411
73	0x3d754d85	0.05988838
74	0x3d2a0750	0.04151088
75	0xbd58576e	-0.052817754
76	0xbc6b7763	-0.014371726
77	0xbda4c84c	-0.08046016
78	0x3d82597b	0.06364723
79	0x3cc73492	0.02431706
80	0xbdcf96e3	-0.10136201
81	0xbd0f4676	-0.034979306
82	0xbd3301cc	-0.043702886
83	0x3dec3232	0.115330115
84	0x3daee114	0.08539024
85	0xba2bcecb	-0.0006553947
86	0xbd488f9e	-0.04896509
87	0x3de393b5	0.11112157
88	0xbcabdd9d	-0.020979697
89	0x3de2d86c	0.110764354
90	0xbd295d32	-0.041348644
91	0x3c135179	0.008991593
92	0x3cc9ee1a	0.024649668
93	0x3cc104d4	0.023561873
94	0xbcd92580	-0.02650714
95	0xbd1239fd	-0.035699833
96	0xbd7a5c68	-0.06112328
97	0x3d8bb02d	0.06820712
98	0xbdb780aa	-0.089600876
99	0xbd3b5fd2	-0.04574568
100	0xbdc276c3	-0.09495308
101	0x3c797a96	0.015226981
102	0x3c3a98fb	0.011389012
103	0x3d57e0f5	0.05270477
104	0xbdce92ba	-0.100865796
105	0x3ca02c0e	0.019552257
106	0xbd6cdbcc	-0.057826802
107	0xbd0a9f2c	-0.033843204
108	0x3c1b507a	0.009479636
109	0xbbbe580c	-0.005808836
110	0xbcc0396c	-0.02346488
111	0xbd449ab6	-0.047999106
112	0x3d394641	0.045233015
113	0xbc8056b6	-0.015666347
114	0xbcc6b87e	-0.024257895
115	0xbd5757fb	-0.05257414
116	0xbde13b59	-0.10997648
117	0x3d7fdd8c	0.062467143
118	0xbd87241d	-0.06598685
119	0x3d8a7980	0.067614555
120	0x3d395759	0.045249317
121	0xbd53b549	-0.05168656
122	0xbcdce7c5	-0.026965985
123	0xbd2d5dea	-0.04232589
124	0xbd859ea3	-0.06524398
125	0x3dad08a2	0.08448912
126	0x3dd43797	0.103621654
127	0xbd326597	-0.043553915
128	0xbcd5973d	-0.026073093
129	0x3dcba8d5	0.099443115
130	0xbd441b67	-0.047877695
131	0x3de2474c	0.11048755
132	0xbc2c2150	-0.010505989
133	0x3ccb2ca5	0.024801562
134	0x3cc7fef9	0.024413573
135	0x3d98e3f5	0.07465354
136	0x3d1eb604	0.038747802
137	0x3dc270ab	0.09494146
138	0xbd496fed	-0.049179006
139	0xbd881e1b	-0.06646367
140	0xbd6ed468	-0.058308035
141	0x3da7071a	0.081556514
142	0xbd40776d	-0.046988893
143	0xbc63ccab	-0.013903777
144	0x3d2ad25f	0.04170453
145	0xbdc85d16	-0.0978338
146	0x3d8ce234	0.06879082
147	0xbd918d0b	-0.0710698
148	0x3d2b8153	0.04187138
149	0xbcc7d0eb	-0.024391612
150	0xbd2584de	-0.040409915
151	0x3d91e150	0.07123053
152	0xbd978030	-0.07397497
153	0xbd9a0e40	-0.07522249
154	0xbc6c2177	-0.0144122755
155	0x3d3504a2	0.04419387
156	0xbd587841	-0.052849058
157	0xbd073f6f	-0.03301948
158	0x3d0350eb	0.03205959
159	0xbd043727	-0.03227916
160	0x3c401d19	0.011725687
161	0xbd94ebd7	-0.072715454
162	0x3ce2c9bf	0.02768409
163	0xbd793077	-0.060837235
164	0xbd3728a7	-0.044716503
165	0xbd95dec0	-0.07317877
166	0xbc127347	-0.008938617
167	0xbd8adcae	-0.067803726
168	0x3d439339	0.047747824
169	0x3cd443a7	0.025911165
170	0x3d654e8e	0.05598312
171	0xbb998305	-0.004684808
172	0xbd4a5548	-0.049397737
173	0x3d5075d8	0.050893635
174	0x3bdbaccf	0.00670395
175	0x3d8a339c	0.06748125
176	0xbd3713e5	-0.044696707
177	0x3c0003d5	0.007813414
178	0x3bb649a0	0.005562976
179	0x3ca52c00	0.020162582
180	0x3d2f11db	0.042741638
181	0x3d01ac23	0.031658303
182	0xbd1eaeb8	-0.038740844
183	0xbda4d304	-0.080480605
184	0xbbfcb782	-0.0077123055
185	0x3d69c046	0.057068132
186	0x3ccb9969	0.024853425
187	0x3c6a2c60	0.014292806
188	0xbd4708d1	-0.048592392
189	0xbd72b93f	-0.059258696
190	0xbcba600e	-0.02275088
191	0x3d3e84ef	0.046513494
192	0xbd9126d9	-0.07087488
193	0xbde48e8d	-0.11160002
194	0xbdc8d477	-0.098061495
195	0x3d4f4162	0.050599463
196	0xbdbed0a8	-0.09317142
197	0x39c4be06	0.00037525612
198	0x3d5b9294	0.053606585
199	0x3d86d804	0.065841705
200	0x3cb6aabc	0.02229821
201	0x3d897190	0.067111135
202	0xbb601cf6	-0.003419695
203	0xbd64b4a0	-0.05583632
204	0xbd8d6caf	-0.069054954
205	0xbd9e224b	-0.077213846
206	0xbcb61210	-0.02222541
207	0xbd416d31	-0.047223274
208	0x3ceaac03	0.028646475
209	0x3cf89d68	0.030348495
210	0x3d2bcacf	0.04194146
211	0x3d813709	0.06309325
212	0x3db80452	0.08985199
213	0x3d1736cb	0.03691749
214	0xbd4b62c8	-0.049654752
215	0x3d74ed7b	0.05979679
216	0x3d844808	0.06459051
217	0xbdb3ee5c	-0.08785698
218	0xbc00ff67	-0.007873393
219	0xbdbfe84a	-0.093704775
220	0xbdccdc7b	-0.10002991
221	0xbd4351d3	-0.047685456
222	0xbdbc497e	-0.09193705
223	0x3ceab35c	0.028649978
224	0xbd87ebe1	-0.06636787
225	0xbcf0fdc0	-0.029417872
226	0xbd370cd2	-0.04468996
227	0xbd2e1052	-0.042496033
228	0xbdb56452	-0.08857025
229	0xbdb58dd9	-0.08864946
230	0x3d83fcd5	0.06444708
231	0xbd803859	-0.062607475
232	0x3da12f6b	0.078703724
233	0xbd9a81a1	-0.07544256
234	0x3d287abc	0.041132674
235	0x3d104272	0.035219617
236	0x3d665fb5	0.056243617
237	0x3d43d249	0.047807965
238	0x3bf61ce6	0.007510769
239	0xbd99d2b3	-0.07510891
240	0x3dae2071	0.085022815
241	0xbcf2528f	-0.029580383
242	0x3daee12a	0.085390404
243	0x3d43b9a9	0.04778448
244	0xbd5a256b	-0.05325834
245	0x3d72f9d6	0.059320293
246	0x3dbd5abe	0.09245823
247	0x3dcdd45e	0.100502715
248	0xbc5554ef	-0.013020738
249	0x3c3be136	0.011467269
250	0xbd99b051	-0.07504333
251	0x3d95a727	0.073072724
252	0x3da79df1	0.08184422
253	0xbd12bd71	-0.035825197
254	0x3dd5ff0f	0.10449039
255	0x3dbf41d8	0.093387306

conv_lstm.conv.bias f4 [40]
0	0xbcdc0a46	-0.026860368
1	0xbda2dd39	-0.07952351
2	0xbbfdea99	-0.0077489135
3	0xbcd159ba	-0.02555548
4	0x3c89427e	0.016755339
5	0x3da29404	0.07938388
6	0x3d0724e2	0.03299416
7	0xbd280f4c	-0.041030213
8	0xbd873a0f	-0.06602871
9	0xb9935edc	-0.000281087
10	0x3d3112c5	0.04323079
11	0x3c61c364	0.013779495
12	0xbd705387	-0.058673408
13	0xbd881cbb	-0.06646105
14	0xbd402f41	-0.046920065
15	0x3dc63e6c	0.09679875
16	0x3d6f9c6d	0.05849879
17	0x3d98505e	0.07437204
18	0xbd00a632	-0.031408496
19	0xbc1767c6	-0.00924105
20	0xbc7508b1	-0.0149556855
21	0xbd15afce	-0.036544614
22	0x3c37b901	0.011213542
23	0x3d927f72	0.071532145
24	0xbda2664c	-0.07929668
25	0x3abc0267	0.0014343978
26	0x3de2f5fa	0.110820726
27	0x3ca60b77	0.020269139
28	0x3bc3dfa0	0.005977586
29	0xbd973016	-0.073822185
30	0xbd679a3c	-0.056543574
31	0x3d46ac93	0.048504423
32	0xbdb77774	-0.08958331
33	0xbd010908	-0.031502753
34	0x3c85437a	0.016267527
35	0x3dc518cb	0.096238695
36	0x3d1ddfad	0.038543392
37	0xbd9b1b5b	-0.07573577
38	0x3d1056d6	0.035239063
39	0xbbbcc9e9	-0.0057613743

conv1.weight f4 [20, 10, 3, 3]
0	0xbda1a8e4	-0.078935415
1	0x3d02e31d	0.031954873
2	0x3cd85bd5	0.026410976
3	0xbdb4728f	-0.08810913
4	0x3d94045a	0.072273925
5	0xbd2a0a14	-0.041513517
6	0x3d2c2a8f	0.042032775
7	0x3cf6e661	0.03013915
8	0x3d2c6c32	0.04209537
9	0x3dbbb46f	0.09165274
10	0x3d587389	0.052844558
11	0xbd9986da	-0.07496424
12	0xbdaef159	-0.08542127
13	0x3b9a3117	0.004705559
14	0xbd1553fa	-0.03645704
15	0xbda9b759	-0.08286924
16	0x3b7ee0b3	0.0038891255
17	0xbdb4f776	-0.08836262
18	0xbbe658d2	-0.007029631
19	0xbdb8eeb2	-0.090299025
20	0xbda87b8d	-0.082266904
21	0xbc85dbec	-0.016340218
22	0xbc78914e	-0.015171362
23	0x3dc076ad	0.093976356
24	0xbda64ed0	-0.08120501
25	0x3c0a9ca7	0.0084602
26	0x3d8f1904	0.06987193
27	0xbd8a585b	-0.06755134
28	0x3cbf4298	0.023347184
29	0xbd99b9ba	-0.07506128
30	0x3d158861	0.036507014
31	0xbcad9739	-0.021190273
32	0x3d182a8d	0.037149955
33	0x3d59af0a	0.053145446
34	0xbde7f715	-0.11326424
35	0xbdd72796	-0.10505597
36	0x3d9e322a	0.07724412
37	0x3c9dbe4b	0.019255778
38	0x3daff919	0.085924335
39	0xbda41f0b	-0.080137335
40	0x3bb1bcb1	0.005424105
41	0xbda34184	-0.079714805
42	0x3addfeac	0.001693686
43	0xbd2e0974	-0.042489484
44	0xbd896d25	-0.06710271
45	0x3d826671	0.063671954
46	0x3dd9250c	0.10602769
47	0x3d709435	0.05873509
48	0xbd386b46	-0.04502418
49	0x3d09d4de	0.03365027
50	0xbd4a1c4b	-0.04934339
51	0x3c3307fb	0.010927196
52	0xbd08be2b	-0.033384483
53	0xbd17f3de	-0.037097804
54	0x3c7c439d	0.01539698
55	0x3cbaee34	0.022818662
56	0x3cf7c302	0.030244354
57	0xbc489b5c	-0.012244072
58	0x3d817367	0.063208394
59	0x39eb9e76	0.00044940755
60	0x3cc5ce76	0.0241463
61	0x3d900ba0	0.07033467
62	0x3dbbfd21	0.0917914
63	0x3d947db2	0.07250537
64	0x3d41613d	0.047211874
65	0x3c18dd5c	0.00933012
66	0x3d8c5ca6	0.06853609
67	0x3ce4e75c	0.027942352
68	0xbdef7184	-0.11691573
69	0x3c0fadff	0.008769511
70	0xbde11c7b	-0.1099176
71	0xbdac5427	-0.08414488
72	0x3d35b39c	0.044360742
73	0xbd22db69	-0.039760027
74	0x3dd4eefc	0.10397145
75	0xbcb0532f	-0.02152404
76	0xbd3c7517	-0.046010103
77	0x3d2e6a34	0.042581752
78	0x3db1c92e	0.0868095
79	0x3ddb36d5	0.10703818
80	0xbd968b41	-0.07350779
81	0xbc955236	-0.018227678
82	0xbdcd6799	-0.10029525
83	0xbc829226	-0.01593883
84	0xbd99bece	-0.07507096
85	0x3d888d23	0.06667545
86	0x3c2a09c0	0.010378301
87	0xbd1e1299	-0.038591955
88	0xbc2b4135	-0.010452558
89	0xbdb3392d	-0.0875114
90	0xbc9a3b55	-0.01882712
91	0xbc60a651	-0.013711528
92	0xbd8763ea	-0.06610854
93	0xbd9f8252	-0.077885285
94	0xbc9ecccc	-0.019384764
95	0xbdb4ef20	-0.08834672
96	0xbda2f749	-0.07957322
97	0x3dae70b4	0.0851759
98	0x3bca9393	0.006182143
99	0x3d88a84a	0.066727236
100	0xbbe7754b	-0.007063543
101	0xbdb24f0a	-0.08706482
102	0xbd1d6415	-0.038425524
103	0x3dda18e3	0.10649278
104	0xbccaac72	-0.024740431
105	0x3d9985ea	0.07496245
106	0x3cdbedd2	0.0268468
107	0x3acd213a	0.0015650161
108	0xbd52a074	-0.05142255
109	0xbc983610	-0.018580467
110	0xbd654daf	-0.055982288
111	0x3cacf0d0	0.021110922
112	0xbba05202	-0.0048925886
113	0xbddc5dde	-0.10760091
114	0x3dab5772	0.08366288
115	0x3dc4584b	0.09587153
116	0xbbc98254	-0.0061495695
117	0xbccc0457	-0.024904413
118	0xbd8c7dd0	-0.06859934
119	0x3db9bc7e	0.09069155
120	0xbdd86c53	-0.10567536
121	0x3cab6991	0.020924361
122	0x3d7752ee	0.060381822
123	0xbdae8ea4	-0.085233
124	0x3d90e01e	0.07073997
125	0x3d09541f	0.03352749
126	0x3d6a39ec	0.057184145
127	0x3ce9c70f	0.028537301
128	0x3db0d7ac	0.08634886
129	0xbdb74557	-0.089487724
130	0x3d86d1c5	0.06582979
131	0x3cb4361d	0.02199846
132	0xbd1a1122	-0.037613995
133	0xbce34ca3	-0.027746504
134	0xbc93fdcc	-0.018065356
135	0xbcea4019	-0.028595017
136	0x3d19f4f6	0.03758713
137	0xbd3d6387	-0.046237495
138	0x3df865ca	0.1212879
139	0x3d940286	0.07227044
140	0x3d9da10e	0.07696734
141	0xbd3c4d0e	-0.045971923
142	0xbd837655	-0.064190544
143	0xbc84a79d	-0.016193205
144	0xbd84e9c7	-0.06489902
145	0xbdac5a6c	-0.08415684
146	0xbcf94ea3	-0.030433005
147	0xbdae6aa1	-0.085164316
148	0xbd8e83b6	-0.069587156
149	0x3da56c1a	0.08077259
150	0xbd706fcf	-0.05870038
151	0x3d4d3770	0.050101697
152	0x3cf18f32	0.029487226
153	0xbdb20a48	-0.08693367
154	0xbd9cd63b	-0.07658049
155	0xbdd9c538	-0.106333196
156	0xba5b50b8	-0.0008366215
157	0xbd9e4332	-0.0772766
158	0x3cf18513	0.0294824
159	0x3bd132ef	0.0063842456
160	0x3d026936	0.03183862
161	0xbde29a07	-0.11064535
162	0x3dc9a811	0.09846509
163	0x3b418614	0.002952938
164	0x3dd8c96b	0.105852924
165	0x3d11b225	0.035570282
166	0xbd89e416	-0.06732957
167	0x3ccd21ef	0.025040595
168	0x3dc5133c	0.09622809
169	0x3d511475	0.0510449
170	0x3d8a8d38	0.067652166
171	0x3ccd0906	0.025028717
172	0x3a6f2bee	0.00091236725
173	0xbd8b2c7a	-0.067955926
174	0xbd1f8888	-0.038948566
175	0x3d7e5f05	0.062102336
176	0x3d993c38	0.07482189
177	0x38b7c9ec	8.763731e-05
178	0xbcc08c12	-0.02350429
179	0x3b2473ce	0.002509344
180	0xbdb9ad5d	-0.090662695
181	0xbd9c9504	-0.0764561
182	0xbdb70095	-0.08935658
183	0xbdb7693b	-0.08955618
184	0x3cee2182	0.029068712
185	0x3d8562c9	0.065129824
186	0xbd3f9b23	-0.04677881
187	0x3c9c2aad	0.019063318
188	0x3d3f8401	0.046756748
189	0xbda078a2	-0.07835509
190	0xbd855891	-0.06511033
191	0xbc1e17e1	-0.009649248
192	0xbd3c823b	-0.046022635
193	0xbdae272c	-0.08503565
194	0x3d55e6cf	0.05222207
195	0x3db00c86	0.08596139
196	0xbdb5dd02	-0.088800445
197	0xbddb3d90	-0.107051015
198	0x3cd1f4cc	0.025629424
199	0x3ced7bea	0.02898975
200	0x3d8f6cf0	0.070032
201	0x3dc0162e	0.093792304
202	0xbbdd4b77	-0.006753381
203	0x3d1956c2	0.037436254
204	0x3d69166a	0.05690614
205	0x3d065508	0.032795936
206	0x3a3853ec	0.00070315483
207	0x3d2a61e5	0.041597266
208	0x3d1fe30a	0.03903488
209	0x3c503d57	0.012709937
210	0xbd87dae4	-0.06633547
211	0x3dbcd196	0.09219663
212	0x3dd14fbd	0.10220287
213	0x3d8c8c60	0.06862712
214	0xbd4e696e	-0.050393514
215	0x3c273914	0.01020648
216	0x3c9c1734	0.019054033
217	0x3daac3e8	0.083381474
218	0x3d2fc374	0.042911008
219	0x3b21b4a8	0.002467433
220	0x3be51bed	0.0069918544
221	0x3d6634a1	0.056202535
222	0x3d897f99	0.067137904
223	0x3c6c8cd8	0.014437877
224	0xbc40ed4c	-0.011775326
225	0xbca1dcc2	-0.019758586
226	0x3d10964c	0.035299584
227	0xbd1d4807	-0.03839877
228	0xbd9586ee	-0.073011264
229	0x3dcd96b1	0.10038508
230	0x3dcf7e47	0.10131507
231	0xbd864787	-0.065566115
232	0xbd836a5a	-0.06416769
233	0x3d84fe14	0.06493774
234	0xbca73adb	-0.020413807
235	0xbdac274b	-0.08405932
236	0xbd4dbd58	-0.0502294
237	0xbc1f9fa7	-0.009742654
238	0x3d269a84	0.0406747
239	0x3d232dad	0.03983848
240	0x3d2dce63	0.042433154
241	0xbc06b14c	-0.008220982
242	0x3c85f9c5	0.016354451
243	0x3d483fda	0.04888902
244	0x3d756f92	0.059920855
245	0x3c469eb2	0.012122797
246	0x3d00118c	0.031266734
247	0xbd472b29	-0.048625145
248	0xbd1c55d1	-0.03816778
249	0x3d29baef	0.04143804
250	0x3d56860a	0.052373923
251	0x3d64cb84	0.05585815
252	0x3c46ed76	0.012141576
253	0x3c4c37f0	0.012464508
254	0xbd94eb4b	-0.07271441
255	0x3d6390af	0.055557903

conv1.bias f4 [20]
0	0x3dbdf071	0.09274376
1	0x3d2eb79b	0.04265557
2	0xbd1a2fd8	-0.037643284
3	0xba93f95b	-0.0011289524
4	0x3d87937e	0.06619929
5	0x3c95f890	0.018307
6	0x3cdaa1c3	0.026688462
7	0xbbbb32b6	-0.0057128323
8	0x3bb992e5	0.005663263
9	0xbda092ff	-0.07840537
10	0xbdb368d6	-0.0876023
11	0x3dbcdb82	0.09221555
12	0xbcbb3de4	-0.02285666
13	0xbdbcea55	-0.09224383
14	0xbc9e7f67	-0.01934786
15	0x3dacb0ca	0.08432157
16	0xbbf56fbf	-0.007490128
17	0x3dde50c5	0.10855249
18	0x3db352a5	0.087559976
19	0x3db7a4f4	0.08967009

conv2.weight f4 [40, 20, 3, 3]
0	0x3c777630	0.015103862
1	0xbd5c0c6c	-0.053722784
2	0x39abb130	0.00032747677
3	0xbd119744	-0.03554465
4	0x3cf106bf	0.029422162
5	0xbd8656ee	-0.06559549
6	0xbc69bbf7	-0.014266006
7	0xbc16ff52	-0.009216147
8	0xbd5df353	-0.05418713
9	0xbd7ee5bc	-0.06223081
10	0xbdc7fff5	-0.09765617
11	0x3d45a043	0.04824854
12	0x3ccc2d66	0.024923991
13	0xbbe97149	-0.0071241003
14	0xbd7dfd3c	-0.06200908
15	0xbcf42ba5	-0.029805968
16	0xbdc1f578	-0.094706476
17	0xbdba5018	-0.09097308
18	0x3cda98b5	0.026684145
19	0xbc0c5002	-0.008563997
20	0xbd8efa1e	-0.069813
21	0x3cfcf31e	0.030877646
22	0x3d8302ef	0.06397044
23	0xbd047f3f	-0.032347914
24	0xbd7e50eb	-0.06208889
25	0x3c8ceebe	0.017203685
26	0xbd0b33b5	-0.03398486
27	0xbc23b492	-0.009991782
28	0x3d2d5897	0.042320814
29	0xbd6057e0	-0.054771304
30	0x3d452de4	0.048139468
31	0xbd14d54d	-0.036336232
32	0x3d8f9606	0.070110366
33	0x3d94fa81	0.07274342
34	0xbd2033d5	-0.03911193
35	0xbc6f953a	-0.014622981
36	0xbd99ccde	-0.075097784
37	0x3cb1a447	0.021684779
38	0xbdc6a68d	-0.09699736
39	0xbd15d729	-0.036582146
40	0x3c972784	0.01845146
41	0xbdbaf9e8	-0.09129697
42	0x3c9c7851	0.01910034
43	0x3cde7f2b	0.027160248
44	0x3d2efc6d	0.0427212
45	0xbdd91a7b	-0.10600754
46	0xb9062ca4	-0.00012795866
47	0x3b058659	0.0020374267
48	0xbbcec393	-0.0063099354
49	0x3c5387ed	0.012910825
50	0x3ccfb638	0.025355443
51	0x3c6624a7	0.014046825
52	0xbcca98ca	-0.024731059
53	0x3cc07380	0.023492575
54	0xbdb1aa6e	-0.08675085
55	0xbce6bd4e	-0.02816644
56	0x3cde0f94	0.027107038
57	0xbdbf294a	-0.09334047
58	0xbd45601f	-0.04818737
59	0xbd82fba9	-0.063956566
60	0xbd4a286d	-0.04935496
61	0x3d09aab3	0.033610057
62	0xbd80a7c6	-0.06282
63	0x3d99f533	0.07517471
64	0xbccade2c	-0.024764143
65	0x3c9760cb	0.018478772
66	0x3db344fb	0.08753391
67	0x3da91a90	0.082570195
68	0x3c9d9a57	0.019238634
69	0xbd2ec0e0	-0.04266441
70	0x3d27ddd5	0.04098304
71	0x3da4a7f7	0.08039849
72	0x3d26e664	0.04074706
73	0x3d9e923e	0.07742737
74	0xbd7dac9c	-0.06193219
75	0xbcb4e6ef	-0.022082774
76	0xbcff561a	-0.031168986
77	0x3d99db8b	0.075125776
78	0xbd12f2c0	-0.035876036
79	0xbd218065	-0.039429087
80	0x3d2ea153	0.04263432
81	0x3c201cf0	0.009772524
82	0xbd5ecc9c	-0.05439435
83	0x3c8c818a	0.017151613
84	0x3d27da23	0.040979516
85	0xbc828595	-0.015932838
86	0x3da3c928	0.07997352
87	0xbc368a0c	-0.011141311
88	0x3d4babef	0.049724516
89	0xbca53ada	-0.020169664
90	0x3d857103	0.06515696
91	0x3d91112f	0.07083356
92	0x3d28a9e3	0.04117764
93	0x3d2b77d8	0.04186234
94	0x3d86d480	0.065835
95	0x3ca02bfc	0.019552223
96	0x3d19f918	0.03759107
97	0x3cd4ba76	0.025967818
98	0xbcaa28ee	-0.02077147
99	0x3d120ce8	0.03565684
100	0x3d040ea5	0.03224053
101	0xbd4d918d	-0.050187636
102	0xbd7eb672	-0.062185712
103	0x3ca9097d	0.020634407
104	0xbd357f12	-0.044310637
105	0x3cb8c220	0.022553504
106	0xbda9f457	-0.08298557
107	0xbdb5f909	-0.0888539
108	0xbaef2390	-0.0018244851
109	0xbc872b02	-0.0165
110	0x3d77070d	0.06030946
111	0x3d9e67dd	0.07734654
112	0xbd3e83af	-0.046512302
113	0x3c5338ee	0.012891991
114	0xbd2e4035	-0.0425417
115	0x3d8453ac	0.06461272
116	0xbc6acdc6	-0.014331287
117	0x3d03a493	0.032139372
118	0x3b82147e	0.003969728
119	0xbd5ac614	-0.05341156
120	0xbcce8627	-0.025210453
121	0x3ccfdd72	0.025374148
122	0xbc531d21	-0.012885363
123	0x3c83724f	0.016045718
124	0xbcbef7c5	-0.023311505
125	0xbd94b4c6	-0.07261042
126	0xbbf5669e	-0.0074890396
127	0x3c1db160	0.009624809
128	0x3d34d9b9	0.04415295
129	0x3d173f91	0.036925856
130	0xbd8ea5f2	-0.06965245
131	0x3d0b00d5	0.03393634
132	0x3d88a319	0.066717334
133	0xbc934674	-0.01797793
134	0xbd4165dd	-0.047216285
135	0xbd9253db	-0.071449004
136	0xbd3d36c2	-0.0461948
137	0xbcc5fafc	-0.02416753
138	0x3a396b1c	0.00070731505
139	0xbc4e009a	-0.012573386
140	0xbd465588	-0.048421413
141	0x3d17ae03	0.037031185
142	0x3d59e646	0.05319812
143	0xbd7766b5	-0.060400683
144	0xbca0c16b	-0.019623479
145	0x3c555494	0.013020653
146	0x3d3d7011	0.046249453
147	0xbcd3b953	-0.025845205
148	0xbd0c3bbf	-0.034236666
149	0x3d32f2d7	0.04368862
150	0x3d39d4bb	0.04536889
151	0x3cdcc169	0.026947694
152	0xbc9711ea	-0.01844116
153	0xbdb35eea	-0.08758338
154	0xbd903eac	-0.07043204
155	0xbd62bc92	-0.055355616
156	0xbd4ca1cc	-0.04995899
157	0xbd671a35	-0.056421477
158	0x3d2746e5	0.040839095
159	0x3c759c47	0.014990873
160	0xbcfa7edd	-0.030578071
161	0xbd1612d8	-0.036639065
162	0x3d2b83a1	0.041873578
163	0x3d1ccb22	0.03827966
164	0xbb878cd9	-0.0041366634
165	0x3ce7df1d	0.02830463
166	0x3d1d49d1	0.038400475
167	0x3cd32c34	0.025777914
168	0x3d1cc03b	0.038269263
169	0xbce89d2c	-0.028395258
170	0x3d0067c0	0.031348944
171	0xbd30e47c	-0.04318665
172	0xbd44be1e	-0.048032872
173	0xbd72d387	-0.05928376
174	0xbc9a083c	-0.018802755
175	0xbce0960f	-0.027415304
176	0x3d12549f	0.035725232
177	0xbd9e1094	-0.07718006
178	0x3c9e519f	0.01932603
179	0x3d727134	0.05918999
180	0x3c873c8f	0.016508369
181	0xbd14e2d3	-0.03634913
182	0xbd043c02	-0.03228379
183	0xbbc3d3d3	-0.005976179
184	0xbcd33ef2	-0.02578685
185	0xbcf57ce2	-0.029966775
186	0xbcae4f4a	-0.021278042
187	0x3ba8dedf	0.0051535214
188	0xbd373114	-0.04472454
189	0x3d825a8f	0.06364929
190	0xbd494f9b	-0.049148183
191	0xbd7666d6	-0.060156666
192	0xbc07286f	-0.008249386
193	0xbc03d9da	-0.008047545
194	0x3cd62c77	0.02614425
195	0xbd9370ca	-0.07199247
196	0xbd8b31ed	-0.06796632
197	0xbcfea5b2	-0.031084869
198	0xbcb19285	-0.021676311
199	0xbcae53a7	-0.021280123
200	0xbd847dbf	-0.06469297
201	0x3d4b6f33	0.049666595
202	0xbd1391b3	-0.03602762
203	0xbd865d7a	-0.06560798
204	0xbd33b235	-0.043871123
205	0xbb3a99de	-0.002847306
206	0xbd3c6730	-0.045996845
207	0xbd40d7a1	-0.04708064
208	0x3d5822bb	0.052767497
209	0x3d1a729f	0.037706967
210	0x3c7cd4ed	0.015431625
211	0x3d4c8e43	0.04994036
212	0xbd83d60d	-0.06437311
213	0xbd7ee805	-0.06223299
214	0x3d354bbe	0.044261687
215	0xbc379af8	-0.011206381
216	0x3cdc2af6	0.026875954
217	0x3d36e139	0.044648383
218	0x3d6eefa1	0.058333997
219	0xbd458c5e	-0.048229568
220	0xbd2944d8	-0.04132542
221	0x3d4c5ff7	0.049896207
222	0xbd94e905	-0.072710074
223	0x3d8a04b3	0.067391776
224	0x3d734214	0.05938919
225	0xbc20b1ba	-0.009807998
226	0x3d43c9c7	0.04779985
227	0xb9e7d028	-0.00044214842
228	0xbd8da4a8	-0.06916171
229	0xbcb0a9f4	-0.021565415
230	0xbd8289ac	-0.06373915
231	0xbd8c34a0	-0.06845975
232	0x3c39d1bb	0.011341508
233	0x3d2d64f8	0.04233262
234	0xbd26a59f	-0.040685292
235	0x3d54d7bf	0.051963564
236	0xbd2ad869	-0.04171029
237	0xbca4a6ca	-0.020099062
238	0xbd4e7d00	-0.050412178
239	0xbd1c98ca	-0.03823165
240	0x3d50df3c	0.050994143
241	0x3d66be84	0.056334034
242	0x3d96ea56	0.07368915
243	0x3d583d85	0.052793045
244	0xbd423a8a	-0.04741911
245	0x3cfc982a	0.030834276
246	0x3d32fdf3	0.043699216
247	0xbd4b0341	-0.04956365
248	0x3c007020	0.007839233
249	0xbc8a7ba9	-0.016904669
250	0xba03e0ff	-0.00050307804
251	0xbd1a9476	-0.03773924
252	0x3d8702f4	0.0659236
253	0xbd98da7f	-0.0746355
254	0xbd2d69c1	-0.042337183
255	0x3c3be034	0.011467028

conv2.bias f4 [40]
0	0x3d73966f	0.059469637
1	0xbd0a67b7	-0.033790316
2	0x3d6288a7	0.055306103
3	0xbcf53347	-0.029931678
4	0xbb351237	-0.0027629265
5	0x3d8e814e	0.06958257
6	0xbd881892	-0.066453114
7	0x3d95816e	0.073000774
8	0x3d7131bd	0.058885325
9	0x3c425205	0.011860375
10	0xbd3812d5	-0.044939835
11	0xbd68dbe0	-0.056850314
12	0xbc91352c	-0.01772555
13	0xbb2752fb	-0.0025531638
14	0xbc47bb6f	-0.012190684
15	0x3d336255	0.04379495
16	0x3d72baf4	0.059260324
17	0xbc34a7c6	-0.011026328
18	0xbd529405	-0.051410694
19	0x3bb6b6f1	0.0055760075
20	0x3d866e38	0.06563991
21	0xbd223e59	-0.03961024
22	0x3caca13d	0.021072978
23	0x3d12e90a	0.035866775
24	0x3d825461	0.0636375
25	0xbd63d93e	-0.0556271
26	0xbce64108	-0.028107181
27	0xbabfe710	-0.0014641006
28	0x3d53a8c6	0.051674627
29	0xbc6de834	-0.014520694
30	0xbd25fb04	-0.04052259
31	0x3ce6ec27	0.028188778
32	0xbd7f138a	-0.062274493
33	0x3d175f63	0.036956202
34	0xbd9718bd	-0.07377765
35	0x3d314e50	0.043287575
36	0x3d8a076e	0.06739698
37	0xbc86a853	-0.016437685
38	0xbc99ee94	-0.01879052
39	0x3d4bb65d	0.049734462

fc1.weight f4 [1, 6760]
0	0x3c3fe992	0.011713402
1	0xba6d48c7	-0.0009051677
2	0x3c08bf25	0.008346354
3	0x3a9bd592	0.001188921
4	0x3c56a618	0.013101123
5	0x3b299c55	0.0025880535
6	0x3c4ac800	0.012376785
7	0x3b8ba7e4	0.0042619575
8	0x3aa9d885	0.0012958205
9	0x3c72bcff	0.014815568
10	0x3c143f8a	0.009048352
11	0x3b0e7a54	0.0021740394
12	0x3c03db62	0.00804791
13	0xbb830772	-0.0039986903
14	0xbbb364f3	-0.0054746806
15	0xbb552970	-0.003252592
16	0x3c7a8ae4	0.015291903
17	0x3c6eb5c2	0.014569702
18	0x3c995412	0.018716846
19	0x3ca64cf1	0.02030036
20	0xba5c3e6f	-0.00084016373
21	0xbb0b3c3b	-0.0021245617
22	0x3c491577	0.012273184
23	0xbbf82a14	-0.0075733755
24	0x3b6bbbf2	0.0035970178
25	0x3a850594	0.0010148757
26	0xbb20a6f7	-0.0024513581
27	0x3ad316a7	0.0016104773
28	0x3c8387a2	0.016055886
29	0x3c9f58df	0.019451557
30	0x3bd6cf75	0.0065554925
31	0x3c9beb8b	0.019033214
32	0xbac9528d	-0.0015359685
33	0x3c1d06b2	0.009584116
34	0x3bcfe201	0.0063440804
35	0x3b4fc08e	0.0031700465
36	0xbafb626d	-0.0019179113
37	0x3bdd70cf	0.0067578326
38	0xbb3a394f	-0.0028415506
39	0xb9e39067	-0.00043404402
40	0xbaf2ab7c	-0.0018514241
41	0x3bf74e07	0.0075471434
42	0x3c14550c	0.00905348
43	0x3c1a0593	0.009400743
44	0x3c9022de	0.017594751
45	0x3bee2f20	0.0072688013
46	0x3c2993fe	0.0103502255
47	0xbacf8eca	-0.0015835401
48	0x3c790418	0.01519873
49	0x3c269fbe	0.010169921
50	0xb959e982	-0.00020781721
51	0xba801cda	-0.0009774223
52	0xbbc29d36	-0.005939151
53	0x3c0d22ca	0.008614251
54	0x3b94bd52	0.0045391703
55	0x3c4eaa1a	0.012613798
56	0xbb05c8cf	-0.002041388
57	0xbb0ba004	-0.0021305094
58	0x3c452106	0.012031799
59	0x3c53e6c0	0.012933433
60	0x3bb7d71a	0.005610359
61	0xbb9aeaf4	-0.0047277156
62	0x3b388bc3	0.0028159476
63	0x3c98fa80	0.018674135
64	0x3c6b82fb	0.01437449
65	0xbb91fa85	-0.004454913
66	0x3c4c7176	0.012478223
67	0xbb183b5c	-0.002322874
68	0x3c0cde4f	0.008597924
69	0x3c355b5e	0.011069147
70	0x3a440498	0.0007477491
71	0x3816310f	3.5808476e-05
72	0x3c905800	0.017620087
73	0x3b77b577	0.003779737
74	0x3b1266fe	0.002233922
75	0x3c7db246	0.015484398
76	0x3c8cb30f	0.017175226
77	0x3c169378	0.009190433
78	0x3b2147cb	0.0024609442
79	0xbbe0b716	-0.006857763
80	0xbba64129	-0.0050736857
81	0xbc03ddba	-0.008048469
82	0x3bfa929f	0.007646873
83	0x3c48360e	0.012219919
84	0xb9fbf702	-0.00048058486
85	0x3c523cf7	0.012831918
86	0x3c5ed6c3	0.013601008
87	0xbb55a835	-0.003260148
88	0x3c75d1c6	0.015003627
89	0xbb0076cb	-0.0019602056
90	0x3c487124	0.012234006
91	0xbb8f8d9a	-0.004380894
92	0x3b599d21	0.0033205228
93	0xbaa393a8	-0.0012479918
94	0x3c402ee9	0.011729934
95	0x3c429151	0.011875466
96	0x3c82913b	0.015938392
97	0x3c37fac8	0.0112292245
98	0x3c633335	0.013867189
99	0xbab6a242	-0.0013933855
100	0x3b095809	0.0020957014
101	0x3c7b9657	0.015355668
102	0x3c80ed42	0.015738133
103	0x3c300c81	0.010745169
104	0x3bb7039a	0.005585146
105	0xbb81cc51	-0.003961124
106	0xbbd9b543	-0.0066439225
107	0xbc178125	-0.009247099
108	0x3c2f2106	0.010689026
109	0x3c48f46a	0.012265304
110	0x3b80536c	0.0039161947
111	0x3c3c104d	0.011478496
112	0x3c6c5fcf	0.014427139
113	0x3aac0598	0.0013124226
114	0xbb59f3d0	-0.0033256896
115	0x3c623065	0.0138054835
116	0xb8f63a9b	-0.0001174111
117	0x3c1759e9	0.009237745
118	0x3c019da3	0.007911119
119	0x3bd1473d	0.006386666
120	0xb94bfef4	-0.00019454566
121	0xbb09a82b	-0.0021004777
122	0x3ac5e3c0	0.0015097782
123	0x3c4bac1c	0.012431171
124	0x3c17ae98	0.009257935
125	0xbc2fa684	-0.010720853
126	0x3c1714dd	0.009221283
127	0xbc2fae5d	-0.010722724
128	0xbb8b658a	-0.0042540478
129	0x3c535272	0.012898074
130	0xbb4c8402	-0.0031206612
131	0x3b9d689c	0.00480373
132	0x3bdace04	0.006677391
133	0xbb867511	-0.004103311
134	0x3bbf00e7	0.005828965
135	0x3c413760	0.011792988
136	0xbb4d4b2d	-0.0031325326
137	0x3b7cbe5a	0.0038565607
138	0xb9c47994	-0.00037474616
139	0xbb14cabf	-0.0022703854
140	0xbbc53a04	-0.006018879
141	0x3c5fc3bb	0.013657506
142	0xbbd5ad0b	-0.0065208725
143	0x3a1174f4	0.00055487384
144	0x3c4858e7	0.012228227
145	0x3c039026	0.008029973
146	0xbbd2fe99	-0.006439042
147	0x3bf624a9	0.0075116944
148	0x3c2d52be	0.010578809
149	0x3c054a22	0.00813535
150	0xbc3986eb	-0.011323671
151	0xbc014ab2	-0.007891344
152	0x3beea745	0.0072831237
153	0x3be1d06e	0.006891302
154	0xbc07ed4d	-0.008296323
155	0xbc1b0b46	-0.009463137
156	0xbb9bbaa1	-0.0047524725
157	0xbbafd8cd	-0.005366421
158	0x3c1616d0	0.009160712
159	0x3ac8200b	0.0015268339
160	0x389b41b7	7.403216e-05
161	0x3a4d72d3	0.00078372395
162	0xbbcf57fe	-0.006327628
163	0x3b29215b	0.0025807235
164	0xbc12a6b6	-0.00895088
165	0x3b95f303	0.0045760884
166	0x3c13fda9	0.009032645
167	0x3bcaa1bd	0.0061838315
168	0xbbfac7d8	-0.0076532178
169	0x3c156716	0.009118816
170	0x3b99cb9f	0.004693463
171	0x3c2da1d6	0.010597667
172	0xbbd20655	-0.0064094462
173	0xbbbad3b5	-0.005701507
174	0x3c41080e	0.011781706
175	0xbc297e27	-0.0103450185
176	0xbbd30f6e	-0.0064410483
177	0x397d3e00	0.00024151057
178	0xba2576c2	-0.0006311947
179	0xbb46c6ab	-0.0030330818
180	0xbbd500bc	-0.0065003317
181	0x3c45c274	0.012070287
182	0xbb3cb809	-0.0028796217
183	0xba963fb5	-0.0011463078
184	0xbb80958f	-0.003924079
185	0xbc06a0e4	-0.00821707
186	0xbc3c80ff	-0.011505364
187	0x3bccd605	0.006251099
188	0xbc1505e9	-0.009095647
189	0xbae9104c	-0.0017781346
190	0xb96fbcb5	-0.00022863115
191	0x3c277661	0.010221095
192	0x3bc596e8	0.0060299523
193	0xbc22bd93	-0.009932893
194	0xbc2fe374	-0.010735381
195	0x3c000b48	0.00781519
196	0xbc0ab9d9	-0.008467161
197	0x3bd8c72d	0.0066155405
198	0xbbcaac3e	-0.0061850837
199	0xbbfcf74c	-0.00771991
200	0xbc315d15	-0.010825415
201	0x3b71e0b4	0.0036907615
202	0xbc1ecf75	-0.009693016
203	0xbb87307a	-0.004125652
204	0x3b160579	0.0022891446
205	0x3a22bdcb	0.0006208091
206	0x39793571	0.00023766399
207	0x3a5ced30	0.00084276777
208	0x3c4696bd	0.0121209
209	0xbc004b9f	-0.0078305295
210	0x39e6ddb4	0.000440342
211	0xbb1c9b29	-0.0023896194
212	0x3c3fc62f	0.0117049655
213	0xbc07a255	-0.008278449
214	0x3ad0bf7a	0.0015926205
215	0x3c22cff6	0.009937277
216	0xb9d52a2a	-0.0004065794
217	0xbb07eb77	-0.0020739713
218	0x3b28b013	0.0025739714
219	0xbb31d823	-0.0027136884
220	0xbbff55ab	-0.007792195
221	0x38831f3d	6.252385e-05
222	0x3bc75c3e	0.006083994
223	0xbb51d78e	-0.003201935
224	0x3c25102a	0.010074655
225	0x3bb3a023	0.0054817363
226	0x3c3858cb	0.011251639
227	0x3c27f19a	0.010250473
228	0xbc03b4ba	-0.008038694
229	0xbc250761	-0.01007256
230	0x3ba0f317	0.004911791
231	0x3bed53d1	0.0072426577
232	0xbc0eeb86	-0.008723145
233	0xbb248971	-0.0025106336
234	0xbac18040	-0.0014762953
235	0x3b7a9c24	0.003824004
236	0xbac0a60e	-0.0014697926
237	0xbc31339a	-0.010815525
238	0xbad0af08	-0.0015921304
239	0x3bd7e259	0.006588262
240	0xba8ec5c0	-0.0010892674
241	0xbb3b8ea9	-0.0028618968
242	0xbc314aa3	-0.010821017
243	0x3bc868f3	0.0061160265
244	0xbbaeae5d	-0.0053308443
245	0x3ba7e028	0.005123157
246	0xbad594da	-0.0016294972
247	0xbc03ab4a	-0.008036444
248	0x3b30c127	0.0026970597
249	0xbbed417d	-0.007240473
250	0xbc139276	-0.009007087
251	0xbc33e82d	-0.010980648
252	0xbc09a04e	-0.008400036
253	0xbb13c3a7	-0.0022547038
254	0xbc2df6d4	-0.01061793
255	0xbb9ba220	-0.0047495514
