ConvLSTM/Sequence/0.82_146_A_S.pt (torch, 84929 bytes, 7 tensors)

conv_lstm.conv.weight f4 [40, 13, 3, 3]
00000000: 6d95 b33b b218 cbbc b53e c13d a828 523d
00000010: c9c5 22bd e08a 633d 03d8 2abd fdd1 ec3d
00000020: dc4a 6c3d a45b 6e3d 20e4 5fbd 621a bbbb
00000030: b66c 13bc 2f56 13bd dd17 813d 04e6 e13b
00000040: 96bd 73bd 17bb 8c3d a951 7a3d 189f afbb
00000050: 2b41 963c bb2b ac3d ec40 13bc 4f08 36bd
00000060: 8faf c2bc cb20 96bc a805 a43d bec4 01be
00000070: 2db4 4abd 1e12 bfbc d14a a5bb 2756 bfbb
00000080: 49db c8ba 2eef 02bd 0d9f e7bb 7a13 83bd
00000090: 0eba 76bd d6b1 95bd e00c dbbd d9de 09bd
000000a0: d1d3 dcbd 2498 cbbd 0cf6 e13c 05d8 fdbd
000000b0: b21b 6abb 0571 13bd 65c5 db3d 41f8 26bc
000000c0: 4e7b 9c3b 00ee 82bd b308 e43d 4373 873d
000000d0: 8226 df3d b8c2 e73d 413f 48bb 39d0 9ebd
000000e0: cb10 40bd 8950 07bc fbb2 b53d bbdb 14bd
000000f0: 6f36 d03d 4002 0ebd 9504 82bd bce6 c53c
00000100: 50e9 42bd c72b eebd 36ea 6abd 09e0 a8bd
00000110: d66a 8abd eedb 0fbd b0f7 e0bd bb24 63bd
00000120: 3a3c d1bd 7534 b0bc 8273 413d 1cc9 ffbc
00000130: d353 1bbc 2cca f6bd 754a 5d3c 6f16 79bd
00000140: 2c2f e53c b202 a03d 59a4 6dbc c145 c23d
00000150: 294d d03d 981e f6bc cd10 353b ef54 b63d
00000160: 44e2 14bb a9bd fd3d 488a 82bd 587a 8bbd
00000170: bd9a 57bd e583 c8bd d3b6 343d b6ec e73c
00000180: 8cef cabd 69be 7bbb 3715 3c3d 265e 1a3d
00000190: 6d5f f6bc 2d5e cfbc 7de3 32bd ad4b adbd
000001a0: 277e 563d 033e e1bd 7b03 043c 88bf e6bc
000001b0: 7e84 c7bd 521f 04be f430 c23b 46c2 36bd
000001c0: aed5 cd3b 189d 483c d605 0ebd f84e 5dbd
000001d0: 257d 7bbd 5fc0 853d 7a16 9d3c ce39 d63d
000001e0: 90ad b03d bfec 893b 717a e8bc f490 34bd
000001f0: 3537 cd3d 80c6 0c3d aad5 be3d 9eb6 9b3d
00000200: 7f4d bdbc 8651 c93d 4387 9f3d 3ead 9bbc
00000210: a1f2 d3bc 219e bfbc 1214 c03d ec0b 18bc
00000220: 8596 1cbd 5878 96bd e0d5 bd3d 5945 c53d
00000230: 65d4 c73d a402 9bbd 441e 583d 2649 273d
00000240: 00c6 123d 61a7 d3bb ec53 babd 69d5 14bd
00000250: 4ced 443d 2fc0 1c3c 1760 94bb 907e 373d
00000260: 0ee1 debd b63d 2d3c 96fd 303d 957f 45bb
00000270: 4a48 783d ae40 3e3d 9fb9 1b3d 511e d9bd
00000280: 9cf2 8fbc 9b15 04bc a2cc a6bd b94b 7e3c
00000290: 95e9 1a3d 7af7 7a3d d458 293c c7cc aebd
000002a0: 2ebd b33d a9c9 bc3d 00bc b73c c4b8 013c
000002b0: 93f2 113a 2508 b33c 93c8 28bd f0af f5bc
000002c0: efc6 1dbd e82e 343d 34e1 afbc 04a2 073b
000002d0: 568d 1b3b 9114 2b3d 35de bebd 3c40 e93c
000002e0: a61f 983d 86ba 873d cadb c3bd 27f8 84bd
000002f0: e1d3 863d 5b22 72bd f22c 5b3d bb10 81bb
00000300: b802 d0bb 8c37 583d 1813 02bd 6c52 c33c
00000310: 03d2 853d ef6a 80bd 9661 9b3d b689 7d3d
00000320: 2623 d13d 00c2 efbb b560 c73d ceeb 61bd
00000330: 747b d9bc 92fc 5b3d d08a f2bc 57ad bdbd
00000340: c193 22bd 1689 b6bd d488 0bbd 78db 9fbd
00000350: 4adf 41bd 05b3 bbbc cb50 cfbd e3dc 353d
00000360: 7b0a 2cbc cf86 8fbc 703f 0cbd 2bcb 02bd
00000370: 4bfd 2bbb 41c6 1c3d 0b72 c5bd 9c3a a4bd
00000380: a0e8 1a3d 61c7 b3bd adef 59bb 5ab1 46bd
00000390: 2030 babd c68f d5bd ed4f 3d3d 74f2 ba3c
000003a0: 2f1e 64bc 2cd9 2a3d cb4b 8e3d fd0c dd3b
000003b0: 6f1c 73bd af78 32bb 20d0 a03d 8e18 bebd
000003c0: 7e1c 4c3d 7050 443c a7fc 38bd 8231 bdbd
000003d0: a91d abbc 4b74 81bd 62be 06bd 215e b8bc
000003e0: 5722 46bd 746f 043c 807f 6abc 18e0 d6bc
000003f0: 5d33 103c fd6b 3a3d 4745 7ebc 7535 31bd
0.0054804594 -0.02479205 0.094357885 0.051308304 -0.039739404 0.055552363 -0.04170991 0.115634896
0.05768858 0.058192864 -0.054660916 -0.005709932 -0.008998087 -0.035970863 0.0630338 0.006893875
-0.059506975 0.06871622 0.061113033 -0.0053595416 0.018341621 0.084067784 -0.008987647 -0.044441517
-0.023765353 -0.018326184 0.08008891 -0.12672707 -0.049488235 -0.023324069 -0.005044319 -0.0058391276
-0.0015324141 -0.03196638 -0.007068521 -0.06400199 -0.06023603 -0.0730931 -0.10695815 -0.03365979
-0.10782588 -0.09941128 0.027583145 -0.12394718 -0.0035722074 -0.035996456 0.107310094 -0.010191024
0.0047754413 -0.06393051 0.11134472 0.06613781 0.10896017 0.113164365 -0.003055528 -0.07754559
-0.046891015 -0.008258947 0.088720284 -0.036342364 0.101666324 -0.034670115 -0.0634853 0.024157874
-0.047585785 -0.116294436 -0.057352267 -0.08245856 -0.067586586 -0.03512185 -0.10984743 -0.05545495
-0.102165654 -0.021509388 0.047229297 -0.031223826 -0.0094804345 -0.1205028 0.0135065215 -0.06081241
0.027976595 0.07813014 -0.014504516 0.09485961 0.10170967 -0.030043885 0.0027628422 0.089029185
-0.0022717873 0.123896904 -0.06374031 -0.068104446 -0.052637804 -0.09790782 0.044119667 0.028311115
-0.09908971 -0.0038413054 0.04591867 0.037687443 -0.0300748 -0.025313461 -0.04367398 -0.084617
0.052366402 -0.10998156 0.00805747 -0.028167501 -0.09742068 -0.12902573 0.005926246 -0.044618867
0.006281576 0.012244485 -0.034673534 -0.05403039 -0.061398644 0.065308325 0.019175757 0.10460244
0.086268544 0.0042091305 -0.028378697 -0.04408355 0.100202955 0.03436899 0.09318097 0.07603191
-0.023108242 0.098300025 0.07789471 -0.019003507 -0.02587253 -0.023390831 0.09378828 -0.009280186
-0.038229484 -0.073471725 0.09269309 0.09632368 0.09757308 -0.07568863 0.05276324 0.040841244
0.03583336 -0.006459162 -0.09098038 -0.036336336 0.048077866 0.0095673045 -0.0045280564 0.044798434
-0.108827695 0.010573795 0.04321059 -0.003013586 0.060615815 0.046448402 0.03801882 -0.106014855
-0.01757174 -0.008061792 -0.08144499 0.015520983 0.037820417 0.06127117 0.01033612 -0.08535152
0.087763175 0.09218151 0.022428513 0.007917587 0.00055674574 0.02185447 -0.041206907 -0.02999112
-0.038519796 0.043990046 -0.02146969 0.0020695934 0.0023735366 0.04176766 -0.093197264 0.028473012
0.074279115 0.066273734 -0.09563406 -0.06492644 0.065833814 -0.059114795 0.05350966 -0.003938762
-0.0063479804 0.05278735 -0.03175649 0.023843013 0.06534197 -0.06270396 0.075869724 0.06189891
0.10211782 -0.007316828 0.09735242 -0.05515652 -0.026548125 0.053707667 -0.029607207 -0.092615776
-0.03969169 -0.08912866 -0.034066036 -0.07805532 -0.047332086 -0.022912512 -0.10122832 0.044400107
-0.010500546 -0.017520336 -0.034240186 -0.031932037 -0.0026243504 0.038275007 -0.096408926 -0.08018991
0.037819505 -0.08778263 -0.003325443 -0.04850898 -0.0909121 -0.10427813 0.0462188 0.022820689
-0.013923212 0.041711017 0.0694805 0.006745933 -0.05935329 -0.0027232578 0.07852197 -0.09282027
0.04983186 0.011982068 -0.045162823 -0.092379585 -0.020888167 -0.06321009 -0.032896407 -0.022505822
-0.048372593 0.008083213 -0.014312625 -0.026229903 0.008801308 0.045513142 -0.015519447 -0.04326387

conv_lstm.conv.bias f4 [40]
00000000: c433 983d 9863 34bc 158a 0fbd 512c f93c
00000010: 3720 48bd 1949 9abd e1b2 9abc 47c9 d53d
00000020: e56c f5bc d4d0 be3d f4fe b73c 4c57 e63b
00000030: b390 003d cd5a a7bb 30ed 8b3d 0c96 76bd
00000040: 8e5a 9d3d 16ba 193d 7604 c83c a103 2c3d
00000050: 4388 d73c 7975 803d 393f b33d 9e24 c63d
00000060: 0742 99bd 44a3 65bd 214f 103d 272c f7bc
00000070: bc6d 473d 203e d53d 62e1 793d 4d49 83bd
00000080: 545e 423d e5de f53c 71c9 22bd 8f82 b6bc
00000090: 54ac 26bd 8ebf 1ebd 4b6a 38bd 47ce af3b
0.074317485 -0.011010073 -0.035043795 0.03041664 -0.048858847 -0.075334735 -0.018884124 0.10438781
-0.029959152 0.093171746 0.022460438 0.0070294496 0.031387996 -0.00510726 0.06832349 -0.06020169
0.076832876 0.03753098 0.02441619 0.04199565 0.026310092 0.06272406 0.08752293 0.09674953
-0.07483297 -0.056063905 0.035231713 -0.03017242 0.048688635 0.1041224 0.061005957 -0.064104654
0.04745324 0.030013511 -0.03974289 -0.022279052 -0.04069169 -0.0387569 -0.045023244 0.0053651663

conv1.weight f4 [20, 10, 3, 3]
00000000: 2121 55bc c79f 79bd cf43 d0bd c3dd 01bd
00000010: 9e6c 1c3c 7818 cfbd 0408 07bc 7412 54bd
00000020: 6df6 943c 8e0e d5bd a86e de3c 8822 bdbd
00000030: e1b4 a43d 1d05 82bc 6697 b93d ea9d d9bd
00000040: 300c 8d3c d619 0e3d 7e2d 053b 5773 d03c
00000050: 4dce ce3d dcc6 b5bd d7a0 803d 83c1 913d
00000060: 999a 873c cdcf 82bc 1ce2 9abc aff2 8bbd
00000070: d427 ef3d 2dda d93b c212 a2b9 1326 d43d
00000080: fa1d bd3c 502d 76bb 81ce 633b e733 09bd
00000090: 7d55 9cbc 355b 11bd c623 a9bd 3e6f a33d
000000a0: 1b99 833d 7ab9 833d a753 42bb 27a2 533c
000000b0: 20c4 583d eb04 b43d 538a 283b 7c93 a13d
000000c0: 1905 5c3d ac67 13bc 4ac0 b23d b573 34bd
000000d0: 3168 243d a84d 1cbc 52cf a7bd cbc0 92bd
000000e0: e06b df3c 102f 61bb d171 d93d 22f6 283d
000000f0: a1bc aabc 194d 593d 7d1e fcbc 61e6 ce3c
00000100: dc7a d3bc 1053 d0bd 421a 343d 861a 253c
00000110: de9c 373d 076f c03d 8878 0f3d a0e8 a1bd
00000120: 6bdb 413c 0ac0 99bd f7b0 583d 653c c63d
00000130: 45c2 d2bd efc3 733d 6fb5 cd3d 802d 91bd
00000140: 1de2 473d 991d 923d 1c6b 893d c0c4 f9bb
00000150: 6bbc cabd d529 c8bd 59e5 243d 89b0 c3bb
00000160: dfe5 dabc 44cd 50bc cc22 1bbd 942e 98bc
00000170: 2cdd 9a3d bbfe 913d ef49 cc3c 63f3 1bbd
00000180: dc80 1b3c f740 b2bd debf cdbd 3890 273d
00000190: c04d 583d 98b3 ce3d e07c d73d e2f2 79bd
000001a0: 0621 463d 423c 8b3d 3a67 24bd 225e 2bbd
000001b0: d532 72bc e426 953d 424f 653c 71eb 8b3d
000001c0: b31f f2bc 85dc c73d 8e3f 433d 3b47 173d
000001d0: daef a73c 9ecf c1bd c948 6b3d 0e9e fcbb
000001e0: 12fc 3bbd 299c 55bd abe0 303d 6a5f 43bd
000001f0: 39bf 583b eeb2 743c 850e c1bd 7c86 583d
00000200: 5ca4 123d 7877 6e3d 3b2b 84bd aef0 903d
00000210: 7d8c abbd c102 bf3d 2b9b 453d 08fd cebd
00000220: d9af d0bd f7af f73c c51a ac3d 9997 443d
00000230: 2dd3 11bd 0966 523d c365 123d ddea 97bd
00000240: 6865 0fba ebd5 483d 2ff0 1ebc 83de d53d
00000250: dd83 a03d fede b3bd 6c95 073c 20f1 ccbd
00000260: 4212 cbbd 783f 703d 632b 193d febd c6bc
00000270: be0a 8b3d 977f a33b 42d1 7abd c8c6 423d
00000280: 6c92 a2bb 0285 c33d 5023 97bc 3725 b1bd
00000290: c455 8c3c f480 173d cc1b 1ebd ac6f 2bbc
000002a0: 46b8 8c3d 2e79 b93c 914b bebd eb9c 803d
000002b0: 37b5 47bd 6308 95bd 6b83 383c 25bb bcbd
000002c0: 9044 613b 5759 e4bb 954d 6c3d c976 a1bd
000002d0: 153c c3bd 3096 8d3c cdc1 2dbd b847 133c
000002e0: dae4 4ebd 0e4b a23d aecf e3bd 6e7d a73c
000002f0: 0352 74bd 7a4d 7bbd 9680 523c 777b ac3d
00000300: 678f 13bd c195 c4bd 3068 aabd c892 4fbd
00000310: 3483 cd3d eaec a13d 6941 973d 3421 d7bd
00000320: 05fc e6bd ee2d 5f3d a857 013d 218e 803d
00000330: e189 35bd 8c7e 8a3c 92c9 d4bd 9dd8 763d
00000340: 0c19 2dbd 15c1 58bd f073 82bd 0c78 b2bd
00000350: 24f6 963d f0cb 00be f7ac 89bd 4778 9a3d
00000360: 84d9 6e3d b97c 243c 78e2 a13d 8d5f f8bc
00000370: b3f3 823d 9ec1 28bd 2c2a a73d 7f68 8fbd
00000380: 7d0e f03d 0b89 91bd 8f24 8f3c 6750 c8bd
00000390: e1fc 943d 6020 b63d 87ef 8bbd d13b 7fbb
000003a0: 7f99 24bd a204 a43b 4c37 c73d c069 7a3d
000003b0: f26d df3d 168f 3abd a33b 99bd fb38 ce3d
000003c0: 630c 853b 81a3 afbc 237c acbd e280 1cbd
000003d0: 44c6 563d b7cf a73d 8388 523d c179 873d
000003e0: b15f bd3b 6b82 db3d 847e 8f3c 528c f8bc
000003f0: 0843 28bb 4a8e cebd de26 5dbd 62aa 32bd
-0.013008387 -0.06094339 -0.101691835 -0.03170563 0.009547381 -0.10112089 -0.008241657 -0.05177541
0.018183911 -0.10403167 0.027152374 -0.09235102 0.080423124 -0.015871579 0.0906208 -0.10625823
0.017217726 0.034692608 0.0020321305 0.025445623 0.100979425 -0.0887582 0.06280678 0.071169876
0.01655321 -0.015968228 -0.018906645 -0.068333976 0.116775185 0.006648323 -0.00030913024 0.103588246
0.023085583 -0.003756363 0.0034760537 -0.033496764 -0.019083733 -0.035487372 -0.08258776 0.07980202
0.06425687 0.06431861 -0.0029651911 0.012917078 0.052921414 0.087900005 0.0025717213 0.078894585
0.0537158 -0.008996885 0.087280825 -0.04405566 0.040138427 -0.009539999 -0.0819384 -0.071656786
0.027273118 -0.0034360327 0.10617412 0.041250356 -0.020841898 0.05305204 -0.030776257 0.025256338
-0.02581542 -0.10172093 0.043970354 0.010077124 0.044827335 0.09396177 0.035027057 -0.07905698
0.0118320985 -0.07507332 0.05290314 0.09679488 -0.1029096 0.05951303 0.10044371 -0.070887566
0.048799623 0.071345516 0.067098826 -0.0076223314 -0.09899219 -0.09773604 0.040257785 -0.0059719724
-0.02672094 -0.012744252 -0.03787498 -0.018576898 0.075617164 0.07128664 0.024937598 -0.03807391
0.009491172 -0.08703797 -0.100463614 0.040909022 0.052808523 0.100928485 0.10521865 -0.061022647
0.048371337 0.06798603 -0.040137507 -0.04183782 -0.014782627 0.072828084 0.013995947 0.06832016
-0.029556131 0.09758858 0.047668032 0.036933165 0.020500112 -0.09463428 0.05744246 -0.0077092713
-0.04589469 -0.05215088 0.04318301 -0.047698416 0.0033072962 0.014935238 -0.094265975 0.05286263
0.035801277 0.058219403 -0.06453558 0.07077156 -0.083764054 0.09326697 0.048243683 -0.10106856
-0.1018979 0.030235274 0.084035434 0.047996137 -0.035601784 0.05136684 0.03574158 -0.074178435
-0.0005470128 0.049032133 -0.009700819 0.10442831 0.07837651 -0.08782767 0.008275371 -0.100069284
-0.09915592 0.05865428 0.037394892 -0.024260517 0.06789158 0.004989575 -0.06123472 0.047552854
-0.0049613025 0.095468536 -0.018449455 -0.08649676 0.01713074 0.036988214 -0.038600728 -0.010463636
0.06871085 0.02264079 -0.09291757 0.0627993 -0.048756804 -0.0727699 0.011261801 -0.092153825
0.0034373142 -0.006968658 0.057691175 -0.078839846 -0.09532944 0.017283529 -0.04242115 0.008989267
-0.05051122 0.07924472 -0.11123596 0.020445552 -0.059648525 -0.061353184 0.01284804 0.084219866
-0.03602543 -0.09598876 -0.083206534 -0.05067709 0.10034791 0.07906516 0.07385523 -0.1050438
-0.11278538 0.05448716 0.031577736 0.06277109 -0.044320945 0.016906045 -0.10390009 0.060265172
-0.042260215 -0.052918512 -0.063697696 -0.087143034 0.07371166 -0.12577796 -0.067224436 0.07542472
0.058312908 0.010039502 0.079045236 -0.030319 0.06394138 -0.041200273 0.081623405 -0.07002353
0.117215134 -0.07106217 0.017473487 -0.097809605 0.07274795 0.08892894 -0.068327956 -0.0038945565
-0.040185448 0.005005435 0.09727344 0.061136007 0.10909642 -0.045546614 -0.07482078 0.10069462
0.0040603145 -0.02144027 -0.08422115 -0.03820885 0.052435175 0.08193915 0.05139972 0.066150196
0.0057792296 0.10718235 0.017516382 -0.030340347 -0.002567472 -0.10085733 -0.053992145 -0.04361952

conv1.bias f4 [20]
00000000: 9c70 b73d f304 9cbd eb5c f63c 1f40 9ebc
00000010: a247 3bbd 8267 3c3d c6e2 bd3d 24d6 80bd
00000020: 9710 0cbc e523 b93d f00d dbbd 5227 22bc
00000030: 12ac 4ebd be8c 203d 2b32 c4bd 3719 9bbd
00000040: 8c19 783d 2bb4 9ebd 525f c2bd ebf5 a9bd
0.089570254 -0.076181315 0.030073604 -0.019317685 -0.04572261 0.04599715 0.09271769 -0.06290844
-0.008548877 0.090400495 -0.10696018 -0.00989707 -0.050457068 0.039196722 -0.09579881 -0.07573169
0.06057124 -0.07749208 -0.09490837 -0.08298858

conv2.weight f4 [40, 20, 3, 3]
00000000: 414a 67bd 6c3d 013d 78dc a23d 3fbe 3d3c
00000010: a107 173d 9daf 7b3d eeff 333c e97f 503d
00000020: 95d3 793b a379 89bd e1bf 5d3c b336 a8bc
00000030: 20e6 1b3d 4d68 71bb a7bb 18bd 4357 503d
00000040: 24bb 0e3d 696d 3cbd d9bb f2bc 4064 7b3d
00000050: f35e c73c c935 91bd 922a 3dbd 1a6c d3bb
00000060: d7f3 43bd 9ccd 073d 8b31 413c f401 3fbd
00000070: 1441 cfbc 31e1 883d 2541 e13c 670e 9bbb
00000080: c47e 96bd d09d 873d d6cf 8ebd d941 f23c
00000090: 9ada 61bd 1406 13bd 0b65 c3bc 2574 48bd
000000a0: 8ba2 6f3d 92c7 8abd f6c9 4d3a c303 f23c
000000b0: bcde 38bd 0dfd 65bc db61 f83c 3374 973c
000000c0: f28d 22bd 943b 343d 3975 e13c 4bc3 05bd
000000d0: b213 e7bc 359e 663d 71af 3a3d e1a2 7d3d
000000e0: c92b a93d 2c04 573d ec5a 123d 90a4 8f3d
000000f0: e3b5 883d e9ce e13c 516f a93b 12bc de3c
00000100: 7bdb 933d 6a3c 8d3d 1053 2e3d 5727 60bd
00000110: ca88 493d 7a55 4dbd 77b4 823d d156 223b
00000120: 4147 5ebd d1f8 96bd 2232 69bd 694c cf3c
00000130: 8e13 943d 0607 793d 113a 403d e033 113d
00000140: db62 6a3b ce8d ffbc 0108 6d3d 2679 e8ba
00000150: 2c1b 373d 5aae 353d 51f3 1abd 0e25 08bd
00000160: 04b9 a23d 9a20 4ebd 6c90 973c df73 8b3b
00000170: 9d91 36bd c292 073c 058e 7abd c208 743d
00000180: 7dcb f1bc 5f3a 963d 6ab8 053d 27ee 88bd
00000190: b430 673d e6ea 7e3c 00c3 2bbd a50b 6d3c
000001a0: bb21 953d f229 28bd 09a2 33bd cc7c 683d
000001b0: 6d31 093d 62c5 803b 99e9 063d 0c50 9b3c
000001c0: ccad 833d 5834 41bd 0778 71bd 5f45 8ebd
000001d0: 8578 aa3b 7b84 02bc b6d3 8f3d 7769 263d
000001e0: 22b7 0abc 380f 81bc 0ed2 883c 4eb4 7cbd
000001f0: de00 5abd 77b7 47bd b672 88bd 3e21 b7bd
00000200: 5f98 a33c d9f7 083d 16a7 363c 1f7d cb3c
00000210: 236d 583d 3b05 83bc b8f8 743b 8706 31bd
00000220: aa30 8c3c be32 653c 52c0 14bc 9597 f23c
00000230: 2c95 aabd 256f 0e3c 9bf3 883c d477 89bc
00000240: edef 0f3d e866 48bd 0f29 b53d 31ac ba3c
00000250: 41a7 24bd 7839 a5bc 9eb7 28bd 16fc 2d3a
00000260: da53 a93d ba13 793d fc72 96bd 38fb 67bd
00000270: 83a4 28bb 1012 8f3d c052 433d 8c1a b23b
00000280: 9d6f ed3c a8f6 953d de58 12bd 1de9 b2bd
00000290: 9bcd 92bb 8882 003d ef57 16bd 69d8 95bd
000002a0: 14a8 2bbd 04d3 473d 374f a0bc 2afe a5bd
000002b0: b626 a4bd 0b26 92bd d781 6d3c 44d4 a7bd
000002c0: 13fd b9bc 3818 4739 823b 7c3d 8ced 223d
000002d0: 7625 fdbc 2f1c dc3c ea7e 76bd a30c 7c3d
000002e0: 705b 71bd 097d cbbc 6ffa 9d3d e2d8 09bd
000002f0: b172 aa3d 76f3 0dbc 814f f5bc 75dd fa3c
00000300: b421 b93c 79bf b2bc dc27 873d a742 09bc
00000310: 3eec 753d 2ab8 3fbd a135 07bd 3ea9 cebb
00000320: 9198 78bd a4eb 16bd f42f 023d 09a7 8b3d
00000330: faa1 843d 5338 19bd 208c 8f3d 5292 5b3d
00000340: a121 8e3b 281e c8ba 4b6f 62bd 4700 1c3d
00000350: 46f9 9abc e20b 44bd b665 933d d5a5 9f3b
00000360: e1b1 093d d5b0 e33b ba9e 4fbc f0f6 3ebd
00000370: 415b 8c3d 777f 48bd de8e a53c 8e23 093d
00000380: da06 cabc 14fe ee3c 03d9 933d 04f8 aebc
00000390: 9c0f 983d 03c5 973b 55bc 66bd 380c 2dbd
000003a0: 3a81 28bd 8e3a 763d a85d ad3d b1ec 943d
000003b0: f8b0 913d 3e00 643d f0f3 733d 152d a2bc
000003c0: 5186 3a3b 600d 21bd 2082 863d 85a6 73bb
000003d0: 0f4a 17bd 4909 1cbd 7d88 33bd 0958 21bd
000003e0: 621b dfbc f938 1c3c 9911 a13c e2de dbbc
000003f0: 8904 4e3c c1ce 8abd 2a4c 443d 3765 39bd
-0.0564673 0.031552717 0.07952207 0.011581003 0.03687251 0.061446775 0.010986311 0.050903235
0.0038120497 -0.067126535 0.013534517 -0.020533895 0.03806126 -0.003683585 -0.037288334 0.05086447
0.03484644 -0.04600278 -0.029630588 0.061374903 0.024337268 -0.07090337 -0.046183176 -0.0064520957
-0.047839966 0.03315507 0.011791597 -0.046632722 -0.025299586 0.06683577 0.027496884 -0.0047319415
-0.073483974 0.06621897 -0.06973235 0.029572414 -0.055140115 -0.03589447 -0.023851892 -0.04893889
0.058504622 -0.06776346 0.0007850224 0.02954281 -0.04513429 -0.014037383 0.030320099 0.018488025
-0.03968615 0.04400213 0.027521716 -0.03265695 -0.028207634 0.05630322 0.04557747 0.06192291
0.082603045 0.052494213 0.03573124 0.0701381 0.06675317 0.027564483 0.0051707407 0.027189288
0.07219597 0.06896289 0.042559683 -0.054725017 0.049202718 -0.050130345 0.06382077 0.0024770985
-0.05426717 -0.07371677 -0.056932576 0.02530499 0.07230292 0.060797714 0.046930376 0.035449862
0.003576449 -0.031195547 0.05786896 -0.00177363 0.044703647 0.044355728 -0.0378297 -0.033238463
0.07945445 -0.05032406 0.018501483 0.0042557563 -0.04457246 0.008274736 -0.061170597 0.059578665
-0.029515976 0.07335352 0.032646574 -0.06686049 0.05644293 0.015558934 -0.041934013 0.014468108
0.07281824 -0.041055627 -0.0438557 0.05675964 0.0334944 0.00392978 0.03293762 0.018959068
0.064296335 -0.04716906 -0.058952358 -0.06946825 0.0052023553 -0.007966156 0.070228025 0.040627923
-0.008466514 -0.015754327 0.016701724 -0.06169539 -0.053223483 -0.04875895 -0.066625044 -0.08941887
0.019970117 0.03343949 0.011148235 0.024839936 0.052838456 -0.015993705 0.0037379693 -0.043219116
0.017113049 0.013989149 -0.009079056 0.029613296 -0.083292335 0.008693491 0.016717723 -0.016780771
0.03514092 -0.048926264 0.08845722 0.022787185 -0.04019857 -0.020169005 -0.041190736 0.000663699
0.082679465 0.06080983 -0.0734615 -0.056636065 -0.0025732822 0.06985867 0.04768634 0.0054352935
0.028983885 0.073224366 -0.03572928 -0.08735869 -0.0044800765 0.031374484 -0.036704954 -0.073166676
-0.04190834 0.048785225 -0.019569023 -0.081051186 -0.08015196 -0.07136162 0.014496288 -0.08194783
-0.022703683 0.00018987141 0.06158019 0.039777324 -0.030901652 0.026868908 -0.06017963 0.06153549
-0.058925092 -0.024839895 0.07713782 -0.0336541 0.08322657 -0.008664003 -0.029945137 0.030623177
0.022599079 -0.021819817 0.065993994 -0.008377708 0.06003975 -0.046806492 -0.03301013 -0.0063067963
-0.060692374 -0.03684582 0.031784013 0.06818969 0.06476207 -0.03740723 0.070091486 0.05360634
0.004337505 -0.0015267776 -0.05528192 0.038086202 -0.018917691 -0.047862895 0.07197134 0.0048720636
0.033616904 0.0069485703 -0.012672121 -0.046622217 0.06853343 -0.048949685 0.020209726 0.033481173
-0.02466147 0.029173888 0.07219126 -0.021358497 0.07424852 0.00463164 -0.05633195 -0.04224798
-0.041138865 0.060114436 0.08465129 0.07271708 0.07113832 0.055664293 0.05955881 -0.019796887
0.0028461406 -0.039319396 0.06567788 -0.003717811 -0.036935862 -0.038094793 -0.043831337 -0.039390597
-0.027234737 0.009535068 0.019661712 -0.026839677 0.012574323 -0.067777164 0.0479242 -0.04526254

conv2.bias f4 [40]
00000000: d591 ae3d c66b b6bc 4cbe 013d 649e 41bc
00000010: b0b7 2abd 8573 823d b0fa b33c 25ab 17bc
00000020: 8384 8a3c 8d76 70bd 71ee 743d 5f8f e0bb
00000030: 1ffd 86bd ee04 69ba 49cd 3a3d 4d7e 1b3d
00000040: 4d7c 9abb a562 4b3d ec6f 673c 1743 903d
00000050: 9503 7dbd 567e 603d 5339 143d c37a b1bc
00000060: 1fa8 803d 6a58 97bd 46f4 43bd a11f 20bd
00000070: 223a 5dbc f9c7 14ba 834b a13d ebcd 7fbd
00000080: ff15 6ebd 4c7f 133c 04ac fb3c 6518 363d
00000090: e8f0 56bd 9dca a33d 28e8 72bd 3f81 3bbd
0.08523909 -0.022268187 0.031675622 -0.011817548 -0.041679084 0.0636969 0.021970123 -0.009257113
0.01690889 -0.05870681 0.059797708 -0.0068530287 -0.06591248 -0.0008888979 0.04560593 0.037962247
-0.004714525 0.04965462 0.014125805 0.07044046 -0.061770994 0.054807983 0.03618748 -0.021664983
0.062820666 -0.073899105 -0.04784038 -0.039092664 -0.0135026295 -0.000567555 0.07875731 -0.062452238
-0.058126446 0.009002518 0.030721672 0.04445686 -0.05247584 0.0799763 -0.059303433 -0.045777556

fc1.weight f4 [1, 6760]
00000000: 6d19 a0bb 8b3c 81bc d7bb 96bb 450f 53bc
00000010: 74d1 61b8 cee6 afbb bd63 2dbc 0851 27bc
00000020: 4c6b 7abc 6fb6 04bb 3111 223b f802 b7bb
00000030: e081 b4bb 6bce d939 1566 cabb 2222 96bc
00000040: 7ef5 7ebc 01e5 c0bc 18bd 99bc 946b 1ebb
00000050: 6b71 79bc c938 86bc ce52 66bc 83f0 99bc
00000060: c42a 34bb 312e fbbb 2981 b43a 8c29 45bc
00000070: 6400 aebc ad42 a6bc 48d0 a8bc 7330 b1bc
00000080: 7ca9 00bc 52b5 81bb eb0a 2cbc b4ec 5dbb
00000090: 828e ebbb 2c65 19bc 09d0 74bc 4dbc 93bc
000000a0: 0bf5 adbb cba7 d6bb 39ed 84bb f84c d8ba
000000b0: df9a 3c3a 2207 73bc 47db 64bc 30e6 84bc
000000c0: 43e4 0aba 22cb 343b 8dfd acbb 5a70 ebbb
000000d0: 89b8 98bc 5b68 3fbc fa9a fcbb 278d 68bb
000000e0: 3767 76bc 16a1 35bc 4dc6 a2bc f631 b7bc
000000f0: d49a 48bc a4a2 e6bb 2091 883a 861e 8dbc
00000100: 2778 6ebb 436c 52bc 658a 8eba 9957 81bc
00000110: a180 febb cf6c 94bc 2100 3cbc 6a81 85bc
00000120: a4df 05bc 7210 5ebc 5f39 e3bb 3fe3 da3a
00000130: 8909 76bb 2f4a debb ac05 8dbc a4d5 3abc
00000140: 91c2 5fbc e5bc d03a f9f0 95bb b5cd b1bc
00000150: 8324 a6bc ca5a 28bc f961 d8bb ae69 8fbc
00000160: 5800 e7ba 8367 1abc b89c c1bb 55fd fdbb
00000170: bb87 9abc 014f 7abb 8edd 9bbc 3de2 7bbb
00000180: 654f 24ba 793f 97bc 3683 03bb d85d 6bbc
00000190: 7f73 e2bb 4310 78bb 9a59 a1bc b102 ffbb
000001a0: 3e3e 8bbc d37b 3cbc b809 513b c72b 8dbc
000001b0: 2925 15bc 9759 13bc 1917 debb 7e71 75bc
000001c0: 8c1b 55bc 9a33 78bc 98b2 29bc 6e32 a1bc
000001d0: 49ad a8bc 00a5 0ebb b66a c5ba 0f80 41bc
000001e0: 2eac 82bc 8028 85bb 6339 5fbb fe95 6ebc
000001f0: e59f 4abc bd6b 80bc 4574 98bc 8fa4 a5bb
00000200: 3192 053b 7553 3c3b 81fc 64bc 977b aa3a
00000210: 4b64 33bc d7cb a4bb 8740 68bc faf3 dfba
00000220: 327d 12bc e63f 92bc eda1 48bc 23b3 fbba
00000230: 6035 25bc 088b bfbb d0bb 7bbc 843e 87bc
00000240: 2a15 95bc 4b6e 1f3b c3ae 7abc 787b cbbb
00000250: e97d a03b fd3f 0abc 76d1 ab3b 4385 35bb
00000260: a0e1 4fbc 8739 8abb 8e3f 83bc 78dd 63bc
00000270: 33c0 86bc 00b7 56bc ef77 89bb 9d9e 24bc
00000280: 8151 e3bb 285e 2dbb 1266 5cbc 23ba 333a
00000290: edb6 08bc 32ce 4dbb eff2 55bb b647 7aba
000002a0: 10ba 7b3b c37b 46bb 48a2 64bc 62f3 a8bc
000002b0: 8d14 c0bc efe2 9ebb a4ad babc 312d 9fbc
000002c0: 5cc3 f8ba c370 87bc c29c 6bbc 4655 a0bb
000002d0: 5106 a8bc 6e20 aabc b237 8abc eb24 61bc
000002e0: bc60 31bc 8dfb bcbc 9d24 6cbb b7aa c6bc
000002f0: fe70 2abc 40ce bebc 771a f2bb b104 4abc
00000300: a53f ccbb a510 c8b9 b394 adbc db6b 29ba
00000310: 1462 a8bc a654 16bc 23fb 82bc de5b 2bbc
00000320: 2186 a8bc cbc1 44bc f7e7 a4bc 444f b4bc
00000330: 9122 51bb fbdf 8e38 8518 31bc e19e dabb
00000340: fa01 fcbb e796 c7bb a165 20bc 4cd7 8abc
00000350: dfbd 55bc cbf1 4ebc 213e 3bbc f4c3 84bc
00000360: dbbc d1bc 07d7 edba c195 a3bc a461 99bb
00000370: b24d 92bc 7b36 9dbc 94fa 9739 d7a8 81bc
00000380: 0b7e 60bc 2ed4 50bc bcab aebc d6f0 80bc
00000390: 14a8 b3bc 0eab 47bc 91fb 06ba 6fbb d3ba
000003a0: d6fa 69ba be81 d7bb 0b08 a9bc 5f05 1dbc
000003b0: ee58 0b3b 8afa 31bc 8dfc 95bc 5281 bbbb
000003c0: cf78 cdbc f000 03bc b634 6dbc 02c3 aebc
000003d0: 4001 20bc 468d b4bc d0f4 37bc 31bc 76bc
000003e0: 2b27 05bc b698 76bc b75c 5dbb fec1 22bb
000003f0: 172d e6bb 68e9 3ebc 552d 85bc 1e08 8bba
-0.0048858435 -0.01577594 -0.004600029 -0.0128820585 -5.383925e-05 -0.0053680902 -0.0105828615 -0.01021219
-0.015284371 -0.002025034 0.0024729485 -0.0055850707 -0.0055086464 0.0004154326 -0.00617672 -0.018326823
-0.01556146 -0.023546698 -0.018766925 -0.0024173008 -0.015224795 -0.0163845 -0.014057828 -0.018791443
-0.002749131 -0.0076654186 0.0013771403 -0.012033831 -0.02124042 -0.020295465 -0.020607129 -0.021629548
-0.007852908 -0.0039583826 -0.01050065 -0.003386301 -0.007188619 -0.0093625 -0.014942178 -0.018034125
-0.0053087524 -0.006550764 -0.0040565995 -0.0016502431 0.00071947085 -0.014833244 -0.013968295 -0.016223043
-0.0005298296 0.0027586897 -0.005279249 -0.007185024 -0.01864268 -0.011682595 -0.0077089043 -0.0035484524
-0.015039257 -0.011085769 -0.019869948 -0.02236269 -0.012243945 -0.0070384312 0.0010419227 -0.017226469
-0.0036387534 -0.012843194 -0.0010874985 -0.01578884 -0.0077667986 -0.01811829 -0.01147464 -0.016297061
-0.008170996 -0.013553726 -0.0069343294 0.0016699805 -0.0037542304 -0.0067837457 -0.017214619 -0.011403475
-0.013657228 0.0015925436 -0.0045758453 -0.021704534 -0.020281082 -0.010275552 -0.006603476 -0.017506447
-0.0017624004 -0.009424093 -0.005908575 -0.007751147 -0.01886355 -0.0038194063 -0.019026544 -0.003843441
-0.0006267934 -0.018462883 -0.0020067221 -0.014365636 -0.006910741 -0.003785149 -0.019696046 -0.0077823033
-0.016997453 -0.011504131 0.0031896662 -0.017232789 -0.009103098 -0.008993528 -0.006777656 -0.014980672
-0.013007056 -0.0151490215 -0.0103575215 -0.019677367 -0.020590441 -0.0021765828 -0.001506171 -0.011810317
-0.015951242 -0.004063666 -0.0034061305 -0.014562128 -0.012367223 -0.015676374 -0.01861013 -0.0050550173
0.0020381326 0.0028736268 -0.013976217 0.0013006803 -0.010949205 -0.0050291824 -0.014175541 -0.001708626
-0.008940982 -0.017852735 -0.012245637 -0.0019203167 -0.010083526 -0.0058454312 -0.015364602 -0.016509302
-0.018198568 0.0024327214 -0.0153004555 -0.006209787 0.004897822 -0.008438108 0.0052434755 -0.0027697838
-0.012688071 -0.0042182836 -0.016021516 -0.013907783 -0.01644907 -0.013105154 -0.0041952054 -0.010047582
-0.0069372063 -0.0026453827 -0.01345207 0.00068560446 -0.008344394 -0.003140342 -0.003264602 -0.0009547429
0.0038410462 -0.003028617 -0.0139547065 -0.020623866 -0.0234473 -0.00484883 -0.022787876 -0.019430729
-0.001897912 -0.016533261 -0.014380636 -0.004892978 -0.020510824 -0.020767417 -0.01687226 -0.013741712
-0.010826286 -0.023069168 -0.0036032565 -0.024251325 -0.010402916 -0.023291707 -0.0073884088 -0.01233022
-0.006233173 -0.00038159374 -0.02118907 -0.000646291 -0.02055458 -0.009175455 -0.015988892 -0.010458915
-0.02057177 -0.0120090945 -0.02013014 -0.022010453 -0.0031911472 6.812807e-05 -0.010809069 -0.006671772
-0.0076906653 -0.006090987 -0.009789855 -0.016948365 -0.013045757 -0.01263089 -0.011428387 -0.016206719
-0.025602749 -0.0018145748 -0.01996887 -0.004680829 -0.017859314 -0.019191017 0.0002898766 -0.01582758
-0.013701926 -0.0127459 -0.021322124 -0.01573984 -0.021930732 -0.012186779 -0.00051491807 -0.0016153882
-0.0008925622 -0.006576746 -0.020633718 -0.0095838 0.0021262723 -0.010862956 -0.018308902 -0.0057222033
-0.02508202 -0.007995829 -0.014477899 -0.021333221 -0.009765923 -0.02204002 -0.011227801 -0.015059517
-0.008127014 -0.015051058 -0.0033777186 -0.0024834867 -0.007024418 -0.011652328 -0.016256968 -0.0010607278
