ConvLSTM/Sequence/0.82_122_A_S.pt (torch, 84929 bytes, 7 tensors)

conv_lstm.conv.weight f4 [40, 13, 3, 3]
-0.06819449 0.0833395 -0.05948738 -0.06843838 -0.015224595 0.036357306 -0.07379397 0.04844135
0.07554061 -0.06156099 -0.050380096 -0.025443196 0.06755975 0.007984755 -0.05766789 0.036763065
-0.026493061 0.03001 0.09030595 0.055142377 -0.05801497 0.029722126 -0.024158472 -0.033964183
-0.002157679 0.06626306 -0.06348642 0.094633475 -0.0018568068 0.023053966 0.06881561 -0.035592932
-0.026981723 -0.054558188 0.040711984 0.06838911 0.041387 0.070164025 0.00082345423 0.010233052
0.05047024 -0.06693742 -0.07286404 0.019217145 -0.081554845 0.06682907 0.040576722 -0.08219663
0.0490763 -0.027465766 -0.03341999 0.038982045 -0.070916206 0.051763576 -0.01804367 0.040743455
-0.03654477 0.033389736 0.063663684 -0.030359859 -0.031852223 -0.010118954 0.015872855 -0.049438145
-0.04920644 -0.041422814 0.033395376 -0.013781496 -0.05576398 -0.05157515 0.03624326 -0.027807215
0.06564008 0.113744915 0.056696046 0.027520036 -0.056584615 -0.047225606 0.088285364 -0.039268058
0.07542451 0.062177483 0.017084846 0.027857576 -0.07056896 -0.031563047 -0.097313315 -0.09913404
-0.09014821 0.016602319 0.026406756 0.06175048 0.054862957 0.07257181 0.08852217 -0.05328421
-0.05385393 0.0492784 -0.009574096 -0.09884033 0.011941417 -0.0913605 0.05861424 -0.0833943
-0.08051321 -0.10141629 -0.090901695 -0.09534631 0.03367069 0.046941802 0.040162742 0.04068851
0.013389983 0.04143445 -0.03595928 0.056108616 0.039939467 0.07988694 -0.037301894 -0.077111766
-0.0556544 0.09027115 0.082512714 0.04053207 -0.031786494 -0.039498627 -0.054290667 -0.011235677
-0.04849691 0.08708087 -0.009605532 -0.052461173 0.005324179 0.05902498 0.038118217 -0.036085546
0.0036063476 -0.049824286 0.047748685 -0.040051196 0.09045749 0.074484766 -0.056418404 -0.032544155
-0.018740237 -0.02672228 0.041357767 0.06481948 0.10160568 0.062439907 -0.06905812 -0.03127568
0.09857957 -0.059412252 -0.073241465 -0.0072850767 -0.023561778 -0.029807841 0.012269081 -0.009289702
-0.07176047 -0.11032056 0.019115798 -0.08966327 -0.0907552 0.08756878 -0.024632405 -0.076234005
0.07110328 0.08818751 0.020130202 -0.047355928 -0.06775711 -0.03690395 0.07260269 0.05299077
0.0015848753 0.017569615 0.022481615 0.028388621 0.021504924 -0.004695024 -0.067218974 0.021550797
-0.09706897 0.00034071368 0.008114502 0.029984752 -0.04862613 0.03532328 -0.03563083 0.09104058
0.04571364 -0.021193758 0.022603389 -0.07099344 0.07785718 -0.07224799 -0.024636436 -0.05126244
0.016242087 -0.0056551383 -0.058739685 -0.10484034 -0.04328892 -0.081072256 -0.10161391 -0.01915065
-0.028087175 -0.010311027 -0.09738437 -0.047993295 -0.07453761 -0.006360653 0.039647903 -0.024787493
0.034255672 0.02106575 0.017500151 0.0039699585 -0.038756758 0.061680887 -0.020952819 0.035615902
0.054663997 -0.00021532964 0.05803543 -0.012688458 0.07906919 0.10057048 0.030108362 -0.06277209
-0.039631866 0.024250437 0.06604824 -0.014089259 -0.03329074 -0.027087068 0.013260655 -0.05907256
-0.048994277 0.0070632654 -0.0011318946 -0.021880034 0.019486433 0.009071178 -0.068204276 0.002880806
-0.015711298 0.017639372 -0.06860945 -0.02390886 -0.020802084 0.10034229 0.054889187 0.0022352985
00000000: 8ea9 8bbd e6ad aa3d 0aa9 73bd 6c29 8cbd
00000010: 9470 79bc 66eb 143d 4b21 97bd 706a 463d
00000020: 09b5 9a3d 6027 7cbd 5c5b 4ebd 406e d0bc
00000030: c45c 8a3d 7dd2 023c 2a35 6cbd de94 163d
00000040: fa07 d9bc 88d7 f53c 53f2 b83d f9dc 613d
00000050: 1ba1 6dbd d17b f33c fde7 c5bc 071e 0bbd
00000060: d967 0dbb edb4 873d 2b05 82bd 32cf c13d
00000070: 1960 f3ba acdb bc3c 33ef 8c3d e5c9 11bd
00000080: c608 ddbc 6878 5fbd 9cc1 263d 970f 8c3d
00000090: 6a85 293d 28b2 8f3d 14dd 573a 88a8 273c
000000a0: e2b9 4e3d 7c16 89bd be39 95bd 466d 9d3c
000000b0: 3a06 a7bd aedd 883d c733 263d b556 a8bd
000000c0: 3b04 493d e3ff e0bc 66e3 08bd a3ab 1f3d
000000d0: 843c 91bd 0b06 543d 52d0 93bc 9ce2 263d
000000e0: f8af 15bd adc3 083d 1b62 823d 3db5 f8bc
000000f0: 7a77 02bd f8c9 25bc ca07 823c a77f 4abd
00000100: b18c 49bd f8aa 29bd 97c9 083d c9cb 61bc
00000110: c568 64bd 7740 53bd d073 143d f5cb e3bc
00000120: 4e6e 863d 18f3 e83d 1d3a 683d b371 e13c
00000130: 45c5 67bd a36f 41bd f5ce b43d 8bd7 20bd
00000140: 2a78 9a3d d1ad 7e3d 85f5 8b3c 9235 e43c
00000150: 7586 90bd 4148 01bd 344c c7bd ca06 cbbd
00000160: a09f b8bd 9601 883c fb52 d83c 12ee 7c3d
00000170: fbb7 603d 87a0 943d 1d4b b53d 8b40 5abd
00000180: f095 5cbd 26d8 493d abdc 1cbc cd6c cabd
00000190: efa5 433c 371b bbbd 7c15 703d a1ca aabd
000001a0: 1ce4 a4bd 58b3 cfbd ab2a babd ed44 c3bd
000001b0: 47ea 093d 0c46 403d b081 243d ffa8 263d
000001c0: a961 5b3c 2bb7 293d 0a4a 13bd 26d2 653d
000001d0: 9197 233d c49b a33d dfc9 18bd c6ec 9dbd
000001e0: def5 63bd 15e0 b83d 6dfc a83d f504 263d
000001f0: 8e32 02bd 50c9 21bd e45f 5ebd d815 38bc
00000200: b2a4 46bd 7557 b23d 8560 1dbc 87e1 56bd
00000210: 7376 ae3b 2dc4 713d d921 1c3d 70ce 13bd
00000220: 7958 6c3b 8d14 4cbd 2094 433d b90c 24bd
00000230: c741 b93d 788b 983d fc16 67bd 054d 05bd
00000240: 2085 99bc afe8 dabc c366 293d 13c0 843d
00000250: a416 d03d fdc0 7f3d 586e 8dbd ed1a 00bd
00000260: 16e4 c93d 435a 73bd 9fff 95bd a7b7 eebb
00000270: a104 c1bc 932f f4bc 4104 493c d633 18bc
00000280: 27f7 92bd bfef e1bd bc98 9c3c 60a1 b7bd
00000290: dddd b9bd 4357 b33d e6c9 c9bc 9320 9cbd
000002a0: 999e 913d a79b b43d 18e8 a43c 4af8 41bd
000002b0: 3dc4 8abd 9928 17bd b8b0 943d da0c 593d
000002c0: 97bb cf3a 27ee 8f3c 5d2b b83c 418f e83c
000002d0: 182b b03c b7d8 99bb 1aaa 89bd 4c8b b03c
000002e0: 19cc c6bd d1a1 b239 b0f2 043c 95a2 f53c
000002f0: 312c 47bd 25af 103d a2f1 11bd 7c73 ba3d
00000300: 3a3e 3b3d 889e adbc be2a b93c 0265 91bd
00000310: 9673 9f3d c1f6 93bd 5ad2 c9bc 90f8 51bd
00000320: 200e 853c bd4e b9bb 0699 70bd 88b6 d6bd
00000330: b94f 31bd 3609 a6bd f41a d0bd d3e1 9cbc
00000340: 1317 e6bc 95ef 28bc 7571 c7bd 9e94 44bd
00000350: 2da7 98bd 066d d0bb d765 223d 240f cbbc
00000360: ad4f 0c3d 1492 ac3c 7a5c 8f3c 6d16 823b
00000370: 68bf 1ebd 19a5 7c3d 3fa5 abbc fbe1 113d
00000380: 5be7 5f3d 1cca 61b9 8fb6 6d3d 40e3 4fbc
00000390: 07ef a13d e5f7 cd3d d0a5 f63c a78e 80bd
000003a0: 0655 22bd daa8 c63c 4d44 873d a3d6 66bc
000003b0: df5b 08bd b3e5 ddbc 3843 593c 12f6 71bd
000003c0: 39ae 48bd f772 e73b 155c 94ba c23d b3bc
000003d0: 03a2 9f3c 479f 143c afae 8bbd e8cb 3c3b
000003e0: fbb4 80bc 7280 903c 1c83 8cbd 83dc c3bc
000003f0: 2269 aabc 4280 cd3d 7cd3 603d 167e 123b

conv_lstm.conv.bias f4 [40]
0.014498177 -0.06891371 0.0131273875 0.0119770365 0.058373086 -0.038083274 0.072984956 -0.0025838506
-0.053054236 -0.002321518 0.049950376 -0.05799443 0.039155055 0.068683036 0.015256165 0.073228255
-0.05375412 0.084734894 0.048078693 0.07856481 0.08892621 -0.022977406 -0.06386235 0.044196915
0.09077218 -0.030645978 -0.08630806 0.060920175 -0.017693026 0.045930207 0.094283454 -0.09779603
-0.027113106 -0.037850533 0.0054772124 -0.053694412 0.02975826 -0.01692022 -0.025211575 0.0029747519
00000000: c389 6d3c a222 8dbd 4114 573c 553b 443c
00000010: 9e18 6f3d 35fd 1bbd 2379 953d d255 29bb
00000020: 664f 59bd 9c24 18bb c498 4c3d 918b 6dbd
00000030: 0d61 203d b1a9 8c3d fef4 793c b2f8 953d
00000040: 482d 5cbd 7d89 ad3d 2aee 443d 96e6 a03d
00000050: f21e b63d 1d3b bcbc 44ca 82bd d307 353d
00000060: c4e6 b93d 460d fbbc 48c2 b0bd 6f87 793d
00000070: f7f0 90bc 5021 3c3d af17 c13d 4949 c8bd
00000080: 4e1c debc 2909 1bbd 307a b33b acee 5bbd
00000090: 98c7 f33c 469c 8abc 8188 cebc 0ef4 423b

conv1.weight f4 [20, 10, 3, 3]
-0.058543976 0.061282232 0.038175955 -0.06775949 -0.027282696 -0.012386399 -0.044729467 -0.085987225
-0.009395333 -0.030266624 -0.0051878504 -0.008536727 -0.032641504 -0.03912305 0.061506215 -0.04892711
0.05244605 0.093355924 -0.0080256015 0.07243864 -0.009626669 0.101858184 0.019370776 -0.08418282
0.10093219 0.017444532 -0.034444828 -0.08374191 -0.026740257 0.055489767 0.060198613 -0.075987406
0.034280144 -0.06259959 0.087637864 0.049508136 0.08746105 0.005104125 -0.026417129 0.007260573
0.015225331 0.10394023 0.00404326 0.09581874 0.027537782 -0.060261942 0.032632545 -0.045832288
0.03580369 0.10047299 -0.039550148 -0.058183163 -0.017317042 0.08777547 0.018021226 0.05206816
0.00494366 0.06239493 0.025317788 0.016239388 -0.06982181 0.04468125 -0.02271866 -0.09311372
-0.0046739485 -0.05917792 -0.0005184885 -0.10510305 -0.011590081 0.043782648 -0.088082366 -0.054860625
-0.084215656 0.098173454 0.06334291 0.032860827 0.06476277 0.024493083 0.10330987 -0.07024913
0.06691697 0.020185001 0.09191123 0.027662396 0.053764753 -0.055787187 -0.05529349 -0.09420252
0.10306798 -0.026627881 0.033355158 -0.08307257 0.03615842 -0.09053481 0.041556053 0.11021866
0.037752822 0.025707724 0.0027082982 0.06224556 -0.03072838 0.107442655 0.0007813154 -0.081059106
-0.0275029 -0.06998876 0.008221658 0.014677024 0.06248788 0.11473678 -0.07938999 -0.07710072
-0.06170921 -0.07935417 -0.033440426 -0.04804372 0.07838927 -0.068349056 -0.022874642 0.11183721
0.04913429 0.092135854 0.118721 -0.076886825 -0.027540674 0.07030672 -0.011736225 -0.09547422
0.055150226 -0.0046764114 -0.0034688932 -0.022920195 0.07308973 0.008791477 -0.015553657 -0.06317064
0.057023488 0.06722931 0.12456471 0.007673991 0.014791667 0.015454379 0.074048035 0.12534988
0.06898671 -0.00053668674 -0.009820768 -0.11491885 -0.117050335 0.0066779708 0.010766932 -0.036911406
-0.060421366 0.0506708 -0.06856077 -0.044619 0.10197172 0.10737324 -0.038269524 0.09406072
0.10442889 0.10279732 -0.01850304 -0.0643126 -0.0090015605 -0.074358515 0.058400538 -0.06656473
0.018430594 -0.044188436 -0.093723506 -0.06673796 0.016246779 0.03222467 0.009933708 0.0077899233
0.024859287 -0.06787171 0.10841864 0.10898599 -0.018521884 -0.09551375 -0.036297098 0.03514116
-0.08958975 0.05894931 -0.09959438 -0.044847887 -0.09203136 -0.033281755 -0.07508237 0.06250528
0.031436585 0.05528266 -0.10497885 -0.046497293 -0.032340102 0.06218208 0.005456406 -0.067225836
-0.08957394 0.002117909 0.025347907 0.029507741 0.05417495 -0.026751729 0.045640435 -0.10190696
-0.06732126 -0.048667777 -0.044831324 -0.08491338 0.010453835 -0.057243798 0.0015280847 -0.04900695
0.025781954 0.07904424 -0.010366377 -0.040453285 -0.06895999 0.062162362 0.07163297 0.031889003
-0.016251389 -0.09434305 -0.031885773 0.069377966 0.051397815 -0.012079153 -0.08180496 0.03347234
0.09777137 -0.09914682 0.014458933 0.031748705 -0.03330338 -0.05118804 0.0228648 -0.028688125
-0.081449024 0.031258177 -0.08846189 0.0032322786 -0.048813466 0.051105812 -0.033427004 -0.09700722
-0.06876993 -0.013773646 0.04331804 0.051854968 0.1024779 -0.023535648 0.032980114 0.10290814
00000000: cfcb 6fbd 1403 7b3d 645e 1c3d 7dc5 8abd
00000010: f67f dfbc 53f0 4abc 3f36 37bd 121a b0bd
00000020: e2ee 19bc b6f1 f7bc d8fe a9bb a1dd 0bbc
00000030: 19b3 05bd 7e3f 20bd f1ed 7b3d cb67 48bd
00000040: abd1 563d 6431 bf3d d07d 03bc b65a 943d
00000050: 2db9 1dbc 069b d03d 76af 9e3c 0b68 acbd
00000060: 89b5 ce3d d6e7 8e3c 0516 0dbd e180 abbd
00000070: 620e dbbc 3d49 633d d292 763d 499f 9bbd
00000080: 5669 0c3d 3734 80bd 7b7b b33d 0bc9 4a3d
00000090: c71e b33d 8140 a73b bc68 d8bc 1aea ed3b
000000a0: ab73 793c 9ede d43d 537d 843b 9e3c c43d
000000b0: ea96 e13c 3ad5 76bd b4a9 053d a3ba 3bbd
000000c0: e4a6 123d c8c4 cd3d 56ff 21bd 7851 6ebd
000000d0: 78dc 8dbc a0c3 b33d 40a1 933c 6c45 553d
000000e0: 6dfe a13b d391 7f3d 4067 cf3c 7708 853c
000000f0: bdfe 8ebd b003 373d 7c1c babc 68b2 bebd
00000100: ec27 99bb 8c64 72bd 2deb 07ba 4540 d7bd
00000110: 53e4 3dbc 6f55 333d 8764 b4bd 89b5 60bd
00000120: 4279 acbd 2a0f c93d edb9 813d 1399 063d
00000130: 58a2 843d b8a5 c83c 2094 d33d c7de 8fbd
00000140: c40b 893d 045b a53c f43b bc3d 409c e23c
00000150: 6e38 5c3d 1b81 64bd 6d7b 62bd 40ed c0bd
00000160: 4e15 d33d b722 dabc 6b9f 083d f421 aabd
00000170: da1a 143d 516a b9bd ae36 2a3d 52ba e13d
00000180: b4a2 1a3d 0199 d23c b47d 313b 33f5 7e3d
00000190: 15ba fbbc e50a dc3d 30d1 4c3a 5102 a6bd
000001a0: c34d e1bc 4456 8fbd 22b4 063c e777 703c
000001b0: 4bf3 7f3d 1efb ea3d 3897 a2bd fbe6 9dbd
000001c0: ccc2 7cbd 7084 a2bd d4f8 08bd 7ec9 44bd
000001d0: 8e8a a03d 97fa 8bbd 9a63 bbbc e80a e53d
000001e0: 0a41 493d b9b1 bc3d ff23 f33d d776 9dbd
000001f0: fb9c e1bc f8fc 8f3d 4c49 40bc fd87 c3bd
00000200: 34e5 613d 953c 99bb 5f56 63bb 22c3 bbbc
00000210: 12b0 953d 210a 103c c4d4 7ebc 9c5f 81bd
00000220: 7691 693d 85af 893d c81b ff3d 1a76 fb3b
00000230: c058 723c 5d34 7d3c 7fa6 973d b85b 003e
00000240: e748 8d3d 70b0 0cba 49e7 20bc 935a ebbd
00000250: 16b8 efbd e1d2 da3b c967 303c 6a30 17bd
00000260: 657c 77bd 2f8c 4f3d 9769 8cbd 6ac2 36bd
00000270: 8dd6 d03d 80e6 db3d 81c0 1cbd e8a2 c03d
00000280: d0de d53d 6787 d23d b093 97bc 53b6 83bd
00000290: 487b 13bc 4749 98bd 6735 6f3d 1753 88bd
000002a0: c2fb 963c effe 34bd 1cf2 bfbd e9ad 88bd
000002b0: f717 853c 04fe 033d fec0 223c 9d42 ff3b
000002c0: b4a5 cb3c 5300 8bbd 980a de3d 0c34 df3d
000002d0: 35bb 97bc b79c c3bd 44ac 14bd 2df0 0f3d
000002e0: d57a b7bd d574 713d 23f8 cbbd 6bb2 37bd
000002f0: f07a bcbd 7352 08bd c9c4 99bd c502 803d
00000300: a6c3 003d 1270 623d 27ff d6bd f273 3ebd
00000310: 0e77 04bd a3b2 7e3d a7cb b23b b3ad 89bd
00000320: 8b72 b7bd 9ecc 0a3b 6aa6 cf3c 38ba f13c
00000330: 8de6 5d3d 7126 dbbc 77f1 3a3d 99b4 d0bd
00000340: bbdf 89bd dd57 47bd 0da1 37bd 11e7 adbd
00000350: 9046 2b3c 7978 6abd 044a c83a 83bb 48bd
00000360: ad34 d33c f2e1 a13d bdd7 29bc 58b2 25bd
00000370: e53a 8dbd f69d 7e3d 4eb4 923d 0b9e 023d
00000380: a221 85bc ee36 c1bd a89a 02bd 0916 8e3d
00000390: 8486 523d a4e7 45bc 5c89 a7bd 4b1a 093d
000003a0: 5b3c c83d 7d0d cbbd 29e5 6c3c ee0a 023d
000003b0: 2069 08bd 8daa 51bd f64e bb3c 5c03 ebbc
000003c0: bfce a6bd 9308 003d 822b b5bd a3d4 533b
000003d0: a1f0 47bd 5454 513d c1ea 08bd b9ab c6bd
000003e0: 40d7 8cbd dcaa 61bc 426e 313d e065 543d
000003f0: efdf d13d d5cd c0bc 2816 073d 81c1 d23d

conv1.bias f4 [20]
-0.0974884 0.04764487 -0.020382596 -0.059578966 -0.06681442 -0.055925187 -0.027212929 -0.040647805
-0.0982434 -0.08344533 0.02114929 -0.082812026 -0.051380977 0.08087568 -0.03582894 0.049449775
0.017135426 -0.07101576 -0.043066762 0.040042754
00000000: 00a8 c7bd 4427 433d 67f9 a6bc 1309 74bd
00000010: 00d6 88bd cf11 65bd a6ed debc 507e 26bd
00000020: d633 c9bd 63e5 aabd 4741 ad3c 5a99 a9bd
00000030: dc74 52bd 26a2 a53d 5ec1 12bd d98b 4a3d
00000040: 985f 8c3c b670 91bd c666 30bd df03 243d

conv2.weight f4 [40, 20, 3, 3]
0.042241216 -0.012417683 -0.022990825 0.07020117 -0.023566008 0.018588949 -0.026419437 -0.008142966
0.020177577 0.019548388 0.074420765 0.070017606 0.019221867 0.008363785 0.066647 -0.043341365
0.014272984 0.04467523 -0.07260203 0.03984901 -0.06949834 -0.06860503 0.05977813 0.010971915
0.026631946 -0.030221622 -0.051968694 0.016065905 0.0047253906 0.010944851 0.040127743 0.06929321
0.039410453 -0.016555399 0.036973793 0.051560458 -0.013750045 -0.06607529 0.034115113 0.00572478
-0.014197911 -0.020081325 -0.039412834 -0.051600304 0.015036504 0.0053268033 -0.0064310553 0.00052006316
-0.05017854 0.01238535 -0.028133305 -0.052971788 0.049947273 0.05267279 0.028804997 0.0016251174
0.076712914 0.075162016 -0.029356172 -0.004703223 0.08632375 0.018866386 0.031085432 0.07268857
0.031316526 -0.025541885 -0.014483942 0.07404525 -0.052004877 0.057824593 -0.061675392 -0.061283674
-0.07171434 0.018459098 -0.051501382 -0.043030385 -0.016943155 -0.03932781 -0.05618575 -0.023095574
0.03815742 -0.07182248 -0.05862942 -0.056578595 -0.04598378 -0.020788275 -0.0138490135 0.04247504
0.054702412 -0.012218447 0.053313773 0.08000444 0.07845184 -0.023648044 0.024017684 -0.04767457
0.02275216 -0.020502076 0.077432215 -0.06171353 0.013156988 0.027289879 0.012168142 -0.06288721
-0.019269584 0.0359994 -0.066401266 -0.028528424 0.07150106 0.068748824 -0.05109325 0.0040491545
-0.06250376 0.049668476 0.051887438 -0.05149515 0.0064204196 0.0042332844 -0.06710297 0.049426835
0.058883168 -0.04375942 0.023854537 0.021812582 -0.030120062 -0.07999129 0.0036465875 0.042404793
0.087121144 0.00071508257 0.01273215 0.015849799 0.06931119 0.09202245 0.06213597 -0.025772268
-0.084127165 -0.072715595 0.00016426443 -0.021414401 -0.03722857 -0.03890387 -0.040383395 -0.008034332
-0.01374589 -0.039484162 -0.0077817696 -0.017674005 0.037000693 -0.05378039 0.030373635 -0.061641995
-0.0058190217 0.05121508 0.013500068 0.052471846 0.015236717 0.004341873 0.020697137 -0.037944775
-0.06468529 -0.022033092 -0.006869471 0.0042244936 0.04858211 0.023362415 -0.03735028 -0.012711987
0.05783358 0.060076285 -0.0033154455 -0.0472811 -0.08977935 -0.08309227 -0.092459925 -0.07599331
0.002002248 -0.08477934 -0.05442419 -0.023733217 0.058168225 -0.024803407 -0.048493 0.06399507
0.044277236 -0.0618605 -0.05733879 0.06545746 0.041555304 0.022728745 0.07396365 -0.0082115065
0.010212064 0.00069193705 -0.04938618 0.038425233 -0.054704797 0.0017415101 -0.02029217 0.059623476
-0.0136502925 -0.06872378 -0.0019823185 0.073191665 0.037995793 -0.0056864996 0.00086012715 0.06624668
-0.0050157188 0.06980548 -0.053319372 0.05616133 -0.0050407043 0.061562262 0.06996363 0.032185372
-0.009960107 0.01866921 -0.057391595 0.030719886 0.053673606 -0.016804613 -0.008991738 -0.06901615
0.048403542 -0.017039506 -0.03394255 -0.020122327 -0.0105893565 -0.015642652 0.023007387 0.00049793423
-0.033327624 -0.021396894 -0.0060171536 0.052043784 -0.010487402 -0.052907225 0.036796145 -0.01778827
0.057766713 0.053978197 -0.056582402 -0.002754703 -0.036202636 -0.03953461 0.0430313 0.048359312
0.019858424 -0.0076461514 0.004111227 -0.06949081 0.0048222584 0.07375338 0.07282843 -0.028661037
00000000: 2005 2d3d 8a73 4bbc 4157 bcbc a2c5 8f3d
00000010: 800d c1bc da47 983c 936d d8bc 136a 05bc
00000020: 724b a53c f123 a03c ea69 983d 6465 8f3d
00000030: 2d77 9d3c 4208 093c 397e 883d b786 31bd
00000040: 3cd9 693c 60fd 363d 60b0 94bd b738 233d
00000050: 2555 8ebd cb80 8cbd ead9 743d 8cc3 333c
00000060: 3d2b da3c 5693 f7bc 20dd 54bd a59c 833c
00000070: 73d7 9a3b 0852 333c fd5c 243d 99e9 8d3d
00000080: db6c 213d 309f 87bc d571 173d 0f31 533d
00000090: de47 61bc 7b52 87bd 4abc 0b3d ef96 bb3b
000000a0: 5b9e 68bc 9781 a4bc 5a6f 21bd d75a 53bd
000000b0: ab5b 763c 778c ae3b 9abb d2bb d954 083a
000000c0: 0388 4dbd eceb 4a3c d177 e6bc f2f8 58bd
000000d0: 8395 4c3d 6cbf 573d 75f8 eb3c e401 d53a
000000e0: a91b 9d3d 8bee 993d 5b7c f0bc 7e1d 9abb
000000f0: 82ca b03d ae8d 9a3c e0a6 fe3c bfdd 943d
00000100: c245 003d 373d d1bc 0e4e 6dbc 09a5 973d
00000110: 1103 55bd 7bd9 6c3d 569f 7cbd 9704 7bbd
00000120: f8de 92bd 8937 973c 1df3 52bd a140 30bd
00000130: 5fcc 8abc 3316 21bd 0723 66bd ee32 bdbc
00000140: f44a 1c3d aa17 93bd 6725 70bd f5be 67bd
00000150: 7d59 3cbd 2c4c aabc f9e6 62bc 4ffa 2d3d
00000160: a30f 603d e22f 48bc 8b5f 5a3d 5ed9 a33d
00000170: 5cab a03d 8bb9 c1bc bcc0 c43c 6946 43bd
00000180: bd62 ba3c f8f3 a7bc c894 9e3d 54c7 7cbd
00000190: 6890 573c 068f df3c e35c 473c 02cb 80bd
000001a0: 3fdb 9dbc 1b74 133d 63fd 87bd 71b4 e9bc
000001b0: 266f 923d 2fcc 8c3d 2847 51bd c5ae 843b
000001c0: f901 80bd 2c71 4b3d ec87 543d 94ec 52bd
000001d0: 6262 d23b 5db7 8a3b 486d 89bd cb73 4a3d
000001e0: 7a2f 713d 143d 33bd 976a c33c 4db0 b23c
000001f0: 59be f6bc 79d2 a3bd 96fb 6e3b a6b0 2d3d
00000200: 926c b23d 6174 3b3a 829a 503c 70d7 813c
00000210: 06f3 8d3d 4476 bc3d 4982 7e3d 5d20 d3bc
00000220: dd4a acbd eaeb 94bd 663e 2c39 416d afbc
00000230: fc7c 18bd aa59 1fbd 0f69 25bd 6ea2 03bc
00000240: 7136 61bc 25ba 21bd 37fe febb 13c9 90bc
00000250: 0a8e 173d d448 5cbd 21d2 f83c 517c 7cbd
00000260: 7ead bebb e7c6 513d 642f 5d3c b8ec 563d
00000270: 6ca3 793c 4546 8e3b 0b8d a93c fb6b 1bbd
00000280: b979 84bd be7e b4bc 4d19 e1bb 9f6d 8a3b
00000290: 09fe 463d 8962 bf3c 9bfc 18bd f045 50bc
000002a0: e7e2 6c3d 8d12 763d f247 59bb d4a9 41bd
000002b0: 3cde b7bd 482c aabd a15b bdbd 61a2 9bbd
000002c0: 2638 033b caa0 adbd e6eb 5ebd 2a6c c2bc
000002d0: ce41 6e3d 8430 cbbc 99a0 46bd d90f 833d
000002e0: 0c5c 353d 7061 7dbd 14dc 6abd 900e 863d
000002f0: e535 2a3d a231 ba3c 417a 973d 8e89 06bc
00000300: 8050 273c 1c63 353a 2a49 4abd c763 1d3d
00000310: 2312 60bd 6243 e43a c43b a6bc bf37 743d
00000320: 7aa5 5fbc 0ebf 8cbd c9e9 01bb 83e5 953d
00000330: 7aa1 1b3d d155 babb 287a 613a 57ac 873d
00000340: e65a a4bb 2df6 8e3d 6a65 5abd 6c09 663d
00000350: 7e2c a5bb b628 7c3d 1749 8f3d cfd4 033d
00000360: b72f 23bc 2cf0 983c 7313 6bbd 45a8 fb3c
00000370: dbd8 5b3d d4a9 89bc 1552 13bc 5758 8dbd
00000380: cb42 463d 6f96 8bbc 5807 0bbd 94d7 a4bc
00000390: fb7e 2dbc 0525 80bc fd79 bc3c cd87 023a
000003a0: 8c82 08bd 8a48 afbc 8b2b c5bb dd2b 553d
000003b0: 5ad3 2bbc 3fb5 58bd 8eb7 163d b5b8 91bc
000003c0: ca9c 6c3d 3e18 5d3d f3c2 67bd 3f88 34bb
000003d0: 3749 14bd 0bef 21bd 9741 303d 6a14 463d
000003e0: 22ae a23c 918c fabb 79b7 863b 3351 8ebd
000003f0: 0904 9e3b 030c 973d 1227 953d 8dca eabc

conv2.bias f4 [40]
-0.024933713 0.014406304 0.013239396 0.04625063 0.034481138 0.04172603 -0.013757465 0.0065162387
0.077910945 -0.032424185 0.06766192 0.05227169 0.04761078 -0.033012368 0.025236137 -0.06929249
0.07125924 -0.040332522 -0.0012622778 0.011268337 -0.058925718 0.040161848 0.058676176 0.066199526
-0.055840243 0.039581817 -0.059469987 -0.07761364 0.018278928 0.041076675 -0.0066650505 -0.047570225
0.0480334 0.011272666 -0.019203553 -0.05550818 -0.002922336 -0.012857765 0.059610583 -0.002681698
00000000: c941 ccbc 6b08 6c3c 0dea 583c 4d71 3d3d
00000010: 183c 0d3d eae8 2a3d fe66 61bc 2c86 d53b
00000020: c68f 9f3d 39cf 04bd 5592 8a3d d71a 563d
00000030: 8503 433d fa37 07bd 04bc ce3c 39e9 8dbd
00000040: 5df0 913d b733 25bd 0473 a5ba d59e 383c
00000050: 185c 71bd c080 243d 6e56 703d 9e93 873d
00000060: bdb8 64bd 8b20 223d cd96 73bd e6f3 9ebd
00000070: b1bd 953c 0440 283d 7f66 dabb ffd8 42bd
00000080: acbe 443d fdb0 383c c550 9dbc 8c5c 63bd
00000090: aa84 3fbb 60a9 52bc 3a2a 743d 6dbf 2fbb

fc1.weight f4 [1, 6760]
0.0108087165 0.0033155126 0.016428292 0.01910763 0.019279249 0.024507884 0.020213272 0.027537407
0.028194496 0.020668106 0.020009821 0.027118808 0.020816404 0.023208186 0.006338347 0.02060065
0.035428282 0.031390168 0.03197405 0.026386777 0.021732347 0.028994415 0.019072633 0.020600343
0.01905015 0.010540874 0.015118896 0.003269043 0.01008769 0.036393162 0.018992634 0.025742518
0.0359075 0.033940386 0.026817344 0.016689735 0.02607757 0.024993071 0.011708629 0.018121414
0.018544102 0.02000135 0.030301606 0.018620195 0.028649503 0.020191487 0.032284815 0.03771353
0.024669169 0.02299267 0.014724139 0.018361803 0.0030193625 -0.0006895887 0.0132827945 0.019237591
0.03155525 0.028426655 0.035033643 0.018740132 0.01801914 0.021330802 0.025006074 0.037317544
0.0339352 0.003477326 0.016767653 0.0016473855 0.0077751614 0.029974876 0.033574875 0.015630076
0.034718603 0.028035222 0.033953503 0.038414128 0.024549507 0.022018032 0.0043630605 0.0055270824
0.01799025 0.020825021 0.01356776 0.0038007281 0.009209001 0.027963018 0.022661472 0.027604653
0.036788892 0.027978113 0.038677398 -0.00039386013 0.016160674 0.011425076 0.005751797 0.0051782336
0.010404264 0.0022107866 0.003918571 0.022462323 0.024021221 0.026601052 0.01636464 0.03584119
0.008936189 -0.000980768 0.009625872 -0.0027874445 0.014292843 0.017258331 0.005031093 0.008128725
0.0019721875 0.0034148188 0.002689427 0.02712901 0.029539358 0.012717978 0.01424722 0.007865666
0.0030311362 0.008475227 0.005830633 0.0012467398 0.008222054 0.005601009 0.009919135 -0.0005237993
0.004462189 0.0152695775 0.0119551215 0.010663514 0.002994134 -0.008197001 -0.004376991 0.012477759
-0.004884056 -0.002946641 -0.013760287 -0.008369062 -0.0014704225 0.014227479 0.017194638 0.0030423212
0.003594314 0.0034253376 0.0072856527 0.012458072 -0.008394992 0.0010370045 0.0011362265 -0.007397624
0.015533212 0.0038798158 0.01317157 -0.00021504267 0.017558612 0.0017137612 0.020653218 0.0009908847
0.001796622 0.013496544 -0.004861242 0.005020906 0.02025459 0.008756515 0.020434452 0.024621554
0.016579429 -0.021995815 -0.016584156 -0.009058454 -0.016787069 -0.005354998 -0.02329615 -0.0067254724
-0.012812404 -0.012474459 -0.0110940235 -0.0031000504 -0.015988087 -0.00067296176 -0.019301748 -0.02592862
-0.018611187 -0.030788396 -0.0132396035 -0.031866062 -0.014188856 -0.009737164 -0.026176823 -0.0048639933
-0.0005581723 -0.007844514 -0.007265808 -0.02154527 -0.022017213 -0.017401405 -0.0050882464 -0.01792536
-0.030898808 -0.031698175 -0.024927711 -0.0070853555 -0.018416377 -0.008671189 -0.0135756135 -0.0019364672
-0.0043027406 -0.019516116 -0.022521242 -0.020343015 -0.022426791 -0.0075101373 -0.011347354 -0.024853356
-0.014656481 -0.0027217395 -0.005068342 -0.02020476 -0.016024593 -0.015367617 -0.023335554 -0.005567276
-0.0060344897 -0.012024063 -0.0062285587 -0.0100457 -0.011372822 -0.005227452 -0.01343393 -0.012255308
-0.009214308 -0.0112684835 -0.012413257 -0.01481287 -0.007918749 -0.009817967 -0.018454604 -0.010319061
-0.027746778 -0.012399039 -0.0063023367 -0.022930244 -0.011150194 -0.008718371 -0.017102243 -0.025435066
-0.0045655286 -0.008492346 -0.01861926 -0.0111130085 -0.011816067 -0.009471236 -0.0075423974 -0.017344935
00000000: 0b17 313c 1249 593b a094 863c 9b87 9c3c
00000010: 84ef 9d3c c2c4 c83c 4e96 a53c 2196 e13c
00000020: 25f8 e63c 2950 a93c a3eb a33c 4328 de3c
00000030: 2a87 aa3c 181f be3c e9b1 cf3b b2c2 a83c
00000040: 3f1d 113d fa92 003d 39f7 023d 1529 d83c
00000050: 0908 b23c b285 ed3c 363e 9c3c 0dc2 a83c
00000060: 0f0f 9c3c a1b3 2c3c 3fb5 773c 713d 563b
00000070: d746 253c ff10 153d 7196 9b3c f9e1 d23c
00000080: be13 133d 1305 0b3d 0cb0 db3c e9b8 883c
00000090: a1a0 d53c 45be cc3c 8dd5 3f3c 5c73 943c
000000a0: cde9 973c dfd9 a33c 133b f83c 6189 983c
000000b0: 5db2 ea3c 9e68 a53c 153d 043d 8179 1a3d
000000c0: ff16 ca3c 205b bc3c 843d 713c 7e6b 963c
000000d0: 7fe0 453b 84c5 34ba 14a0 593c 2798 9d3c
000000e0: 1440 013d 04df e83c 707f 0f3d e884 993c
000000f0: e09c 933c efbd ae3c 8ad9 cc3c 48da 183d
00000100: a3ff 0a3d d9e3 633b 515c 893c 16ed d73a
00000110: c8c6 fe3b df8d f53c cf85 093d a50a 803c
00000120: 1835 0e3d 1faa e53c d412 0b3d 2258 1d3d
00000130: 0c1c c93c 295f b43c 01f8 8e3b 871c b53b
00000140: 4a60 933c 3c99 aa3c 4f4b 5e3c a315 793b
00000150: 5ae1 163c b312 e53c 8da4 b93c 2723 e23c
00000160: f3af 163d 5b32 e53c 316c 1e3d 037f ceb9
00000170: 6463 843c 3e30 3b3c 9279 bc3b 2cae a93b
00000180: a576 2a3c d8e2 103b 5b67 803b e802 b83c
00000190: 27c8 c43c 73ea d93c 230f 863c 36ce 123d
000001a0: 1869 123c 1d8d 80ba d5b5 1d3c 8fad 36bb
000001b0: 872c 6a3c 5861 8d3c dedb a43b 582e 053c
000001c0: d13f 013b 27cb 5f3b 1941 303b a83d de3c
000001d0: 86fc f13c 115f 503c 2c6d 693c ffde 003c
000001e0: 07a6 463b aedb 0a3c e50e bf3b a569 a33a
000001f0: cbb5 063c ab88 b73b de83 223c 934f 09ba
00000200: 8e37 923b 402d 7a3c 6adf 433c 05b6 2e3c
00000210: 3c39 443b b74c 06bc dd6c 8fbb 846f 4c3c
00000220: 6e0a a0bb 6f1c 41bb d472 61bc 641e 09bc
00000230: 31bb c0ba 5f1a 693c c5db 8c3c ae61 473b
00000240: 958e 6b3b a17b 603b 7cbc ee3b f11c 4c3c
00000250: 268b 09bc 19ec 873a 6fed 943a c567 f2bb
00000260: 037f 7e3c 8244 7e3b 92cd 573c 147d 61b9
00000270: 14d7 8f3c 49a0 e03a f030 a93c 93e0 813a
00000280: a17c eb3a 9c20 5d3c 0e4b 9fbb 6a86 a43b
00000290: f4ec a53c 7c77 0f3c 2766 a73c 24b3 c93c
000002a0: 95d1 873c 9130 b4bc 7fdb 87bc e969 14bc
000002b0: 0985 89bc fb78 afbb 91d7 bebc 5a61 dcbb
000002c0: 1eeb 51bc ac61 4cbc b5c3 35bc 372a 4bbb
000002d0: 73f9 82bc b369 30ba b31e 9ebc 4268 d4bc
000002e0: 7d76 98bc f237 fcbc ecea 58bc fd85 02bd
000002f0: 6078 68bc a088 1fbc c770 d6bc 2262 9fbb
00000300: 4f52 12ba 4786 00bc 0416 eebb b57f b0bc
00000310: 715d b4bc 648d 8ebc 4ebb a6bb 34d8 92bc
00000320: 7f1f fdbc f2d5 01bd 3335 ccbc 452c e8bb
00000330: f1dd 96bc 9a11 0ebc 406c 5ebc 0fd1 fdba
00000340: 01fe 8cbb 43e0 9fbc 787e b8bc 65a6 a6bc
00000350: 64b8 b7bc 9917 f6bb 41ea 39bc 4499 cbbc
00000360: bd21 70bc 365f 32bb 5614 a6bb 7484 a5bc
00000370: 0246 83bc 75c8 7bbc 342a bfbc b26d b6bb
00000380: f8bc c5bb 9300 45bc f018 ccbb b896 24bc
00000390: 1355 3abc 0c4b abbb fd19 5cbc 7dca 48bc
000003a0: 9cf7 16bc 729f 38bc f960 4bbc aeb1 72bc
000003b0: a4bd 01bc 8adb 20bc 1c2e 97bc 4711 29bc
000003c0: 364d e3bc 5725 4bbc d583 cebb 35d8 bbbc
000003d0: 4eaf 36bc 80d7 0ebc 011a 8cbc 335d d0bc
000003e0: 6e9a 95bb 7b23 0bbc 6b87 98bc 5613 36bc
000003f0: 2d98 41bc 3e2d 1bbc 3726 f7bb f716 8ebc
