ConvLSTM/Sequence/0.82_110_A_S.pt (torch, 84929 bytes, 7 tensors)

conv_lstm.conv.weight f4 [40, 13, 3, 3]
0.110319346 -0.048341583 0.05597536 0.109865434 0.049201194 0.059542086 0.065673746 0.10626867
0.08010266 -0.021474766 0.04041794 0.034476195 -0.059149455 0.09673542 0.042498976 0.035780296
-0.057905596 0.0016288357 0.10330249 -0.00076885807 -0.00043453072 0.014557144 0.038161624 -0.058463827
0.022297213 -0.043625634 0.029846227 -0.06651409 -0.05006891 -0.04863255 0.103441976 0.021505406
0.043372016 0.059779156 -0.06598112 -0.003852236 0.102075346 0.011675326 0.052455205 -0.043145385
-0.029332692 -0.0013521375 0.05651332 0.09633367 -0.05859986 0.026880328 0.0682862 0.11070192
0.13629769 0.010027569 0.007159053 -0.013049567 0.024600942 0.069827065 0.062486287 -0.024561724
-0.06076932 -0.08420192 -0.081261784 -0.101099074 -0.03279338 -0.0125622945 0.035778567 -0.024792746
0.08751735 -0.061659012 -0.03819556 -0.0320635 0.024702638 0.024517156 -0.0863054 -0.0621888
-0.025353651 0.0769117 -0.013518427 0.029463345 0.062653966 -0.041074634 0.08893404 -0.006530369
0.020444442 -0.03499643 0.04742153 0.010476675 0.06216544 -0.050897904 -0.020338463 -0.037117474
-0.05732244 0.04653696 0.089811206 0.065209955 -0.022948954 0.025067957 0.08569688 0.08167733
0.061420225 -0.052292984 0.015693119 -0.007953105 -0.08886757 -0.0836732 0.05008077 0.06156552
-0.072126865 0.085072696 0.0086024925 -0.009304225 -0.004984763 0.04400976 -0.018346075 0.032966487
-0.0052533075 -0.060349517 0.046834156 -0.05011418 -0.0069410647 -0.045828022 0.062125463 0.077861704
-0.06671096 0.0112759955 -0.062643655 -0.054538526 0.06923404 -0.04218156 0.0123214405 0.095801346
-0.062198244 -0.0122737065 -0.03407369 0.014947467 0.038544495 -0.034919843 0.051819947 -0.053058304
0.04004575 0.09280681 0.040643908 -0.045080636 -0.0331395 -0.020202251 -0.056105703 -0.017874395
0.035697 0.026738733 0.10642059 -0.013322742 0.08734187 -0.059476767 0.084422566 0.047768407
0.08528308 0.057612266 -0.042820536 0.10357704 0.06509582 -0.065357395 0.09094797 0.09872398
0.055455875 -0.061828338 0.12094286 0.00839947 0.009866416 0.06541582 0.12785657 0.060363755
0.03997982 0.03285136 0.034704845 0.056358665 -0.064777575 -0.004813423 0.0029952624 -0.04559481
-0.08057934 -0.10083231 -0.009512526 0.06693892 0.07326826 0.049749903 0.08116741 -0.08679933
0.08816348 0.055970587 0.07974027 0.08583367 0.029162385 0.055683292 0.020476066 0.07500601
0.038597412 0.06282479 -0.08065325 0.025700979 0.0946199 0.071940675 0.07974842 -0.0040775975
-0.06839162 0.01286411 0.016826034 0.09707693 0.06761482 -0.042111404 0.009748803 -0.0006081593
0.01834495 0.032015517 -0.028749587 -0.052868444 0.029274216 0.05942729 0.1008689 0.04614818
-0.057436094 -0.03236353 -0.06966074 0.035295688 0.0063639893 -0.033827405 0.06360196 0.045523897
-0.09905749 -0.041603502 -0.0020621668 0.08920112 -0.0066624954 0.04267018 0.012579826 0.04589003
-0.06974566 0.036088187 0.026098019 -0.0036322293 0.047465462 -0.020472113 0.04523693 0.11123952
0.048534095 0.09036185 0.1429428 0.03602694 0.07122097 0.10737498 -0.0143068405 0.0050667967
0.02292625 0.11614587 0.012844068 -0.029482612 0.08572652 0.05096291 -0.008575894 0.07598438
00000000: 1cef e13d d301 46bd 6b46 653d 2101 e13d
00000010: 3187 493d 67e2 733d f57f 863d 63a3 d93d
00000020: dd0c a43d d9eb afbc 488d 253d e936 0d3d
00000030: b346 72bd 381d c63d 6813 2e3d 5c8e 123d
00000040: 6b2e 6dbd a87e d53a 4290 d33d 318d 49ba
00000050: bad1 e3b9 1681 6e3c 5d4f 1c3d c477 6fbd
00000060: a5a8 b63c cbb0 32bd 1380 f43c 8a38 88bd
00000070: 0f15 4dbd ed32 47bd 63d9 d33d 1b2c b03c
00000080: dba6 313d fdda 743d 1c21 87bd cc75 7cbb
00000090: e10c d13d de49 3f3c 45db 563d 37b9 30bd
000000a0: 1d4b f0bc 353a b1ba 837a 673d 964a c53d
000000b0: 6806 70bd 2234 dc3c a3d9 8b3d b0b7 e23d
000000c0: 9f91 0b3e ac4a 243c 7d96 ea3b dacd 55bc
000000d0: ea87 c93c 7e01 8f3d 9ff1 7f3d ab35 c9bc
000000e0: 40e9 78bd 0e72 acbd 946c a6bd 080d cfbd
000000f0: 5a52 06bd 15d2 4dbc 8c8c 123d 281a cbbc
00000100: 4c3c b33d 298e 7cbd f372 1cbd 0455 03bd
00000110: 305d ca3c 34d8 c83c e3c0 b0bd afb9 7ebd
00000120: 76b2 cfbc e283 9d3d 647c 5dbc 1d5d f13c
00000130: b950 803d e03d 28bd 0d23 b63d b5fc d5bb
00000140: 1a7b a73c 6b58 0fbd 143d 423d 5ca6 2b3c
00000150: 30a1 7e3d 527a 50bd d99c a6bc 7e08 18bd
00000160: efca 6abd 8a9d 3e3d f0ee b73d cc8c 853d
00000170: 72ff bbbc 515b cd3c d981 af3d 7246 a73d
00000180: c693 7b3d 2b31 56bd db8e 803c bd4d 02bc
00000190: 3300 b6bd db5c abbd 7e21 4d3d 202c 7c3d
000001a0: 40b7 93bd 983a ae3d 78f1 0c3c c070 18bc
000001b0: 3957 a3bb 9443 343d 824a 96bc de07 073d
000001c0: f023 acbb 0e31 77bd 2cd5 3f3d 8744 4dbd
000001d0: df71 e3bb 2ab6 3bbd 4577 7e3d f575 9f3d
000001e0: c19f 88bd f4be 383c 514b 80bd ca63 5fbd
000001f0: 94ca 8d3d 92c6 2cbd dedf 493c 7f33 c43d
00000200: 96c3 7ebd a817 49bc db90 0bbd 38e6 743c
00000210: d5e0 1d3d 1c08 0fbd 2741 543d aa53 59bd
00000220: 0307 243d 7f11 be3d 3a7a 263d 79a6 38bd
00000230: 49bd 07bd 317f a5bc 18cf 65bd 536d 92bc
00000240: 0437 123d 300b db3c 0af3 d93d a147 5abc
00000250: 4be0 b23d e99d 73bd bde5 ac3d cea8 433d
00000260: e5a8 ae3d d7fa 6b3d 9664 2fbd 3320 d43d
00000270: f550 853d 19da 85bd ee42 ba3d cc2f ca3d
00000280: b325 633d b63f 7dbd e4b0 f73d ee9d 093c
00000290: c0a6 213c bbf8 853d d5ec 023e fc3f 773d
000002a0: e1c1 233d 268f 063d ab26 0e3d 58d8 663d
000002b0: 1baa 84bd ebb9 9dbb 2a4c 443b a0c1 3abd
000002c0: c806 a5bd 2c81 cebd 6dda 1bbc 4617 893d
000002d0: ab0d 963d 8ec6 4b3d 193b a63d d9c3 b1bd
000002e0: 0e8f b43d 6a41 653d de4e a33d 90c9 af3d
000002f0: f4e5 ee3c 2a14 643d 6cbd a73c c09c 993d
00000300: 5218 1e3d 49aa 803d 882d a5bd dc8a d23c
00000310: 14c8 c13d a255 933d 2453 a33d 5e9d 85bb
00000320: e810 8cbd fdc3 523c c0d6 893c 45d0 c63d
00000330: a479 8a3d 027d 2cbd 72b9 1f3c e16c 1fba
00000340: 2648 963c b422 033d 4184 ebbc 958c 58bd
00000350: 7bd0 ef3c 086a 733d 5b94 ce3d e005 3d3d
00000360: 1c42 6bbd 9f8f 04bd 4aaa 8ebd 3692 103d
00000370: 0389 d03b 9b8e 0abd bf41 823d 4477 3a3d
00000380: a7de cabd 6f68 2abd 6b25 07bb 14af b63d
00000390: 1051 dabb edc6 2e3d 9d1b 4e3c 2ff7 3b3d
000003a0: d0d6 8ebd 35d1 133d 83cb d53c b20a 6ebb
000003b0: 256b 423d 22b5 a7bc 5c4a 393d 8cd1 e33d
000003c0: b0cb 463d a20f b93d 995f 123e fc90 133d
000003d0: 4ddc 913d 6ae7 db3d 3d67 6abc 5f07 a63b
000003e0: d5cf bb3c e3dd ed3d ed6f 523c 8585 f1bc
000003f0: 6391 af3d 7cbe 503d e881 0cbc b39d 9b3d

conv_lstm.conv.bias f4 [40]
-0.005129327 -0.07609616 0.10910073 -0.039577495 0.033511385 0.011050466 0.036984723 -0.035847075
-0.03666357 -0.03552078 0.08791312 0.08178731 -0.037992723 0.08875251 -0.052498788 0.077310815
0.05631525 0.063988745 0.0504464 -0.023278626 0.07163257 0.03815093 0.041543797 0.063180886
-0.034456324 0.08038687 -0.027201466 -0.064954974 -0.0017786453 0.05879271 0.0042953948 0.0091341175
-0.08096479 -0.055794157 0.08871933 -0.036766827 0.012389841 0.056671206 0.08619894 -0.01412064
00000000: ea13 a8bb 4ed8 9bbd 3470 df3d 031c 22bd
00000010: 3c43 093d 040d 353c 4b7d 173d 62d4 12bd
00000020: 8a2c 16bd 3d7e 11bd cb0b b43d 1b80 a73d
00000030: 429e 1bbd e0c3 b53d f808 57bd 2255 9e3d
00000040: d2aa 663d 880c 833d e2a0 4e3d d1b2 bebc
00000050: 19b4 923d 2644 1c3d d429 2a3d fb64 813d
00000060: 1322 0dbd dfa1 a43d 9cd5 debc 1d07 85bd
00000070: 6f21 e9ba a0d0 703d 62c0 8c3b 44a7 153c
00000080: ded0 a5bd 6a88 64bd 7bb2 b53d d098 16bd
00000090: c2fe 4a3c 1120 683d 1289 b03d 425a 67bc

conv1.weight f4 [20, 10, 3, 3]
0.042082097 -0.018475225 -0.02978458 -0.09438607 0.09750301 -0.016672367 0.04501266 0.014372542
-0.0681051 0.06568594 -0.05238739 -0.04086153 -0.036939126 -0.06689554 -0.025285851 0.0049629323
-0.089209236 0.00047593535 0.06223755 0.05991902 0.017783644 -0.10957278 -0.08417754 -0.13430375
-0.10480544 -0.066949286 0.06174308 -0.06124912 0.041527636 0.05585049 -0.07741383 -0.07448571
0.08086281 0.012924483 -0.090773135 -0.019975178 0.069614016 0.11095451 0.028403413 0.01572012
-0.05985966 -0.07864026 0.07125408 0.08584681 0.031525645 -0.009936969 -0.06395821 -0.042841703
-0.10645097 -0.10084708 -0.119081035 0.03507513 -0.06789104 -0.05725675 -0.09133312 -0.0704814
0.09173093 -0.013936716 -0.061420124 -0.03240259 0.06567251 0.065786265 -0.09729973 -0.096430786
-0.01135872 0.10034944 0.03341411 0.10609792 -0.027764395 -0.0091368705 0.049163576 0.054103907
0.029340263 -0.012783861 -0.024742689 -0.05063696 0.10272589 0.055389035 0.003689361 0.023144603
-0.07957275 -0.07809726 0.033615347 0.09453609 0.07818162 0.0053452076 0.06826839 0.06532221
-0.019962331 -0.049818408 -0.062269617 0.08100894 -0.07909556 0.09451463 0.014384833 0.09920119
-0.0986998 0.045263223 0.019412141 0.05310525 -0.009447932 0.024573 -0.06780426 -0.035851236
0.008951166 -0.039822843 -0.04146699 -0.0030634524 0.04065736 0.013382745 -0.06382533 0.06438359
0.0099682 0.008602572 -0.022034599 0.005446537 -0.07429872 -0.0033514262 0.041015513 -0.09170331
0.03281014 -0.008691879 0.063213296 0.06729023 -0.004450735 -0.052478086 0.03938291 -0.06807061
-0.045437746 0.09579557 0.085834526 0.033724166 0.035593964 0.044558242 -0.012293271 0.078357406
0.05465742 -0.047509648 -0.07218787 0.014045661 0.0069987755 -0.086446315 -0.08931045 0.024039797
-0.054428216 0.025275124 -0.04072824 -0.036692657 -0.10508022 0.06629396 0.03958837 -0.03029563
0.0026132744 0.011507784 0.07288 0.055999894 -0.10188129 0.034028154 0.09821062 -0.03684192
0.033651646 0.098845966 -0.058875322 0.06926058 -0.012785725 -0.10004001 0.056439117 -0.038169086
-0.10222694 0.07861309 -0.03761046 -0.06178338 0.018324476 0.016594496 -0.027834985 0.005125026
0.06754342 -0.062811196 -0.096770465 0.09883766 0.10844131 -0.096821986 0.013200205 0.07017576
-0.038087714 -0.057940714 -0.079076506 -0.04840596 -0.03254254 -0.05474899 -0.015500605 0.08467171
0.09871575 -0.086537026 0.06156098 0.08521137 -0.014340077 -0.0755858 0.10644573 0.03784625
0.017712079 0.06423413 -0.007342224 0.034248453 0.10816402 -0.07763518 -0.08576826 0.017752174
-0.09863604 0.03313531 -0.017026188 -0.016309183 0.010857738 -0.058270916 -0.093453765 -0.05662214
-0.09583263 -0.006730645 -0.10395409 0.032389484 -0.10077656 -0.044431314 0.036171254 -0.016817762
0.0918357 0.00081063184 -0.0060780076 -0.07138604 0.1161776 0.13434574 0.1316284 0.12587263
0.06054906 0.049600776 -0.08165599 0.047039468 -0.077673145 0.023850191 -0.07789517 0.058659453
-0.03981629 0.0685968 0.095446244 0.03243865 -0.050937682 0.09920017 0.05274892 0.06344856
0.058825105 0.09289704 0.024554735 0.027509036 -0.07102158 0.026506595 0.013389162 0.037653238
00000000: 475e 2c3d 5b59 97bc cbfe f3bc 7c4d c1bd
00000010: a8af c73d 7d94 88bc 325f 383d cf7a 6b3c
00000020: b07a 8bbd 5a86 863d 2994 56bd 6b5e 27bd
00000030: 7b4d 17bd 8700 89bd 4624 cfbc 18a0 a23b
00000040: 55b3 b6bd f686 f939 cdec 7e3d a56d 753d
00000050: 01af 913c b267 e0bd 4665 acbd ec86 09be
00000060: 3ca4 d6bd b51c 89bd 50e6 7c3d 5be0 7abd
00000070: e218 2a3d 7cc3 643d 248b 9ebd f78b 98bd
00000080: 679b a53d 36c1 533c 44e7 b9bd fca2 a3bc
00000090: cb91 8e3d 1e3c e33d 46ae e83c 7bc7 803c
000000a0: 672f 75bd 250e a1bd a9ed 913d 74d0 af3d
000000b0: 0921 013d abce 22bc 86fc 82bd c87a 2fbd
000000c0: f702 dabd ea88 cebd c2e0 f3bd f1aa 0f3d
000000d0: 750a 8bbd 0e86 6abd dc0c bbbd 8d58 90bd
000000e0: 6ddd bb3d d356 64bc ab93 7bbd 94b8 04bd
000000f0: 4f7f 863d f3ba 863d 1545 c7bd 817d c5bd
00000100: ed19 3abc 0284 cd3d 3cdd 083d de49 d93d
00000110: 2872 e3bc d0b2 15bc bf5f 493d 0f9c 5d3d
00000120: fe5a f03c 6673 51bc 2eb1 cabc b368 4fbd
00000130: f461 d23d 9ddf 623d 35c9 713b c099 bd3c
00000140: 0af7 a2bd 75f1 9fbd 3fb0 093d 239c c13d
00000150: af1d a03d da26 af3b 4cd0 8b3d a7c7 853d
00000160: 0b88 a3bc 630e 4cbd 6d0e 7fbd 04e8 a53d
00000170: dafc a1bd e390 c13d 5dae 6b3c fe29 cb3d
00000180: 1f23 cabd ee65 393d 3606 9f3c e484 593d
00000190: 80cb 1abc 514d c93c f6dc 8abd bfd8 12bd
000001a0: e9a7 123c 471d 23bd 4ad9 29bd 34c4 48bb
000001b0: 5588 263d 4d43 5b3c dbb6 82bd 8bdb 833d
000001c0: a951 233c cdf1 0c3c e781 b4bc dd78 b23b
000001d0: ed29 98bd 9aa3 5bbb e2ff 273d f2ce bbbd
000001e0: ed63 063d 6268 0ebc f975 813d 76cf 893d
000001f0: 79d7 91bb 43f3 56bd f94f 213d 9b68 8bbd
00000200: ee1c 3abd 7830 c43d 03ca af3d 5a22 0a3d
00000210: faca 113d b482 363d b769 49bc d979 a03d
00000220: 75e0 5f3d 7a99 42bd 3cd7 93bd c61f 663c
00000230: fc55 e53b c40a b1bd 66e8 b6bd 1cef c43c
00000240: 1ff0 5ebd c70d cf3c a8d2 26bd 0a4b 16bd
00000250: 4c34 d7bd 21c5 873d 6a27 223d 8b2e f8bc
00000260: 7843 2b3b 258b 3c3c 1c42 953d 2560 653d
00000270: 23a7 d0bd 1b61 0b3d a622 c93d 8ee7 16bd
00000280: 4fd6 093d c16f ca3d 4027 71bd 7ed8 8d3d
00000290: 387b 51bc c7e1 ccbd b42c 673d 3057 1cbd
000002a0: 5c5c d1bd e6ff a03d 6d0d 1abd 9210 7dbd
000002b0: 361d 963c 2ef1 873c 3206 e4bc d6ef a73b
000002c0: 3454 8a3d 28a3 80bd 982f c6bd 666b ca3d
000002d0: 7a16 de3d 9b4a c6bd ac45 583c 4fb8 8f3d
000002e0: dd01 1cbd 3e53 6dbd ddf2 a1bd 5445 46bd
000002f0: 544b 05bd 7a40 60bd 40f6 7dbc 5d68 ad3d
00000300: 7c2b ca3d 533a b1bd 5e27 7c3d 4c83 ae3d
00000310: a4f2 6abc bacc 9abd 3800 da3d ab04 1b3d
00000320: ec18 913c 2f8d 833d 0a97 f0bb 1b48 0c3d
00000330: 1985 dd3d 31ff 9ebd 45a7 afbd 026d 913c
00000340: b101 cabd e4b8 073d 817a 8bbc d69a 85bc
00000350: a7e4 313c 7cad 6ebd b064 bfbd 9eec 67bd
00000360: e643 c4bd be8c dcbb e2e5 d4bd d6aa 043d
00000370: f163 cebd 9cfd 35bd 4f28 143d 67c5 89bc
00000380: 5b14 bc3d 9580 543a 062a c7bb d832 92bd
00000390: 86ee ed3d ee91 093e 98c9 063e c1e4 003e
000003a0: 4b02 783d 2f2a 4b3d 413b a7bd 75ac 403d
000003b0: 1913 9fbd 7a61 c33c 8187 9fbd e544 703d
000003c0: 6816 23bd 7b7c 8c3d 5279 c33d 64de 043d
000003d0: 08a4 50bd 7529 cb3d 400f 583d 52f1 813d
000003e0: 98f2 703d ce40 be3d 0327 c93c a15a e13c
000003f0: c373 91bd 5c24 d93c 375e 5b3c 483a 1a3d

conv1.bias f4 [20]
0.033381153 -0.059565257 -0.053828277 0.069207616 0.01892086 -0.008822451 0.038954515 0.102245286
-0.06403161 -0.07554426 -0.031946555 -0.02752161 -0.06694311 0.03732613 0.013687673 -0.09108782
-0.079765595 0.058198776 -0.0044787647 0.10594216
00000000: adba 083d b3fa 73bd 0a7b 5cbd b9bc 8d3d
00000010: ebff 9a3c 0b8c 10bc c58e 1f3d fa65 d13d
00000020: 0123 83bd f3b6 9abd 64da 02bd 0075 e1bc
00000030: 7819 89bd 49e3 183d 4342 603c 408c babd
00000040: 255c a3bd d761 6e3d 9ac2 92bb 34f8 d83d

conv2.weight f4 [40, 20, 3, 3]
-0.00018900324 -0.043975204 -0.029371675 0.064073525 -0.053607702 0.07238479 -0.017440112 0.034600772
0.0021512685 0.0222171 -0.0045358553 -0.012100444 0.06294584 0.00061913556 -0.06122772 -0.008807451
0.042078048 -0.020403825 -0.045989055 0.021609792 0.045455292 -0.08247714 -0.006775213 -0.0647047
0.05427618 -0.0055399775 0.056080334 0.066736564 -0.022919573 0.083351664 -0.027314216 0.009131333
0.086032845 0.01363997 0.07169515 0.006338049 -0.05357116 -0.028928515 -0.031345572 -0.012547123
-0.007239703 -0.04889743 -0.04993864 -0.005023644 -0.011095562 -0.062367793 0.0009835194 0.023011891
0.07004193 -0.056290567 0.034376707 0.044233445 0.057710502 0.07169171 0.026854582 -0.024417512
-0.02391894 -0.049792368 0.07693739 0.036437184 0.026615603 0.021929942 -0.01051585 -0.058609437
-0.037915446 0.003928416 0.030313652 0.031487904 -0.04894224 0.0650398 -0.014169293 -0.025089284
0.047430333 -0.0005932028 -0.034847472 -0.030498631 -0.036240123 0.0064326813 0.062475 -0.014567464
0.028812656 -0.040132266 0.073056154 0.071019955 -0.046611033 -0.030586578 0.02567393 -0.042891447
-0.017544966 -0.05103138 -0.008493457 0.013120061 -0.005379547 -0.036522616 -0.04660787 0.036143877
-0.029065792 -0.06843419 -0.011309993 0.0481107 0.011139935 -0.036187593 0.008881119 0.004310967
0.0030936117 0.020779189 -0.07688453 0.032145556 0.039950915 0.0021482965 0.07102446 -0.016186532
0.013277686 0.05191015 0.06890373 -0.012302512 -0.0717498 0.019138945 0.07032241 0.058245193
-0.018905245 0.042512387 -0.0018728627 -0.0065044137 0.036632046 0.026206067 0.08002881 0.07443269
0.049848784 -0.0049947375 0.057863906 -0.014482542 0.05933049 0.0058152205 0.08653936 -0.0048178425
0.033105224 0.030717611 -0.006270577 -0.07081337 0.0120883845 -0.061314285 0.03062834 -0.05569885
-0.0008680391 0.011481955 -0.049794406 -0.04674443 -0.028413564 -0.0630271 -0.0025248409 -0.0036618114
-0.019185912 0.08153095 0.017911691 -0.020685995 0.02415702 0.017251803 0.006834028 0.012121191
0.068988346 -0.048281826 -0.026011528 0.0074962033 0.0011561101 -0.059841137 0.0034763324 0.057762716
-0.03541585 0.024878647 -0.03142589 0.040050756 0.0060949684 0.0713646 0.0285962 0.055866916
-0.032743987 0.07405873 0.056125037 0.076378055 0.048471633 -0.011570635 -0.042725485 -0.064869404
0.071319535 -0.059340253 -0.0034220095 0.03203194 -0.024212185 -0.0021571463 -0.01953777 -0.009715679
0.06988446 -0.072218366 -0.06509716 0.047795456 -0.050505903 0.058386326 -0.0731127 0.055142242
0.061453056 -0.035032038 0.0017352528 0.037145555 0.021243053 -0.052853428 0.012336676 -0.053445153
-0.060606577 -0.05471518 0.06458832 -0.006789685 0.04384 -0.053401873 0.038514726 0.0514459
-0.031641446 -0.03341845 0.009099997 0.016330607 -0.015868375 -0.0523826 -0.0067884233 0.03551643
-0.074276306 0.024098977 0.058444284 -0.036128752 -0.0071736295 -0.06836047 0.03724309 -0.03518434
0.033608783 -0.05522623 0.06611221 -0.07418184 0.013453234 0.049265135 0.047272112 -0.020252027
0.018587813 0.050278287 -0.014683747 0.048521657 -0.014671174 -0.008636004 -0.009138897 -0.07399632
0.06786089 -0.06536741 0.03562271 -0.02003988 0.027103545 -0.029431805 -0.036764696 0.06648687
00000000: 2c2f 46b9 581f 34bd de9c f0bc fb38 833d
00000010: c093 5bbd 7a3e 943d 91de 8ebc 8ab9 0d3d
00000020: 4cfc 0c3b a300 b63c 83a1 94bb f140 46bc
00000030: c0e9 803d 7c4d 223a ebc9 7abd 214d 10bc
00000040: 085a 2c3d ec25 a7bc 055f 3cbd 0507 b13c
00000050: 542f 3a3d c6e9 a8bd 9b02 debb e683 84bd
00000060: b350 5e3d b388 b5bb 7eb4 653d 2ead 883d
00000070: d4c1 bbbc 47b4 aa3d 10c2 dfbc 969b 153c
00000080: fd31 b03d 2e7a 5f3c e8d4 923d 69af cf3b
00000090: 6f6d 5bbd 7efb ecbc 3764 00bd 7392 4dbc
000000a0: 083b edbb ac48 48bd 768c 4cbd 619d a4bb
000000b0: 29ca 35bc 5f75 7fbd 6fe9 803a 6f83 bc3c
000000c0: 2572 8f3d f090 66bd 97ce 0c3d 212e 353d
000000d0: d961 6c3d 1ad3 923d 24fe db3c 3c07 c8bc
000000e0: a7f1 c3bc 15f3 4bbd 5a91 9d3d 283f 153d
000000f0: f708 da3c 6ca6 b33c ac4a 2cbc 7310 70bd
00000100: 3a4d 1bbd f1b9 803b 5654 f83c 76f9 003d
00000110: a977 48bd 9633 853d 5326 68bc 0b88 cdbc
00000120: 4f46 423d 2b81 1bba 39bc 0ebd 44d8 f9bc
00000130: 8670 14bd 3ec9 d23b c9e5 7f3d 5fac 6ebc
00000140: 8508 ec3c bb61 24bd 779e 953d e972 913d
00000150: 36eb 3ebd b490 fabc 2252 d23c f1ae 2fbd
00000160: 76ba 8fbc 4806 51bd 2428 0bbc 86f5 563c
00000170: e946 b0bb bd98 15bd e5e7 3ebd 9a0b 143d
00000180: 621b eebc 3927 8cbd 8d4d 39bc ba0f 453d
00000190: 4684 363c 7139 14bd 1d82 113c 0343 8d3b
000001a0: 31be 4a3b 1e39 aa3c a375 9dbd 0fab 033d
000001b0: 92a3 233d 6fca 0c3b 4675 913d 9e99 84bc
000001c0: a78a 593c bd9f 543d 661d 8d3d 7a90 49bc
000001d0: 8ff1 92bd 47c9 9c3c 3205 903d 8392 6e3d
000001e0: 2cdf 9abc 7821 2e3d d87a f5ba fa22 d5bb
000001f0: 7c0b 163d 1bae d63c 25e6 a33d 2b70 983d
00000200: 3d2e 4c3d e5aa a3bb b402 6d3d 2f48 6dbc
00000210: 8704 733d 9b8d be3b 8c3b b13d fede 9dbb
00000220: 5899 073d 80a3 fb3c 6a79 cdbb 9a06 91bd
00000230: 5c0e 463c b024 7bbd 49e8 fa3c 7a24 64bd
00000240: 1e8d 63ba cf1e 3c3c 38f5 4bbd 1677 3fbd
00000250: 90c3 e8bc 5a14 81bd cd77 25bb 00fb 6fbb
00000260: c62b 9dbc b3f9 a63d 8abb 923c ad75 a9bc
00000270: f1e4 c53c a753 8d3c fbef df3b f697 463c
00000280: c349 8d3d 2ac3 45bd 2116 d5bc b6a2 f53b
00000290: 9e88 973a fb1b 75bd 2ed3 633b 9998 6c3d
000002a0: 3610 11bd 4ece cb3c 6fb8 00bd 430c 243d
000002b0: 4db8 c73b 9a27 923d 9442 ea3c b5d4 643d
000002c0: 8f1e 06bd 1aac 973d 5ee3 653d 196c 9c3d
000002d0: 318a 463d c392 3dbc eb00 2fbd 40da 84bd
000002e0: fa0f 923d c40e 73bd cb43 60bb ec33 033d
000002f0: a258 c6bc e95e 0dbb ac0d a0bc 832e 1fbc
00000300: 951f 8f3d 39e7 93bd a951 85bd 2bc5 433d
00000310: 47df 4ebd 8026 6f3d 1cbc 95bd d5dc 613d
00000320: 33b6 7b3d c17d 0fbd 6c71 e33a f025 183d
00000330: e905 ae3c d67c 58bd c51f 4a3c 4ee9 5abd
00000340: 9a3e 78bd 061d 60bd e246 843d 027c debb
00000350: 9291 333d ecbb 5abd 9ec1 1d3d f0b8 523d
00000360: 769a 01bd c9e1 08bd 2718 153c c4c7 853c
00000370: 65fe 81bc 238f 56bd 6c71 debb ad79 113d
00000380: 2d1e 98bd 386b c53c 4663 6f3d befb 13bd
00000390: c410 ebbb 9300 8cbd 368c 183d 741d 10bd
000003a0: 5da9 093d e634 62bd d765 873d a6ec 97bd
000003b0: f46a 5c3c 3dca 493d 67a0 413d 94e7 a5bc
000003c0: 7845 983c 9bf0 4d3d 1994 70bc a5be 463d
000003d0: 5d5f 70bc 077e 0dbc 50bb 15bc 628b 97bd
000003e0: a6fa 8a3d 59df 85bd 1ee9 113d ad2a a4bc
000003f0: 4108 de3c f81a f1bc 9496 16bd 452a 883d

conv2.bias f4 [40]
0.019466305 -0.05464967 0.025486896 0.03542301 -0.010143207 0.009247476 -0.05101655 0.007960195
0.02286189 0.041149132 -0.02249408 0.045024842 -0.014594125 -0.07541538 0.0059207682 -0.0049713347
-0.0037879974 0.05714359 0.048839435 -0.03460156 0.04728574 0.046582825 -0.065290965 -0.015383279
-0.0024410703 0.020897249 -0.0260768 -0.07363582 -0.028430087 -0.039852086 0.0701129 -0.07430934
0.032297328 -0.033088315 -0.07174269 0.004673341 0.019054225 -0.015987286 0.026567651 0.07299502
00000000: cd77 9f3c 55d8 5fbd e5c9 d03c b817 113d
00000010: b22f 26bc ba82 173c bbf6 50bd 7a6b 023c
00000020: dc48 bb3c fe8b 283d 8145 b8bc f86b 383d
00000030: 321c 6fbc 6173 9abd 0103 c23b 94e6 a2bb
00000040: 0d40 78bb 660f 6a3d dc0b 483d 5eba 0dbd
00000050: b1ae 413d a2cd 3e3d 45b7 85bd 260a 7cbc
00000060: 5dfa 1fbb b530 ab3c 039f d5bc 60ce 96bd
00000070: 37e6 e8bc f13b 23bd 5a97 8f3d 7f2f 98bd
00000080: 344a 043d 9d87 07bd d5ed 92bd d322 993b
00000090: 9b17 9c3c c5f7 82bc 67a4 d93c 6a7e 953d

fc1.weight f4 [1, 6760]
-0.008138876 -0.007480479 -0.009929763 -0.0242647 -0.017394558 -0.013568165 -0.029372126 -0.012740806
-0.022823105 -0.00977696 -0.01767846 -0.018895142 -0.0053320336 -0.017537333 -0.011287864 -0.008886831
-0.0265673 -0.03548846 -0.024409693 -0.026492853 -0.01693375 -0.027832909 -0.027480962 -0.0016248692
-0.005770608 -0.022858327 -0.0060767727 -0.00654456 -0.017578352 -0.012612892 -0.019382644 -0.028665466
-0.032139793 -0.020325571 -0.027294273 -0.021649472 -0.01687894 -0.0044910046 -0.0142859435 -0.0057635815
-0.012983841 -0.028907122 -0.01287042 -0.025589423 -0.013723698 -0.02160811 -0.013352965 -0.02156545
-0.0070999274 -0.021308688 -0.015013203 -0.019163448 -0.023083176 -0.016394975 -0.020187281 -0.02187967
-0.026099795 -0.030467406 -0.03137508 -0.026075648 -0.021918802 -0.008783521 -0.02551793 -0.033974003
-0.021203624 -0.008221755 -0.0044655185 -0.012293622 -0.015557469 -0.027787296 -0.014688566 -0.03214838
-0.032410968 -0.032382235 -0.028984807 -0.014186919 -0.03360347 -0.015565079 -0.020671606 -0.018269556
-0.016627332 -0.0113176005 -0.028550168 -0.024856176 -0.0308766 -0.02761109 -0.016098453 -0.03162245
-0.019956477 -0.016282765 -0.022726463 -0.026556639 -0.007939945 -0.012985675 -0.007106946 -0.021048665
-0.025841955 -0.013498998 -0.021321876 -0.008530272 -0.023850478 -0.024299307 -0.024769222 -0.0340761
-0.020442948 -0.019421833 -0.0066535976 -0.026946 -0.022704022 -0.024868822 -0.015282526 -0.0031553614
-0.015472428 -0.030661395 -0.03040513 -0.026440786 -0.024962919 -0.007034069 -0.0089855455 -0.012397519
-0.024521999 -0.012048337 -0.0107359765 -0.022570668 -0.015116138 -0.021021241 -0.013863291 -0.006720863
-0.019520612 -0.0114165 -0.026955372 -0.020877931 -0.003420568 -0.020475594 -0.0043172115 -0.021775413
-0.01712457 -0.010446942 -0.010326094 -0.01709038 -0.015555574 -0.0145604955 -0.015715625 -0.023632182
-0.011535153 -0.020471748 -0.0022276768 -0.010400549 -0.017433118 -0.0034002673 -0.01150295 -0.0051772734
-0.018206026 -0.007828109 -0.023313994 -0.019786648 -0.01754161 -0.01944374 -0.016027706 -0.016936697
-0.016752614 -0.0042777266 -0.00034155895 -0.0051036263 -0.009935931 -0.026934786 -0.020861853 -0.0076363534
-0.02577133 -0.0050964775 0.007896702 0.0015962176 0.0017837138 0.0015042044 -0.007171565 0.0010624647
0.002620408 0.007560909 -0.010920059 0.0071728006 -0.0045991065 -0.006602278 0.008934928 0.011461187
0.0003947457 -0.010628304 0.0062367567 0.0075717336 0.001728393 -0.008202456 0.0077606435 -0.008791751
0.00436594 0.0029972272 -0.0011543359 -0.0023859902 0.008758007 -0.009157725 0.01117756 -0.012009998
0.009642928 0.0070271166 0.007181153 -0.0018679514 0.006172764 -0.000105650994 -0.0071878475 0.0020569148
-0.010420178 -0.008487492 -0.012118416 0.010339393 0.009474474 0.008188323 -0.012103531 0.009620296
-0.003629138 -0.0034364194 0.0036541997 -0.007629783 0.0065452275 -0.00013915374 -0.0011760278 0.009808211
-0.010288889 0.00874457 0.005815204 -0.009654229 -0.010330789 0.00877253 0.01129568 -0.006288937
-0.01079954 -0.0057048104 0.00808068 0.0054460606 -0.009573244 0.008732619 -0.0024226597 0.011245864
0.011274409 0.005147956 0.008816955 0.00812951 0.009405237 -0.010759186 0.010183181 -0.002285269
0.008902239 -0.007096298 0.0020364262 -0.009391816 -0.00093497825 0.006330952 0.007259649 0.009159354
00000000: ec58 05bc ce1e f5bb 72b0 22bc c4c6 c6bc
00000010: 087f 8ebc 024d 5ebc d09d f0bc d0be 50bc
00000020: 85f7 babc 8b2f 20bc 6bd2 90bc fcc9 9abc
00000030: 57b8 aebb 74aa 8fbc bcf0 38bc 129a 11bc
00000040: aba3 d9bc 595c 11bd d6f6 c7bc 8a07 d9bc
00000050: a6b8 8abc d701 e4bc c11f e1bc 90f9 d4ba
00000060: 5e17 bdbb 6341 bbbc aa1f c7bb c073 d6bb
00000070: 7a00 90bc 4ea6 4ebc 5ac8 9ebc d7d3 eabc
00000080: 04a5 03bd d081 a6bc 3d98 dfbc 3c5a b1bc
00000090: b445 8abc 4729 93bb 970f 6abc 6ddc bcbb
000000a0: 2dba 54bc a1ce ecbc 74de 52bc e9a0 d1bc
000000b0: 5dd9 60bc 7e03 b1bc 65c6 5abc 07aa b0bc
000000c0: 82a6 e8bb 8f8f aebc f0f9 75bc aafc 9cbc
000000d0: ee18 bdbc c14e 86bc cc5f a5bc fe3c b3bc
000000e0: 3dcf d5bc c896 f9bc 2883 00bd 999c d5bc
000000f0: 0f8f b3bc c2e8 0fbc fa0a d1bc 5328 0bbd
00000100: 39b3 adbc 8ab4 06bc 7c53 92bb 306b 49bc
00000110: c1e4 7ebc 2fa2 e3bc 50a8 70bc 05ae 03bd
00000120: 5dc1 04bd 3ca3 04bd 8c71 edbc 4070 68bc
00000130: cba3 09bd ac04 7fbc 8057 a9bc 09aa 95bc
00000140: 0b36 88bc 756d 39bc 0be2 e9bc 2e9f cbbc
00000150: ecf0 fcbc a730 e2bc e7e0 83bc 8b86 01bd
00000160: c47b a3bc 6f63 85bc d92c babc 4f8d d9bc
00000170: 8b16 02bc dec1 54bc 62e1 e8bb 406e acbc
00000180: 82b2 d3bc e72a 5dbc 37ab aebc 8ec2 0bbc
00000190: 1462 c3bc 570f c7bc d3e8 cabc 6193 0bbd
000001a0: f877 a7bc 891a 9fbc 6c06 dabb dcbd dcbc
000001b0: c9fd b9bc b3b9 cbbc 8f63 7abc 2eca 4ebb
000001c0: 1180 7dbc 9b2d fbbc 2e14 f9bc 599a d8bc
000001d0: 097f ccbc 0c7e e6bb 1c38 13bc f71e 4bbc
000001e0: 5ce2 c8bc 6366 45bc f3e5 2fbc 1fe6 b8bc
000001f0: aea9 77bc bd34 acbc db22 63bc af3a dcbb
00000200: b1e9 9fbc 460c 3bbc 83d1 dcbc 3208 abbc
00000210: 9c2b 60bb 6fbc a7bc 6577 8dbb 5a62 b2bc
00000220: d448 8cbc a729 2bbc c72e 29bc 2001 8cbc
00000230: cedc 7ebc 258f 6ebc 0ebe 80bc 4798 c1bc
00000240: f0fd 3cbc 5eb4 a7bc 37fe 11bb 1067 2abc
00000250: e6cf 8ebc 05d7 5ebb df76 3cbc 1ea6 a9bb
00000260: ce24 95bc 7841 00bc fdfc bebc 9c17 a2bc
00000270: 6cb3 8fbc 7a48 9fbc 894c 83bc d4be 8abc
00000280: c73c 89bc 2c2c 8cbb 4413 b3b9 523c a7bb
00000290: 51ca 22bc 57a6 dcbc 7ae6 aabc 603a fabb
000002a0: 651e d3bc 5a00 a7bb 2b61 013c 2d38 d13a
000002b0: 81cb e93a b928 c53a 73ff eabb 6642 8b3a
000002c0: 27bb 2b3b 80c1 f73b 0cea 32bc d009 eb3b
000002d0: 1ab4 96bb ec57 d8bb ce63 123c b4c7 3b3c
000002e0: dff5 ce39 5722 2ebc b55d cc3b 4e1c f83b
000002f0: 3f8b e23a 9863 06bc ff4c fe3b 470b 10bc
00000300: 2910 8f3b 216d 443b 164d 97ba 465e 1cbb
00000310: be7d 0f3c 480a 16bc 1622 373c 95c5 44bc
00000320: 5ffd 1d3c ba43 e63b e14f eb3b 0cd6 f4ba
00000330: e644 ca3b f290 ddb8 0988 ebbb 4ecd 063b
00000340: 65b9 2abc 1f0f 0bbc 528c 46bc 8f66 293c
00000350: d33a 1b3c 5128 063c e34d 46bc 729e 1d3c
00000360: d5d6 6dbb 8d35 61bb 4c7b 6f3b 4203 fabb
00000370: 5979 d63b cce9 11b9 f224 9aba 9eb2 203c
00000380: ba92 28bc 6345 0f3c 778d be3b c52c 1ebc
00000390: 7842 29bc a8ba 0f3c 8411 393c 6d13 cebb
000003a0: 8ef0 30bc 6bef babb d464 043c de74 b23b
000003b0: 18d9 1cbc 4213 0f3c 7cc5 1ebb 9340 383c
000003c0: 4cb8 383c 2fb0 a83b fd74 103c a331 053c
000003d0: 6c18 1a3c 4c47 30bc 5bd7 263c 74c4 15bb
000003e0: b2da 113c 1088 e8bb 9075 053b 22e0 19bc
000003f0: 5419 75ba e073 cf3b 5ae2 ed3b 1d11 163c
