ConvLSTM/Sequence/0.82_131_A_S.pt (torch, 84929 bytes, 7 tensors)

conv_lstm.conv.weight f4 [40, 13, 3, 3]
00000000: cc65 34bd 649c ae3d 9205 153d 7c32 973c
00000010: e703 2d3d c0bd 733d 4d3b b5bb 611e 9c3d
00000020: e2ae 5bbd b2ca 75bd 4c9c 493d aa63 6cbc
00000030: 395a 4dbd bc6d 20bd cb81 a83d 36e0 e23c
00000040: ffc2 7c3d 2258 403d a6fe 87bc 9cc7 ad3d
00000050: 777c 3e3d 84cc 9c3c b2e3 793d 5a1e 9fbd
00000060: dd5e ee3c 12b4 d33c 44b6 293d 68bb 0cbc
00000070: 7eb2 2cbd f703 6ebb 58c2 3e3d 3de5 73bd
00000080: b7f0 8dbd 06ab f93c d00b 543c b8ed c83c
00000090: 63c9 273d 1ad1 283d a36c d5bd 8ee7 093d
000000a0: c692 9bbc dd39 d83a 6cf0 3f3b 314b 463d
000000b0: d331 7abd 3506 9fba 9c6f f5ba 10e3 43bd
000000c0: 3a73 dbbc e9bd 093d b748 abbd 9d06 91bd
000000d0: f3df 8abd 9871 cb39 ad17 49bc 9a44 573d
000000e0: 8958 923c 68c3 9b3c c9ef 86bd 5a05 b13b
000000f0: e2e1 88bc c6f7 0bbb 252a 83bc 036c 71bd
00000100: c311 003d 8090 4c3c 1caa 3c3c eae3 88bb
00000110: 1b6d e2bd 22cf a0bd 774b 533c 1f0c a0bd
00000120: 9583 bebd d5de b8bd 012b 7d3d 0dfb 99bd
00000130: c7ab 6c3d 2fcd 96bd b474 aa3c d4a2 c5bd
00000140: 932f 6bbd 600d 673d a661 883a dd39 4bbd
00000150: e405 6bbd fdfd 7fbd fe88 8e3d 676e 833d
00000160: 8ae3 7dbd 6ab8 7cbd 8e80 953b 2ff8 8fbd
00000170: 96be debc e1d0 7a3d fd91 c0bd d7e8 35bd
00000180: ec25 763d 041c 68bc cc50 0b3d 882d 663d
00000190: 419a dabc 16d0 1ebd 10f6 5e3c 7913 863d
000001a0: ff95 c03c 67f8 903b be26 413d 4f0a 163d
000001b0: 53fb 8cbd 66fd 37bd 1a84 a43d 3081 b23d
000001c0: 63a2 893d 2986 e73b aefb 543c 035c c83d
000001d0: daa6 eabc 0ef6 a23d ce5d aebc 90e2 393b
000001e0: f100 b83c de66 1cbd 66fd 2f3c e132 383d
000001f0: c238 a73d 39a9 843d e94d 80bd 33e6 123d
00000200: a51c 483d c41f 283c 5f2b de3d 7d66 11bd
00000210: 296d 5cbd 072f 0cbd 38ae 8a3d 1238 24bc
00000220: b07a 973d a571 51bd d208 ac3d a429 95bc
00000230: ca81 c83d d1f2 d63d fa68 943d 4d38 97bd
00000240: 47ce c03d 89ee a8bc 84e8 f6bc 9162 4f3d
00000250: 3e5d b73b e893 8e3d e5c8 343c 509f e4bc
00000260: a6cc a83d e9b5 c1bd ebee c8bd a974 e8bc
00000270: eaf1 edbc 28da 00bd c3ac 813d e156 e6bc
00000280: a13b 2b3c 604f 1fbd f185 cbbd 43c8 f93c
00000290: 028c 0ebc 7e56 2a3d d10e e93c 58cd 63bd
000002a0: ec5c 31bd c707 2abd 44c4 693d c4cf 3dbd
000002b0: 3c08 193d d375 893d d0db 893d 2e7f 453c
000002c0: e50f 253d e586 05bd cb74 ab3c 728f 76bd
000002d0: fcd2 7bbd 0b45 6b3d cd5e a7bc 2bc0 5e3d
000002e0: 5389 98bd 51fb 803d 7b97 aabd bd8f b1bc
000002f0: 1a8c 6a3d 371f ab3d fb95 c0bd 7ffd 3e3d
00000300: c246 0d3d cb41 96bd e9d8 09bd 0128 07bc
00000310: 4f1b 813d 6043 6dbc cf78 873d 6d8f 17bd
00000320: 4645 6b3d 7785 99bd 846e 723c 7037 6abc
00000330: 890b 7fbb 72a1 d43d b0bd 933d 59f6 3abd
00000340: 447d 5e3c 232c 4cbc bae8 043d 6316 cfbd
00000350: 8c8f a5bc 0f2b 7bbd 5207 71bd 0e67 67bd
00000360: 7809 b93c 1724 8f3d 0bda 49bd 9bbb 623b
00000370: e33b e9bc 4a96 56bd dc3a 903d ed0d e63d
00000380: 7d69 be3b a6f7 843d d43e 733c 2304 ebbc
00000390: 2679 c2bc 420d a93c e54d 063d 12de 2cbd
000003a0: 6e67 26bd eeeb c53d 0780 9dbc d583 b93d
000003b0: 7365 0abc 8d1a bd3d 231b 1c3d 0dbf c83d
000003c0: 9efc aeba 2d6e f13c 84b8 2a3d 968f 763d
000003d0: 5525 02ba b76f 5a3d af62 d93d ac56 9a3d
000003e0: a0df af3d 5b6a 863d e8ea 05bd 9aa4 e9bc
000003f0: 2787 b23d 2a98 b2bb 8957 4ebd 74ca 613d
-0.044042394 0.08525923 0.036382265 0.01845669 0.04224005 0.05950713 -0.005530751 0.07622982
-0.053633578 -0.06000776 0.049221322 -0.014428059 -0.05013487 -0.03916715 0.08227881 0.027694803
0.0617094 0.04695905 -0.016600918 0.08485338 0.046505418 0.01914049 0.061008163 -0.07769461
0.029097969 0.0258427 0.041433588 -0.008589603 -0.04216241 -0.0036318281 0.04657206 -0.05954479
-0.06930678 0.030477058 0.012942269 0.024527416 0.04096354 0.04121504 -0.104211114 0.033668093
-0.018990885 0.0016496737 0.002928759 0.048411552 -0.061082672 -0.0012132587 -0.0018725279 -0.047823966
-0.026788343 0.033628378 -0.08363479 -0.070813395 -0.06780996 0.0003880381 -0.012273711 0.052555658
0.017864482 0.019014075 -0.06588704 0.0054022493 -0.016709272 -0.0021357401 -0.016011307 -0.0589409
0.03126694 0.012485623 0.011515167 -0.00417756 -0.110559665 -0.078520074 0.01289641 -0.07814812
-0.09302441 -0.09026877 0.06180859 -0.07518587 0.057781007 -0.073633544 0.020807602 -0.096501976
-0.057418417 0.05640924 0.0010405078 -0.04961573 -0.057378665 -0.06249808 0.06959723 0.06417542
-0.061984576 -0.06169931 0.004562444 -0.07029759 -0.027190488 0.06123436 -0.09402845 -0.044411507
0.06009476 -0.014166836 0.0340126 0.056195766 -0.026684882 -0.038772665 0.013608471 0.06546683
0.023509024 0.004424143 0.047156088 0.036630925 -0.06883874 -0.044919394 0.08033009 0.08716047
0.06720426 0.0070655537 0.012999458 0.09783175 -0.028644014 0.079570875 -0.021284964 0.0028363802
0.022461386 -0.03818404 0.010741567 0.044970397 0.081651226 0.06477589 -0.0626486 0.035864066
0.048855443 0.01026148 0.10848116 -0.03549813 -0.05381504 -0.034224536 0.06771511 -0.010023134
0.07396448 -0.05113377 0.0840012 -0.018208332 0.0979038 0.10495532 0.07246585 -0.073837854
0.09414344 -0.020621555 -0.030140169 0.05063111 0.005595832 0.06961805 0.011034225 -0.027907997
0.082421586 -0.09458525 -0.09811195 -0.02837594 -0.029046018 -0.03145805 0.0633178 -0.028117599
0.010451228 -0.038894057 -0.09937657 0.030491 -0.008700373 0.04158639 0.028449448 -0.055615753
-0.043301508 -0.041511323 0.05707194 -0.04634072 0.03736137 0.06711926 0.06731379 0.012054248
0.04029836 -0.03259935 0.020929715 -0.060195394 -0.061480507 0.05743889 -0.020430947 0.054382484
-0.074480675 0.06297935 -0.08329674 -0.021674985 0.057262518 0.08355563 -0.094036065 0.04662847
0.034491308 -0.07336768 -0.033654127 -0.008249284 0.06304037 -0.0144813955 0.06614839 -0.037002016
0.05743911 -0.074961595 0.014796857 -0.014295444 -0.0038916788 0.10382356 0.072139144 -0.04564509
0.01357967 -0.012461695 0.032448508 -0.10111692 -0.02021005 -0.06132036 -0.05884487 -0.056494765
0.022587523 0.069893055 -0.049280208 0.0034596685 -0.028470939 -0.05238942 0.070424765 0.11233125
0.005810915 0.06492548 0.014846522 -0.028688496 -0.023739409 0.020636205 0.03278913 -0.04220397
-0.040625982 0.09664141 -0.019226087 0.09058348 -0.008447039 0.0923358 0.038111817 0.09802065
-0.0013350432 0.029471481 0.041679874 0.060195528 -0.00049646694 0.053329196 0.106145255 0.075360626
0.08587575 0.065632544 -0.032694727 -0.028520871 0.087171845 -0.0054502683 -0.05037645 0.055124715

conv_lstm.conv.bias f4 [40]
00000000: ab4a b33d 8b8a a33d ee44 4bbb 9cbc c73a
00000010: 117b 9e3d 5d23 6b3d d870 d03d aec0 2c3d
00000020: 091c b6bb 54d4 0f3c c779 50bd dc64 393c
00000030: 87dc 2bbd 2c0a 92bd e3a5 88bb aa4f 89bd
00000040: f178 bb3d 4dcf bc3d 7612 af3d 9469 743d
00000050: bd3c 913d a603 a43d f280 493d 3aa5 313d
00000060: ee1c 5bbd edd0 22bd 4ca9 b63d cb5b b33d
00000070: 1b3c 073d 5f41 a13d 7cf5 8c3c 66c7 df3c
00000080: 3ba4 a83d e104 b3bd 6cdb 343d f66f b93d
00000090: e3bd 873d ca6e 5e3d f076 c4bc a6f6 723d
0.08754476 0.07985409 -0.0031016427 0.0015238705 0.07738317 0.057406772 0.10177773 0.04217594
-0.0055575413 0.00877865 -0.050897386 0.011315551 -0.04195836 -0.071308464 -0.004170166 -0.06704648
0.09153927 0.09219227 0.08548443 0.059671 0.07091663 0.080085084 0.049195237 0.043370463
-0.053494386 -0.03975003 0.089190096 0.087577425 0.033016305 0.07873797 0.0172069 0.02731676
0.082344495 -0.08741165 0.04415457 0.09054558 0.06628015 0.054304875 -0.023982495 0.059317254

conv1.weight f4 [20, 10, 3, 3]
00000000: 6b00 cfbd 6c0f d53d 9735 c5bd d9ad 08bd
00000010: f512 c93d 89a6 223d 944e be3d 1ab2 d13b
00000020: 1d89 bf3d 1858 3bbd 0960 833d 6ced 903c
00000030: 8487 933d d122 93bb 8463 d3bd 18ff d7bd
00000040: 4893 a43c ad38 a1bd b6d5 1cbd 6d07 3dbd
00000050: 8eb8 24bd 95f7 853d 2dd7 da3c 6f63 31bd
00000060: 539c 00be db22 a8bc 6841 19bd efc3 f6bb
00000070: c1ba bebb b7a1 80bd 48cb cb3d 1633 433d
00000080: 2dee c13d 4340 b73b 267f 24bd 6dc3 adbb
00000090: fa94 dfbd 5e0d 6abb 4f27 b9bc 4875 e939
000000a0: 9e6c cabd 0cd6 553d af0b 853d d3ff 82bd
000000b0: 18ce e3bd 8d90 48bd 0b75 02be fa4a 363c
000000c0: 633f e8bd 49b8 bdbd 0e37 043d c10d 2738
000000d0: 5229 b2bd 407b 51bd a8c4 573d b202 aaba
000000e0: bd48 93bd c7e8 e63c 9358 c33d df2f ae3c
000000f0: dc65 01bd 6c7b bd3c a8cb b9bd 37e0 66bd
00000100: cdc5 c63d 8a19 e0bd e508 a9bd 2b55 953d
00000110: 06d9 b1bd f98b c1bd da38 70bd 01f4 b7bd
00000120: 11ab c53d 2b4f bd3d e617 32bc fec2 2d3d
00000130: c069 013d 25ab 0ebd 68ff 73bd 030b 833d
00000140: 54be b9bd c3b8 9bbc 6bde 93bd 046b 903d
00000150: 1539 40bd 3ffc e53d c3bd 69bd fb61 b63d
00000160: a086 a0bd 2191 98bd 1def 693d 7e40 303c
00000170: e063 883d 585d 553c 11ac 83bd ad8b 81bd
00000180: 41c4 f13b acd6 a83c 09b0 573d 1b67 78bd
00000190: 8ded 9b3c daa1 a0bd f73c 4a3d 49a7 803d
000001a0: 44a7 b7bc 3ccd b3bd f6ee 0b3d defd 18bd
000001b0: ecaa 4e3b 20c5 55bd 1ed2 b2bd 7e50 bdbd
000001c0: ab58 233d f5ff 743b b90f a53d 9486 a13d
000001d0: d227 233c b8ed ab3b 7b7a 163c d504 8ebd
000001e0: 2d8b 93bd e4b6 bbbd 9a71 553d d09d 6fbd
000001f0: d673 59bd b3b3 c43d 3a75 b4bd 98f9 0b3d
00000200: 6ff3 71bd e4cb 28bd f2e4 d3bd 387e 043c
00000210: 1ac6 b5bd 5e3e 8fbd daa4 083b 4c1a 0bbe
00000220: 7727 0fbe 57e6 a8bd 19b1 f73c 8a9f c3bb
00000230: 0411 1cbc 2ac1 84bd d7bd 05be aa62 ed3c
00000240: 7dca f0ba c76f d23d 1272 e73a 493b d83c
00000250: ad75 95bd 9e7a a53c 5b4d 72bd 7501 2ebc
00000260: a1c4 86bd d93c eabb d11a 8f3d 3d11 f6bd
00000270: 199c debd 148b c4bc 7454 a8bd ad3c eabd
00000280: 99f7 0a3d 4b56 b7bd bcc2 8d3d 0c1a b9bc
00000290: 4418 c8bb 266f 993a 36d1 febc 71ef cd3d
000002a0: 6b54 433d 2499 073d 2736 a0bb 756a 883d
000002b0: 78a0 7f3d 1f90 2e3d 4e22 023d 2d04 b5bc
000002c0: 02b7 cdbc 263d 96bd cd7d 5f3d eaa6 45bb
000002d0: 30fe ca3d 23d8 57bd 919d 273d 4252 a43d
000002e0: 058d c9bc 3e02 03bd 0d59 ccbd 9ad1 b1bd
000002f0: 44aa 21bb fad1 d2bd 61f2 a03d 7553 8e3c
00000300: e6c6 283d 1152 e439 00b3 03ba 548c c23d
00000310: 5c39 88bd 2423 f33c 1eb3 a0bc 84ab 94bd
00000320: a820 77bc bbe0 19bb aaca c93d 7a66 bdbd
00000330: a9f2 d2bd ae0c d53b 5242 d1bd be2d afbb
00000340: 405f b93d f6d2 313c 550f b03d e2a8 a93d
00000350: 1eed 2e3d 78bb 6d3c fc7c 0a3d 7005 d3bd
00000360: 0ad0 04bc 9df8 033d 0b40 1b3d 5458 afbd
00000370: 9f3e 823b b967 713d 60c3 fabc 48ee c43d
00000380: aaa5 8bbd 33f7 26bc b70c bfbd 9b10 233d
00000390: e6e5 943c 904f 873d c56d 1b3d c568 bbbd
000003a0: 40dc aebd bb03 10bd 296d c53d c0e3 323d
000003b0: 40ef 13bb c590 93bd 7698 89bd 9c62 14bc
000003c0: 5379 c43d a73d 9e3d 3349 2dbd a3a4 5fbd
000003d0: 4029 273d 13eb 15bd 61b7 c1bd dac1 b83d
000003e0: 3f73 223d 9538 4abd 9db0 33bd 1d91 35bd
000003f0: e8cb bbbd bc86 a33d 781c 973d 0395 49bd
-0.101075016 0.10403332 -0.09629362 -0.03336892 0.09818069 0.0397096 0.09292331 0.006399405
0.09352324 -0.04573831 0.064148016 0.017691337 0.07203582 -0.0044902344 -0.103217155 -0.10546702
0.02008976 -0.07872138 -0.038289748 -0.04614966 -0.040215068 0.06541363 0.026713932 -0.043307718
-0.12559633 -0.020524433 -0.037415892 -0.0075306813 -0.0058206026 -0.06280845 0.09950882 0.04765614
0.094692566 0.0055923774 -0.04016032 -0.0053028376 -0.10917087 -0.0035713534 -0.022601752 0.00044528604
-0.09883998 0.052206084 0.06496369 -0.06396451 -0.11123294 -0.04896598 -0.12739961 0.011126274
-0.11340215 -0.09263665 0.032279067 3.9828712e-05 -0.086992875 -0.05114293 0.05267778 -0.0012970774
-0.07191608 0.028187169 0.095383786 0.021263061 -0.03159128 0.023130141 -0.090720475 -0.05636617
0.09705696 -0.10942371 -0.082536496 0.07291635 -0.08683972 -0.09450526 -0.058647968 -0.08982087
0.09651769 0.09243616 -0.010869956 0.042422287 0.03159499 -0.034831185 -0.059569746 0.06398585
-0.09069505 -0.019009 -0.07220157 0.070516616 -0.046929438 0.11229753 -0.057065737 0.08905407
-0.07838178 -0.07449556 0.0571128 0.010757564 0.06659675 0.013022743 -0.064293034 -0.06325469
0.0073781316 0.020610176 0.052658115 -0.060645204 0.019034171 -0.07843371 0.049374547 0.06281907
-0.022418626 -0.0877938 0.034163438 -0.03735148 0.0031534983 -0.052189946 -0.08731483 -0.09243868
0.039879482 0.0037384008 0.080596395 0.07886997 0.009958224 0.005246844 0.009184475 -0.069345154
-0.0720428 -0.09165743 0.052110292 -0.05850011 -0.053088985 0.096045874 -0.08811422 0.034173578
-0.059070047 -0.04121007 -0.10346402 0.0080867335 -0.088756755 -0.069943175 0.0020850212 -0.1358425
-0.13979898 -0.08247059 0.030235814 -0.0059699463 -0.009525541 -0.064821556 -0.130607 0.02897771
-0.0018370893 0.10275226 0.0017657897 0.026395457 -0.072978355 0.02020007 -0.059155803 -0.010620465
-0.06580473 -0.007148367 0.06987537 -0.12015007 -0.10869617 -0.023992099 -0.08219233 -0.11437354
0.033927534 -0.08952006 0.06921908 -0.022595428 -0.0061064083 0.0011706098 -0.031105619 0.100554354
0.04768793 0.03310503 -0.004889268 0.0666093 0.062408894 0.042617913 0.031770997 -0.022096718
-0.025111679 -0.07335882 0.054563332 -0.0030159303 0.09911764 -0.05269636 0.04092175 0.08023502
-0.024603376 -0.03198456 -0.099779226 -0.086825565 -0.0024668137 -0.10293956 0.0785873 0.01737378
0.04120531 0.00043548693 -0.00050239265 0.09499422 -0.066515654 0.029679842 -0.01961666 -0.072592765
-0.015083469 -0.0023479897 0.09853108 -0.092480615 -0.1030019 0.0065017557 -0.10217728 -0.005346029
0.090513706 0.01085352 0.08596674 0.08284165 0.0427066 0.014510028 0.0338106 -0.103037715
-0.008106241 0.032219518 0.037902873 -0.08561769 0.00397475 0.05893681 -0.03061074 0.09615761
-0.06818707 -0.010190773 -0.09328597 0.039810758 0.01817603 0.06606972 0.03794648 -0.091508426
-0.08538103 -0.035159808 0.09639961 0.04367423 -0.0022573024 -0.07205347 -0.06718533 -0.009056713
0.09593453 0.07726603 -0.042306136 -0.05460037 0.040810823 -0.036601137 -0.09458805 0.09021349
0.03966069 -0.049370367 -0.043869603 -0.044327844 -0.091697514 0.07984683 0.07378477 -0.049214374

conv1.bias f4 [20]
00000000: 51ff ef39 131a 473c 82e5 f4bb 9170 2f3b
00000010: 4392 813d 309d 03bd 2123 a3bc aff8 c3bc
00000020: ed4f 97bd 8e45 b23d c141 c8bd 7980 a03d
00000030: ac27 b7bc 61a7 bd3d 36e2 9cbd 3ae1 c1bc
00000040: ac89 4fbd 0371 763d b2c5 333d 5ae1 0bbc
0.00045775858 0.012152213 -0.0074736485 0.0026769976 0.06326725 -0.032132328 -0.019914212 -0.023922293
-0.073882915 0.08704673 -0.097781666 0.07837004 -0.022357784 0.092604406 -0.07660334 -0.023666967
-0.050668404 0.06016637 0.04388971 -0.008537615

conv2.weight f4 [40, 20, 3, 3]
00000000: 4844 20bd 6527 96bd d44b 03bc e7cf 8dbd
00000010: 5ce4 acbc 9b9f 92bb a7cf 613c 9d71 d6bc
00000020: 9e14 44bd e62b 92bd 2279 9e3c eb58 a03b
00000030: bf7e 8b3d e67b 833d 81ef efbc 1376 46bd
00000040: d1c3 50bc 74a1 9cbc 0da5 873d fcef 773d
00000050: 4358 88bd 5a3d 733c 698b 93bd f71c 5fbd
00000060: 3d4b fa3c 7c5a 82bc 3e22 063d 4f16 06bd
00000070: 7d41 783c 87f1 483d bfad 423d b80a 623c
00000080: cb56 a03c 2db5 40bb 3b49 b6bc 5eea 183d
00000090: 255b 96bd 32d8 babc 48de 633c 5485 0fbd
000000a0: 2817 05bd 57d5 95bd 5da7 523c 4f61 5c3d
000000b0: 764e 99bc 01ed debb fb04 3f3c 3d8e ceba
000000c0: f69b 433d e36c 96bd a650 783d 9c32 843c
000000d0: e1bc 93bd a18c d43b cf5e f7bc 9935 1b3d
000000e0: db69 4dbd 80ed 4b3d 10bc 18bd 6c11 363d
000000f0: cbca 543b fe21 1abd 7305 783b cbe6 c83c
00000100: c323 7abd 924d 8f3d 63b8 43bd 52df 99bc
00000110: 8e43 f33c fe93 2ebc 7c31 0a3d 33aa 8cbc
00000120: 6038 963d d615 26bd 3bda d03c 29a6 80bd
00000130: 8226 993c 503e 79bc 86fc 34bb 3032 2bbb
00000140: 2404 42ba a9ba 53bd 26a3 b7bc a80f ddbc
00000150: 9326 f43b 6f6a 4fbd 098e 6ebd 7565 afbc
00000160: d30a cf3c e7f4 593c fd5c 0c3d 85fb 8bbd
00000170: 4fb9 8fbc 6111 2d3d 1052 fc3c 3635 1abd
00000180: 9bb7 fbbc 093e a9bc 8a1d 6bbd cb0d c7bc
00000190: a3eb 993c c3cb 693d 09cf 66bd 8602 733d
000001a0: f288 cebb ef10 4dbd 0761 093b ede2 e53a
000001b0: 7fe3 16bd 243c 1e3d 595d 8dbd 3000 8e3c
000001c0: 7a6c 7ebd 7b7c 2f3d 9722 763d 8449 29bd
000001d0: 9697 2cbd 8b7b 3cbd 304a ce3c 1a64 8c3d
000001e0: 2e29 9d3c 4f60 46bd 45d0 30bd ca7b ddbc
000001f0: d848 953c 4514 8c3d 4855 83bd 9eba 1d3a
00000200: be35 15bc da73 163d 28f7 bebc 456a 31bb
00000210: 2676 463c b7c9 5c3d 6c71 873d 3755 c73c
00000220: 8520 8b3c 4323 71bd 9e67 153d a62c c73c
00000230: 0613 f23c 048f 89bb e599 0dbd 913a 59bc
00000240: bcd2 80bd cf49 18bd f195 003c 2368 463b
00000250: 0cd9 81bd 77ab 1b3d 1961 89bd 320b 90bd
00000260: 413a aebc 3953 8e3d c4d4 1b3d 591e a83b
00000270: a01d aabc efda 71bd 331b 5b3d c084 873d
00000280: 0a95 8ebd a433 123d 56d9 91bd 52d9 8f3d
00000290: 5ed7 4e3d 616b 503c 8b72 93bc 0782 79ba
000002a0: fe1a d03b b3bb 04bc 4a51 5fbc d5c3 3a3d
000002b0: e576 a33c a3d5 8e3d 5da1 24bd 2440 6a3c
000002c0: c8f7 f13c cc31 f33a b1e6 6bbd 49ea 98bc
000002d0: 9864 07bc 272d 80bd d724 b4bc e61f b43c
000002e0: 952b 12bd 60ce 7bbd 103b 39bd bac1 bc3c
000002f0: 1845 fe3c 468b f03c 1703 253d 2f4f 6c3a
00000300: 5aab 05bd a63e 35bd effc 60ba bb90 213c
00000310: e04b 3a3d ba44 053d 8c28 cfbc f6ae 4abd
00000320: 36c0 19bd 8b89 97bc ba23 ecbc 8dc8 7fbd
00000330: b8a2 d83c a125 49bd 8493 e43c a317 a8bb
00000340: 26bc 8c3d dee2 8e3b adba d1ba 1d65 8fbd
00000350: deed 35bd a1f8 163d c288 84bd 89de 91bd
00000360: 166c e0bc 8009 87bd a04c 8a3c 848a 63bb
00000370: 33f0 c03c 6f5e 363c 1714 c33c cf7b fbbc
00000380: 38a8 49bc 5843 36bd 4e78 47bc e6d1 f03c
00000390: b4d0 c7bc d209 83bb 1b55 033d f4ae 9d3d
000003a0: a429 7a3d 4fe4 0f3c b0e6 62bd e954 42bd
000003b0: 3651 13bd 2a84 25bd 4e50 a93c 8805 7cbd
000003c0: ac54 843b 3387 293d 6c44 193d 8c31 87bd
000003d0: eba1 2bbd e45c 93bb dd99 db3c 5a50 473d
000003e0: 2086 acbc 4729 2b3d 10a1 88bc 5fa3 2f3d
000003f0: 0466 c33c 896f 57bc 0b24 013c b67a 583b
-0.039127618 -0.07331733 -0.008013684 -0.0692442 -0.021104984 -0.004474593 0.013782418 -0.026177222
-0.047871225 -0.07137279 0.01934487 0.0048934123 0.06811284 0.06420116 -0.029289009 -0.048452448
-0.012741999 -0.019119956 0.06623278 0.0605316 -0.066574596 0.01484617 -0.07204325 -0.054470982
0.030553455 -0.015912287 0.0327475 -0.03273612 0.015152332 0.049058463 0.04752898 0.013796501
0.019572636 -0.0029404864 -0.022251716 0.037332885 -0.07341603 -0.022808168 0.013907976 -0.03503926
-0.032492787 -0.07316082 0.012857285 0.05380374 -0.01871417 -0.0068031554 0.011658902 -0.0015758943
0.047756158 -0.07344987 0.060623787 0.016137414 -0.0721376 0.006486491 -0.030196575 0.03789291
-0.05014978 0.049787045 -0.037288725 0.04445021 0.0032469507 -0.037630074 0.0037845045 0.024524113
-0.06106926 0.06997217 -0.047783267 -0.018783245 0.029695299 -0.010655401 0.0337386 -0.017171001
0.073349714 -0.040548168 0.025494685 -0.062816925 0.01869512 -0.01521261 -0.0027616336 -0.0026122443
-0.00074011297 -0.051691685 -0.022416662 -0.026985005 0.0074508875 -0.050638612 -0.058240924 -0.021410683
0.025273716 0.013303018 0.034268368 -0.06835083 -0.017544417 0.042252902 0.03080085 -0.037648402
-0.030727198 -0.020659463 -0.057401218 -0.02429857 0.018789118 0.057079088 -0.056349788 0.05932858
-0.0063029462 -0.050064977 0.0020962374 0.0017538943 -0.03683805 0.038631573 -0.0690257 0.017334074
-0.06211517 0.042843323 0.06009158 -0.041329876 -0.04213675 -0.046016257 0.02518186 0.0685503
0.019184675 -0.04843169 -0.04316737 -0.027036566 0.018223211 0.068398036 -0.064127505 0.0006016883
-0.009107051 0.03673158 -0.023311213 -0.0027071398 0.01211313 0.053903308 0.066134304 0.024332626
0.01698328 -0.05887152 0.03647577 0.024313282 0.029550087 -0.004197957 -0.034570593 -0.013258592
-0.062901944 -0.037179764 0.007848249 0.0030274473 -0.063402265 0.03800532 -0.06707973 -0.07033385
-0.021268012 0.06949467 0.038044706 0.005130571 -0.02076608 -0.059046682 0.053492736 0.06617117
-0.06962021 0.03569378 -0.07121532 0.070238724 0.05049836 0.012720914 -0.017998954 -0.0009517972
0.006350874 -0.008101392 -0.013630221 0.045596916 0.019954154 0.06974342 -0.04019295 0.014297519
0.029537097 0.0018554269 -0.05759305 -0.018666403 -0.0082637295 -0.06258612 -0.021990223 0.021987867
-0.035686094 -0.06147611 -0.045222342 0.023041595 0.031038806 0.029363286 0.04028615 0.0009014485
-0.032634117 -0.0442492 -0.0008582612 0.009861167 0.045482516 0.032536246 -0.025287889 -0.049483262
-0.037536822 -0.018498203 -0.02882563 -0.06244712 0.026444778 -0.04910815 0.027902372 -0.005129771
0.06871824 0.004360541 -0.0016001068 -0.07001708 -0.0444163 0.036858205 -0.06471397 -0.07122523
-0.02739529 -0.06593609 0.01688224 -0.0034720013 0.023552036 0.011130913 0.02381329 -0.030698685
-0.012308173 -0.044497818 -0.012174679 0.029396962 -0.02439151 -0.0039989734 0.032063585 0.07699385
0.061074868 0.00878246 -0.055395782 -0.047444258 -0.03596612 -0.040409245 0.020668175 -0.061528713
0.004038414 0.0413887 0.037418768 -0.06601247 -0.041902464 -0.0044971574 0.026806766 0.048660614
-0.02106005 0.041787412 -0.016678363 0.042880412 0.023852356 -0.013149151 0.0078821285 0.0033032126

conv2.bias f4 [40]
00000000: f4b8 4cbd 9b8d 69bd fa28 89bd 4984 3ebd
00000010: 1809 5d3d add6 18bd 4dcb 29bc 6fe1 91bd
00000020: 80f1 27bd 0792 96bd e782 ddbc dd65 20bd
00000030: 6f4f 483d c0a4 633c 7068 af3d 8385 b03d
00000040: 68e1 31bd 232a 1bbd f83e 41bd 63c1 3b3d
00000050: 730e a83c e492 4abc 0b3d 87bd 1b65 4f3d
00000060: 8e49 f33c be65 673d 861c 203d 6241 afbc
00000070: a2ab 6abc da53 923d 7779 753d 6518 8fbd
00000080: b99a 93bd de14 a33d c969 27bc 14e7 e7bc
00000090: 3885 94bc bff5 43bd e06e c7bc 8fde 78bb
-0.049981073 -0.05701981 -0.06697269 -0.046512876 0.05396375 -0.037314106 -0.010363412 -0.07123076
-0.041001797 -0.07352071 -0.027039958 -0.039159644 0.04890388 0.01389426 0.08564842 0.08619215
-0.043427855 -0.03788198 -0.047179192 0.045838725 0.020514702 -0.012364123 -0.0660344 0.05063353
0.02969816 0.056493513 0.039089702 -0.021393482 -0.014323147 0.071449 0.05993029 -0.06987075
-0.072072454 0.079629645 -0.010218092 -0.028308429 -0.01812993 -0.047841784 -0.024344862 -0.0037974452

fc1.weight f4 [1, 6760]
00000000: df9d 37bb 9d60 11bc a643 84bb f610 32bc
00000010: 59d3 c9bb be94 0d3c 8226 be3b 0acc 11bc
00000020: 9caa 353c 15de 6e39 3b94 283c af0f 19bc
00000030: 9ed2 23bc b63b 203c 5b41 023c c610 1cbc
00000040: e480 d63b 1004 fa3a 675a 45bc 5d44 f43b
00000050: 81da 1bba 0ec7 293c 999a 2cbc db43 44bc
00000060: af8d 43bc 2b58 94bb c5ce 3f3c beba 0e3c
00000070: 360a 0abb 898e 263c 5739 b239 4e80 1c3a
00000080: 7be4 cbbb 709a 24bc 85c3 27bc f1b7 3c3b
00000090: 6311 fc3b 220a 0dbc 4440 fb3b a3fb 3c3c
000000a0: b0ab be3b 29b6 60bb a940 233b 120b 11bc
000000b0: 4e58 9cbb c5c6 623b 7b72 013b b659 433c
000000c0: e675 ddba 55e9 133c 5e21 92bb fcfa b83b
000000d0: ace6 dc3a b5b2 193c a02b 20bb e89a 8439
000000e0: fd26 883b 90fd a8bb 407e 2439 d145 41bc
000000f0: 33a5 27bc c6bd a53b 46f0 2ebc 78ef fbbb
00000100: c8b4 073b cd7e d4bb c58f 31bc c866 cbbb
00000110: e599 bebb 0e70 dfb9 53b2 0fbc c1c1 25bb
00000120: c494 9abb 5648 2cba 7719 b8bb 7fee 3f3a
00000130: 432d 3d3a 5234 3e3c 8156 39bc 5d92 fbbb
00000140: 61de 343c f131 77ba 7e89 f6bb 6098 a63a
00000150: 57b1 b0bb 2f6a e7bb 546b 9b3b b164 9fbb
00000160: ef48 a1ba b279 38bc b527 113c 9636 f9bb
00000170: 5c64 92bb 6a78 c53b 8760 02bb 8013 313c
00000180: 4971 043b 8c36 f33b 464b f9bb fc63 e43a
00000190: 08b3 ebbb d5c9 3e3c e27b 013c ee96 30bc
000001a0: 1b9e 0fbc 5c9a 2bbc c2f8 343c 3694 973b
000001b0: 074d ce3b 532e 513b eef2 1dbc 9b38 103c
000001c0: 6191 2f3c c89d c23b 5ec7 963b 1899 1dbc
000001d0: c378 45bc dea1 80ba 23ac 2f3b 470a 38bc
000001e0: 2699 6b3b 025a 03bb a1b0 773a a335 48bb
000001f0: 5f61 da3a f892 eb3a 6c11 c5ba 2d12 16bc
00000200: 32c1 12bb e3b1 c9bb 5c18 a73b 3b8e 04bb
00000210: 6677 2f3b 607a 423c fdeb 07bc f699 91bb
00000220: 6677 8ebb 103b 68bb 3b5b f3bb 73c2 6cbb
00000230: d445 deba 67a7 a93a 734d c939 0942 2cbb
00000240: 5a96 163b 34ef 05bc cc15 9e3b 4911 4d3b
00000250: 3ce4 1cb8 e0b1 9f3a ae04 313b 45d7 0c3c
00000260: 085b d33b 9be6 82b9 12f8 46bb 44e8 293c
00000270: 6662 78ba 2022 ecbb 3de4 a23b 2342 8fbb
00000280: 2568 903b 025c b8bb 75d5 92ba 65d9 0abc
00000290: 7e6c 26bc ed49 68bb f3a9 df3b 9bfd 293c
000002a0: 2967 5a3b 043b 3abb 2f75 0bbc 2bfe f03b
000002b0: 21c5 84bb 261e 2d3c dd7a 313c c7f3 793c
000002c0: af70 aa3b 2dcf f33b b936 80bb 2875 063c
000002d0: 0e87 a1bb 5ec7 88bc 2725 5b3a f42f 78ba
000002e0: d26b 4fbb 1dcf 723c 058c 133c 6bd1 823c
000002f0: 64f0 823b bc88 1c3c 10f1 18bc 8c3d 263c
00000300: 4795 883b 7a71 843b 2a19 b43b 395e 0fbb
00000310: afbd a2bb 5f6c 68bb 951c ab3b 7969 243b
00000320: 7395 fab8 8438 debb dc67 c53b 6bf0 28bb
00000330: 6c3a b93a f113 3f3a f783 5a3b 982d 0abc
00000340: 0561 de3b 88f4 5abc f0d1 643c cc84 303c
00000350: 2e26 303b 6761 1dbc 3289 1ebc 5418 b7bb
00000360: 4c45 2a3c b070 b93a c80f 313c 6499 9db9
00000370: 1a3a 11bc b12c b73b fbb0 6fba 3366 b93b
00000380: da6d 3b3b 26e8 9b3b d3d1 193b dc3b eebb
00000390: e7a7 79ba 558e 30bc d4c3 7eba 2fb8 0a3b
000003a0: 1783 603c 366a 1e3c 738d 2cbc 7653 35bc
000003b0: fe66 df3b 161f 0fbc 2349 1a3b b904 e13b
000003c0: 3d5f 3c3c 216d 4bbc b088 d3bb c0fe 48bc
000003d0: 4260 e739 2302 493c 1bfc 963a f6ee e2bb
000003e0: 3ac6 023c 811e 753b bc3d c93b 28d6 ff3b
000003f0: 3181 0a3c 9f5e 8e3a 0f9b 4c3c 5af5 ecbb
-0.0028017682 -0.008873132 -0.0040363846 -0.010868302 -0.006159228 0.00864142 0.0058029303 -0.008898744
0.01108804 0.00022780181 0.010289247 -0.009342118 -0.0099989455 0.009779861 0.007950152 -0.0095254835
0.0065461267 0.0019074697 -0.012045479 0.0074544386 -0.00059453404 0.0103624 -0.010534906 -0.011979069
-0.0119356355 -0.004527112 0.011707013 0.008711515 -0.0021063215 0.010165819 0.00033993527 0.00059700466
-0.0062223054 -0.010046586 -0.010239487 0.002879616 0.0076925023 -0.008608373 0.007667573 0.011534604
0.0058188066 -0.0034288263 0.0024910367 -0.008852737 -0.004771269 0.003460334 0.0019752074 0.011923244
-0.0016896098 0.009027799 -0.004459544 0.005645154 0.0016853414 0.009380986 -0.0024440065 0.00025292416
0.0041550384 -0.00515718 0.0001568729 -0.011796431 -0.010232258 0.005058023 -0.010677403 -0.007688459
0.002070712 -0.0064848424 -0.0108375 -0.006207321 -0.0058166855 -0.00042617362 -0.008770543 -0.0025292488
-0.0047174413 -0.0006572058 -0.00561827 0.00073216105 0.00072165224 0.011609154 -0.011312128 -0.00767736
0.011039347 -0.0009429744 -0.0075237146 0.0012710206 -0.0053922343 -0.0070622186 0.004743019 -0.0048642983
-0.0012305061 -0.011259483 0.008859565 -0.007605384 -0.00446753 0.0060263174 -0.001989396 0.010807872
0.0020209125 0.007422274 -0.0076078502 0.0017424817 -0.007192973 0.0116448 0.007903071 -0.010778172
-0.008765723 -0.010473814 0.011045637 0.0046258224 0.0062958035 0.003191848 -0.0096404385 0.008802558
0.010715813 0.005939219 0.004601403 -0.00961902 -0.012052718 -0.0009813865 0.0026805482 -0.011232919
0.0035949438 -0.0020042663 0.0009448622 -0.0030549548 0.0016661099 0.0017972877 -0.0015035099 -0.009159607
-0.0022392985 -0.006155239 0.0050993394 -0.0020226378 0.0026774048 0.011869997 -0.00829601 -0.0044434024
-0.0043477295 -0.0035435595 -0.007426647 -0.0036126643 -0.0016958066 0.0012943567 0.00038395412 -0.0026284477
0.00229778 -0.008174706 0.0048243757 0.003129082 -3.7405858e-05 0.0012183748 0.0027010846 0.008596246
0.0064500608 -0.00024967347 -0.0030360264 0.010370318 -0.0009475112 -0.0072062165 0.004971056 -0.004371898
0.0044069462 -0.0056262026 -0.0011202531 -0.008474682 -0.0101577025 -0.0035444454 0.0068256794 0.010375406
0.0033325648 -0.0028416524 -0.008511825 0.007354518 -0.00405182 0.01056627 0.010832516 0.015255875
0.005201421 0.0074404688 -0.0039127734 0.008206643 -0.00492943 -0.016696628 0.0008359723 -0.0009467595
-0.003164996 0.0148198875 0.009005551 0.015968999 0.003995942 0.009554084 -0.0093348175 0.01014651
0.004168186 0.004041848 0.005496164 -0.002187623 -0.0049664597 -0.0035464985 0.005221913 0.002508728
-0.00011948766 -0.0067816395 0.006024344 -0.0025778066 0.0014131791 0.0007289043 0.0033342817 -0.008433722
0.006786468 -0.013363965 0.013966069 0.010773849 0.0026878226 -0.009605742 -0.009676265 -0.005587617
0.010392498 0.0014147963 0.010806985 -0.00030059658 -0.00886395 0.0055900444 -0.00091434986 0.005657935
0.0028599412 0.004757899 0.0023471012 -0.0072703194 -0.00095236156 -0.010776122 -0.0009718512 0.002116691
0.013703129 0.009668877 -0.010531771 -0.011067262 0.0068176975 -0.008735439 0.0023542128 0.006867018
0.011497316 -0.012416155 -0.0064555034 -0.012267768 0.0004413147 0.012268576 0.0011519225 -0.006925459
0.007981831 0.0037402215 0.0061413925 0.007807512 0.008453653 0.001086194 0.012488141 -0.0072313966
