ConvLSTM/Sequence/0.82_74_A_S.pt (torch, 84919 bytes, 7 tensors)

conv_lstm.conv.weight f4 [40, 13, 3, 3]
-0.038518444 0.09276048 0.016832188 0.02792122 0.05655854 0.07568268 -0.030543635 0.09518349
0.032680366 0.025000911 0.0010017353 0.05063735 -0.015816776 0.06420152 0.10928847 0.06618569
0.028290445 -0.027500797 -0.010773511 0.02094501 0.013941397 -0.011289601 0.06968078 0.07301451
0.034408808 -0.05742393 -0.0495277 -0.0446268 0.03499233 0.05992326 0.016980086 -0.07389275
-0.0444566 -0.025678426 0.022998616 -0.048489198 -0.06040106 -0.04004784 0.026437938 0.056109104
0.007940208 -0.080231555 -0.0683504 -0.012866706 0.041737296 0.07994035 0.010388948 -0.014360579
-0.019898122 0.09293006 -0.07185705 0.018942118 -0.03167608 -0.06617621 -0.124064796 -0.031651907
0.019616218 -0.06555284 0.04600073 0.051571403 0.0026517704 0.027506206 0.026491791 -0.1006493
0.023558581 -0.025373114 -0.048543446 0.027028823 0.07492611 -0.01464498 0.061928336 0.026084011
0.031872522 0.09705064 0.068488866 -0.013243807 0.024877451 0.083766885 -0.004283273 0.0003455027
0.019690832 0.023264863 -0.05647695 0.031811737 0.0095250225 0.09409872 -0.0005689626 0.10717147
0.11497922 -0.006758382 0.039476655 0.06672265 -0.025329122 0.089942046 -0.032590594 0.052188683
-0.07621995 0.0028085147 -0.06520776 -0.09387419 0.04417179 0.0649102 0.07444632 0.075341396
0.05528464 0.05120149 -0.102697596 0.069914564 0.0574947 0.08675512 0.08416756 0.053175665
-0.018745784 0.057376813 -0.006845495 -0.038526226 -0.025631813 0.03603177 0.047834616 -0.06393489
0.027993519 -0.017551951 -0.06611852 -0.03638109 -0.036513276 -0.0473241 -0.06800394 0.06422261
-0.08615958 0.021075886 -0.06742524 0.013418491 -0.08448955 0.083056375 -0.0695097 -0.059499044
0.08045767 -0.06639965 -0.08759672 0.039278597 0.0367764 0.07916102 0.025261354 -0.08283238
-0.038984597 -0.0003685034 -0.078727 -0.027393704 -0.026359603 0.079325736 -0.07867562 -0.072485775
-0.05720969 -0.06819042 -0.073656656 0.03687192 -0.023306085 -0.037930798 -0.030722912 -0.04734106
-0.02534203 0.07687721 0.02597448 0.053931106 0.05111514 0.09163153 -0.06462983 0.025869228
0.02045714 0.066124186 -0.053147793 -0.07498523 -0.098276034 -0.01346548 -0.03599956 0.07147766
0.06335805 -0.014715218 0.041159894 0.02328476 0.019640611 -0.04386753 -0.06090138 0.07104358
0.082857035 0.07697995 0.030616952 -0.00034697875 -0.08562954 0.07169077 -0.08750771 0.044913217
-0.02794164 -0.07055681 0.031279646 0.037073303 0.047814965 0.006467286 -0.05886268 0.0026699416
0.006145459 -0.032934237 0.07776923 0.077265754 0.05673661 0.040800035 0.038075656 -0.08615049
0.07903619 -0.02218414 0.021559408 0.06416264 -0.0057855896 0.057596486 0.07997387 0.032915663
-0.09844395 0.054994278 -0.030340787 -0.09369989 -0.06855652 -0.102268085 -0.08291269 0.06917001
-0.0047494452 0.058123976 0.04869552 -0.08532339 -0.03231725 0.016313966 -0.021863682 0.072264746
0.090985484 0.004328784 -0.047167882 0.103560075 -0.07474143 0.0033700934 0.01980085 0.096783556
0.0771089 -0.06755853 0.019322895 -0.022808673 0.0013397983 0.10509167 0.06720806 -0.0046279477
0.017878918 0.10148004 -0.010293709 -0.02939333 0.025558144 -0.007052218 0.07871058 -0.040171046
00000000: 84c5 1dbd 35f9 bd3d a8e3 893c 0bbb e43c
00000010: eda9 673d 85ff 9a3d a536 fabc 90ef c23d
00000020: d9db 053d b6ce cc3c a94c 833a 1c69 4f3d
00000030: 2f92 81bc 167c 833d a2d2 df3d 5d8c 873d
00000040: 5dc1 e73c 5a49 e1bc 6183 30bc df94 ab3c
00000050: 756a 643c 05f8 38bc ccb4 8e3d a288 953d
00000060: 40f0 0c3d 5b35 6bbd 8fdd 4abd 97ca 36bd
00000070: 1e54 0f3d 1872 753d d219 8b3c 1555 97bd
00000080: 2018 36bd 905b d2bc 9867 bc3c 9c9c 46bd
00000090: 1a67 77bd 3409 24bd 6094 d83c a9d2 653d
000000a0: a517 023c 7150 a4bd 4bfb 8bbd e0ce 52bc
000000b0: baf4 2a3d c4b7 a33d 6836 2a3c a248 6bbc
000000c0: 6301 a3bc 1e52 be3d ca29 93bd 802c 9b3c
000000d0: c7be 01bd 6587 87bd af15 febd 6ea5 01bd
000000e0: 31b2 a03c 9140 86bd 436b 3c3d 893c 533d
000000f0: 53c9 2d3b b254 e13c 5005 d93c 3821 cebd
00000100: edfd c03c 47db cfbc 7ed5 46bd 8d6b dd3c
00000110: dc72 993d 80f1 6fbc 91a8 7d3d 23ae d53c
00000120: c38c 023d 7cc2 c63d e443 8c3d 8dfc 58bc
00000130: cccb cb3c f98d ab3d b35a 8cbb 9624 b539
00000140: ab4e a13c f495 be3c 6054 67bd 064d 023d
00000150: d70e 1c3c d4b6 c03d 6f26 15ba b77c db3d
00000160: 3a7a eb3d 6b75 ddbb 46b2 213d e2a5 883d
00000170: 057f cfbc 8933 b83d b77d 05bd cdc3 553d
00000180: 3519 9cbd 0f0f 383b a58b 85bd 1c41 c0bd
00000190: 7bed 343d a4ef 843d 5077 983d 974c 9a3d
000001a0: 2672 623d a7b8 513d 1e53 d2bd 5e2f 8f3d
000001b0: 907f 6b3d abac b13d 0b60 ac3d bace 593d
000001c0: c290 99bc f303 6b3d 2d50 e0bb adcd 1dbd
000001d0: cff9 d1bc 0d96 133d 3bee 433d 4cf0 82bd
000001e0: aa52 e53c 1cc9 8fbc 2669 87bd 5604 15bd
000001f0: f28e 15bd ead6 41bd a645 8bbd 2587 833d
00000200: 6f74 b0bd 56a7 ac3c 3f16 8abd 3bd9 5b3c
00000210: db08 adbd 7619 aa3d 1a5b 8ebd 45b5 73bd
00000220: fec6 a43d 8afc 87bd e965 b3bd 98e2 203d
00000230: daa2 163d 2c1f a23d e6f0 ce3c 06a4 a9bd
00000240: 50ae 1fbd b033 c1b9 9f3b a1bd c368 e0bc
00000250: 18f0 d7bc 8875 a23d af20 a1bd 6c73 94bd
00000260: b554 6abd 6ba7 8bbd 4dd9 96bd 0307 173d
00000270: 67ec bebc 535d 1bbd 9eae fbbc b3e8 41bd
00000280: 179a cfbc cc71 9d3d 6fc8 d43c dde6 5c3d
00000290: 1c5e 513d 50a9 bb3d a55c 84bd b4eb d33c
000002a0: bb95 a73c 1e6c 873d 80b1 59bd db91 99bd
000002b0: f244 c9bd 519e 5cbc 4674 13bd e162 923d
000002c0: dec1 813d 1918 71bc 4797 283d aebf be3c
000002d0: 59e5 a03c 70ae 33bd ba73 79bd 4c7f 913d
000002e0: f3b0 a93d aaa7 9d3d 67d0 fa3c b3ea b5b9
000002f0: 8a5e afbd 9cd2 923d 3e37 b3bd ecf6 373d
00000300: dee5 e4bc 1780 90bd 161f 003d 2dda 173d
00000310: a0d9 433d 87eb d33b fe19 71bd 30fa 2e3b
00000320: d95f c93b 0de6 06bd 7945 9f3d 823d 9e3d
00000330: a664 683d f01d 273d 38f5 1b3d ab6f b0bd
00000340: badd a13d 83bb b5bc 5b9d b03c b467 833d
00000350: 0b95 bdbb 4bea 6b3d 57c9 a33d 93d2 063d
00000360: fb9c c9bd ae41 613d 3e8d f8bc bae5 bfbd
00000370: 5c67 8cbd ee71 d1bd 21ce a9bd 02a9 8d3d
00000380: 3ca1 9bbb 6813 6e3d f474 473d 08be aebd
00000390: 185f 04bd dea4 853c 771b b3bc 8aff 933d
000003a0: 9956 ba3d 79d8 8d3b 1c33 41bd 4e17 d43d
000003b0: 0912 99bd c9dc 5c3b 6435 a23c 7536 c63d
000003c0: 45eb 9d3d 205c 8abd 0c4b 9e3c 41d9 babc
000003d0: 2c9c af3a 4d3a d73d 61a4 893d 0aa6 97bb
000003e0: cf76 923c c4d4 cf3d f2a6 28bc 48ca f0bc
000003f0: 505f d13c 4b16 e7bb 0333 a13d 658a 24bd

conv_lstm.conv.bias f4 [40]
0.030798584 0.028865391 0.0014202672 0.1328942 0.031129776 -0.018134266 0.10589336 -0.0438428
0.059480127 -0.007858154 0.0134801 0.034128346 0.009200517 0.05010892 -0.015567184 0.0055517517
0.008131025 0.014977884 0.012633082 0.017207015 -0.02327769 -0.05311197 -0.055761736 -0.03588012
0.0032483847 -0.03257708 0.096101105 -0.007130801 -0.055336814 -0.07189139 -0.06355358 -0.04536093
0.049652576 0.08460918 -0.03928662 0.08041572 -0.053251494 0.06513618 0.002900997 0.06129394
00000000: 504d fc3c 1d77 ec3c 4228 ba3a 6b15 083e
00000010: df03 ff3c 508e 94bc 9ede d83d 8294 33bd
00000020: 6fa1 733d 7dbf 00bc a3db 5c3c 2aca 0b3d
00000030: c4bd 163c 033f 4d3d 810d 7fbc 78eb b53b
00000040: fe37 053c cc65 753c fdfa 4e3c baf5 8c3c
00000050: dbb0 bebc f08b 59bd 6b66 64bd 08f7 12bd
00000060: dae2 543b 8b6f 05bd a8d0 c43d 7fa9 e9bb
00000070: dba8 62bd cb3b 93bd 6128 82bd 62cc 39bd
00000080: 8060 4b3d 9447 ad3d 02eb 20bd ffb0 a43d
00000090: 3d1e 5abd 1e66 853d a71e 3e3b 5b0f 7b3d

conv1.weight f4 [20, 10, 3, 3]
0.05506781 -0.016104888 -0.061217178 0.074215606 -0.11025284 -0.089898914 0.09978471 -0.06330249
0.03165556 -0.068339236 -0.075133204 0.07836343 -0.020209936 0.011824496 0.039341055 0.022548473
0.031338222 -0.04760804 0.072211914 -0.06557235 0.00762434 -0.07553596 0.025648974 0.008167978
0.063470036 -0.087205574 0.06903801 0.07415186 0.031730644 0.11386518 0.025645284 -0.017208183
0.036138587 0.123855874 0.019038914 0.056904778 0.050025616 -0.08138038 -0.054459997 0.004917786
0.0846688 0.078848414 0.005369501 0.06507923 -8.947314e-05 0.004534846 0.0929259 -0.076473035
0.019288352 -0.049638063 -0.033918727 -0.060443763 -0.018066945 -0.07481021 0.06197009 0.029053144
-0.09713032 -0.0018307803 0.0756136 -0.102281906 -0.119216636 0.07039976 -0.056222975 -0.06314905
-0.026139436 0.06388929 0.036777426 0.013572643 0.06899926 -0.0820955 0.04700248 -0.009149192
0.071779855 0.009062581 -0.097120196 0.09255417 0.06876822 0.05260707 -0.041944105 -0.037250344
0.08531571 -0.058543872 -0.07886321 -0.043399982 -0.0643399 0.085825324 0.07932561 0.10138188
-0.044757023 0.071977675 0.02255732 0.065304816 -0.047153175 -0.06948347 0.027457038 -0.04423734
-0.06639449 0.1030934 0.037734043 -0.0324083 0.09761312 0.06759939 -0.03955758 -0.057444826
0.018668415 -0.009795716 0.10510262 0.0023514298 0.044592593 -0.07994263 -0.07668688 0.0023885802
-0.09104976 -0.09159921 0.0425103 0.029888332 0.026374314 0.05037096 -0.032619137 0.09823034
0.059846386 0.038002603 -0.050150447 0.0043894364 -0.010319045 -0.031259682 0.012553984 -0.03952938
0.062462714 0.06446261 -0.08429392 0.051765334 0.0863742 0.04499004 -0.06279427 0.008675979
0.08046517 -0.023415614 0.082093395 0.07420473 0.073439196 0.08361654 -0.032386385 -0.03170907
-0.072716594 0.038970303 -0.08905043 -0.078973696 0.03611038 0.057082847 -0.038671874 -0.037598267
-0.01957763 0.101715915 0.024575725 -0.014199236 0.071276136 0.05646356 0.033224568 -0.09507874
0.09980195 -0.090890765 0.050077938 -0.0416983 -0.09412954 -0.08600224 -0.0672753 -0.052477684
-0.015462142 -0.071582876 0.10052566 0.04185466 -0.012188994 -0.057618108 -0.103976324 0.00078422436
-0.023769528 -0.06200335 -0.10510296 -0.07279079 -0.0372451 -0.08961322 -0.050245326 0.019412445
0.047202814 0.013315368 -0.03139883 0.056940965 0.019551137 -0.0109341685 0.06844925 -0.016289365
0.079305254 0.081525095 0.056890264 -0.10074089 0.008797275 -0.045368448 0.042383216 -0.03259739
0.050689224 0.10082167 0.0031888215 0.06403728 -0.039916325 0.11183184 -0.06461296 0.016834864
0.00683317 0.015232139 -0.05161574 0.020015134 0.009209175 -0.06864653 -0.06719108 0.08994991
0.06843121 -0.023297714 -0.11097891 0.012710601 0.055751696 0.002743516 -0.08520577 -0.055167794
0.05082207 -0.05503305 0.05408787 0.110649265 0.0039837407 0.00025796384 0.0195438 -0.06064754
-0.090287395 0.047843035 -0.0237794 -0.008704947 -0.10556087 -0.057515204 -0.047693178 0.025915047
0.016952328 0.055033688 -0.048643637 -0.04448413 0.018294984 -0.0062925057 0.09075033 0.0806939
0.08322063 0.107913636 -0.038770482 -0.012053678 0.04774106 -0.017940352 -0.030670999 -0.10404278
00000000: c98e 613d 66ee 83bc ddbe 7abd 5afe 973d
00000010: 3ecc e1bd ec1c b8bd ed5b cc3d bca4 81bd
00000020: 43a9 013d 71f5 8bbd 70df 99bd 027d a03d
00000030: 4f8f a5bc 88bb 413c 1624 213d 93b7 b83c
00000040: 825c 003d a600 43bd d7e3 933d cc4a 86bd
00000050: 99d5 f93b 99b2 9abd cc1d d23c fcd2 053c
00000060: 94fc 813d d698 b2bd cd63 8d3d eedc 973d
00000070: fef7 013d 2632 e93d 0f16 d23c 2df8 8cbc
00000080: 0e06 143d 26a8 fd3d 7ff7 9b3c fc14 693d
00000090: a9e7 4c3d c2aa a6bd 7211 5fbd 6125 a13b
000000a0: d666 ad3d 477b a13d a4f2 af3b 4248 853d
000000b0: 87a3 bbb8 0c99 943b ef4f be3d e59d 9cbd
000000c0: 9b02 9e3c 4851 4bbd 5dee 0abd e193 77bd
000000d0: 2101 94bc 1836 99bd 59d4 7d3d dc00 ee3c
000000e0: 43ec c6bd cbf6 efba 4edb 9a3d 2d79 d1bd
000000f0: da27 f4bd c02d 903d 104a 66bd 4a54 81bd
00000100: 5f22 d6bc 63d8 823d eda3 163d ca5f 5e3c
00000110: 7c4f 8d3d af21 a8bd ac85 403d 7ee6 15bc
00000120: 5101 933d 387b 143c f4e6 c6bd 0a8d bd3d
00000130: 5ad6 8c3d 837a 573d 95cd 2bbd d193 18bd
00000140: 01ba ae3d b3cb 6fbd 0983 a1bd 2ec4 31bd
00000150: a3c4 83bd 30c5 af3d 7775 a23d 4ea1 cf3d
00000160: 2453 37bd 0869 933d 21ca b83c 88be 853d
00000170: b023 41bd 594d 8ebd 95ed e03c 3732 35bd
00000180: d6f9 87bd a222 d33d 038f 1a3d 91be 04bd
00000190: 63e9 c73d 8d71 8a3d 2107 22bd 444b 6bbd
000001a0: 81ee 983c 367e 20bc 0b40 d73d 721a 1a3b
000001b0: b9a6 363d f6b8 a3bd 030e 9dbd ba89 1c3b
000001c0: 4c78 babd 5e98 bbbd 481f 2e3d 60d8 f43c
000001d0: f20e d83c c851 4e3d a59b 05bd fd2c c93d
000001e0: 7c21 753d 9ea8 1b3d 8e6a 4dbd 43d5 8f3b
000001f0: 3611 29bc 270a 00bd 3aaf 4d3c 8fe9 21bd
00000200: e7d8 7f3d f904 843d 4aa2 acbd e307 543d
00000210: f5e4 b03d 7a47 383d 489a 80bd b225 0e3c
00000220: ecca a43d 1ad2 bfbc 9520 a83d a6f8 973d
00000230: 4a67 963d 263f ab3d 96a7 04bd 5fe1 01bd
00000240: 70ec 94bd 539f 1f3d 1260 b6bd f6bc a1bd
00000250: 7ae8 133d b4cf 693d 6666 1ebd a400 1abd
00000260: 4461 a0bc 6f50 d03d 0853 c93c eaa3 68bc
00000270: 39f9 913d 5546 673d 7c16 083d a4b8 c2bd
00000280: f764 cc3d f024 babd 861e 4d3d d6cb 2abd
00000290: fdc6 c0bd f121 b0bd a2c7 89bd d7f2 56bd
000002a0: ed54 7dbc 0b9a 92bd 66e0 cd3d cb6f 2b3d
000002b0: 59b4 47bc f700 6cbd 8af1 d4bd 6894 4d3a
000002c0: 50b8 c2bc 3af7 7dbd 3840 d7bd 5613 95bd
000002d0: 518e 18bd 2387 b7bd 0bce 4dbd d906 9f3c
000002e0: bd57 413d b428 5a3c 0f9c 00bd ee3a 693d
000002f0: b529 a03c 3a25 33bc 1f2f 8c3d 4671 85bc
00000300: cb6a a23d a1f6 a63d c405 693d 3d51 cebd
00000310: 7222 103c 44d4 39bd 069a 2d3d d784 05bd
00000320: 819f 4f3d 977b ce3d 8cfb 503b fa25 833d
00000330: 4d7f 23bd 1708 e53d cd53 84bd 45e9 893c
00000340: c9e8 df3b 3990 793c 076b 53bd c7f6 a33c
00000350: 14e2 163c 8d96 8cbd 7a9b 89bd a937 b83d
00000360: aa25 8c3d d9da bebc e948 e3bd 2040 503c
00000370: e45b 643d 8fcc 333b 5d80 aebd a0f7 61bd
00000380: ce2a 503d 566a 61bd 3e8b 5d3d 159c e23d
00000390: 0a8a 823b 523f 8739 521a a03c 8e69 78bd
000003a0: 99e8 b8bd 0ff7 433d 04cd c2bc 329f 0ebc
000003b0: 4c30 d8bd 1095 6bbd ec59 43bd cb4b d43c
000003c0: 9cdf 8a3c 016b 613d 8d3e 47bd fe34 36bd
000003d0: 5ddf 953c 5d31 cebb 4fdb b93d d842 a53d
000003e0: 946f aa3d d301 dd3d cccd 1ebd ca7c 45bc
000003f0: 218c 433d a5f7 92bc bf41 fbbc 6214 d5bd

conv1.bias f4 [20]
0.108950585 0.091331825 0.063024364 0.101956144 -0.022391714 -0.021951163 -0.0035457353 -0.013630984
0.08510346 0.12162705 0.021278216 -0.069722496 0.09146698 -0.019295106 -0.021803427 0.025533946
0.0843591 -0.011694906 0.021377264 0.050321445
00000000: 7c21 df3d 2e0c bb3d eb12 813d 62ce d03d
00000010: d46e b7bc edd2 b3bc 915f 68bb 7e54 5fbc
00000020: b94a ae3d 9a17 f93d a74f ae3c abca 8ebd
00000030: 0a53 bb3d c510 9ebc 1a9d b2bc 912c d13c
00000040: 77c4 ac3d fe9b 3fbc 5f1f af3c dc1d 4e3d

conv2.weight f4 [40, 20, 3, 3]
-0.07945026 -0.02054995 -0.065714315 0.01212563 -0.029456777 -0.004079951 -0.03568163 0.06319558
0.01108543 0.05000202 0.024017697 0.0055879634 -0.023822023 0.012000846 -0.03068742 0.009458254
0.06440411 0.058370985 -0.041925717 0.016943902 -0.03314351 -0.010258658 -0.025710938 -0.042364564
0.06285561 -0.0069776503 0.03815266 -0.062806055 0.050134607 0.024265807 -0.025610454 0.05962968
0.04782404 -0.04236282 -0.012841205 0.04880889 -0.007285826 -0.026286962 0.05912317 -0.04087008
0.06284629 -0.045332666 -0.059849624 -0.04920065 0.079897635 0.07179051 -0.034012612 0.038539577
-0.06857059 -0.0031965796 -0.05326791 -0.038823403 0.051726144 0.040995643 -0.040800642 0.0036932316
-0.04121269 0.05834054 -0.0004701286 -0.021206884 0.013874711 0.025918009 -0.056758776 0.0082828235
0.0021288628 0.085662626 0.0709932 0.0188148 0.057127867 0.03494641 -0.06472356 -0.052422997
0.042819336 -0.0070250495 0.011271145 -0.049119487 0.025518352 -0.020381238 -0.011945113 0.054506116
-0.05867915 0.017735297 -0.054195855 -0.04733766 -0.020118544 -0.0719986 0.05860902 -0.03936475
-0.011498573 -0.07980855 0.0212507 0.020724475 0.07548004 -0.0166276 -0.006066282 -0.015775923
0.04909275 0.064026885 0.056667615 0.04347219 0.03705739 -0.044521242 0.005762533 0.02862729
0.09091263 0.022449145 0.009540077 -0.034029886 0.06141876 -0.034878805 -0.06073591 0.014644465
-0.044685625 0.048194062 0.061105553 -0.055444144 -0.067113124 0.016401958 0.0136000905 0.01872533
0.007889743 0.01862019 -0.0006979609 -0.045913063 0.073760994 -0.046937693 0.064434074 -0.011229634
-0.059386272 0.07238302 -0.04391988 0.06636525 -0.008674967 0.035150595 0.059900608 0.017105676
0.012885116 -0.050280273 -0.02806622 -0.016697194 0.033591706 0.018044474 -0.03460521 0.051577482
0.0319838 -0.0010946525 0.03420613 0.014737718 0.050385572 -0.009335733 -0.004196696 -0.08730693
0.00026630526 0.032415904 -0.019149011 -0.048634913 0.02775591 0.076558955 -0.021957152 -0.022345494
-0.045945913 -0.06637837 0.05568997 -0.046573613 -0.012194059 0.0155308535 -0.052364644 -0.018490503
0.04653348 0.0269899 -0.033328056 0.017780505 0.022566732 0.033978935 -0.010716044 -0.05583099
-0.0010722993 -0.03243839 -0.008459079 0.052182503 -0.07234224 0.034743253 -0.032503147 -0.024821354
-0.037214134 -0.04403592 -0.045935214 -0.065832 -0.041633245 0.0008263807 -0.049794056 0.028781123
-0.028112946 -0.012102192 -6.8514826e-05 -0.035866886 -0.010889024 -0.02331577 0.037840966 -0.040331837
0.013716276 -0.0076123695 0.0121891 -0.05215567 -0.008787668 -0.05107713 0.02272239 0.01483637
0.018274436 0.044911083 0.07152847 0.020942364 -0.03359343 0.05192641 -0.041761648 -0.065792195
-0.03290461 -0.006834396 -0.02434806 0.034729276 -0.025742756 0.0067528374 0.073558345 -0.038982242
-0.024797115 0.037562706 -0.02528166 -0.0031108628 -0.028283197 0.0012622775 0.0014452088 0.0037180511
-0.06775307 -0.04676945 0.025845604 0.0569749 -0.037868768 0.032861322 0.041942436 -0.034317877
0.066640474 0.04035685 0.031926524 -0.0016731088 0.022560526 -0.009341642 0.055368073 -0.062066585
0.045842238 -0.054705158 0.033968348 0.05347334 0.056479104 -0.046666976 0.05448088 -0.003585242
00000000: d1b6 a2bd 5e58 a8bc 3a95 86bd 94aa 463c
00000010: 574f f1bc 1cb1 85bb e726 12bd af6c 813d
00000020: aa9f 353c ebce 4c3d c3c0 c43c 3c1b b73b
00000030: 6726 c3bc 329f 443c 2f64 fbbc cbf6 1a3c
00000040: 4de6 833d 6a16 6f3d 4dba 2bbd f0cd 8a3c
00000050: 7dc1 07bd ee13 28bc bf9f d2bc 7786 2dbd
00000060: 71ba 803d c6a4 e4bb f745 1c3d 76a0 80bd
00000070: f259 4d3d 16c9 c63c 04cd d1bc 403e 743d
00000080: 24e3 433d a384 2dbd eb63 52bc d5eb 473d
00000090: f0bd eebb c157 d7bc 232b 723d 6367 27bd
000000a0: 8eb5 803d bfae 39bd e124 75bd 9f86 49bd
000000b0: 5fa1 a33d e706 933d cf50 0bbd addb 1d3d
000000c0: bd6e 8cbd b57d 51bb 742f 5abd 4a05 1fbd
000000d0: cbde 533d 0ceb 273d 931e 27bd 250a 723b
000000e0: a3ce 28bd 7df6 6e3d 987b f6b9 0fba adbc
000000f0: c152 633c 0152 d43c e47b 68bd aeb4 073c
00000100: 6484 0b3b e36f af3d e264 913d 7f21 9a3c
00000110: e9fe 693d f823 0f3d c98d 84bd 7fb9 56bd
00000120: 5463 2f3d 6332 e6bb 9caa 383c 8431 49bd
00000130: dd0b d13c 8ef6 a6bc 6fb5 43bc ce41 5f3d
00000140: 8c59 70bd 9d49 913c 79fc 5dbd 22e5 41bd
00000150: a5cf a4bc 0174 93bd 0310 703d ef3c 21bd
00000160: 8364 3cbc aa72 a3bd f315 ae3c 60c6 a93c
00000170: 4795 9a3d 9b36 88bc a9c7 c6bb 823c 81bc
00000180: 7b15 493d 8720 833d 4d1c 683d e50f 323d
00000190: 7dc9 173d e85b 36bd a1d3 bc3b c783 ea3c
000001a0: 6730 ba3d 45e7 b73c fc4d 1c3c ec62 0bbd
000001b0: 3d92 7b3d 14dd 0ebd 38c6 78bd 57ef 6f3c
000001c0: 4608 37bd 2367 453d d149 7a3d 6619 63bd
000001d0: 9b72 89bd 665d 863c ead2 5e3c dd65 993c
000001e0: fb43 013c 5e89 983c 5df7 36ba 560f 3cbd
000001f0: 0110 973d bd41 40bd 03f6 833d 80fc 37bc
00000200: 053f 73bd 8c3d 943d 55e5 33bd 81ea 873d
00000210: 7321 0ebc 12fa 0f3d 575a 753d 3421 8c3c
00000220: 181c 533c b0f2 4dbd 21eb e5bc 8ec8 88bc
00000230: 7597 093d 01d2 933c 31be 0dbd e942 533d
00000240: 7201 033d 717a 8fba ba1b 0c3d 7876 713c
00000250: 1a61 4e3d e7f4 18bc 7084 89bb facd b2bd
00000260: e39e 8b39 8ac6 043d 63de 9cbc 6735 47bd
00000270: 5d60 e33c f1ca 9c3d 7cdf b3bc e60d b7bc
00000280: c831 3cbd 62f1 87bd 2a1b 643d f9c3 3ebd
00000290: 97c9 47bc 1f75 7e3c 4f7c 56bd 6579 97bc
000002a0: e499 3e3d ec19 dd3c 0083 08bd 6ca8 913c
000002b0: dedd b83c 7f2d 0b3d 5992 2fbc 09af 64bd
000002c0: 658c 8cba 1ede 04bd f397 0abc 52bd 553d
000002d0: 2b28 94bd f14e 0e3d 0522 05bd 2756 cbbc
000002e0: d96d 18bd 025f 34bd 9026 3cbd edd2 86bd
000002f0: 9f87 2abd 78a1 583a daf4 4bbd 64c6 eb3c
00000300: 1f4d e6bc 4648 46bc 9eaf 8fb8 28e9 12bd
00000310: e067 32bc b700 bfbc 21ff 1a3d ff32 25bd
00000320: 3bba 603c 2f71 f9bb cab4 473c 2fa1 55bd
00000330: 27fa 0fbc 4136 51bd 4e24 ba3c 3f14 733c
00000340: 45b4 953c aff4 373d 857d 923d 528f ab3c
00000350: 4499 09bd cab0 543d 430e 2bbd 0fbe 86bd
00000360: fcc6 06bd 12f3 dfbb 9575 c7bc 4940 0e3d
00000370: 79e2 d2bc e846 dd3b c2a5 963d d8ab 1fbd
00000380: 5223 cbbc 5adb 193d 7c1b cfbc 9edf 4bbb
00000390: 2ab2 e7bc 0173 a53a 296d bd3a 8caa 733b
000003a0: 1fc2 8abd 5391 3fbd 29ba d33c 835e 693d
000003b0: 481c 1bbd 9899 063d d5cb 2b3d e790 0cbd
000003c0: cd7a 883d 394d 253d 63c5 023d 374c dbba
000003d0: dad0 b83c b00d 19bc a2c9 623d 8839 7ebd
000003e0: 12c5 3b3d 8412 60bd 6522 0b3d dc06 5b3d
000003f0: a256 673d df25 3fbd 5827 5f3d 61f6 6abb

conv2.bias f4 [40]
0.05174362 -0.031696595 0.0045925356 -0.002389386 -0.043921717 0.0782915 -0.036550004 0.04552482
0.06571223 -0.043767184 -0.056192297 -0.018916925 -0.043316863 -0.046084132 0.076087534 -0.011225769
0.025900815 -0.014035433 -0.071776405 0.0011526785 -0.013896075 -0.063648954 -0.061887443 -0.0737446
0.018881459 0.068293765 0.056694828 -0.021466343 0.060785968 0.0786044 -0.058824092 0.07505838
-0.015991328 0.020383306 -0.045606688 0.021785287 0.058149863 -0.070576414 0.063551314 -0.056770597
00000000: 1ef1 533d 4ad4 01bd fb7c 963b 3f97 1cbb
00000010: 42e7 33bd 4b57 a03d 75b5 15bd 3c78 3a3d
00000020: 2294 863d 3845 33bd e529 66bd abf7 9abc
00000030: 066d 31bd b7c2 3cbd c8d3 9b3d 4aec 37bc
00000040: f22d d43c dff4 65bc 82ff 92bd 7915 973a
00000050: 5dac 63bc 625a 82bd b07d 7dbd 6907 97bd
00000060: 4aad 9a3c 9add 8b3d d638 683d 2fda afbc
00000070: b5fa 783d 58fb a03d 88f1 70bd 35b8 993d
00000080: 3f00 83bc e4fa a63c 14ce 3abd 0f77 b23c
00000090: 8d2e 6e3d 5e8a 90bd 3127 823d 4988 68bd

fc1.weight f4 [1, 6760]
0.0092476765 0.00027188347 -0.0031385089 -0.007699425 0.002097847 0.009895087 -0.012057301 0.002504782
0.010763541 -0.009826283 0.005654261 0.0004802073 -0.01465267 -0.0033035679 -0.0094009675 -0.00968328
-0.0040399637 0.010917494 0.005360797 0.011520643 -0.009544653 0.0055940896 -0.004168175 -0.0021286393
0.0019971193 -0.004869833 -0.0013175049 0.0037334256 -0.0044937003 0.008920287 -0.0019106681 0.008944968
0.006992066 -0.00077682483 0.010558111 -0.007322487 0.008812664 -0.0013478977 0.0056744935 -0.012034646
0.004331031 -0.01128651 -0.0036295205 -0.009868039 0.00062498386 0.0060684714 0.009240767 0.011317836
0.0025102578 0.0036608316 -0.00010100128 0.0063415593 0.006508061 -0.009249588 -0.011422931 -0.00050362846
0.007359104 -0.009748451 0.0019783692 0.0040747044 0.006483709 -0.004096963 -0.0020572427 0.009749896
-0.0130935935 -0.0022889539 0.008757234 -0.0056439647 0.008604374 -0.0033457887 0.0068211746 0.010344356
0.0016822332 -0.009280566 -0.0023543194 0.010040563 -0.002132147 0.0094623845 -0.011995664 0.0061537325
0.000616496 -0.0045066453 -0.0035191004 0.010511968 0.004727907 0.009292053 0.007074171 -0.0027716535
0.009070701 0.009762661 0.00504815 0.0035695604 -0.014222283 0.0070359493 -0.004875592 -0.011430502
0.0100523485 -0.0017973102 0.0027232398 -0.009575388 0.000770563 -0.0076669096 0.009510062 -0.0043485234
-0.011740079 -0.009170887 -0.0049232896 -0.006638159 -0.0081486665 -0.01138063 0.0063113943 0.008537843
-0.0004104375 0.0074959407 -0.0035183146 0.007893655 0.0005399348 0.00054227724 0.0038573092 0.007036579
0.008903741 0.009239236 0.0066001303 -0.008964716 -0.00014964517 0.0048373872 0.0036663075 0.0054915277
-0.0015980664 -0.005920657 0.0039866087 -0.0019454188 -0.0034023446 -0.00960457 0.0073517296 -0.008469146
0.0053419825 -0.0014905989 -0.013843634 0.007460891 0.004252139 -0.000742355 0.007827932 -0.0022284794
-0.0017842272 -0.0073658405 -0.011907275 -0.011152963 -0.0073259952 0.00756912 -0.010899482 -0.002884232
0.002633566 0.005097064 0.005012926 -0.0026465668 -0.010123357 -0.0038014955 -0.0067346785 -0.0058275275
0.002931185 0.0013223272 -0.008167006 -0.0005578003 0.0008221475 0.008628725 -0.010752071 0.004290201
0.009599536 0.011813778 -0.009388816 0.0054294895 0.0040455423 0.001562077 -0.0031245947 -0.009594601
-0.0108228605 0.00052107073 -0.0030004503 -0.0026034312 0.004851725 -0.0024385056 -0.008849287 -0.011478627
0.008056312 -0.0031870592 -0.0004300057 -0.0045370874 -0.008350745 0.0040271548 -0.01181438 0.0015418045
0.0053311647 0.010888757 0.0076785125 0.0026146707 0.0030453827 0.0042196703 -0.009284326 0.006984417
0.010529703 -0.00093529 0.0064233057 -0.007351329 0.0068102106 0.0016427941 0.004125894 -0.010043775
0.0026586286 9.688493e-05 0.0018987732 -0.0026671279 -0.011317036 -0.0058456096 -0.0074578295 0.009596266
-0.010717527 -0.005687207 -0.0031539146 0.004996668 0.0076049534 0.012142817 0.012044605 -0.00967549
0.0032236604 0.0059743878 0.0020274485 0.00019872995 0.00034488234 -0.0036045073 0.00879663 0.00882352
0.007058404 -0.011680911 0.011476834 0.0023768328 0.011840619 -0.0078446865 0.010939289 -0.0054332376
0.003553123 -0.0027219602 0.0007837788 -0.0044571143 -0.010637443 -0.008277114 0.0102331145 0.01117903
0.0019515523 0.008826397 -0.0067045074 -0.004094424 -0.008829185 -0.003728321 9.469849e-05 -0.0051718387
00000000: 9183 173c 958b 8e39 71af 4dbb 754b fcbb
00000010: 087c 093b 011f 223c fc8b 45bc 4527 243b
00000020: 9059 303c 6bfe 20bc 6147 b93b 55c4 fb39
00000030: c111 70bc ac80 58bb 8406 1abc 9fa6 1ebc
00000040: ac61 84bb 4adf 323c a0a9 af3b 14c1 3c3c
00000050: 2d61 1cbc a04e b73b 3095 88bb a480 0bbb
00000060: 1ae2 023b 1f93 9fbb 21b0 acba 7dac 743b
00000070: e43f 93bb 6526 123c 626f faba ea8d 123c
00000080: b31d e53b d5a3 4bba edfb 2c3c 79f1 efbb
00000090: fe62 103c f1ab b0ba 1af1 b93b f72c 45bc
000000a0: 52eb 8d3b 0eeb 38bc 40dd 6dbb 8ead 21bc
000000b0: f5d5 233a 07da c63b 9666 173c 726e 393c
000000c0: 2383 243b 90ea 6f3b a6d0 d3b8 dbcc cf3b
000000d0: 9341 d53b 958b 17bc 3f27 3bbc ef05 04ba
000000e0: a424 f13b f8b7 1fbc 87a7 013b 1985 853b
000000f0: 4b75 d43b d13f 86bb ced2 06bb 07be 1f3c
00000100: 8386 56bc 4602 16bb 807a 0f3c 02f1 b8bb
00000110: 5cf9 0c3c 0545 5bbb 2984 df3b 607b 293c
00000120: 617e dc3a 840d 18bc ed4a 1abb 2c81 243c
00000130: 7ebb 0bbb 1e08 1b3c 7689 44bc 40a5 c93b
00000140: 599c 213a 7bac 93bb b5a0 66bb 643a 2c3c
00000150: 8fec 9a3b b23d 183c 73ce e73b a1a4 35bb
00000160: 479d 143c 91f3 1f3c f46a a53b 49ef 693b
00000170: 9404 69bc d28d e63b 6ec3 9fbb 0047 3bbc
00000180: 9bb2 243c b993 ebba 6278 323b 17e2 1cbc
00000190: 9cff 493a b33a fbbb 17d0 1b3c 0f7e 8ebb
000001a0: 7659 40bc 7d41 16bc 8c53 a1bb ea84 d9bb
000001b0: fc81 05bc d275 3abc d0cf ce3b 4fe2 0b3c
000001c0: fd2f d7b9 82a0 f53b 8693 66bb 6454 013c
000001d0: 698a 0d3a 9c27 0e3a e9ca 7c3b 1a93 e63b
000001e0: ffe0 113c 2a60 173c e845 d83b bfe0 12bc
000001f0: 12ea 1cb9 f282 9e3b 6f46 703b 46f2 b33b
00000200: 3676 d1ba 1202 c2bb 19a2 823b 6cfd feba
00000210: dff9 5ebb 7d5c 1dbc c7e6 f03b 2cc2 0abc
00000220: cc0b af3b 3360 c3ba 69d0 62bc 7d7a f43b
00000230: 8755 8b3b 9a9a 42ba ba40 003c ae0b 12bb
00000240: bbdc e9ba 265d f1bb bb16 43bc ebba 36bc
00000250: e70e f0bb 6106 f83b be93 32bc 6205 3dbb
00000260: e897 2c3b 4605 a73b 7943 a43b 0672 2dbb
00000270: 70dc 25bc 8322 79bb 94ae dcbb d8f4 bebb
00000280: 2019 403b f051 ad3a e8ce 05bc 5839 12ba
00000290: 6285 573a 7f5f 0d3c 7429 30bc d094 8c3b
000002a0: 5f47 1d3c 948e 413c 8cd3 19bc dce9 b13b
000002b0: 7890 843b 9bbe cc3a 00c6 4cbb ac32 1dbc
000002c0: 5e52 31bc 7798 083a 34a3 44bb 549e 2abb
000002d0: 38fb 9e3b 56cf 1fbb 9afc 10bc da10 3cbc
000002e0: 9ffe 033c fbdd 50bb 6372 e1b9 d9ab 94bb
000002f0: 90d1 08bc 39f6 833b 1a91 41bc 6016 ca3a
00000300: 0db1 ae3b c266 323c 089c fb3b e55a 2b3b
00000310: 0b95 473b 2945 8a3b 491d 18bc 89dd e43b
00000320: c784 2c3c 402e 75ba 987a d23b 6be3 f0bb
00000330: 3028 df3b 0653 d73a 8232 873b a58e 24bc
00000340: 633c 2e3b b32e cb38 42e0 f83a fbca 2ebb
00000350: 176b 39bc 878c bfbb cf60 f4bb a839 1d3c
00000360: 9198 2fbc c05b babb e8b1 4ebb 17bb a33b
00000370: f932 f93b aaf2 463c bc56 453c f285 1ebc
00000380: 0c44 533b ccc4 c33b f1de 043b 2a62 5039
00000390: 53d1 b439 9939 6cbb be1f 103c 8690 103c
000003a0: 2f4a e73b 4b61 3fbc 5509 3c3c a3c4 1b3b
000003b0: 28ff 413c 0087 00bc b43a 333c 4d09 b2bb
000003c0: 83db 683b ea62 32bb 8176 4d3a fc0c 92bb
000003d0: ab48 2ebc bb9c 07bc cba8 273c 4028 373c
000003e0: 3bcb ff3a 989c 103c 7cb1 dbbb 852a 86bb
000003f0: 49a8 10bc d956 74bb dd98 c638 8778 a9bb
