ConvLSTM/Sequence/0.82_68_A_S.pt (torch, 84919 bytes, 7 tensors)

conv_lstm.conv.weight f4 [40, 13, 3, 3]
0	0x3db10e4e	0.086453065
1	0xbd2c88c8	-0.042122632
2	0xbd6895ff	-0.056783672
3	0x3da74e2f	0.08169209
4	0xbd5ef7de	-0.054435603
5	0xbd5dddb8	-0.054166526
6	0xbc8c160b	-0.017100355
7	0x3d69fb91	0.057124678
8	0x3d9e3f66	0.07726936
9	0xbcc157c2	-0.023601416
10	0x3d0119c2	0.031518705
11	0xbd029f41	-0.031890158
12	0xbd6a24d5	-0.057164032
13	0x3dd62625	0.10456494
14	0xbd0ca23a	-0.0343344
15	0xbd08577e	-0.033286564
16	0x3d740113	0.059571337
17	0xbd7ab1c4	-0.061204687
18	0x3cfc0d7c	0.030768149
19	0xbd906967	-0.07051354
20	0xbd954e98	-0.07290381
21	0xbd98a43c	-0.074532
22	0x3dcf6859	0.101273246
23	0xbd4e64c4	-0.050389066
24	0xbd5cdb73	-0.05392022
25	0x3dbcf903	0.09227183
26	0x3d1cba31	0.038263503
27	0x3dd9f67e	0.10642718
28	0x3de0d1c7	0.10977512
29	0xbd141390	-0.03615147
30	0x3c366590	0.011132613
31	0xbbd4d565	-0.006495165
32	0x3df253f4	0.11832419
33	0xbcb9f592	-0.022700105
34	0x3d164ff2	0.036697336
35	0xbd6787b5	-0.056525905
36	0xbcbd0ce3	-0.023077434
37	0x3cbdd382	0.023172144
38	0xbda60534	-0.08106461
39	0xbdb78fad	-0.08962951
40	0xbd371563	-0.04469813
41	0xbc84e5fb	-0.016222944
42	0x3c62422d	0.013809723
43	0xbca46cde	-0.020071443
44	0x3a1ba8ef	0.0005937954
45	0xbdc3ebf9	-0.095664926
46	0x3c9b84ef	0.018984286
47	0xbddbfc50	-0.10741484
48	0xbd71922f	-0.058977302
49	0x3d198cca	0.037487783
50	0xbdad941f	-0.084755175
51	0xbd8b05f9	-0.067882486
52	0x3cdf470d	0.02725556
53	0xbcd2d62b	-0.025736889
54	0xbc950a68	-0.018193439
55	0x3d82a8a7	0.06379824
56	0x3d7a6556	0.061131798
57	0xbd12fde8	-0.035886675
58	0xbd54ffa4	-0.05200161
59	0xbdb4f5c8	-0.088359416
60	0xbc94709f	-0.018120108
61	0xbdb12a2f	-0.08650624
62	0xbdd729a7	-0.105059914
63	0xbbe6bb51	-0.007041373
64	0xbdc736b3	-0.0972723
65	0x3c8938d1	0.016750725
66	0x3c49a7f8	0.012308113
67	0x3d4c304e	0.049850754
68	0xbd2b6bcb	-0.041850846
69	0xbd97fef8	-0.07421678
70	0x3d5ca5bb	0.05386899
71	0x3d895325	0.06705312
72	0xbda93068	-0.08261186
73	0x3d6553e6	0.055988215
74	0xbdd16a0a	-0.102253035
75	0x3d8ba59c	0.06818697
76	0x3b89645e	0.004192873
77	0xbcacbe97	-0.021086974
78	0x3d12e583	0.03586341
79	0xbdd6f90d	-0.104967214
80	0xbd00a2b3	-0.031405162
81	0xbc63f926	-0.013914382
82	0xbc062672	-0.008187877
83	0xbd86781c	-0.06565878
84	0xbdd97a4a	-0.10619028
85	0x3ccd6c35	0.025076011
86	0xbd5932c7	-0.05302694
87	0xbd816d15	-0.06319634
88	0x3d81e9db	0.063434325
89	0x3cb7047d	0.022341007
90	0xbcd73ced	-0.026274169
91	0x3c34c3cf	0.0110330125
92	0xbd1bfb78	-0.038081616
93	0xbd8bbc70	-0.06823051
94	0x3dd9f340	0.106420994
95	0x3c84080f	0.016117124
96	0x3c227ebe	0.009917913
97	0xbd3654c1	-0.04451442
98	0x3d8872c2	0.06662513
99	0xbd42b729	-0.047537956
100	0x3c34c573	0.011033404
101	0x3d502c5c	0.050823554
102	0x3d2485fe	0.040166847
103	0xbced92bf	-0.029000638
104	0xbcd0da7f	-0.025494812
105	0x3bec5b41	0.0072130268
106	0xbd05362f	-0.032522377
107	0x3d953573	0.07285585
108	0xbb8cce96	-0.004297088
109	0x3d75caeb	0.06000797
110	0x3d97851d	0.07398436
111	0x3db25037	0.08706706
112	0xbd24c3a2	-0.040225632
113	0x3d5d17da	0.053977825
114	0x3d9e7a03	0.07738116
115	0x3d70d0c5	0.05879285
116	0x3cc3931d	0.02387386
117	0x3d2b0c2d	0.04175966
118	0x3ce3809c	0.027771287
119	0xbd954af7	-0.07289689
120	0xbca5a467	-0.020219995
121	0xbd5bf8b4	-0.05370398
122	0x3d3f377c	0.046683773
123	0xba619340	-0.0008605011
124	0xbc5af25f	-0.01336345
125	0xbd7dcf0c	-0.061965033
126	0x3ca547bd	0.020175809
127	0xbd582119	-0.05276594
128	0xbd29f660	-0.041494727
129	0xbd91fc7c	-0.07128236
130	0xbdac5255	-0.08414141
131	0x3b309037	0.0026941427
132	0xbd9e2066	-0.07721023
133	0x3cca42cf	0.02469006
134	0x3c992045	0.018692145
135	0xbdaeabaa	-0.08528836
136	0x3d148a4b	0.0362647
137	0x3d8b50f2	0.068025485
138	0xbd207a48	-0.039179116
139	0x3c85c256	0.016328018
140	0xbdb43da9	-0.08800823
141	0xbda21c62	-0.0791557
142	0x3dbd9d56	0.09258525
143	0x3d3197f2	0.043357797
144	0xbcb34a99	-0.021886157
145	0xbd4941c4	-0.049134985
146	0xbcddbb6b	-0.027066907
147	0x3db4d707	0.08830076
148	0xbd8970bf	-0.06710958
149	0xbd5534c5	-0.052052278
150	0x3d80ac55	0.0628287
151	0xbd6c7519	-0.05772886
152	0x3d72afef	0.059249815
153	0xbcb0e66e	-0.021594252
154	0x3d8753a8	0.06607753
155	0x3c061e8d	0.008185995
156	0xbd5faeb4	-0.05460997
157	0xbdaef7a0	-0.085433245
158	0xbd1dd6dd	-0.038534988
159	0x3d8f7b73	0.07005968
160	0x3d90585f	0.070481054
161	0x3d23d01d	0.039993394
162	0xbcebb09b	-0.028770735
163	0xbd7ba83d	-0.06143974
164	0x3d714c10	0.05891043
165	0xbd8741b5	-0.066043295
166	0x3d7ba307	0.061434772
167	0x3d92c5eb	0.07166656
168	0xbdbe33fc	-0.09287259
169	0x3c7759c7	0.015097088
170	0xbbe0e234	-0.006862903
171	0xbd67267f	-0.056433197
172	0x3d617ec3	0.05505253
173	0xbd8f731d	-0.07004378
174	0xbd8c5b30	-0.0685333
175	0xbd751de3	-0.059842955
176	0x3bec008d	0.007202214
177	0x3d2954db	0.04134069
178	0xbc5c3834	-0.013441134
179	0x3d751241	0.05983186
180	0xbba50073	-0.005035454
181	0xbca376b1	-0.019954057
182	0x3d44b717	0.04802617
183	0x3d108541	0.03528333
184	0x3d88756c	0.066630214
185	0x3c1d3abe	0.009596525
186	0x3da9a39a	0.08283158
187	0x3b8e4a05	0.00434232
188	0xbdb17457	-0.08664768
189	0xbd2455b2	-0.040120788
190	0x3d4f4a0a	0.05060772
191	0x3d63f37e	0.055652134
192	0xbdb2beb2	-0.087277785
193	0xbd86b5aa	-0.065776184
194	0x3c9bdb9c	0.019025616
195	0x3ca0d87b	0.019634476
196	0x3d9011ea	0.07034667
197	0xbaf20e18	-0.0018467335
198	0x3d1bf12f	0.038071807
199	0x3cdae382	0.026719812
200	0xbda244c6	-0.07923274
201	0x3dabffb1	0.08398379
202	0x3da7c2cc	0.081914514
203	0x3cab73f0	0.020929307
204	0xbd1f8a8d	-0.03895049
205	0x3d7502ef	0.05981725
206	0x3ce6ea0b	0.028187772
207	0x3cbabc78	0.022794947
208	0x3d3232b8	0.0435054
209	0xbd245ebd	-0.040129412
210	0x3d8e9d35	0.069635786
211	0x3dbd1d0b	0.09234055
212	0xbd1c8171	-0.038209382
213	0x3da3e496	0.08002584
214	0x3d89aeaa	0.06722768
215	0x3c72e3f1	0.014824853
216	0x3cbc2159	0.02296512
217	0x3d806a7f	0.062703125
218	0x3db5af05	0.08871273
219	0xbd69cd2a	-0.057080425
220	0xbd8237da	-0.06358309
221	0x3db2905c	0.087189406
222	0x3d9522aa	0.07282002
223	0xbd55681a	-0.052101232
224	0xbd07743e	-0.03306984
225	0x3c6253da	0.013813937
226	0xbd51faf9	-0.051264737
227	0x3ceddb6f	0.029035298
228	0x3d99bb27	0.075063996
229	0xbc53d17d	-0.012928364
230	0x3d6fc409	0.058536563
231	0x3d007693	0.03136308
232	0x3cfa7b54	0.030576386
233	0xbd35eb6d	-0.044413973
234	0x3d92a14e	0.07159673
235	0xbd093402	-0.033496864
236	0xbd368eb7	-0.044569697
237	0xbd22ad2d	-0.039715935
238	0x3d5edf19	0.05441198
239	0x3dd794c2	0.1052642
240	0xbd21e720	-0.03952706
241	0xbb17ceec	-0.0023164107
242	0x3d64b377	0.055835214
243	0xbc8b5e86	-0.017012846
244	0x3cf0ff65	0.029418657
245	0x3ac937d3	0.001535172
246	0x3c304eda	0.010760987
247	0x3d69d1d8	0.05708489
248	0x3da09cab	0.07842382
249	0x3b67ee54	0.0035389857
250	0x3d8aedf5	0.06783668
251	0xbcbdfbbe	-0.02319133
252	0xbc9c6c3d	-0.01909458
253	0x3d658a9a	0.056040384
254	0x3de61332	0.1123413
255	0xbc09b83f	-0.008405744

conv_lstm.conv.bias f4 [40]
0	0x3b717060	0.0036840662
1	0xbdaa62b3	-0.08319607
2	0xbc65fd7b	-0.014037485
3	0xbd9ea9b8	-0.07747215
4	0xbd4fb93a	-0.050713755
5	0xbd79c06f	-0.060974535
6	0xbb7df872	-0.0038752821
7	0x3d6bdce8	0.05758372
8	0x3d63eedc	0.055647716
9	0x3d7e15ae	0.062032394
10	0xbda13384	-0.07871154
11	0xbd2029a9	-0.03910223
12	0x3d0765a9	0.033055935
13	0x3d4bde34	0.049772456
14	0x3dc2db59	0.095144935
15	0xbd808b9c	-0.062766284
16	0xbcb77836	-0.022396188
17	0xbdacd881	-0.08439732
18	0x3c02e73b	0.0079897
19	0x3dd0027c	0.10156724
20	0x3da4b36e	0.08042036
21	0x3daca428	0.08429748
22	0xbd80e3a9	-0.06293423
23	0xbda4a2c3	-0.08038857
24	0x3d2054f0	0.039143503
25	0x3d103de4	0.035215273
26	0xbd78aeac	-0.060713455
27	0x3d7884bc	0.06067346
28	0x3b0ef089	0.002181085
29	0x3ddefaa0	0.10887647
30	0xbc7a9755	-0.015294869
31	0xbda94759	-0.082655616
32	0x3cad778c	0.021175168
33	0xbc93e6a2	-0.01805431
34	0xbdc3c7fb	-0.095596276
35	0xbd98993c	-0.07451102
36	0xbd804881	-0.06263829
37	0x3bdd38f7	0.0067511755
38	0xbd793b1c	-0.060847387
39	0xbd96935a	-0.07352324

conv1.weight f4 [20, 10, 3, 3]
0	0xbdbc564c	-0.09196147
1	0xbd879463	-0.066200994
2	0xbd744475	-0.0596356
3	0x3d4f2675	0.050573785
4	0xbd969ba4	-0.07353905
5	0xbbb45d82	-0.005504311
6	0xbd97020a	-0.07373436
7	0x3d278764	0.040900603
8	0xbcbed00d	-0.023292566
9	0x3cec571c	0.02885013
10	0x3d86220e	0.06549464
11	0x3d8b7a8a	0.06810482
12	0xbda599f9	-0.080860086
13	0xbde1d033	-0.11026039
14	0xbc646bf8	-0.013941757
15	0xbdba6f05	-0.091032065
16	0x3c5dc00e	0.013534559
17	0x3d4f26ab	0.050573986
18	0xbc6ac383	-0.01432884
19	0x3c93217f	0.017960308
20	0x3d91d141	0.0711999
21	0x3c178709	0.0092485035
22	0x3c91f2d1	0.01781598
23	0x3d9bd065	0.076081075
24	0xbd92dadc	-0.0717065
25	0x3d3048e9	0.043038283
26	0x3dac71a8	0.08420116
27	0x3d13ef08	0.03611663
28	0xbb0c98b1	-0.0021453316
29	0x3da3694c	0.07979068
30	0x3d246af6	0.04014107
31	0xbd550d44	-0.052014604
32	0x3d47741d	0.04869472
33	0x3c9822d9	0.018571304
34	0xbde18272	-0.110112086
35	0xbcd04fde	-0.025428709
36	0x3ab1c49c	0.0013562622
37	0x3ba1bd50	0.004935898
38	0xbd31f3ff	-0.043445583
39	0x3b1d4cde	0.0024002115
40	0xbce5b161	-0.028038682
41	0xbcb46780	-0.022022009
42	0xbd11bace	-0.03557854
43	0xbde69206	-0.112583205
44	0xbda16012	-0.07879652
45	0xbbf6d4d4	-0.0075326953
46	0xbde2ab5c	-0.110678405
47	0xbd281ce0	-0.041043162
48	0x3b4aee47	0.0030964778
49	0x3ccffc7f	0.025388954
50	0xbdb036a5	-0.086041726
51	0x3d2e3a01	0.042535786
52	0xbd10f269	-0.03538743
53	0xbd63d4c9	-0.05562285
54	0xbd7c9d00	-0.061673164
55	0x3bc6d5e5	0.0060679787
56	0xbbdd5442	-0.006754429
57	0x3c77e996	0.015131375
58	0x3d3032c9	0.043017182
59	0x3c3a29a7	0.01136247
60	0xbdd21367	-0.10257607
61	0x3d446021	0.04794324
62	0xbddbb105	-0.10727123
63	0xbdb5d21d	-0.088779666
64	0xbc871502	-0.01648951
65	0x3dcf9971	0.101366885
66	0xbd2c80b5	-0.042114932
67	0x3d8bb12f	0.068209045
68	0xbd8ba913	-0.06819358
69	0xbda2d287	-0.07950311
70	0xbd2582e6	-0.040408038
71	0xbd858331	-0.065191634
72	0xbd1b9b01	-0.03798962
73	0xbd6867de	-0.05673968
74	0x3d791b3f	0.060817
75	0x3d6bec61	0.057598475
76	0x3d014e58	0.031568855
77	0x3c539d06	0.012915855
78	0xbdc527c5	-0.09626726
79	0x3d6472af	0.055773433
80	0xbd90055e	-0.07032274
81	0x3d1e29d0	0.038614094
82	0xbdf4f53a	-0.11960836
83	0xbd8e39f5	-0.06944648
84	0x3c9f47a2	0.019443337
85	0xbd65ffee	-0.056152277
86	0xb9f66b4e	-0.00047000725
87	0xbd8f8f18	-0.07009715
88	0x3cdbf20a	0.026848812
89	0xbdad88c8	-0.084733546
90	0xbd03d33b	-0.032183867
91	0x3d62bd72	0.05535645
92	0x3d5baffc	0.05363463
93	0x3dbafa18	0.09129733
94	0x3d455560	0.048177123
95	0xbc4b8746	-0.012422388
96	0xbaad86a4	-0.0013238979
97	0x3d580638	0.052740306
98	0x3deb4faf	0.11489808
99	0xbda35b04	-0.07976344
100	0x3d488f64	0.048964873
101	0x3c876f1a	0.01653247
102	0x3d809e80	0.062802315
103	0xbdd44567	-0.103648
104	0xbc9d0cbb	-0.01917111
105	0xbda4c360	-0.08045077
106	0xbd2f9eae	-0.042875938
107	0xbdbd6ed6	-0.09249656
108	0xbdd69c43	-0.10479023
109	0x3d29d456	0.041462265
110	0x3d524c32	0.051342197
111	0xbcd3fd94	-0.025877751
112	0xbc84f5dc	-0.016230516
113	0xbd4d2abe	-0.05008959
114	0x3d6df8ac	0.05809848
115	0x3cf7b2d6	0.030236643
116	0x3bca1ad9	0.0061677513
117	0xbd9f0703	-0.07765009
118	0x3ab9276a	0.0014126126
119	0xbdc24145	-0.094851054
120	0x3d2fd901	0.04293156
121	0xbc0bb742	-0.008527579
122	0x3cf97edc	0.030456
123	0x3d179d29	0.037015114
124	0xbc1c4a03	-0.00953913
125	0x3cb1cb30	0.021703333
126	0x3cf11f64	0.029433914
127	0x3d40061b	0.046880823
128	0xbdc93703	-0.09824946
129	0x3d069b14	0.032862738
130	0x3d4af9e2	0.049554713
131	0x3d8a67f9	0.067581125
132	0x3d9d45ae	0.07679306
133	0xbda72013	-0.081604145
134	0x3c84bb55	0.016202608
135	0x3da6e913	0.08149924
136	0x3d9f835e	0.07788728
137	0xbd8e8c3e	-0.06960343
138	0xbd838118	-0.06421107
139	0x3c32ecd7	0.010920725
140	0xbc6f9082	-0.014621856
141	0xbcdc253a	-0.02687322
142	0x3dc6ea4b	0.097126566
143	0xbd342729	-0.04398266
144	0xbdbad2ed	-0.09122262
145	0xbd888616	-0.066662
146	0xbca75ff1	-0.02043149
147	0xbdd3651f	-0.10322022
148	0x3d4adfdc	0.049529895
149	0xbd87dd51	-0.0663401
150	0x3dbaa8de	0.0911424
151	0xbdc6358b	-0.09678181
152	0xbdbc8af1	-0.092061885
153	0x3d8dacfa	0.06917758
154	0x3c3c8290	0.011505738
155	0x3dbf3ad9	0.09337396
156	0xbdb7066e	-0.08936773
157	0xbd88f191	-0.066867
158	0x3d44d4c6	0.04805448
159	0xbd8b04d1	-0.06788028
160	0x3dd01a1d	0.10161231
161	0xbd11cb7b	-0.035594445
162	0x3da7c724	0.0819228
163	0x3d1962aa	0.03744761
164	0x3d621130	0.055192173
165	0xbd10eb1d	-0.03538047
166	0x3dbe32aa	0.09287007
167	0xbd6075c0	-0.054799795
168	0xbc8e6afc	-0.017384999
169	0xbdaa4163	-0.08313253
170	0x3a80795f	0.0009801796
171	0xbbd173d1	-0.00639198
172	0xbdbd31bc	-0.09238002
173	0xbaa0e828	-0.0012276219
174	0x3d913363	0.07089879
175	0xbd5fca2f	-0.054636177
176	0x3d6b5292	0.057451792
177	0xbb9b7af1	-0.0047448804
178	0xbc9c3b73	-0.019071316
179	0x3d187e17	0.037229624
180	0x3cf528e2	0.029926721
181	0xbd3dcb50	-0.046336472
182	0x3d8c9552	0.06864418
183	0xbd06b75d	-0.032889713
184	0xbcf92474	-0.03041289
185	0x3da99cd6	0.08281867
186	0xbda5787e	-0.08079623
187	0xbdab6a7a	-0.08369918
188	0x3dd48063	0.1037605
189	0x3a108505	0.00055129855
190	0x3d2dbae7	0.042414572
191	0x3d9c6b2d	0.0763763
192	0xbdc61860	-0.09672618
193	0x3c184d54	0.00929578
194	0x3d260a97	0.040537443
195	0xb9f82431	-0.0004732921
196	0xbda2672a	-0.07929833
197	0xbb334a3b	-0.0027357477
198	0x3d624bd8	0.05524811
199	0xbd718d3d	-0.058972586
200	0xbdd6fe6d	-0.104977466
201	0x3c001f20	0.007819921
202	0xbd3d2865	-0.0461811
203	0x3db21638	0.08695644
204	0xbd2e6824	-0.042579785
205	0x3b85c3ce	0.0040821796
206	0xbdf2447d	-0.11829469
207	0xbd7fe6f9	-0.062476132
208	0x3d860ec9	0.06545789
209	0xbd4c9d07	-0.04995444
210	0xbdc373d2	-0.09543575
211	0x3d1285c6	0.035772108
212	0xbdaaca2e	-0.08339344
213	0x3b3a2216	0.0028401664
214	0xbce26607	-0.027636541
215	0xbca02755	-0.019550005
216	0xbbcf2bd0	-0.0063223615
217	0xbccc2d21	-0.024923863
218	0xbd8f3e1f	-0.069942705
219	0xbd955781	-0.07292081
220	0x3c813b3e	0.01577532
221	0xbd07048d	-0.032963324
222	0xbd3fdeae	-0.046843223
223	0x3d4a2bfe	0.04935836
224	0x3d611402	0.05495072
225	0xbdb08978	-0.0861997
226	0xbd1199f2	-0.035547204
227	0x3db0df4e	0.08636342
228	0xbd0ef79b	-0.034904104
229	0xbcc1ca53	-0.023656046
230	0x3d3e6736	0.04648515
231	0xbd5742c3	-0.052553903
232	0x3c1e9bc7	0.009680695
233	0xbd0b1f6c	-0.033965513
234	0x3d7b0434	0.061283305
235	0x3d4c23b9	0.049838755
236	0xbd26da08	-0.040735275
237	0xbd6a4649	-0.057195935
238	0xbcebdd97	-0.028792186
239	0x3c274992	0.010210412
240	0x3dab2d16	0.08358209
241	0xbdc75401	-0.09732819
242	0x3c14f604	0.009091858
243	0x3db7a76b	0.08967479
244	0xbdc5782c	-0.096420616
245	0xbdce4ccb	-0.10073241
246	0x3da43324	0.08017567
247	0x3d022510	0.031773627
248	0xbd1cc8ed	-0.038277555
249	0x3d2abaa4	0.0416819
250	0xbd7990d3	-0.06092913
251	0xbda72d03	-0.08162882
252	0xbc7eb656	-0.015546402
253	0xbdd0472b	-0.10169824
254	0x3dca910b	0.09890946
255	0x3d2cc292	0.042177744

conv1.bias f4 [20]
0	0x3d83f2a9	0.06442768
1	0x3c8489c9	0.016178982
2	0x3c37af30	0.011211202
3	0x3d2f02bd	0.04272722
4	0xbc99db11	-0.018781217
5	0xbd8b72e7	-0.06809025
6	0x3dd7e600	0.10541916
7	0xbd34c714	-0.04413517
8	0x3cd5e0eb	0.026108226
9	0x3da664d2	0.08124699
10	0xbd83a9ec	-0.064288944
11	0x3d6ec4e8	0.058293253
12	0xbcbdc607	-0.023165716
13	0x3deae935	0.11470262
14	0x3b911e39	0.0044286516
15	0x3d89c834	0.06727639
16	0xbd9a14c0	-0.07523489
17	0x3d9d43c9	0.076789446
18	0xbc246311	-0.010033385
19	0xbc8dbfaa	-0.017303307

conv2.weight f4 [40, 20, 3, 3]
0	0x3d41c60e	0.04730802
1	0xbdb7da95	-0.08977238
2	0xbd9c5c2a	-0.076347664
3	0xbd9562f9	-0.07294268
4	0x3b9a0b7b	0.0047010756
5	0xbdb7f4b1	-0.08982218
6	0xbd696377	-0.056979623
7	0xbc053ea5	-0.008132611
8	0xbdc4800a	-0.09594734
9	0x3d0b00ec	0.033936426
10	0x3d5ca8d4	0.053871945
11	0x3d5a9172	0.053361364
12	0x3ce102be	0.027467128
13	0xbd62dcc8	-0.055386335
14	0xbcb17cd5	-0.02166597
15	0xbcea69c8	-0.028614894
16	0x3d843bf6	0.06456749
17	0xbd3e7aaf	-0.04650372
18	0xbd874f9e	-0.06606983
19	0x3d119e80	0.035551548
20	0xbd14e92a	-0.036355175
21	0xbc0e2a08	-0.008677013
22	0x3cbcb8b5	0.023037294
23	0x3cef435b	0.029206922
24	0xbd1cdf51	-0.03829891
25	0x3d249963	0.040185343
26	0x3c95f79f	0.018306552
27	0xbc40682a	-0.011743585
28	0xbc05d2e5	-0.008167957
29	0xb8c83116	-9.545886e-05
30	0x3b8ce421	0.004299656
31	0xbd25ec8d	-0.040508796
32	0x3d7a20cb	0.06106643
33	0x399a47d2	0.0002942668
34	0x3d17ddc3	0.037076723
35	0xbd0883cf	-0.033328827
36	0x3d1d49d1	0.038400475
37	0xbcf00620	-0.029299796
38	0xbd4708d3	-0.0485924
39	0xbd895781	-0.06706143
40	0x3cf8e75e	0.030383762
41	0x3b9b7c2c	0.004745027
42	0x3d6fe7b9	0.058570597
43	0x3c962391	0.018327506
44	0x3c64b696	0.0139595475
45	0x3d584b80	0.052806377
46	0xbd2160ae	-0.03939884
47	0x3d36bcb4	0.044613555
48	0x3d2287aa	0.03968016
49	0x3d071afd	0.032984722
50	0x3d030e62	0.03199614
51	0xbcb00a89	-0.021489399
52	0xbd1a8d8e	-0.037732653
53	0xbd6c8067	-0.05773964
54	0xbd80ff68	-0.06298715
55	0xbd344503	-0.044011127
56	0xbd999da6	-0.07500772
57	0xbd7820cf	-0.060578164
58	0xbd11ab35	-0.035563666
59	0xbbfc50da	-0.007700068
60	0xb9df5c05	-0.00042602434
61	0x3adbbab1	0.0016764012
62	0x3d30b71f	0.043143388
63	0xbd27abd3	-0.04093535
64	0x3d4131a3	0.047166478
65	0xbc9dfa93	-0.019284522
66	0x3c196f44	0.009364907
67	0x3d358e55	0.04432519
68	0x3c8b4c17	0.017004056
69	0xbc74f1bf	-0.014950215
70	0x3c0c6aec	0.008570414
71	0x3d7d7624	0.061880246
72	0xbd7dfce1	-0.062008742
73	0x3d383f50	0.044982255
74	0x3d8c4755	0.06849543
75	0x3d67ad24	0.056561604
76	0xbd517bf1	-0.05114359
77	0xbcfdfd6a	-0.031004626
78	0x3d223de2	0.039609797
79	0xbd874144	-0.06604245
80	0x3ccd71b7	0.025078638
81	0xbd85cc03	-0.06533053
82	0xbc666206	-0.014061457
83	0x3cce4855	0.025180975
84	0xbc990b71	-0.018682214
85	0x3d2b791b	0.041863542
86	0xbc1c3bea	-0.009535769
87	0x3d87fd74	0.06640139
88	0x3d910500	0.07081032
89	0x3c65b850	0.014020994
90	0x3d088443	0.03332926
91	0xbcc76797	-0.024341388
92	0xbcc49fde	-0.024002012
93	0x3d4ba11a	0.049714185
94	0x3d6e0cd2	0.058117695
95	0x3d6634e1	0.056202773
96	0xbd1ba2a7	-0.037996914
97	0x3d83f353	0.06442895
98	0x3d729cba	0.059231497
99	0x3d14b79e	0.036307923
100	0xbd389701	-0.045065884
101	0x3d84efef	0.06491076
102	0xb824870a	-3.9226412e-05
103	0x3d9adc86	0.07561593
104	0xbd05189c	-0.032494172
105	0x3d3d9cbb	0.046292048
106	0x3d7c9c3d	0.061672438
107	0x3da1be26	0.07897596
108	0x3c8b6e3d	0.01702034
109	0x3d5c7dc9	0.053830896
110	0x3dc1d11c	0.094637126
111	0xba79b1ba	-0.00095250795
112	0x3dd4e81d	0.103958346
113	0x3d3a0803	0.045417797
114	0x3b3eedce	0.0029133442
115	0x3bc9c0ac	0.0061570015
116	0xbd07981a	-0.03310404
117	0xbdc694dc	-0.096963614
118	0x3baf6008	0.005352024
119	0xbcd59694	-0.026072778
120	0xbd6fc832	-0.05854053
121	0xbd249d22	-0.040188916
122	0xbd5054ca	-0.05086211
123	0xbbedcee3	-0.007257329
124	0xbce6868f	-0.028140334
125	0xbd3741dc	-0.044740543
126	0x3cf18f1c	0.029487185
127	0xbcb6b80d	-0.02230456
128	0x3d35effc	0.04441832
129	0x3dab0133	0.08349838
130	0x3d66a19c	0.056306466
131	0x3d880948	0.06642395
132	0x3cec25c8	0.02882661
133	0xbb4ddf1a	-0.0031413496
134	0x3b771603	0.003770233
135	0xbd15b721	-0.0365516
136	0x3b96fc30	0.0046077
137	0x3aae9d80	0.0013322085
138	0x3cc848b6	0.024448734
139	0xbd9fc717	-0.07801645
140	0x3d2dd38a	0.042438067
141	0x3d2ce2a6	0.042208336
142	0xbb24c70d	-0.0025143058
143	0x3d6d96f4	0.05800529
144	0x3d1b8eb4	0.03797789
145	0xbd5d8b57	-0.054087963
146	0xbca7aaf7	-0.020467265
147	0xbcfa189c	-0.030529313
148	0xbbdd008c	-0.00674445
149	0xbd973879	-0.07383818
150	0x3cab66e7	0.020923091
151	0xbc14b243	-0.009075704
152	0x3d8dcfac	0.06924376
153	0xb8d35293	-0.00010076645
154	0xbccc0fa4	-0.024909802
155	0xbd9a6790	-0.07539284
156	0xbd112682	-0.035437115
157	0xbd19505c	-0.037430152
158	0xbd8aba4a	-0.06773813
159	0x3cb7938b	0.022409221
160	0xbd609216	-0.05482682
161	0xbd987d45	-0.07445768
162	0x3bb3c0f5	0.0054856488
163	0xbcc83387	-0.024438633
164	0x3d87564c	0.06608257
165	0xbc6419fc	-0.013922211
166	0x3b8046b3	0.003914678
167	0x3b2864df	0.002569489
168	0x3daf075c	0.085463256
169	0x3d19541e	0.037433736
170	0xbbdd6c1a	-0.0067572715
171	0xbd397965	-0.045281786
172	0x3997f933	0.00028986632
173	0x3d54b089	0.05192617
174	0xbd4f7cd8	-0.05065617
175	0x3b81e72d	0.003964326
176	0x3d8aa504	0.067697555
177	0x3d352b06	0.044230483
178	0xbcbf9772	-0.023387644
179	0x3c949eb3	0.01814208
180	0xbd001c6e	-0.031277113
181	0x3ccac598	0.024752423
182	0xbd62845f	-0.05530202
183	0x3b6f503d	0.0036516332
184	0x3d326e61	0.043562297
185	0x3c826ff8	0.015922531
186	0x3bad86ff	0.005295634
187	0xbd67cd49	-0.05659226
188	0x3c10837c	0.008820411
189	0x3d83336f	0.064062946
190	0x3d21824c	0.0394309
191	0x3d40978a	0.04701952
192	0x3d6e11bd	0.058122385
193	0xbd7ddd6b	-0.06197874
194	0xbcc555e2	-0.024088804
195	0xbd73b176	-0.05949541
196	0x3d738232	0.059450336
197	0x3b5b7214	0.0033484744
198	0x3d67fbaa	0.05663649
199	0x3ccc4295	0.024934093
200	0x3d5f65e1	0.05454052
201	0xbd374a01	-0.04474831
202	0xbccabf5e	-0.024749454
203	0xbd05079d	-0.032477964
204	0x3d81fc43	0.06346943
205	0xbd582fec	-0.052780077
206	0xbb1589a2	-0.0022817631
207	0x3d87a1f0	0.06622684
208	0x3d3972f0	0.04527563
209	0xbd45d624	-0.048299924
210	0xbd0f4702	-0.034979828
211	0x3c054f35	0.00813656
212	0xbcc87c01	-0.024473192
213	0x3c849fc0	0.016189456
214	0xbbf104a5	-0.00735529
215	0x3d843d50	0.06457007
216	0xbd44b6ef	-0.04802602
217	0x3be65294	0.007028887
218	0xbd159934	-0.03652306
219	0x3d810434	0.0629963
220	0x3c81a917	0.015827699
221	0xbc4259a2	-0.01186219
222	0x3d176b19	0.03696737
223	0x3d3afd04	0.04565145
224	0x3d0170e1	0.03160179
225	0xbd883240	-0.066502094
226	0x3d5d3e26	0.054014347
227	0xbd14fab1	-0.03637189
228	0x3d54a8a0	0.051918626
229	0x3d6b08f0	0.05738157
230	0xbd2db08a	-0.04240469
231	0x3a5cd5c3	0.0008424187
232	0xbd872fb8	-0.066008985
233	0xbc0f9427	-0.00876335
234	0xbd3963be	-0.045261137
235	0xbbac7133	-0.005262518
236	0x3d8d2aea	0.06892951
237	0x3c6776c2	0.014127435
238	0x3d32921c	0.043596372
239	0x3cc6e315	0.024278203
240	0xbcc4f177	-0.02404092
241	0xbd0e3c43	-0.03472544
242	0x3d2560ff	0.040375706
243	0xbd7052de	-0.05867278
244	0x3d80874f	0.06275808
245	0x3d56b0cd	0.052414704
246	0x3c6e80d8	0.014557086
247	0x3c14efcb	0.009090374
248	0x3d61f889	0.055168662
249	0x3b4982fc	0.0030748239
250	0x3cddb838	0.027065381
251	0xbd2dbd2a	-0.04241673
252	0x3cb877b0	0.022518009
253	0xbd38674f	-0.045020398
254	0x3cff8878	0.031193003
255	0xbd2ebddd	-0.042661536

conv2.bias f4 [40]
0	0x3bc30afd	0.0059522376
1	0xbc065356	-0.00819858
2	0xbd460e5f	-0.04835355
3	0x3d284396	0.04108008
4	0x3d8788bb	0.06617876
5	0xbc65d6af	-0.014028235
6	0xbd901eb3	-0.070371054
7	0xbc8ae25f	-0.016953645
8	0xbd3adf7f	-0.0456233
9	0xbd84b453	-0.064797066
10	0xbd003162	-0.031297095
11	0x3d3a8fcc	0.04554729
12	0x3d66bf62	0.05633486
13	0x3d8b854a	0.06812532
14	0xbd039532	-0.032124706
15	0x3d8d48e5	0.06898669
16	0x3c691d90	0.01422824
17	0xbcdcb74b	-0.02694287
18	0xbd141002	-0.03614808
19	0x3b5a7f7b	0.0033340144
20	0xbd656c0a	-0.056011237
21	0xbc846d7f	-0.016165493
22	0x3d8d30e2	0.06894089
23	0xbcebebd3	-0.028798973
24	0xbd509795	-0.05092581
25	0xbd5f63ed	-0.054538656
26	0x3cc4ca00	0.024022102
27	0xbd791020	-0.060806394
28	0xbd4effaa	-0.05053679
29	0x39bcc021	0.00036001301
30	0xbc9427ed	-0.018085444
31	0xbd3edc87	-0.04659703
32	0x3d8ed1bd	0.06973598
33	0x3b900982	0.0043956647
34	0xbd246414	-0.040134504
35	0xbd940ab3	-0.07228603
36	0x3d5a4985	0.05329277
37	0x3d228ab6	0.039683066
38	0x3ce07200	0.02739811
39	0x3cde3422	0.027124468

fc1.weight f4 [1, 6760]
0	0x3cab0ad0	0.02087918
1	0x3acea969	0.0015767041
2	0x3c9905d5	0.018679539
3	0x3ce07b5f	0.027402578
4	0x3d201783	0.039084923
5	0x3d0102d2	0.03149683
6	0x3d0f2482	0.034946926
7	0x3d0d54bd	0.03450464
8	0x3d110682	0.035406597
9	0x3d03fc6c	0.03222315
10	0x3cf35d3f	0.02970755
11	0x3ca83f44	0.02053798
12	0x3cf50eb0	0.02991423
13	0x3c4004a4	0.011719856
14	0x3ca61159	0.020271944
15	0x3cb29aa2	0.02180225
16	0x3ca9a9cd	0.02071085
17	0x3d0fa9d5	0.035074074
18	0x3d21df6f	0.039519724
19	0x3cf02abb	0.02931725
20	0x3cdc9a2a	0.02692898
21	0x3cf43028	0.029808119
22	0x3c9d37af	0.019191591
23	0x3c214014	0.009841938
24	0x3c688a42	0.0141931195
25	0x3cb4109d	0.021980578
26	0x3c8c55eb	0.017130813
27	0x3cac6d93	0.021048343
28	0x3cea34df	0.028589664
29	0x3cef1de6	0.029189061
30	0x3c85efe5	0.016349742
31	0x3d03408e	0.032043986
32	0x3cbc994b	0.023022315
33	0x3d039cfa	0.032132126
34	0x3cc59b19	0.024121808
35	0x3d0cb163	0.034348857
36	0x3cc73816	0.024318736
37	0x3c8bd994	0.017071523
38	0x3cb61803	0.022228247
39	0x3c3d0f05	0.0115392255
40	0x3c6258ef	0.013815149
41	0x3bf165c9	0.00736687
42	0x3cb7c211	0.022431405
43	0x3caba914	0.020954646
44	0x3caba37e	0.020951983
45	0x3cfdb520	0.030970156
46	0x3cceb170	0.025231093
47	0x3cdbc0d3	0.026825344
48	0x3cf26bf5	0.029592494
49	0x3cdd8c67	0.027044488
50	0x3c93c2d5	0.01803724
51	0x3c0d2104	0.008613829
52	0x3c846b8d	0.016164565
53	0x3b75a79b	0.0037483934
54	0x3c4c06b9	0.012452775
55	0x3cd6a4b2	0.02620158
56	0x3c9975a2	0.01873285
57	0x3d09a75c	0.033606872
58	0x3d1fb1a2	0.038987763
59	0x3cf8bd5e	0.030363735
60	0x3cfa7b07	0.030576242
61	0x3cbca908	0.02302982
62	0x3cdcf6ad	0.026973093
63	0x3d19f84b	0.037590306
64	0x3c6e06a7	0.014527953
65	0x3cd0f1e5	0.02550597
66	0x3c17f964	0.009275768
67	0x3b85f9db	0.004088623
68	0x3ca71b60	0.020398796
69	0x3cf729c2	0.030171279
70	0x3cf4402f	0.029815761
71	0x3d1b4e2a	0.03791634
72	0x3cd158bd	0.025555009
73	0x3ca78a52	0.020451698
74	0x3cce59d3	0.025189316
75	0x3c6b7e01	0.014373303
76	0x3cf7280d	0.030170465
77	0x3cd11948	0.02552475
78	0x3c8339fa	0.016018856
79	0x3c05ddf6	0.008170595
80	0x3c6d6b70	0.014490947
81	0x3c5043fc	0.012711521
82	0x3c54c1da	0.012985671
83	0x3c1ad6b0	0.0094506
84	0x3cbd34a3	0.023096388
85	0x3c830cf6	0.015997391
86	0x3cb3a667	0.021929933
87	0x3ce59077	0.028022988
88	0x3cb1a385	0.021684418
89	0x3d15b54f	0.036549862
90	0x3d22db5a	0.03975997
91	0x3c95f170	0.018303603
92	0x3bc97ecf	0.00614915
93	0x3c936bb1	0.017995687
94	0x3c475c9c	0.012168076
95	0x3c6f59d8	0.014608823
96	0x3c53542c	0.012898486
97	0x3b384c4a	0.0028121644
98	0x3c90423c	0.017609708
99	0x3bd355a3	0.0064494177
100	0x3cb0e033	0.021591282
101	0x3c940056	0.018066566
102	0x3c9b08d6	0.018925112
103	0x3c92720a	0.017876644
104	0x3c867c96	0.01641683
105	0xbb3aa0f7	-0.002847729
106	0xb9e8e186	-0.00044418516
107	0x3b19c19a	0.0023461343
108	0x3b22d3fc	0.002484559
109	0x3cc18c2f	0.023626415
110	0x3c79c41a	0.015244508
111	0x3c797ae2	0.015227051
112	0x3af22c9c	0.0018476429
113	0x3c29fe0c	0.010375511
114	0x3c90b790	0.017665654
115	0x3ce7582c	0.028240286
116	0x3c7a92f5	0.015293826
117	0x3bec247c	0.0072064977
118	0x3c61957d	0.013768551
119	0x3c461428	0.012089767
120	0xbb46f099	-0.003035581
121	0x3c3ce9dc	0.011530366
122	0x3cc48514	0.023989238
123	0x3c959735	0.018260578
124	0x3c06f80f	0.008237853
125	0x3c171045	0.009220188
126	0x3ba4911c	0.005022181
127	0x3be17e93	0.006881544
128	0x3be4fcbf	0.0069881375
129	0x3be7b053	0.00707058
130	0x3c28a88f	0.010294094
131	0x3c22dc11	0.009940163
132	0x3bb33df3	0.0054700314
133	0xbbacf81b	-0.0052786
134	0x3c06fd38	0.008239083
135	0x3ca035de	0.019556936
136	0xbaa5d94f	-0.0012653264
137	0x3c4d9579	0.012547844
138	0x3988215b	0.00025964793
139	0xbba1ebe5	-0.004941451
140	0x3b668e08	0.0035179872
141	0x3c9bb658	0.019007847
142	0x3c64f0cc	0.013973426
143	0x3c766fc8	0.015041299
144	0x3cca3ddb	0.024687698
145	0x3c75070e	0.014955295
146	0x3c78d426	0.015187299
147	0x3c74fc7c	0.014952775
148	0x39fea6db	0.00048570972
149	0xba1a6f12	-0.00058911846
150	0x3bedb5e6	0.00725435
151	0x3c6210b4	0.013797928
152	0x3c895a5c	0.01676672
153	0x3c462e61	0.0120960185
154	0x3cd5d9a7	0.026104761
155	0x3c26471f	0.0101487925
156	0x3c67b9ed	0.014143449
157	0x3cb8268c	0.022479318
158	0x3c765cbb	0.015036757
159	0x3cb87490	0.022516519
160	0x3c7526a7	0.014962829
161	0x3bd28c9b	0.006425453
162	0xbbd36c7c	-0.0064521413
163	0x3bb38f83	0.0054797544
164	0x3cad8234	0.02118025
165	0x3c683b84	0.014174346
166	0x3c42882d	0.011873287
167	0x3c8d0346	0.017213475
168	0x3c39a1e9	0.011330106
169	0x3c0cda17	0.008596919
170	0xbbafcfc9	-0.005365346
171	0xba9bb77a	-0.0011880242
172	0xbc0f6476	-0.008751979
173	0xbb749daf	-0.0037325432
174	0xbaf3b2ba	-0.0018592693
175	0xbbc3ed53	-0.005979219
176	0x3b89d3bf	0.0042061503
177	0xbb44a782	-0.003000707
178	0x3b865b76	0.0041002585
179	0xbc2d8b58	-0.010592304
180	0x3b48d212	0.003064279
181	0xbc16147d	-0.009160158
182	0x3a4b29d6	0.00077500695
183	0x3bbde545	0.0057951533
184	0x3ac3e491	0.0014945437
185	0xbb997abd	-0.004683821
186	0xbc18ba92	-0.009321826
187	0xbc350d0c	-0.011050474
188	0x3b32c139	0.0027275814
189	0x3a8cef0f	0.0010752397
190	0xbc1f9c96	-0.009741923
191	0x3bfc045a	0.0076909484
192	0x3c3ec906	0.011644607
193	0x3bf3cb04	0.007439973
194	0xbc3aa05f	-0.0113907745
195	0xbbf8ea4d	-0.00759629
196	0xbc094e2a	-0.008380452
197	0x3b91dc42	0.0044513056
198	0xbc0caeae	-0.008586569
199	0xbc193db4	-0.00935309
200	0xbb6a38eb	-0.0035739492
201	0xb757a49c	-1.2853325e-05
202	0x3a833a62	0.0010011906
203	0xba014abc	-0.0004932096
204	0x3c1a0936	0.00940161
205	0xbbb7fddf	-0.0056149806
206	0xb7e5fb94	-2.7416078e-05
207	0x3b17efa0	0.00231836
208	0xbae35c7e	-0.001734629
209	0x3bf1e137	0.007381584
210	0x3a9f7933	0.0012166857
211	0xbb0b2d9a	-0.0021236897
212	0xbc0655a0	-0.0081991255
213	0x3b208dd3	0.0024498596
214	0xbc3f7399	-0.0116852755
215	0xbc20ac3e	-0.009806691
216	0xbc332a71	-0.010935412
217	0x3a705d0f	0.000916914
218	0x3b265d88	0.0025385339
219	0x3bd1c844	0.0064020474
220	0x3c27475a	0.010209883
221	0x3bd6e551	0.0065580984
222	0xbb6bc7d4	-0.003597726
223	0x3bbc6edb	0.0057505197
224	0xbb9c46e3	-0.0047691925
225	0x3bfa6d6d	0.007642439
226	0x3bc3ae74	0.005971724
227	0xbb9ce660	-0.004788205
228	0x3ab717d0	0.0013968889
229	0xbb9a1d54	-0.004703203
230	0x3b993d2c	0.0046764817
231	0xbbd80c01	-0.006593228
232	0xbb8dde4f	-0.0043294798
233	0x3bbf1888	0.005831782
234	0xbbd80836	-0.0065927757
235	0xbc1583d5	-0.0091256695
236	0x3bba8cec	0.0056930687
237	0x3c2c645f	0.010521977
238	0x3b6a6f11	0.0035771767
239	0xbc0fc745	-0.008775537
240	0x3c1f7603	0.009732726
241	0x3ac64c0b	0.0015128864
242	0x3b7fee16	0.0039051822
243	0x39d71e56	0.00041030598
244	0x3c3f585d	0.011678782
245	0xbbea1f19	-0.0071448204
246	0x3b6d96cf	0.003625322
247	0xbb45074d	-0.0030064166
248	0xbc35ac95	-0.01108851
249	0x3aa03673	0.0012223258
250	0xbbf1461e	-0.007363095
251	0xbc16dc98	-0.009207867
252	0x3b0794fd	0.002068817
253	0x3c06e8ea	0.008234242
254	0x3a2d3959	0.0006607972
255	0xbaf429d3	-0.0018628187
