ConvLSTM/Sequence/0.82_116_A_S.pt (torch, 84929 bytes, 7 tensors)

conv_lstm.conv.weight f4 [40, 13, 3, 3]
0	0x3d1bc985	0.03803398
1	0xbd9b4b9f	-0.07582783
2	0x3b991904	0.0046721715
3	0x3cd4764d	0.025935316
4	0xbd92e660	-0.07172847
5	0xbc568da7	-0.013095296
6	0xbd9a1f8a	-0.07525547
7	0xbcead507	-0.028666032
8	0x3db4d0c6	0.08828883
9	0xbb4222b7	-0.0029622742
10	0xbd6fe025	-0.05856337
11	0xbcf14c5d	-0.029455358
12	0x3d4b3529	0.049611244
13	0x3c1c957f	0.009557127
14	0x3c9657a3	0.018352335
15	0xbd1d61df	-0.038423415
16	0x3c6c777a	0.014432782
17	0x3d86ba5f	0.06578516
18	0xbd583060	-0.05278051
19	0x3d75e1b9	0.06002972
20	0x3d489451	0.04896957
21	0xbd669d1e	-0.056302182
22	0x3cb5e7c9	0.02220525
23	0x3d5780a7	0.052612927
24	0xbdac515a	-0.08413954
25	0xbba41559	-0.0050074277
26	0xbd2c7ac8	-0.04210928
27	0xbdc1504b	-0.09439143
28	0xbd8809cd	-0.06642494
29	0x3d3c4dd9	0.04597268
30	0xbb0f823b	-0.0021897692
31	0x3d96b9eb	0.0735968
32	0xbd56a40c	-0.05240254
33	0x3d8774fe	0.06614111
34	0x3d0aa615	0.033849794
35	0x3d9a4053	0.075318
36	0x3cd1209c	0.025528245
37	0x3cbfe458	0.023424312
38	0x3cdef11b	0.027214577
39	0xbdc2af9f	-0.09506153
40	0xbd8c0b95	-0.068381466
41	0x3d89b543	0.06724026
42	0xbbd0c3ca	-0.006370996
43	0xbda24ee8	-0.079252064
44	0x3d64c070	0.055847585
45	0x3d973dc8	0.07384831
46	0x3c7cda67	0.015432931
47	0xbd646d49	-0.055768285
48	0x3d576987	0.052590873
49	0xbd477a4d	-0.04870062
50	0xbc0ceeec	-0.008601885
51	0x3cd0982f	0.025463192
52	0xbd0e5e43	-0.034757864
53	0xbd4e49bc	-0.050363287
54	0x3de6b849	0.11265618
55	0xbc4eae6e	-0.0126148295
56	0xbc6bbf76	-0.01438891
57	0x3d80e914	0.06294456
58	0x3d6cca6e	0.05781024
59	0x3dd21368	0.10257608
60	0x3da0c65e	0.078503355
61	0xbd8f4349	-0.069952555
62	0x3b94c3d5	0.0045399466
63	0x3daada83	0.08342459
64	0xbd80be30	-0.062862754
65	0x3da50654	0.080578476
66	0xbd2756b5	-0.040854175
67	0xbd0dd692	-0.03462846
68	0x3d06ca1a	0.032907583
69	0x3dae481c	0.085098475
70	0x3d83884e	0.064224824
71	0x3d974cb2	0.07387675
72	0x3da2a59f	0.07941746
73	0x3da4da6c	0.08049473
74	0x3d285630	0.04109782
75	0x3d704302	0.058657654
76	0x3da7af35	0.08187715
77	0xbd1268f8	-0.035744637
78	0x3d3a1221	0.045427445
79	0xbd379a9c	-0.04482518
80	0x3d7bda18	0.061487287
81	0xbdafc566	-0.08582573
82	0xbd8fbf59	-0.070189185
83	0x3d83eceb	0.06441673
84	0xbd2d2b6d	-0.042277742
85	0x3cba37a9	0.022731619
86	0xbc98c22b	-0.018647274
87	0x3c948097	0.018127723
88	0x3d868147	0.065676264
89	0x3bae43ba	0.005318132
90	0xbd991736	-0.0747513
91	0xbd6ef8ba	-0.058342673
92	0xbbd31864	-0.0064421166
93	0xbdb7c75d	-0.089735724
94	0xbd7feab4	-0.06247969
95	0xbdc2aa8a	-0.09505184
96	0x3d0803ca	0.03320674
97	0xbda97d85	-0.08275894
98	0x3d335fbb	0.043792468
99	0xbc37c423	-0.011216196
100	0xbd20e5b9	-0.03928158
101	0x3d0e47e7	0.03473654
102	0x3d34f57d	0.04417943
103	0xbd0c9acb	-0.03432731
104	0xbd290599	-0.041265104
105	0xbd09bc5a	-0.03362689
106	0xbd8ed586	-0.0697432
107	0x3bf72472	0.0075421864
108	0x3d7c9ce8	0.061673075
109	0x3d3e4a4d	0.046457577
110	0x3d89e8cc	0.067338556
111	0xbd4f1c97	-0.050564375
112	0xbcab8784	-0.020938642
113	0xbdb026c2	-0.086011425
114	0xbc9e4471	-0.019319745
115	0xbca7bbaf	-0.020475237
116	0xbdb0c1a1	-0.08630682
117	0xbd308525	-0.043095727
118	0x3daa1bd0	0.08306086
119	0x3c9a92cb	0.018868824
120	0xbc4e1f4d	-0.012580705
121	0x3d906d18	0.07052058
122	0x3d96c3cd	0.07361565
123	0xbb5f350c	-0.0034058718
124	0xbcb93861	-0.022609891
125	0x3bd8b6eb	0.0066136024
126	0x3ccdcfdc	0.02512353
127	0x3b5fce7d	0.0034150176
128	0x3cec86a7	0.028872801
129	0x3dc952d6	0.09830253
130	0x3d9da2d3	0.07697072
131	0x3d0115cb	0.031514924
132	0x3d50dbfc	0.050991043
133	0x3dce5483	0.10074713
134	0xbcd09851	-0.025463255
135	0x3d626c3a	0.055278994
136	0xbc09779b	-0.008390333
137	0xbc85a07d	-0.016311878
138	0xbc4f49ba	-0.012651855
139	0xbd4892e8	-0.048968226
140	0xbd6ebece	-0.058287434
141	0x3dc0cd4c	0.09414157
142	0x3d14fdd1	0.03637487
143	0xba024f70	-0.00049709436
144	0x3d8d6290	0.06903565
145	0x3d936daa	0.07198651
146	0x3d8e666d	0.0695313
147	0x3d90fa6f	0.070790164
148	0xbdbe4bce	-0.09291802
149	0xbd2e9221	-0.042619828
150	0xbd8f1965	-0.069872655
151	0xbd8a9996	-0.067675754
152	0xbc9cc7ce	-0.019138243
153	0xbda4ded6	-0.08050315
154	0xbba74b42	-0.005105407
155	0xbd02e234	-0.031954005
156	0x3bcbcea8	0.0062197037
157	0xbdd680b6	-0.104737684
158	0x3d826156	0.063662216
159	0x3d5103ca	0.051029004
160	0xbdba599d	-0.090991236
161	0xbdbfaea4	-0.09359482
162	0xbd19b62a	-0.03752724
163	0x3ccb41d3	0.02481166
164	0xbd80b262	-0.06284024
165	0xbd757062	-0.05992163
166	0x3d3017df	0.042991515
167	0x3d3df02c	0.046371624
168	0xbd99117f	-0.0747404
169	0xbd6cb321	-0.057788018
170	0x3d46977b	0.048484307
171	0x3c2ced15	0.010554572
172	0x3dc607ad	0.09669433
173	0x3d6a9931	0.057275
174	0x3d97a109	0.07403762
175	0x3d9720c1	0.07379294
176	0x3e08666a	0.13320318
177	0xbc1beac8	-0.009516425
178	0x3d1520cc	0.03640823
179	0xbd115e56	-0.035490356
180	0x3b7dbc43	0.003871695
181	0x3ba8e8ec	0.0051547196
182	0xbc833c8e	-0.016020086
183	0xbcdfe807	-0.027332319
184	0x3db03eea	0.0860575
185	0xbc586e2c	-0.013209861
186	0x3c6b43e0	0.014359444
187	0x3cd71565	0.026255319
188	0xbd40db58	-0.047084183
189	0xbd76e0d9	-0.060273025
190	0xbd9b836c	-0.07593426
191	0xbcf61e30	-0.030043691
192	0xbdabcd2e	-0.08388744
193	0x3d803708	0.062604964
194	0xbdcdc4a2	-0.1004727
195	0x3c09d045	0.008411472
196	0xbd426ae4	-0.04746522
197	0xbcec76fd	-0.028865332
198	0xbd5eba21	-0.054376725
199	0xbd2b9313	-0.041888308
200	0xbd4b712b	-0.049668472
201	0x3cd3be47	0.025847567
202	0x3c532d15	0.012889166
203	0xbcde26f8	-0.027118191
204	0xbd94f594	-0.07273403
205	0xbc6a4cf7	-0.014300576
206	0x3c506ed6	0.012721738
207	0xbb92488e	-0.0044642156
208	0xbc892e81	-0.016745808
209	0xbdde98a4	-0.10868958
210	0xbdd5ab24	-0.10433033
211	0xbcb520d5	-0.022110382
212	0xbd793ad2	-0.06084711
213	0xbdcd705f	-0.10031199
214	0xbd71a4f9	-0.05899522
215	0xbda6fd60	-0.08153796
216	0xbda662b1	-0.08124293
217	0xbd1cff90	-0.03832966
218	0x3be4d19e	0.006982996
219	0xbd5bf8a7	-0.05370393
220	0x3bed80fd	0.0072480426
221	0xbc467169	-0.012112
222	0x3d065483	0.03279544
223	0xbd7b95cc	-0.061422154
224	0xbd8b58f8	-0.06804079
225	0x3d2beda9	0.041974697
226	0xbd791898	-0.06081447
227	0x3d61c3df	0.055118438
228	0xbc27f669	-0.01025162
229	0xbdaed6f8	-0.08537096
230	0xbd68f593	-0.056874823
231	0xbcf5379e	-0.029933747
232	0xbce12863	-0.027485078
233	0xbc3369b4	-0.010950495
234	0xbc005e32	-0.007834958
235	0xbd55ac8e	-0.052166514
236	0xbd3283a7	-0.043582585
237	0xbc3d9499	-0.011571073
238	0xba4f22b2	-0.00079015933
239	0xbc9f6344	-0.019456513
240	0xbdb60618	-0.08887881
241	0xbd47041b	-0.0485879
242	0xbd26e1b5	-0.040742595
243	0x3c3f1ee6	0.011665082
244	0x3d827324	0.063696176
245	0xbb879f67	-0.0041388753
246	0xbcb46d3d	-0.022024745
247	0x3d30b0e7	0.043137457
248	0x3d3913bc	0.045184836
249	0x3d539812	0.051658697
250	0x3cb93161	0.022606554
251	0x3d7ffba9	0.06249586
252	0x3d8286d4	0.06373373
253	0xbdaf9dcd	-0.0857502
254	0xbd8897fe	-0.06669615
255	0xbdaced00	-0.08443642

conv_lstm.conv.bias f4 [40]
0	0x3c2395c8	0.009984441
1	0xbd91988f	-0.07109176
2	0xbd56c40f	-0.05243307
3	0xbd353eab	-0.044249218
4	0x3db4ed84	0.08834365
5	0x3c9854bf	0.018595098
6	0x3c464c3e	0.0121031385
7	0x3d169bb2	0.036769576
8	0xbd93e14c	-0.07220706
9	0x3da2994f	0.079393975
10	0xbd3bf2c9	-0.045885835
11	0xbd347dee	-0.04406541
12	0xbd55c403	-0.052188884
13	0x3df9bae6	0.12193851
14	0x3d8e8608	0.06959158
15	0xbd243c7f	-0.040096756
16	0xbd791be3	-0.06081761
17	0xbd21c6c7	-0.03949621
18	0x3d267b10	0.040644705
19	0xbdacc68d	-0.08436308
20	0xbd7e20a3	-0.062042844
21	0x3da63a10	0.08116543
22	0xbcaa24ea	-0.020769555
23	0x3e04e71c	0.12978786
24	0xbd8a096b	-0.067400776
25	0x3d930be6	0.07180004
26	0x3c944968	0.01810141
27	0x3ac5783f	0.0015065743
28	0x3daaae5e	0.08334039
29	0xbcad99bb	-0.021191468
30	0x3b2f625f	0.0026761515
31	0xbd752c22	-0.05985654
32	0xbd3325df	-0.04373729
33	0xbd8fbf27	-0.07018881
34	0xbd495d77	-0.0491614
35	0xbda61a0e	-0.08110438
36	0xbc2090a8	-0.009800114
37	0x3d425944	0.04744841
38	0xbd94e2d4	-0.072698265
39	0xbc178de9	-0.009250143

conv1.weight f4 [20, 10, 3, 3]
0	0xbd9c9879	-0.07646269
1	0xbd83857b	-0.06421944
2	0x3d9115f4	0.07084265
3	0x3d31c600	0.04340172
4	0x3d100ed0	0.035170376
5	0x3db3fb9e	0.087882265
6	0x3db14df8	0.086574495
7	0x3da8486c	0.082169384
8	0xbd9777ac	-0.073958725
9	0xbda02655	-0.07819811
10	0x3b825381	0.0039772396
11	0x3d33277a	0.04373882
12	0x3d886fe6	0.06661968
13	0x3db3e288	0.08783442
14	0xbdc38939	-0.095476575
15	0xbda114b8	-0.0786528
16	0x3dd5e1cc	0.10443458
17	0x3d5c83cc	0.05383663
18	0xbd4641e9	-0.0484027
19	0x3c4f2f9f	0.012645631
20	0x3aadb1d7	0.0013251853
21	0xbd690435	-0.056888778
22	0xbd4c5fd2	-0.04989607
23	0x3ae311d5	0.001732404
24	0xbc8d48e5	-0.017246673
25	0x3d915433	0.07096138
26	0x3c441ce7	0.0119697815
27	0x3cb7ba2a	0.022427637
28	0xbb93c052	-0.0045090104
29	0xbd0ba8df	-0.034096595
30	0xbbb7137c	-0.0055870395
31	0xbca1e75e	-0.019763645
32	0x3d6a13b7	0.057147708
33	0xbdbbe4b5	-0.09174482
34	0x3bf1b13b	0.007375864
35	0x3ca7f726	0.020503592
36	0xbd8aef3b	-0.06783911
37	0x3dd77542	0.10520412
38	0x3d39df48	0.045378953
39	0xbdcceeb9	-0.1000647
40	0x3cca60ea	0.024704415
41	0xbd8955d2	-0.06705822
42	0xbcc9c948	-0.024632111
43	0xbd4691eb	-0.048479002
44	0xbdc46f3a	-0.09591527
45	0xbd9ff665	-0.07810668
46	0xbdbbb174	-0.09164706
47	0xbc072aa5	-0.008249913
48	0x3da463f9	0.08026881
49	0x3cad4861	0.021152677
50	0x3d160cb4	0.03663321
51	0xbdca5fe4	-0.09881571
52	0x3d996f5d	0.07491944
53	0xbd8b70fd	-0.0680866
54	0xb9850a27	-0.000253753
55	0xbcd5faf3	-0.026120638
56	0xbda09a9b	-0.07841989
57	0xbd76228f	-0.06009155
58	0xbd3e2a7a	-0.046427228
59	0x3c17dd18	0.009269021
60	0xbcf013e5	-0.029306361
61	0x3c8abcc1	0.016935708
62	0xbdb267a5	-0.08711175
63	0xbd6b6f46	-0.057479165
64	0xbc819c76	-0.015821677
65	0x3d169b70	0.03676933
66	0x3bab0eb2	0.0052202577
67	0x3c9552e7	0.018228007
68	0x3c51caa6	0.012804663
69	0x3ccc104d	0.024910117
70	0x3d8c9947	0.06865173
71	0x3dd3242e	0.10309635
72	0x3dcb414a	0.09924562
73	0x3bf3946d	0.007433465
74	0x3d887364	0.06662634
75	0xbcabf9f1	-0.020993205
76	0xbd6c1228	-0.057634503
77	0xbc82376a	-0.015895564
78	0xbd6b4d4b	-0.05744676
79	0x3b2e8b68	0.0026633386
80	0xbd9789d7	-0.07399338
81	0x3d25ae8a	0.040449657
82	0xbbbff9cd	-0.005858636
83	0x3d879516	0.06620233
84	0xbdb800e3	-0.08984544
85	0xbdbfbf6d	-0.093626834
86	0xbdd53ef1	-0.10412396
87	0x3d77e1cc	0.06051807
88	0x3d99b11b	0.07504483
89	0xbd6b10de	-0.057389133
90	0xbda891dd	-0.08230946
91	0x3d07495a	0.033028938
92	0xbc134492	-0.008988516
93	0x3d718cb3	0.05897207
94	0xbb0ad963	-0.0021186701
95	0xbdd63a18	-0.10460299
96	0x3c865472	0.016397689
97	0xbdcb84ba	-0.09937425
98	0x3c8cda81	0.017194035
99	0x3dc4eaef	0.096151225
100	0xbdc74d47	-0.09731536
101	0x3d8897af	0.06669556
102	0x3db3fce7	0.08788472
103	0x3d6d2457	0.057895985
104	0x3b8862bc	0.0041621607
105	0x3dc9abde	0.09847234
106	0x3a769023	0.00094056333
107	0x3d994f26	0.074857995
108	0xbd9bd28e	-0.076085195
109	0xbcc63096	-0.02419309
110	0xbddbe307	-0.107366614
111	0xbd83d345	-0.06436781
112	0x3dbdad9b	0.09261628
113	0xbda3c6cb	-0.07996901
114	0x3cbc029b	0.022950461
115	0xb9653a6a	-0.00021860903
116	0xbc3853df	-0.011250465
117	0xbd85d370	-0.06534469
118	0xbdfbc85b	-0.12294074
119	0xbd6b076a	-0.057380117
120	0xbd97de4c	-0.07415447
121	0x3d6b392a	0.057427563
122	0x3d69285e	0.056923263
123	0x3d3cb70c	0.046073005
124	0xbde0daef	-0.10979258
125	0x3b9868a6	0.004651147
126	0x3d847af1	0.06468762
127	0xbcecd490	-0.028909951
128	0x3d5a0789	0.053229842
129	0x3cbb8e17	0.022894902
130	0x3dc0e511	0.09418691
131	0x3d4c16d4	0.049826458
132	0x3d3e4fc4	0.04646279
133	0x3d8d66aa	0.06904347
134	0x3c086eb1	0.008327172
135	0xbc3aacb3	-0.011393714
136	0xbcf42ba0	-0.029805958
137	0xbdad4a33	-0.08461418
138	0xbd4bd670	-0.04976505
139	0x3d234c8d	0.039867926
140	0x3d9a93fe	0.075477585
141	0xbdbbf3ec	-0.09177384
142	0xbd04c65b	-0.03241573
143	0x3d26e8d9	0.040749405
144	0x3dc3649c	0.09540674
145	0xbca33cc2	-0.019926433
146	0xbde1d9a6	-0.11027841
147	0xbd31c200	-0.043397903
148	0xbd87aa84	-0.0662432
149	0xbd1dca9d	-0.038523305
150	0xbc32a7c3	-0.010904255
151	0x3d1dccdb	0.038525444
152	0xbcf3dcc2	-0.029768351
153	0xbc8bbd18	-0.01705794
154	0x3dd5706f	0.10421836
155	0x3d03fc99	0.032223318
156	0xbce461a5	-0.027878592
157	0xbd138439	-0.03601477
158	0xbcef281f	-0.029193936
159	0xbb9212b5	-0.0044577965
160	0xbcbbd9e9	-0.022931056
161	0xbd79a423	-0.06094755
162	0x3cbc8245	0.023011336
163	0x3cd20e0a	0.02564146
164	0x3dc7048a	0.09717663
165	0x3c419fc1	0.011817873
166	0xbdb56746	-0.088575885
167	0x3c766805	0.015039449
168	0x3dc58206	0.09643941
169	0xbc315a2e	-0.010824723
170	0x3d1be81d	0.038063157
171	0xbcc4e147	-0.024033202
172	0xbdc8f2c1	-0.09811927
173	0x3dbef0e4	0.0932329
174	0x3dc96f57	0.098356895
175	0xbdd088a9	-0.10182316
176	0xbcac0fe4	-0.021003671
177	0xbd651d9c	-0.05593644
178	0x3d1704d9	0.036869857
179	0x3dbcf880	0.09227085
180	0xbd261f22	-0.040557034
181	0x3d8572ad	0.06516013
182	0x3cd9dc46	0.026594292
183	0x3d0ba89f	0.034096356
184	0xbd933233	-0.07187309
185	0xbc2109c3	-0.0098289875
186	0x3b78fd83	0.0037992902
187	0x3d077dde	0.03307902
188	0xbbe6ce99	-0.0070436713
189	0xbd27465c	-0.040838584
190	0xba9ccdbe	-0.0011963171
191	0xbd99343c	-0.07480666
192	0xbd4a0014	-0.04931648
193	0xbd5f7ea0	-0.05456412
194	0xbd8e93d7	-0.06961792
195	0x3db071aa	0.0861543
196	0x3d8d169f	0.0688908
197	0xbda8fa24	-0.082508355
198	0x3db901ed	0.090335704
199	0xbd4ee2b0	-0.050509155
200	0x3d82ede0	0.06393027
201	0xbd81d77f	-0.06339931
202	0x3b21326f	0.002459671
203	0x3dd89fcb	0.10577353
204	0xbd8e4e36	-0.06948511
205	0x3cced8ab	0.0252498
206	0x3da4a8af	0.08039986
207	0x3dc67345	0.09689955
208	0xbcc462c5	-0.023972878
209	0x3c53bd64	0.012923572
210	0x3dd742b3	0.10510769
211	0xbd893a06	-0.0670052
212	0xbc7d57a0	-0.015462786
213	0x3ca3436b	0.019929608
214	0x3a9fd19e	0.0012193208
215	0x3d600277	0.05468985
216	0x3d018c0a	0.031627692
217	0x3d6ca52b	0.057774704
218	0xbd95d44b	-0.07315882
219	0x3dc1d58c	0.09464559
220	0x3de2bfe6	0.11071758
221	0x3df12963	0.11775472
222	0x3b485e8e	0.0030573937
223	0x3def3559	0.11680097
224	0x3d9fe6c4	0.07807687
225	0xbdd53ab1	-0.10411585
226	0x3d0d776f	0.03453773
227	0x3d54dba8	0.051967293
228	0x3d7efee5	0.062254805
229	0xbdd20138	-0.10254139
230	0xbdc8b1f5	-0.097995676
231	0xbdac047d	-0.083992936
232	0xbde25904	-0.11052135
233	0xbc54c2e5	-0.01298592
234	0xbde5254e	-0.11188756
235	0x3d1ecf74	0.03877206
236	0x3daf8665	0.085705556
237	0xbd994947	-0.0748468
238	0xbde2b8d5	-0.1107041
239	0xbcd06606	-0.025439274
240	0x3dbf380e	0.093368635
241	0xbd7c011a	-0.061524488
242	0xbdaf8d25	-0.08571843
243	0xbd37acf8	-0.04484269
244	0x3caf17ba	0.021373618
245	0x3d5bd564	0.053670302
246	0xbd103e1d	-0.035215486
247	0x3cbc55d8	0.022990152
248	0xbda139b2	-0.07872333
249	0xbcc2e995	-0.023793021
250	0xbd348162	-0.0440687
251	0xbdbee652	-0.09321274
252	0xbc5dfb33	-0.01354866
253	0x3c17cda1	0.009265334
254	0xbdd21660	-0.10258174
255	0x3c585874	0.013204683

conv1.bias f4 [20]
0	0xbdb82f43	-0.089933895
1	0x3d90e892	0.07075609
2	0xbd810a14	-0.063007504
3	0x3d611919	0.054955576
4	0x3db879ec	0.0900763
5	0xbc66fb98	-0.014098071
6	0xbcdbe932	-0.026844595
7	0xbca90a77	-0.020634873
8	0xbd9da1b2	-0.076968566
9	0xbd9556df	-0.0729196
10	0x3dc8887b	0.097916566
11	0xbd3e862b	-0.04651467
12	0xbd1a3e3b	-0.037657004
13	0x3d880bfc	0.06642911
14	0xbd076c5b	-0.03306232
15	0x3da3e7c7	0.080031924
16	0x3d530991	0.051522795
17	0xbdb986e8	-0.090589345
18	0xbd8c77d9	-0.068587966
19	0x3dd2342b	0.102638565

conv2.weight f4 [40, 20, 3, 3]
0	0xbc9c6c58	-0.019094631
1	0xbd596cdc	-0.053082332
2	0x3d87f4f4	0.06638518
3	0xbd95578f	-0.07292091
4	0xbd71b0c9	-0.059006486
5	0x3d385537	0.045003142
6	0x3d812f56	0.06307857
7	0xbd03dabc	-0.032191023
8	0x3d03a120	0.032136083
9	0x3d4adcae	0.049526863
10	0xbc1f30d3	-0.00971623
11	0xbcbd2a35	-0.023091415
12	0xbcfccbda	-0.030858923
13	0xbd030503	-0.0319872
14	0xbc09864b	-0.008393834
15	0xbd9497a1	-0.072554834
16	0xbd97fd3d	-0.07421348
17	0xbca02857	-0.019550486
18	0x3cfef98c	0.031124853
19	0xbbf80147	-0.0075685116
20	0xbc949d69	-0.018141465
21	0xbc4c0a96	-0.012453696
22	0xbd6a0a42	-0.05713869
23	0xbc0ba156	-0.008522352
24	0xbd677923	-0.05651201
25	0xbcce6a5a	-0.025197197
26	0x3d976c86	0.07393746
27	0xbd942e28	-0.07235366
28	0x3c9edefc	0.019393437
29	0x3d7097ad	0.0587384
30	0x3d75625f	0.059908267
31	0x3d26b8bc	0.04070352
32	0x3d250b6d	0.0402941
33	0x3d29bfe0	0.041442752
34	0xbd85e148	-0.065371096
35	0x3b05ee87	0.0020436363
36	0x3d3405dd	0.043950904
37	0xbcf2d9b7	-0.02964483
38	0x3bf6b466	0.0075288294
39	0x3b957c71	0.0045619537
40	0x3b444d3e	0.0029953266
41	0xbd6d9ff8	-0.058013886
42	0x3d3ca2eb	0.04605381
43	0x3c1390ea	0.009006718
44	0xbd19600d	-0.037445117
45	0xbaaad505	-0.0013033455
46	0xbd819ace	-0.06328355
47	0xbd1dc896	-0.03852137
48	0xbb8134bd	-0.0039430545
49	0x3caed07f	0.021339653
50	0xbd8c26f2	-0.06843366
51	0x3c93e84a	0.0180551
52	0x3d93b58a	0.0721236
53	0xbd8aee4c	-0.06783733
54	0x3d1ae2c0	0.037813902
55	0xbbed97bc	-0.007250754
56	0xbb04d692	-0.0020269495
57	0xbd0541e0	-0.032533526
58	0x3ca8e814	0.020618476
59	0xbc49a837	-0.012308172
60	0x3cf5dc31	0.030012222
61	0x3ba2944f	0.0049615274
62	0xbab04db1	-0.0013450888
63	0xbd27de3d	-0.040983427
64	0xbd4742ad	-0.04864757
65	0xbd62cb2e	-0.05536955
66	0xbd92c710	-0.071668744
67	0xbd0fb02b	-0.035080116
68	0x3d207d56	0.03918203
69	0x3d97bbd9	0.07408876
70	0xbcdabf0b	-0.026702425
71	0xbd7e46fa	-0.062079407
72	0x3cb20a04	0.021733291
73	0x3d77aa0f	0.060464915
74	0x3d346617	0.044042673
75	0xbc9c2665	-0.019061277
76	0xbc11e25c	-0.008904066
77	0x3c3fdac9	0.011709877
78	0xbd605701	-0.054770473
79	0xbd246014	-0.04013069
80	0x3cedf6bb	0.029048314
81	0x3d128fce	0.035781674
82	0x3d3c09bd	0.045907725
83	0xbd673b88	-0.056453258
84	0xbd0d5d51	-0.03451282
85	0x3cd8333b	0.026391616
86	0xbd0c2f86	-0.03422501
87	0x39bb0e71	0.0003567818
88	0xbd43fd82	-0.047849186
89	0x3d0c3ba7	0.034236576
90	0xbd408c84	-0.047009006
91	0xbc2a5a12	-0.010397451
92	0xbd903b5f	-0.07042574
93	0xbca68cc0	-0.020330787
94	0x3d88f391	0.066870816
95	0x3d91ad2a	0.071131065
96	0x3c292f39	0.0103262
97	0xbb9ac44b	-0.004723107
98	0x3d7243f7	0.059146848
99	0xbd76fd8a	-0.060300387
100	0xbd2eb9b8	-0.042657584
101	0x3d8d583e	0.069015965
102	0xbcffbb35	-0.031217197
103	0x3d425934	0.047448352
104	0x3d7c042c	0.061527416
105	0x3c4c5bae	0.01247303
106	0xbcec9cec	-0.02888342
107	0xbd6d5f54	-0.05795224
108	0x3cb19424	0.021677084
109	0x3c85ee82	0.016349081
110	0xbd26dbda	-0.04073701
111	0x3c0f1e29	0.008735218
112	0xbd761bc3	-0.06008507
113	0xbc6aeaf0	-0.01433824
114	0xbd8c397f	-0.06846904
115	0xbd826c39	-0.06368298
116	0xba0511c0	-0.00050761923
117	0x3d70487b	0.058662873
118	0xbd4203f6	-0.04736706
119	0x3d8b0143	0.0678735
120	0xbbdf20ce	-0.0068093305
121	0xbd92f6d4	-0.07175985
122	0xbd11579d	-0.035483945
123	0x3d693c83	0.056942474
124	0x3d19295e	0.037392966
125	0xbbab7689	-0.0052326364
126	0x3c8c240e	0.017107036
127	0x3d4a05f4	0.049322084
128	0xbd2c1539	-0.042012427
129	0xbd4698ee	-0.04848569
130	0x3c90246a	0.017595489
131	0x3d887a6e	0.066639766
132	0x3c4049cf	0.011736347
133	0x3c8a1947	0.016857756
134	0x3d38c62f	0.045110878
135	0xbbdb34e3	-0.006689654
136	0x3cb2e911	0.02183965
137	0xbcc9b095	-0.024620334
138	0x3d89937d	0.06717584
139	0xbbac3add	-0.0052560405
140	0xbcc7199b	-0.024304202
141	0x3d871dcb	0.065974794
142	0x3d51dc6c	0.0512356
143	0xbd1d1e4a	-0.038358964
144	0xbd632700	-0.055457115
145	0xbbf83c88	-0.0075755753
146	0x3ce15227	0.027504994
147	0xbbe371b8	-0.0069410466
148	0x3d989c5e	0.074517
149	0xbd0b78b9	-0.034050677
150	0x3be62e81	0.0070245867
151	0x3d43c694	0.0477968
152	0xba6e7541	-0.00090964517
153	0xbd7e39fd	-0.06206702
154	0x3d10a659	0.03531489
155	0xbc76deff	-0.015067815
156	0x3d60b0ab	0.054855984
157	0x3d497f28	0.04919353
158	0x3cf6762e	0.03008565
159	0x3d3bb01c	0.045822248
160	0xbd9271b4	-0.071505934
161	0xbd5de794	-0.05417593
162	0xbc98c411	-0.01864818
163	0xbd62433f	-0.055239912
164	0x3d933998	0.071887195
165	0x3b4600ae	0.0030212807
166	0x3d85cb7e	0.06532954
167	0x3d54248a	0.05179266
168	0x3d9113dc	0.07083866
169	0x3d85e97a	0.06538673
170	0x3d4ab357	0.049487438
171	0xbbf41aa6	-0.007449466
172	0xbd8323f1	-0.0640334
173	0x3c217bf1	0.00985621
174	0x3d15191d	0.036400903
175	0x3cb7a6a2	0.022418324
176	0xbd81cd0c	-0.06337938
177	0xbcb7e581	-0.022448303
178	0x3d13d09b	0.036087614
179	0xbc030c40	-0.007998526
180	0xbcd3aa01	-0.0258379
181	0x3cb3191a	0.021862555
182	0x3cf0dd75	0.029402474
183	0x3d5be656	0.053686462
184	0x3d112bda	0.03544221
185	0x3d986cc5	0.07442621
186	0xbb3c97d7	-0.0028777027
187	0xbc2af67c	-0.010434743
188	0x3d919a58	0.07109517
189	0x3c6a9cba	0.014319593
190	0x3d0b4c28	0.034008175
191	0x3d78d0b7	0.06074592
192	0x3d85ab19	0.06526775
193	0x3d5cc40f	0.053897914
194	0x3d33412d	0.04376333
195	0x3d81691c	0.06318876
196	0x3d5df42d	0.054187942
197	0xbd7f685a	-0.062355377
198	0xbd149f41	-0.03628469
199	0x3c78675c	0.015161362
200	0x3d66e1a1	0.05636752
201	0xbc436045	-0.011924808
202	0xbd943098	-0.07235831
203	0xbd679c6f	-0.05654567
204	0xbc856820	-0.016285002
205	0xbd12e48d	-0.035862494
206	0x3ceb3d37	0.028715713
207	0x3d8da3a5	0.06915978
208	0xbd751725	-0.059836525
209	0xbcf8ce75	-0.030371884
210	0x3bed5886	0.007243219
211	0x3bd3a1b3	0.006458485
212	0x3d8af79f	0.06785511
213	0x3c6754a0	0.014119297
214	0xbccf3d96	-0.025297921
215	0xbd1e612b	-0.038666885
216	0xbd31eb2c	-0.043437168
217	0xbb1088d6	-0.0022054217
218	0xbd8f5067	-0.069977574
219	0xbc046cb5	-0.008082558
220	0x3d91b3cb	0.07114371
221	0xbd4cd667	-0.050009158
222	0x3c9b7046	0.018974435
223	0x3d2cf9c4	0.042230383
224	0x3c41a0ac	0.011818092
225	0x3cb8edb2	0.02257428
226	0x3d84f79d	0.06492541
227	0xbd6f669a	-0.058447458
228	0xbc604132	-0.013687419
229	0x3cd9922e	0.026558962
230	0xbcc9829f	-0.024598418
231	0xbd237ae0	-0.039912105
232	0xbd88349e	-0.06650661
233	0xbd387407	-0.045032527
234	0x3b9f41c2	0.004860134
235	0xbc87132d	-0.016488636
236	0xbd7c802f	-0.061645683
237	0xbd36b0b9	-0.04460213
238	0xbba51110	-0.0050374344
239	0xbcee7da4	-0.029112644
240	0xbc8eae3f	-0.017417071
241	0xbd9ac356	-0.075567886
242	0xbd6e0a77	-0.05811545
243	0x3d2ad8c8	0.041710645
244	0x3cc81e8e	0.024428632
245	0x3cfa04cd	0.030519867
246	0x3d0d07f5	0.034431417
247	0x3cdb23e4	0.026750512
248	0xbca81dfb	-0.020522108
249	0x3d2bd85f	0.041954394
250	0x3d4c696f	0.049905237
251	0x3a9ec258	0.0012112362
252	0x3cdbe1e2	0.026841108
253	0xbceeca9e	-0.02914935
254	0xbd09b8a7	-0.033623364
255	0xbcd09c41	-0.025465133

conv2.bias f4 [40]
0	0xbca98dd3	-0.02069751
1	0xbd3ac5e1	-0.04559887
2	0x3d62124c	0.05519323
3	0x3d4a8293	0.04944093
4	0xbd28ec48	-0.04124096
5	0x3d91572b	0.07096704
6	0x3d8899f8	0.06669992
7	0xbd8a948d	-0.06766615
8	0xbc2ec423	-0.01066688
9	0x3befae23	0.00731446
10	0x3d3b007c	0.04565476
11	0x3d7e4437	0.062076773
12	0x3c505287	0.012714989
13	0x3d861ded	0.06548677
14	0xbd3c7405	-0.046009082
15	0xbd7ede0d	-0.062223483
16	0xbd46e9ae	-0.048562698
17	0x3d764118	0.060120672
18	0xbcac29f2	-0.021016095
19	0xbd761ea1	-0.060087804
20	0x3cb32b85	0.021871338
21	0xbd4f9627	-0.050680306
22	0x3ba26032	0.004955315
23	0xbc66a78d	-0.014078033
24	0xbd800b85	-0.06252197
25	0x3d191e76	0.037382565
26	0xbd438516	-0.047734343
27	0x3cc3e2c1	0.023911836
28	0x3d7b451b	0.0613452
29	0xbd5ce757	-0.05393156
30	0x3d281682	0.04103709
31	0xbd3d12b8	-0.04616043
32	0xbd48858b	-0.04895548
33	0x3d346d8d	0.04404979
34	0x3d52a794	0.051429346
35	0x3d495e64	0.049162284
36	0x3c9d2332	0.019181821
37	0xbd0252c3	-0.03181721
38	0xbd4b83ca	-0.04968623
39	0x3d8d8ce5	0.06911639

fc1.weight f4 [1, 6760]
0	0x3c1aa43b	0.00943857
1	0xbb6a2d4b	-0.0035732563
2	0x3c2a34d1	0.010388569
3	0x3c19e8b4	0.00939386
4	0x3c3fc5a3	0.011704835
5	0xbad88118	-0.0016517965
6	0xbbae5741	-0.00532046
7	0xbbf231bb	-0.0073911822
8	0xbc0befa2	-0.00854102
9	0xbb0905a9	-0.0020907915
10	0x3c02af70	0.007976398
11	0x3bd57889	0.006514613
12	0xbc466658	-0.012109362
13	0xbc3f7890	-0.011686459
14	0xbc1d1ab9	-0.009588891
15	0xbbe9067f	-0.00711137
16	0x3c09bd19	0.008406901
17	0x3c35e007	0.011100776
18	0x3aa764e6	0.0012771159
19	0xbc28f3ce	-0.010312034
20	0xba67c801	-0.00088417536
21	0x3b823057	0.0039730477
22	0x39f0deaa	0.00045942265
23	0x3bbba039	0.005725887
24	0x3bb46d2a	0.0055061774
25	0x3c246a0b	0.010035048
26	0x3b8eadb5	0.0043542036
27	0xbbbda138	-0.005787041
28	0xbc22e843	-0.009943071
29	0xbc2c175a	-0.010503614
30	0x3bfa8fa1	0.0076465164
31	0xbc44cf4f	-0.012012317
32	0xbb423c62	-0.0029638042
33	0xbb898872	-0.0041971738
34	0xbb29d275	-0.0025912796
35	0xbbcfbb00	-0.006339431
36	0x39fad0a3	0.00047839162
37	0x3b66fce4	0.003524595
38	0x3bbad493	0.0057016104
39	0x3c22226a	0.0098959
40	0x3c2d6f1f	0.010585575
41	0x3ba39944	0.004992636
42	0xbc3ef18b	-0.011654268
43	0x3b6da00e	0.003625873
44	0x3c30e90f	0.010797753
45	0x3ad2d80a	0.0016086113
46	0xbc1e6e9e	-0.009669928
47	0xbbcaffab	-0.006195029
48	0x3bc3a38b	0.0059704236
49	0xbb50ced9	-0.0031861572
50	0xbb8ddfa9	-0.004329641
51	0x3c099f02	0.008399727
52	0xbc288241	-0.010284961
53	0x3be7bee8	0.0070723183
54	0x3b26e77b	0.0025467563
55	0x3c1af014	0.009456653
56	0xbc27cd1d	-0.010241774
57	0x3c1590ab	0.00912873
58	0xbbab6968	-0.0052310713
59	0x3abcd255	0.0014405946
60	0x3a94d934	0.0011356235
61	0xbb5cfde7	-0.0033720674
62	0xba92b65f	-0.0011193267
63	0xbbd75b6e	-0.0065721786
64	0x3b5481a9	0.0032425916
65	0x3bfd1fd9	0.007724744
66	0x3b3fc054	0.0029258924
67	0xbbe805b5	-0.0070807585
68	0xbbb63c98	-0.0055614226
69	0xbb988152	-0.004654088
70	0x3c3e8e59	0.011630618
71	0xbb3d78ca	-0.0028911107
72	0x3c3a3a5a	0.011366451
73	0xbbfc2a49	-0.0076954705
74	0xbc451e36	-0.012031129
75	0xbc005dc2	-0.007834854
76	0xbc3f3568	-0.011670448
77	0xbb6a8f4c	-0.0035790978
78	0x3c0ef8fb	0.008726354
79	0xbc330762	-0.010927053
80	0xbb0b1f97	-0.0021228546
81	0x3a7e91ad	0.00097110384
82	0xbb22718e	-0.0024786922
83	0x3c2a78e9	0.010404804
84	0xbb2aebe0	-0.0026080534
85	0xb9cebe37	-0.00039433103
86	0xbbca733a	-0.006178287
87	0x3b2ea77e	0.0026650126
88	0x3bc26530	0.0059324726
89	0xbc2049fb	-0.009783263
90	0x3c1bfff7	0.009521476
91	0x3c2049ec	0.009783249
92	0xbc2e459a	-0.0106367115
93	0x3b840bdc	0.004029734
94	0xbbf2a175	-0.007404501
95	0xbb8d41b4	-0.004310811
96	0xbc40b7a3	-0.011762532
97	0xbc3d153f	-0.01154071
98	0xbbbb7ecd	-0.005721903
99	0x3bcfa980	0.0063373446
100	0x3b8eed70	0.004361801
101	0xbbd8abc3	-0.0066122725
102	0x3a737c49	0.0009288234
103	0xbbfc3bbd	-0.007697551
104	0xbbbb3f7c	-0.005714355
105	0x3b8026d8	0.0039108805
106	0x3be68788	0.0070351996
107	0x3b851805	0.0040617012
108	0x3b3384e5	0.0027392444
109	0xbb904cfc	-0.0044037085
110	0x3b7945b1	0.0038035924
111	0xbc3997fd	-0.011327741
112	0xbbae84b8	-0.00532588
113	0x3bbdc032	0.0057907337
114	0xbc251d98	-0.0100778565
115	0xbc3b930f	-0.011448636
116	0x3b8a0c2e	0.0042128777
117	0x3b9f841f	0.004868045
118	0x3c05e177	0.008171431
119	0xbbb66db8	-0.0055672787
120	0x3b462af0	0.0030237995
121	0xbb3c4aa5	-0.0028731015
122	0xbb00dc71	-0.0019662643
123	0xbbbb3e35	-0.0057142028
124	0xbbc395ff	-0.0059688087
125	0xbbfde1fa	-0.007747886
126	0xb989d118	-0.00026286463
127	0xbb92532f	-0.0044654827
128	0xbc106e26	-0.008815324
129	0x3b7d2cae	0.0038631367
130	0xbbcdd8ae	-0.0062819337
131	0x3becf4b5	0.00723132
132	0xbbfb4d00	-0.007669091
133	0xbbdfbf2c	-0.0068282094
134	0xbc3948b6	-0.01130884
135	0x3a4d5bbf	0.00078338006
136	0x3c4077bd	0.011747298
137	0x39b3faad	0.00034328309
138	0x3a9f940e	0.0012174861
139	0x3c017d64	0.007903431
140	0x3c257cf3	0.010100591
141	0xbbf65ab0	-0.007518135
142	0x3b702bf8	0.0036647301
143	0x3ba1758c	0.0049273428
144	0x3b8ec5d9	0.0043570814
145	0xbbb82db5	-0.005620683
146	0x3b0b440e	0.002125028
147	0xbc3bf909	-0.011472949
148	0x3bb1e9c6	0.0054294793
149	0x3a899ac0	0.001049839
150	0xbc437765	-0.011930321
151	0xbc03304a	-0.0080071185
152	0xbc1828a5	-0.009287034
153	0xbbe57f9a	-0.0070037367
154	0xbc443b09	-0.011976966
155	0xba909ddb	-0.0011033373
156	0x3bc1d2ec	0.0059150364
157	0x3c154934	0.009111691
158	0x3c01ec44	0.007929865
159	0xbbf3bdde	-0.0074384054
160	0x3b026b28	0.0019900296
161	0x3c07f9dc	0.008299317
162	0xbc3388c9	-0.010957905
163	0xba1798a3	-0.00057829375
164	0x3c2b3798	0.010450266
165	0x3c236ff3	0.009975421
166	0xbc06ce6b	-0.008227925
167	0x3c37962c	0.011205237
168	0x3c1fd66b	0.009755711
169	0xbbcad8c8	-0.006190393
170	0xbc096015	-0.008384724
171	0xbbb3219b	-0.0054666526
172	0x3c259b7b	0.01010787
173	0x3b702772	0.0036644605
174	0x3c408cde	0.011752335
175	0x3c3689b6	0.011141231
176	0x3a06a7a6	0.0005136676
177	0xbbe2f8d8	-0.006926637
178	0x3c392422	0.011300119
179	0xbc31aa01	-0.010843755
180	0x3b735109	0.0037127158
181	0xbbb31a9e	-0.0054658195
182	0x3b94be86	0.0045393137
183	0x3bd2b6ff	0.0064305062
184	0xbb8976c9	-0.0041950685
185	0xbbbd3eac	-0.0057752933
186	0xbb842a47	-0.00403336
187	0xba88dd1d	-0.0010441873
188	0x3c22cb30	0.009936139
189	0x3c2a8fec	0.01041029
190	0xbb885d29	-0.004161496
191	0xbbdd3de6	-0.0067517636
192	0xbbecec5a	-0.0072303237
193	0xbbb7451a	-0.0055929543
194	0x3af14bbd	0.0018409413
195	0xb8c135a0	-9.2129456e-05
196	0x3ab06c81	0.0013460071
197	0xbad326db	-0.0016109602
198	0xbbf8fd8a	-0.0075985836
199	0x3af324d0	0.00185504
200	0x3af22970	0.0018475484
201	0xbab26f4b	-0.001361349
202	0xbc167872	-0.00918399
203	0xbbdc5131	-0.006723546
204	0xbb90dbf5	-0.004420752
205	0x3c2de4eb	0.01061366
206	0x3b51c7e4	0.0032010013
207	0x3c19a3a9	0.0093773985
208	0xbb25985d	-0.0025267818
209	0xbb61c29c	-0.0034448272
210	0xb9195772	-0.00014623793
211	0xbc19178f	-0.009343996
212	0xbc2df68a	-0.0106178615
213	0xbbbb6086	-0.0057182936
214	0x3b9d5b03	0.004802109
215	0xbb8f8892	-0.004380294
216	0x3bfeac1e	0.007771983
217	0xbbc75ffb	-0.00608444
218	0x3c288fb3	0.010288167
219	0xbc12ac24	-0.008952174
220	0x3c35b8e1	0.011091442
221	0xbb12f44e	-0.002242345
222	0xbc0c7211	-0.008572117
223	0xbb8bb1d4	-0.004263142
224	0xbc2c32d6	-0.010510167
225	0xbc32ae3c	-0.0109057985
226	0xbb7ce1a9	-0.0038586652
227	0x3b35a6ba	0.0027717785
228	0x3a890151	0.0010452663
229	0xbb968c45	-0.004594358
230	0x3c07e82e	0.008295102
231	0x3bfe229c	0.0077555906
232	0xbc4275bf	-0.011868893
233	0x3c132a89	0.008982309
234	0x3bf96bdf	0.007611736
235	0x3bd37734	0.006453419
236	0xba22b9b4	-0.00062074815
237	0x3bc7f7dd	0.0061025457
238	0x3c016e11	0.007899777
239	0xbc0dda2b	-0.008657972
240	0xbc1911db	-0.009342636
241	0x3c6919b7	0.014227322
242	0xbb85ec2c	-0.004086992
243	0x3bc53396	0.0060181124
244	0xbbd95779	-0.006632742
245	0xbc1a1329	-0.009403982
246	0x3c39cf0a	0.011340866
247	0xbb91eec7	-0.0044535133
248	0x3c245984	0.010031108
249	0x3c0f1cfe	0.00873494
250	0x3bac4743	0.0052575185
251	0xbb8c7c8c	-0.004287308
252	0xbb05212e	-0.0020313966
253	0xbaa4c9a9	-0.0012572306
254	0x3aee7a97	0.0018194494
255	0x3c0d85d0	0.00863786
