ConvLSTM/Sequence/0.82_143_A_S.pt (torch, 84929 bytes, 7 tensors)

conv_lstm.conv.weight f4 [40, 13, 3, 3]
0	0xbd4de584	-0.05026771
1	0x3cac448d	0.021028781
2	0x3d408829	0.047004852
3	0x3dc709e5	0.09718684
4	0x3dd000ce	0.101564035
5	0x3bee20ef	0.0072671096
6	0x3d192ce3	0.037396323
7	0x3c86d8c7	0.01646079
8	0x3d894803	0.06703188
9	0x3c2bef29	0.010494032
10	0xbcb644c1	-0.022249581
11	0x3cfceb0c	0.030873798
12	0x3c8a3a40	0.016873479
13	0xbd456a15	-0.04819687
14	0x3d8a5542	0.06754543
15	0x3d8171ae	0.06320511
16	0xbcf7295f	-0.030171094
17	0x3c428e9d	0.011874822
18	0x3d65cc0e	0.056102805
19	0x3cb691dd	0.02228635
20	0x3d1390d2	0.036026783
21	0x3da57920	0.080797434
22	0xbd813610	-0.0630914
23	0xbdab327c	-0.083592385
24	0xbb8a4d36	-0.00422063
25	0xbd943f89	-0.07238681
26	0xbd32bb19	-0.04363546
27	0xbb58c37f	-0.003307551
28	0x3c849bf4	0.016187645
29	0xbdc7b161	-0.09750629
30	0x3d0f6e70	0.03501743
31	0xbd8f1c3e	-0.06987809
32	0xbdc97391	-0.09836496
33	0x3cba6e96	0.02275781
34	0x3d510c79	0.051037285
35	0x3bae7f67	0.005325246
36	0xbca76e0c	-0.020438217
37	0x3dd636e1	0.10459686
38	0xbcdbe816	-0.026844066
39	0x3dd89f82	0.10577299
40	0x3d02650c	0.031834647
41	0x3d0dac62	0.034588225
42	0x3ca04944	0.019566186
43	0xbc355b0e	-0.011069072
44	0x3da13811	0.07872022
45	0xbd5a8526	-0.053349636
46	0x3da712f6	0.081579134
47	0x3d4f8a63	0.050669085
48	0x3cd56f32	0.026053999
49	0x3c1129cf	0.008860066
50	0x3d5ab0b2	0.053391166
51	0x3d3fe97d	0.04685353
52	0xbc2a1c4c	-0.010382723
53	0x3c80e125	0.015732357
54	0x3d4300d4	0.04760821
55	0x3cd331c0	0.025780559
56	0x3d2e663e	0.042577974
57	0xbb10a88c	-0.0022073118
58	0x3d950fb9	0.072783895
59	0xbd579903	-0.052636158
60	0x3d4f89e0	0.050668597
61	0xbda0b4a5	-0.07846955
62	0x3b6c7a36	0.0036083586
63	0x3d0a6261	0.033785228
64	0xbda7853d	-0.0817971
65	0xbdc2c7de	-0.09510778
66	0x3d89ba70	0.06725013
67	0xbdce8aec	-0.10085091
68	0xbcebe55d	-0.028795892
69	0x3c6daf0e	0.014507068
70	0x3d6cb3b0	0.05778855
71	0xbc689261	-0.014195056
72	0x3d5920c2	0.053009756
73	0xbd890609	-0.06690604
74	0xbd8a3716	-0.06748788
75	0x3da1d2b7	0.07901519
76	0x3d5c6653	0.05380852
77	0xbdc3f209	-0.09567649
78	0xbd8c81b8	-0.068606794
79	0x3d8ca5ec	0.068675846
80	0xbcaede29	-0.021346169
81	0xbd301bc0	-0.042995214
82	0x3cc7739d	0.02434712
83	0x3dd506a9	0.10401661
84	0x3de8c1f3	0.11365118
85	0x3d5d0175	0.053956468
86	0xbd1d657e	-0.03842687
87	0x3dc9a1a9	0.09845287
88	0x3e0182aa	0.126475
89	0xbd0fdbf5	-0.035121877
90	0x3c6f6f04	0.0146138705
91	0xbdb406f4	-0.08790389
92	0xbdb671ec	-0.089084476
93	0xbcb0bb21	-0.021573605
94	0xbb9553b2	-0.0045570964
95	0x3d853f59	0.06506223
96	0x3caf2260	0.021378696
97	0xbd671db3	-0.056424808
98	0x3da21066	0.07913284
99	0x3ce8dc27	0.02842529
100	0xbd3782e1	-0.04480255
101	0x3d8db034	0.06918374
102	0x3db82d1c	0.08992979
103	0xbd9039ea	-0.07042296
104	0x3d611e2f	0.054960426
105	0xbbf34dbb	-0.0074250377
106	0x3d647b6c	0.055781767
107	0xbc88c2f0	-0.016694516
108	0x3d7816a7	0.060568478
109	0x3cf9a722	0.030475203
110	0xbdc1d539	-0.09464497
111	0xbd5b5111	-0.053544108
112	0x3d0836e5	0.033255477
113	0xbda092bd	-0.07840488
114	0x3c6bcbcd	0.014391852
115	0xbdc8da7b	-0.09807297
116	0x3da3422a	0.07971604
117	0xbd700576	-0.058598958
118	0x3d514e2e	0.05109995
119	0x3dd3f74c	0.103499025
120	0x3cb11135	0.02161465
121	0x3d9c8993	0.07643428
122	0x3c96ac42	0.018392686
123	0x3c82ddef	0.015974967
124	0xbcb89398	-0.022531316
125	0x3d52cd2b	0.051465195
126	0xbd98bb69	-0.07457621
127	0x3d9a4d51	0.07534278
128	0x3cd2c4cc	0.025728606
129	0x3d810fba	0.06301828
130	0xbd829986	-0.063769385
131	0x3caa87c0	0.020816684
132	0x3d9d38ac	0.07676825
133	0xbd81fb32	-0.0634674
134	0xb8e4aae1	-0.00010903716
135	0x3dbfcfc3	0.09365799
136	0x3d1a377c	0.03765057
137	0x3a9076ed	0.0011021771
138	0x3dd147e0	0.10218787
139	0x3d8f30b1	0.06991709
140	0x3d21b8ab	0.039482754
141	0x3daaa406	0.08332066
142	0x3cb4f14b	0.022087714
143	0x3d268a81	0.04065943
144	0x3c421c58	0.011847578
145	0xbc756417	-0.014977477
146	0xbd86d444	-0.06583455
147	0x3d94603d	0.072449185
148	0xbb210b84	-0.0024573514
149	0x3d3907fd	0.045173634
150	0x3c1683c1	0.009186686
151	0x3d6a3724	0.057181492
152	0x3c3c7d49	0.01150448
153	0x3bba9fb7	0.005695309
154	0x3d335a6f	0.043787416
155	0xbd091ec5	-0.03347661
156	0xbadda88e	-0.0016911195
157	0x3d8fe5ea	0.070262745
158	0x3d8dbe47	0.06921058
159	0x3da848d2	0.08217014
160	0x3cccd902	0.025005821
161	0xbd8b49ca	-0.068011835
162	0xbd9725ca	-0.073802546
163	0x3dbf6ce8	0.09346944
164	0xb910ce7f	-0.00013809836
165	0xbd7d9a69	-0.061914835
166	0x3dbb1304	0.09134486
167	0x3dcbc36f	0.099493854
168	0x3d91bdce	0.071162805
169	0x3c920214	0.017823257
170	0xbc8f50e2	-0.017494623
171	0x3d86e429	0.06586487
172	0x3bc54f7e	0.006021439
173	0x3d04d54b	0.032429975
174	0xbd1652bd	-0.0367
175	0xbc8d7dbf	-0.017271874
176	0x3db2be88	0.08727747
177	0x3d806cb6	0.06270735
178	0x3c4edcf4	0.0126259215
179	0xbd7114d5	-0.058857758
180	0xbcd9423a	-0.026520837
181	0x3d5d2dae	0.05399864
182	0x3ce4ecc4	0.02794493
183	0x395b3fda	0.00020909254
184	0x3c62d9c2	0.013845863
185	0xbdb1dc05	-0.086845435
186	0xbd9043c4	-0.07044175
187	0x3d4d87d3	0.05017836
188	0x3da6c926	0.08143835
189	0x3bdecbb3	0.006799185
190	0xbd245111	-0.040116373
191	0x3c9e1140	0.019295335
192	0x3d137a69	0.03600541
193	0xbd2f9832	-0.042869754
194	0xbc22e4dd	-0.009942261
195	0xbd3f80bf	-0.04675364
196	0xbd9a8aa7	-0.07545977
197	0x3cf7d665	0.030253598
198	0x3dcc1433	0.0996479
199	0x3bd7e2ee	0.0065883314
200	0xbad6ea51	-0.0016396736
201	0xbc2ad2a5	-0.010426198
202	0x3d3e676f	0.04648536
203	0x3d05e9c5	0.032693643
204	0x3ba5fea7	0.0050657573
205	0x3dd1223f	0.1021161
206	0xb9c007f2	-0.00036627013
207	0xbb8eb73f	-0.0043553407
208	0x3c2dab27	0.010599888
209	0xbd90aa20	-0.07063699
210	0x3bafbf8b	0.00536341
211	0xbcdb07d1	-0.026737126
212	0x3d8ae41a	0.06781788
213	0x3cfa08d7	0.030521793
214	0x3d96974e	0.07353078
215	0x3d19e01f	0.037567254
216	0xbd2d6050	-0.04232818
217	0xbd9447f4	-0.072402865
218	0xbce12db7	-0.027487619
219	0x3d840b28	0.064474404
220	0x3c0c3a34	0.008558799
221	0x3d41a769	0.047278795
222	0x3d8d5ca1	0.06902433
223	0xbd9b154d	-0.07572422
224	0x3d264516	0.04059323
225	0x3d940182	0.0722685
226	0xbd0681c9	-0.032838617
227	0x3da3822c	0.07983813
228	0xbca6c39c	-0.020356946
229	0x3d201c2c	0.039089367
230	0xbb84e960	-0.004056141
231	0x3d588c39	0.0528681
232	0xbd6b22ce	-0.05740624
233	0x3d9694c7	0.07352596
234	0xbc0fa887	-0.008768207
235	0x3db5f119	0.08883876
236	0xbd1c030d	-0.038088847
237	0x3c9eec6e	0.019399848
238	0x3bd2f572	0.006437951
239	0x3c32e3b4	0.0109185465
240	0xbda4513d	-0.080233075
241	0x3b027677	0.0019907036
242	0x3d5552f1	0.052081052
243	0x3dbec054	0.093140274
244	0x3d3f4ab9	0.04670212
245	0x3d9c6166	0.07635765
246	0xbc0cf1cd	-0.008602572
247	0x3d9125bd	0.07087276
248	0x3dafa91d	0.08577178
249	0x3d918aec	0.07106575
250	0x3c163b20	0.00916937
251	0x3c876e5e	0.01653212
252	0xbd871134	-0.06595078
253	0x3d268e94	0.040663317
254	0x3d3d6cb6	0.046246253
255	0x3c57b972	0.013166772

conv_lstm.conv.bias f4 [40]
0	0xbd944bd3	-0.07241025
1	0xbda6323a	-0.08115049
2	0x3d303982	0.043023594
3	0x3d026b04	0.03184034
4	0xbd9611c1	-0.07327605
5	0x3d9150a6	0.070954606
6	0x3e186679	0.1488284
7	0xbac45379	-0.001497849
8	0x3d90b0c7	0.070649676
9	0xbd91ea51	-0.071247704
10	0x3c96d588	0.018412367
11	0x3d7e7fac	0.062133476
12	0x3d5e08eb	0.054207724
13	0x3ddb75e0	0.10715842
14	0xbc0323ba	-0.008004123
15	0x3d8889c0	0.06666899
16	0x3cb0a9aa	0.021565277
17	0x3d0f60a6	0.03500428
18	0x3daca35a	0.08429594
19	0x3da9fe33	0.08300438
20	0x3d331849	0.043724332
21	0xbda1562b	-0.07877763
22	0x3cd5c532	0.026095007
23	0x3ad991bf	0.0016599222
24	0xbd256862	-0.04038275
25	0x3c9d43f9	0.019197451
26	0x3cf06cc3	0.029348737
27	0xbcdff661	-0.027339162
28	0x3d3328b0	0.043739974
29	0xbd02689b	-0.03183804
30	0xbda8b688	-0.0823794
31	0xbcb7f0b8	-0.02245365
32	0x3d8cd21a	0.06876011
33	0x3d971a02	0.073780075
34	0xbd0d2aef	-0.034464773
35	0x3dcc86b9	0.09986634
36	0xbdb0ed87	-0.08639055
37	0xbda55dca	-0.080745295
38	0xbdab5157	-0.08365124
39	0x3be0a8e6	0.0068560718

conv1.weight f4 [20, 10, 3, 3]
0	0xbc4fc7c7	-0.012681908
1	0xbd98bd9e	-0.074580416
2	0xbdcfe172	-0.10150422
3	0x3bb4c4f0	0.005516641
4	0xbdd9240f	-0.10602581
5	0xbd81a56a	-0.06330378
6	0x3c84e4ca	0.016222376
7	0xbceecaf0	-0.029149503
8	0xbda1f723	-0.07908466
9	0xbdbecbeb	-0.09316238
10	0xbca1299a	-0.019673157
11	0xbcc4aa5b	-0.024007013
12	0xbc945fd8	-0.018112108
13	0x3daeb7ae	0.08531128
14	0x3d16c564	0.03680934
15	0xbc79860c	-0.015229713
16	0x3d7768ac	0.060402557
17	0xbdbf1bc0	-0.09331465
18	0xbd653a3f	-0.05596375
19	0xbb2b3403	-0.002612353
20	0x3d970fac	0.07376036
21	0x3dd483f7	0.10376733
22	0xbd97fa07	-0.07420736
23	0xbd83e009	-0.06439216
24	0x3d881486	0.066445395
25	0x3dc4b3ad	0.09604583
26	0x3b9a7027	0.0047130766
27	0xbda50554	-0.08057657
28	0xbd5c465f	-0.05377805
29	0xbd1f5f2c	-0.038909122
30	0x3c927a42	0.017880563
31	0xbdbb4b8b	-0.09145268
32	0xbadd70e8	-0.0016894611
33	0x3c989314	0.01862482
34	0xbbc880cd	-0.00611887
35	0x3da59c96	0.08086507
36	0xbd9047fe	-0.070449814
37	0xbd4acfd9	-0.049514625
38	0xbd8cef48	-0.06881577
39	0xbd9431f2	-0.07236089
40	0x3cfbd3b6	0.0307406
41	0x3da47a3f	0.08031129
42	0xbd954fc9	-0.072906084
43	0xbdc85365	-0.09781531
44	0x3aab7aab	0.0013082823
45	0x3d4b3411	0.0496102
46	0x3bf2785a	0.007399601
47	0xbdc99444	-0.098427325
48	0xbd997612	-0.07493223
49	0xbd7f31c6	-0.062303327
50	0x3d418a9a	0.04725132
51	0xbddb8b5e	-0.107199416
52	0xbbd5df8e	-0.006526894
53	0x3da9162c	0.08256182
54	0x3d9ea06d	0.077454425
55	0xbd0304dc	-0.031987056
56	0x3e069133	0.13141327
57	0xbccde984	-0.025135763
58	0xbca284e7	-0.019838763
59	0xbd02d562	-0.03194178
60	0x3dba3afa	0.0909328
61	0x3c043a23	0.0080705015
62	0x3d88c496	0.06678121
63	0x3d432e7f	0.047651764
64	0x3db43472	0.08799066
65	0xbce86b18	-0.028371379
66	0x3d5601fd	0.05224799
67	0xbdc4e591	-0.09614099
68	0xbd9b8ea6	-0.075955674
69	0x3b2ef378	0.0026695412
70	0xbc486f2e	-0.012233539
71	0xbdbb0e36	-0.0913357
72	0x3bd700f1	0.0065613915
73	0x3db3b546	0.087748095
74	0x3d443aac	0.047907516
75	0x3d4d8937	0.050179686
76	0x3cdab3a9	0.026696997
77	0xbc9973e3	-0.018732017
78	0x3d04a4c7	0.032383706
79	0xbaa43316	-0.0012527432
80	0xbd962799	-0.073317714
81	0x3d804a30	0.0626415
82	0xbda80a0f	-0.082050435
83	0xbd801e89	-0.06255824
84	0x3d46084c	0.048347756
85	0xbddefe39	-0.10888333
86	0xbc3cdf2c	-0.011527818
87	0xbdce5081	-0.10073949
88	0xbd7ea44d	-0.06216841
89	0xbd7b2fd1	-0.0613249
90	0x3dc51f39	0.09625096
91	0x3d1d1387	0.0383487
92	0xbd82c4ea	-0.063852146
93	0xbd8dd6c6	-0.069257304
94	0x3d8622be	0.06549595
95	0x3c9bdc05	0.019025812
96	0x3d26c39a	0.040713884
97	0x3da36256	0.079777405
98	0x3bbb9c9a	0.0057254555
99	0x3d1f97e6	0.03896322
100	0x3cc3190d	0.023815656
101	0x3d96803c	0.073486775
102	0x3d73d81a	0.059532262
103	0xbdb8ab66	-0.09017067
104	0xbd0c333d	-0.034228552
105	0x3d4cc444	0.04999186
106	0x3d7ec213	0.062196802
107	0x3c8ae9fb	0.016957274
108	0xbd567bf1	-0.052364293
109	0xbd5c6266	-0.053804778
110	0x3dc65bb7	0.09685462
111	0xbd708aab	-0.058725994
112	0x3db04cf1	0.086084254
113	0xbd7266d3	-0.059180092
114	0xbc7bc853	-0.015367585
115	0x3b937dde	0.0045010885
116	0x3c5c35b9	0.013440543
117	0xbd44e408	-0.04806903
118	0x3d62db86	0.055385135
119	0x3d953980	0.07286358
120	0x3db29c46	0.08721213
121	0xbc73dca4	-0.014884148
122	0xbd36127b	-0.044451218
123	0x3d1e2126	0.03860583
124	0x3dbb6150	0.0914942
125	0x3d36e8b8	0.04465553
126	0x3c92f4aa	0.01793893
127	0xbd254943	-0.04035307
128	0xbd94d21c	-0.07266638
129	0x3c9071eb	0.017632445
130	0x3db01264	0.08597258
131	0x3da5eb2e	0.081014976
132	0x3c22cb13	0.009936112
133	0x3cdd570a	0.027019043
134	0xbdc5b376	-0.0965337
135	0x3ca8b424	0.02059371
136	0x3c901db5	0.01759229
137	0x3bed63ac	0.007244548
138	0xbd3bdfab	-0.045867603
139	0x3d7f9125	0.06239428
140	0x3de822a4	0.11334732
141	0xbc8eb5fe	-0.017420765
142	0xbd3f7f1f	-0.04675209
143	0xbc5b9bca	-0.013403842
144	0x3ca25a8f	0.019818572
145	0xbe104895	-0.14090188
146	0xbd22a887	-0.0397115
147	0x3cc512f3	0.024056887
148	0xbdb29fe3	-0.08721902
149	0xbda21b3f	-0.07915353
150	0xbddb00b7	-0.10693496
151	0xbe116a41	-0.14200689
152	0xbce9fc7a	-0.028562773
153	0xbdbe5368	-0.09293252
154	0xbda01b32	-0.07817687
155	0xbda7ac5c	-0.08187172
156	0xbda6cb10	-0.081442
157	0x3d247cbf	0.04015803
158	0x3dabd25c	0.08389732
159	0xbd48cff1	-0.049026433
160	0xbd8370f2	-0.06418027
161	0xbdac66a0	-0.08418012
162	0xbdce6120	-0.10077119
163	0x3d51983f	0.051170584
164	0x3d855ccd	0.06511841
165	0xbd66fc01	-0.056392673
166	0x3d8e56f8	0.06950182
167	0xbdb12424	-0.086494714
168	0xbde9b668	-0.11411744
169	0xbdecf2dc	-0.11569759
170	0xbd81183c	-0.063034505
171	0xbc52b9a5	-0.012861644
172	0xbc599b2e	-0.013281627
173	0x3d87dd8b	0.06634053
174	0x3dc08c5a	0.0940177
175	0x3cc8a667	0.02449341
176	0x3d527db4	0.05138941
177	0x3c09ed00	0.008418322
178	0x3db45359	0.0880496
179	0x3daeb9f5	0.08531562
180	0xbdb2e7da	-0.087356284
181	0xbdd00730	-0.10157621
182	0x3d029ffc	0.031890854
183	0xbd3c3d09	-0.045956645
184	0x3d805c33	0.062675856
185	0xbcbada45	-0.022809157
186	0x3db8e51e	0.09028076
187	0x3cfe0cbb	0.03101193
188	0xbd4a4719	-0.04938421
189	0x3d2d6473	0.042332124
190	0x3d924bf3	0.071433924
191	0xbbd8216d	-0.0065957815
192	0x3cc0daa2	0.023541752
193	0x3ceabefd	0.028655523
194	0xbca127f5	-0.019672373
195	0x3d6bbf30	0.057555377
196	0x3cc82724	0.024432726
197	0x3cedd791	0.029033454
198	0x3d95ba86	0.07310967
199	0xbdadec8a	-0.08492382
200	0xbda07b12	-0.07835974
201	0x3c39ec15	0.01134779
202	0x3c27588e	0.010213984
203	0xbdbab301	-0.091161735
204	0x3cf26bae	0.029592361
205	0x3dccd350	0.10001242
206	0xbcd2af43	-0.025718337
207	0xbd90bc15	-0.07067124
208	0x3d7cd763	0.061728846
209	0xbdb912b3	-0.0903677
210	0x3dac8fab	0.0842584
211	0x3da78a57	0.08180683
212	0xbdb33b61	-0.0875156
213	0x3c31b242	0.010845723
214	0x3d5a12a1	0.053240422
215	0xbbf0c76e	-0.0073479926
216	0x3cf72f82	0.03017402
217	0xbc93e0ed	-0.018051589
218	0xbd846c4b	-0.06465968
219	0x3d2dd6db	0.04244123
220	0xbd465e8f	-0.04843002
221	0xbd842fa4	-0.06454399
222	0xbdb77f45	-0.089598216
223	0xbd8a644a	-0.0675741
224	0x3db07c30	0.08617437
225	0xbd0d0e1d	-0.034437288
226	0xbdb0cd65	-0.08632926
227	0x3da21f3a	0.07916112
228	0xbd10a0b1	-0.035309497
229	0x3dae00f0	0.084962726
230	0xbde41e84	-0.11138633
231	0x3d1f26cd	0.038855363
232	0xbdb57c29	-0.08861572
233	0xbd8ee2e1	-0.069768675
234	0x3dc65afe	0.09685324
235	0xbd56d2f2	-0.052447267
236	0x3c99be40	0.018767476
237	0x3e14aa71	0.14518143
238	0x3da71fce	0.08160363
239	0x3d490dd7	0.049085464
240	0x3cc93305	0.02456046
241	0x3da1efc3	0.07907059
242	0xbd2ef010	-0.04270941
243	0xbcf7ef91	-0.030265601
244	0x3d23181c	0.039817914
245	0x3d7b4668	0.06134644
246	0xbd22e0e9	-0.039765272
247	0x3d8d1dff	0.06890487
248	0x3d7f5f04	0.062346473
249	0xbc55c327	-0.013047016
250	0x3dacd639	0.08439297
251	0xbc8bf5e5	-0.017085025
252	0xbc662b32	-0.0140483845
253	0x3cc7cbc6	0.024389159
254	0x3d72bce9	0.05926219
255	0x3dbbf672	0.09177865

conv1.bias f4 [20]
0	0xbd909f10	-0.07061589
1	0x3d5d7b71	0.0540728
2	0x3cf0b43b	0.029382816
3	0xbdad0f69	-0.08450205
4	0x3da25579	0.07926459
5	0xbd46476b	-0.048407953
6	0xbd74f774	-0.059806302
7	0x3d6d7977	0.057977166
8	0x3da9bfd4	0.082885414
9	0xba71b4dd	-0.0009220371
10	0x3bf493e8	0.007463921
11	0xbdca387f	-0.09874057
12	0x3d8de886	0.06929116
13	0x3cf59ab0	0.029980987
14	0x3d3531f4	0.044237092
15	0xbda1b3b3	-0.07895603
16	0xbd692f5b	-0.056929927
17	0xbc458a42	-0.012056889
18	0xbd8adeb0	-0.067807555
19	0x3c6a1035	0.014286091

conv2.weight f4 [40, 20, 3, 3]
0	0x3d0fc607	0.035100963
1	0x3d919719	0.07108898
2	0x3d34be48	0.04412678
3	0x3d066451	0.032810513
4	0x3b85295f	0.0040637697
5	0xbcd78dad	-0.026312673
6	0xbce7b114	-0.02828268
7	0x3d13a6f8	0.036047906
8	0x3d91bafc	0.071157426
9	0xbdbc945c	-0.09207985
10	0x3cf2b9e7	0.02962966
11	0xbda9b301	-0.082860954
12	0xbd025538	-0.031819552
13	0xbba3f49b	-0.0050035245
14	0x3b9f0246	0.004852566
15	0xbd839646	-0.06425147
16	0xbbc37700	-0.0059651136
17	0xbd6452fa	-0.055743195
18	0xbd3547a8	-0.04425779
19	0xbd0601f9	-0.032716725
20	0x3c418eea	0.0118138585
21	0xbd83c682	-0.06434347
22	0x3d9a8d5c	0.075464934
23	0x3d0f0426	0.034916066
24	0x3aab70e8	0.0013079913
25	0x3c058563	0.008149478
26	0xbcb936a8	-0.02260907
27	0xbc7a9e6b	-0.015296559
28	0xbd40c430	-0.0470621
29	0x3cd5904b	0.02606978
30	0xbb06b779	-0.0020556136
31	0x3d33ea79	0.043924782
32	0xbd1b32ac	-0.03789012
33	0x3d157a21	0.036493424
34	0xbd8d8601	-0.06910325
35	0x3c8ce9df	0.017201362
36	0x381565c1	3.5619134e-05
37	0xbd30071e	-0.042975537
38	0xbdb6b17f	-0.089205734
39	0xbdafbe17	-0.08581179
40	0x3d536c0d	0.051616717
41	0xbc30dfb1	-0.01079552
42	0xbc2d2571	-0.010568009
43	0xbc9b7482	-0.018976454
44	0xbd41a452	-0.04727585
45	0x3d39b508	0.04533866
46	0xbd97ef4a	-0.07418688
47	0xbd478c88	-0.048718005
48	0x3cd4936e	0.025949206
49	0x3c6932d8	0.0142333135
50	0xbd4765c5	-0.04868104
51	0x3d617fb1	0.055053417
52	0x3d8b3d08	0.0679875
53	0x3cc111eb	0.023568114
54	0x3d3b722d	0.045763183
55	0xbcc06e2a	-0.02349003
56	0x3d388767	0.045051005
57	0x3d25cd51	0.040479008
58	0xbd4e4df1	-0.0503673
59	0x3dc4a9f5	0.09602729
60	0xbcd45d71	-0.025923463
61	0x3d0af696	0.03392657
62	0x3d82bf5a	0.06384154
63	0xbd846fb8	-0.06466621
64	0x3d377f7c	0.044799313
65	0x3b8fb3f4	0.0043854658
66	0xbd2a007f	-0.04150438
67	0x3c0150f8	0.00789284
68	0x3d1b49b2	0.03791208
69	0x3c4580d6	0.012054643
70	0x3d3dc162	0.046327002
71	0x3d76d31a	0.060259916
72	0x3c1622e6	0.009163594
73	0x3d3c98be	0.046044104
74	0xbce09b3f	-0.027417777
75	0x3d11ec19	0.03562555
76	0x3d83f315	0.064428486
77	0x3d86f7ef	0.06590258
78	0x3cf8a87d	0.030353779
79	0x3d0114bc	0.031513914
80	0xbbdfed19	-0.006833684
81	0xbd5c5e3e	-0.053800814
82	0x3d10c9de	0.035348766
83	0xbcf1154c	-0.0294291
84	0xbd2b713a	-0.04185603
85	0x3d8d645c	0.06903908
86	0x3bca41c6	0.0061723916
87	0x3c44c7aa	0.012010494
88	0xbbb736cd	-0.0055912496
89	0x3d581adf	0.05276
90	0x3d82e314	0.06390968
91	0xbd129027	-0.035782006
92	0xbcae3e17	-0.021269841
93	0xbc882f33	-0.016624069
94	0xbcb372ad	-0.021905268
95	0x3cef8029	0.029235916
96	0x3d3aef6b	0.045638483
97	0x3d9bb374	0.07602587
98	0xbc64fd94	-0.013976473
99	0xbc87cd8c	-0.016577505
100	0xbc0f7cf8	-0.008757822
101	0x3d7ecd73	0.06220765
102	0x3d246724	0.040137425
103	0xbd8959cd	-0.06706581
104	0x3c8374f4	0.016046979
105	0xbcc2fe3a	-0.023802865
106	0xbd8e702f	-0.06954991
107	0xbaa81e0c	-0.0012826337
108	0xbc936050	-0.017990261
109	0xbd3abf09	-0.04559234
110	0xbccc2ae8	-0.024922803
111	0x3d4c1322	0.049822934
112	0x3d8272aa	0.06369527
113	0x3d847b67	0.0646885
114	0x3c90dd8c	0.017683767
115	0x3d84c101	0.06482125
116	0x3bc77b90	0.006087728
117	0x3bcc84b4	0.0062414054
118	0x3d04c7ea	0.032417215
119	0xbb2ff4c4	-0.0026848773
120	0x3cf3fdcd	0.029784108
121	0xbc6c10dc	-0.014408316
122	0x3d018dd6	0.031629406
123	0xbd446e43	-0.047956716
124	0x3d22dac1	0.0397594
125	0xbc44539e	-0.0119828265
126	0xbcafaf71	-0.021445962
127	0xbcf56990	-0.029957563
128	0xbd923a31	-0.071400054
129	0xbd874ccc	-0.06606445
130	0xbdb6af4b	-0.08920153
131	0xbccfcdbb	-0.025366655
132	0xbd47bee8	-0.048766047
133	0xbcf3c14b	-0.029755255
134	0x3c7294db	0.014805998
135	0x3c371b5d	0.0111759575
136	0xbc9ddd98	-0.019270703
137	0x3cac873a	0.021060575
138	0xbd9273ea	-0.07151015
139	0xbd31aa3d	-0.043375243
140	0xbcc48f3a	-0.023994077
141	0xbd23c7bd	-0.039985407
142	0x3d2d5d1d	0.042325128
143	0x3ce104d7	0.027468128
144	0xbb74e856	-0.0037369928
145	0xbc906154	-0.017624535
146	0xbcba0014	-0.022705115
147	0xbb63f49b	-0.0034783247
148	0x3c83689e	0.016041096
149	0xbd4ab264	-0.049486533
150	0x3d2dea34	0.04245968
151	0x3d823a90	0.06358826
152	0x3d86b4a7	0.065774255
153	0x3d19991f	0.037499543
154	0x3d51c8f4	0.051217034
155	0x3d445889	0.047935996
156	0xbd8346c2	-0.0640998
157	0xbd5ed696	-0.054403864
158	0xbd389939	-0.045068
159	0x3d729315	0.0592223
160	0xbc85b1d5	-0.016320148
161	0xbd7b68c2	-0.0613792
162	0xbb82e971	-0.0039951135
163	0xbd6dd1ce	-0.058061413
164	0xbd4d3f95	-0.050109465
165	0xbbe3e71d	-0.006955041
166	0xbb71ea96	-0.0036913506
167	0x3d47a67a	0.04874275
168	0x3d21e5d6	0.03952583
169	0xbc632857	-0.013864598
170	0x3d1b4263	0.03790511
171	0x3bbb17ed	0.0057096393
172	0xbc62d56e	-0.013844831
173	0x3d1843fc	0.03717421
174	0xbd5e89fb	-0.054330807
175	0xbd78c76a	-0.06073705
176	0xbbcf9fd2	-0.0063361907
177	0xbb8f0069	-0.0043640626
178	0xbd6a91dc	-0.05726801
179	0x3bddfb44	0.006774338
180	0xbd72a0d0	-0.059235394
181	0x3d1c3258	0.03813395
182	0x3d4214bb	0.04738305
183	0xbd65a30d	-0.0560637
184	0xbd0515e8	-0.032491595
185	0x3ce46189	0.02787854
186	0xbb9cde0e	-0.004787213
187	0xbcacb479	-0.02108215
188	0xbd8a2db8	-0.067470014
189	0xbd3942cc	-0.045229718
190	0xbd12484d	-0.035713483
191	0xbd0c11f4	-0.03419681
192	0x3d8af418	0.067848384
193	0x3d407334	0.046984866
194	0xbd3215aa	-0.04347769
195	0xbcb16612	-0.021655116
196	0xbd766b0a	-0.060160674
197	0x3cc19358	0.02362983
198	0xbd3cf217	-0.046129312
199	0x3d1f7223	0.03892721
200	0xbd89f162	-0.06735493
201	0xbcb12244	-0.021622784
202	0x3d5f49b6	0.054513656
203	0x3d55e086	0.052216075
204	0xbcece513	-0.028917825
205	0xbd7724a4	-0.060337678
206	0x3d75c253	0.059999775
207	0xbd3e02cf	-0.046389397
208	0xbd91eec8	-0.07125622
209	0xbd97404d	-0.07385311
210	0xbb50c312	-0.0031854552
211	0xbd908cea	-0.07058127
212	0xbd557487	-0.052113082
213	0x3d5f9eb2	0.054594703
214	0x3d2e38b2	0.042534538
215	0x3d8877c1	0.06663466
216	0xbcd5429a	-0.026032735
217	0xbd84098f	-0.06447136
218	0x3ca921db	0.020646026
219	0x3ce22c0a	0.02760889
220	0x3d99510b	0.07486161
221	0xbc7d1649	-0.015447208
222	0xbcde6578	-0.027147993
223	0x3ba61ddc	0.0050694775
224	0xbd842a4b	-0.06453379
225	0x3d6e7cf5	0.058224637
226	0x3d8b17b5	0.06791631
227	0xbd661728	-0.056174427
228	0x3d7e1053	0.062027287
229	0xbd30c3c6	-0.043155454
230	0xbd8a8536	-0.06763689
231	0x3c8bd363	0.01706857
232	0xbcb028fc	-0.021503918
233	0x3acea532	0.0015765785
234	0xbcc8c5ad	-0.024508322
235	0x3d8f77db	0.070052825
236	0x3d04653a	0.0323231
237	0xbd432a0a	-0.047647513
238	0xbd2bb28f	-0.041918334
239	0xbd564ed0	-0.052321255
240	0x3cb7dfe7	0.022445632
241	0x3d09db6e	0.03365653
242	0xbbe4c046	-0.0069809286
243	0x3c68873a	0.014192397
244	0xbd87159e	-0.0659592
245	0xbd8f9a03	-0.07011797
246	0xbc9ff99b	-0.0195282
247	0xbd3eb8de	-0.04656302
248	0xbca04b4d	-0.019567156
249	0x3d160ca3	0.036633145
250	0x3d5ccc0f	0.053905543
251	0xbd48b026	-0.048996113
252	0xbce0ed95	-0.027457038
253	0xbd8937c9	-0.06700093
254	0x3bd595de	0.0065181097
255	0x3d86800a	0.0656739

conv2.bias f4 [40]
0	0xbcadd790	-0.021220952
1	0x3d26e02e	0.04074114
2	0x3d8c9cc1	0.06865836
3	0xbd428ebd	-0.047499407
4	0xbc88827b	-0.01666378
5	0x3d24b21b	0.040208917
6	0xbd5f73c3	-0.05455376
7	0xbd1149b3	-0.035470676
8	0xba87aa3a	-0.0010350414
9	0x3ca73646	0.020411622
10	0x3cf46699	0.029834079
11	0x3d9772b5	0.073949255
12	0xbca3cb21	-0.01999432
13	0x3d3bca8c	0.04584746
14	0xbd5b3bc0	-0.05352378
15	0x3d96fcb8	0.07372421
16	0x3d84cf87	0.06484895
17	0x3c38d944	0.011282269
18	0xbc876613	-0.016528165
19	0x3d07549a	0.033039667
20	0xbd73dfd4	-0.05953963
21	0xbd41b8cb	-0.047295373
22	0xbd24726c	-0.040148184
23	0xbd1ca06d	-0.03823893
24	0xbc68c8b4	-0.014208008
25	0xbc28acf3	-0.010295141
26	0xbd0bb693	-0.034109663
27	0xbd5b73eb	-0.053577345
28	0x3d43c17c	0.047791943
29	0x3c3ed36b	0.011647086
30	0xbc01b731	-0.007917211
31	0x3c9299b9	0.017895566
32	0x3d18642d	0.03720491
33	0xbcc2223d	-0.023697967
34	0x3babd4a8	0.0052438565
35	0x3d2c38d3	0.04204638
36	0x3d3c7379	0.04600856
37	0x3d7fc4a4	0.06244339
38	0x3ce9d229	0.028542595
39	0x3cd0ece9	0.025503593

fc1.weight f4 [1, 6760]
0	0x3c16df6a	0.0092085395
1	0x3c5369ef	0.0129036745
2	0x3b68f602	0.0035547023
3	0x3c7c9f4a	0.015418837
4	0x3caf39d3	0.021389877
5	0x3c71cd87	0.014758474
6	0x3c0cf4b0	0.00860326
7	0x3cbec776	0.02328847
8	0x3c0e8707	0.008699185
9	0x3c7b0b0c	0.015322458
10	0x3bae9373	0.005327636
11	0xbbd8f907	-0.0066214832
12	0xbabb5b88	-0.0014294246
13	0x3bf6e8af	0.0075350623
14	0x3c52834a	0.012848685
15	0x3b151126	0.0022745817
16	0x3c405685	0.011739378
17	0x3c9ee06b	0.01939412
18	0x3c74b401	0.014935494
19	0x3bed5aec	0.0072435047
20	0x3cb11be4	0.021619745
21	0x3ca8bed9	0.020598816
22	0x3c4ee65b	0.012628163
23	0xbbc8d63c	-0.0061290544
24	0xbba8c30a	-0.0051502036
25	0xba632409	-0.00086647324
26	0x3c502110	0.012703195
27	0x3c441418	0.011967681
28	0x3c091f37	0.008369259
29	0x3c4d2c6e	0.0125228
30	0x3c486d47	0.012233085
31	0x3c8ab3b1	0.016931387
32	0x3cc10e3c	0.023566358
33	0x3bd3db34	0.00646534
34	0x3bd8c8f7	0.0066157538
35	0x3c2deb21	0.010615141
36	0x3c2beb91	0.010493175
37	0x3c2ee50d	0.010674727
38	0x3bda2ad9	0.00665794
39	0x3b2fbf73	0.0026816993
40	0xbb0478e7	-0.0020213665
41	0x3c8493d6	0.016183775
42	0x3c2481de	0.010040728
43	0x3bcfec27	0.00634529
44	0x3c1b3d8f	0.009475126
45	0x3ba88b78	0.005143579
46	0x3c5b3152	0.013378458
47	0x3ca60403	0.020265585
48	0x3c31f6b5	0.010862042
49	0x3ab59e00	0.0013856292
50	0x3c5f85b8	0.013642721
51	0x3bb404ab	0.0054937205
52	0x3ba396d4	0.0049923453
53	0xbaa08a7d	-0.0012248304
54	0x3c466783	0.01210964
55	0xba0dbec4	-0.00054071494
56	0x3c092ced	0.008372528
57	0x3b0107f6	0.0019688583
58	0x3c7630b6	0.015026262
59	0x3c5d4a1b	0.013506438
60	0x3b2cc539	0.002636267
61	0x3caa99ca	0.020825285
62	0x3bcac0bf	0.006187528
63	0x3beeb1bd	0.0072843716
64	0x3c586a26	0.0132089015
65	0x3c1043cd	0.0088052275
66	0x3c2e56b8	0.010640793
67	0x3c2593c8	0.010106035
68	0xba73e671	-0.0009304053
69	0x3ba65e9e	0.005077197
70	0x3c29b751	0.010358647
71	0x3bda03c2	0.00665328
72	0x3b9025c2	0.0043990323
73	0xbb69fac0	-0.0035702437
74	0x3c09bdd2	0.008407073
75	0x3c86c984	0.016453512
76	0x3c9880bb	0.018616071
77	0x3c452dfe	0.012034891
78	0xbaf5afe1	-0.0018744433
79	0xbb17cf63	-0.0023164384
80	0xbb46adc7	-0.0030315982
81	0xbbef0094	-0.00729377
82	0x3c36e563	0.0111630885
83	0x3c8dd52f	0.017313568
84	0x3ca98cb0	0.020696968
85	0xbb950a47	-0.0045483443
86	0x3c461b9f	0.012091546
87	0xbb17cf90	-0.0023164488
88	0x3c62d2ef	0.013844236
89	0x3cb39081	0.02191949
90	0x3c9950eb	0.018715343
91	0xbb2e326b	-0.0026580344
92	0xbbda8100	-0.00666821
93	0xbaa1f4c5	-0.0012356272
94	0x3b8d4b42	0.00431195
95	0x3be3b7eb	0.006949415
96	0x3c8d7d37	0.017271621
97	0x3c413653	0.011792737
98	0xba927967	-0.0011175097
99	0x3c273376	0.01020514
100	0xbbc211e5	-0.0059225434
101	0x3bbfa184	0.0058481116
102	0x3bb9c0b6	0.005668725
103	0x3c93540c	0.017984413
104	0x3c2d371e	0.010572223
105	0xbc3afb61	-0.011412472
106	0x3aac4ae6	0.001314488
107	0xbb1b13db	-0.0023662958
108	0x3c3b5e41	0.011436046
109	0x3ae675d7	0.0017582726
110	0xbc19d969	-0.0093902135
111	0x3a2273db	0.00061970734
112	0xbb08e8f8	-0.0020890813
113	0x3b71e599	0.0036910533
114	0x3c28f87a	0.010313148
115	0xbaba6a58	-0.0014222367
116	0x3bcb30f6	0.006200905
117	0x3ba85e3b	0.0051381863
118	0xb9a0a15d	-0.00030637803
119	0xbc18b8ff	-0.00932145
120	0xbc3ffa12	-0.011717336
121	0x3b7c0556	0.003845533
122	0xbb3528c4	-0.0027642706
123	0xbc0dd2de	-0.008656232
124	0xbb56909f	-0.003274001
125	0x3bd6d544	0.006556185
126	0xbb2022bb	-0.0024434763
127	0x3bddff02	0.006774784
128	0xbb991971	-0.0046722223
129	0x39f130fe	0.00046003604
130	0xbad032ff	-0.0015884339
131	0x3bb29054	0.005449334
132	0xbc363200	-0.011120319
133	0xbc570867	-0.013124562
134	0x3c1ce433	0.009575891
135	0x3c17d9d7	0.009268246
136	0xb994c569	-0.00028375842
137	0x3be52e3f	0.0069940384
138	0x3c13d4ce	0.009022905
139	0xbc0f8f79	-0.008762234
140	0x3c3b938c	0.011448752
141	0xbba577a9	-0.005049665
142	0x3b9ece91	0.004846402
143	0x3b933a43	0.0044930293
144	0x3c358e8a	0.011081347
145	0x3c4fad6a	0.0126756225
146	0xbb8c9470	-0.004290156
147	0xbba44a5c	-0.005013747
148	0x3b645ed7	0.0034846568
149	0x3b979322	0.004625694
150	0x3c085f2a	0.00832347
151	0xbc219475	-0.009862055
152	0xbbf60e1e	-0.007509007
153	0x3c02a240	0.007973254
154	0x3c05abff	0.008158683
155	0xbc05d8cb	-0.008169363
156	0x3c147c1d	0.009062794
157	0xbb775a03	-0.003774286
158	0x3c2286c0	0.009919822
159	0x3c4e5c2b	0.012595217
160	0x3c55b3ab	0.013043324
161	0x39d49c2b	0.00040552145
162	0xbb154449	-0.0022776297
163	0xbc1d49fb	-0.009600158
164	0x3c0f487a	0.008745307
165	0x3c0b69b6	0.00850909
166	0x3c1d9b8e	0.009619607
167	0xbb019c9c	-0.0019777184
168	0x3c4d5091	0.012531416
169	0xb8bad275	-8.908372e-05
170	0xbb903c1a	-0.004401696
171	0x3b8c187e	0.0042753806
172	0xb9e154a3	-0.00042978404
173	0xbbf89d1e	-0.007587089
174	0xbc35db77	-0.011099688
175	0x3b0b1a94	0.0021225559
176	0x3bcd2888	0.006260935
177	0x3b84e222	0.0040552774
178	0x3c2080c0	0.009796321
179	0xbb81083d	-0.0039377497
180	0xbc0a2b85	-0.008433227
181	0x3bc7e5c5	0.0061003887
182	0xbc258f88	-0.010105021
183	0x3afec29b	0.0019436659
184	0x3b995879	0.004679736
185	0xbc517dfe	-0.012786387
186	0xbba0f366	-0.004911828
187	0xbb54eb19	-0.0032488762
188	0x3b4f768b	0.003165635
189	0xbc2bf8d7	-0.01049634
190	0x3aae966a	0.0013319973
191	0xba8e76d8	-0.0010869158
192	0x3c3983fb	0.0113229705
193	0x3c2aa2a4	0.010414753
194	0xbc0a1cdb	-0.008429731
195	0xbbd0f78d	-0.0063771666
196	0x3b562764	0.0032677287
197	0xbc20bc82	-0.009810569
198	0xbba6c680	-0.005089581
199	0x3948b70f	0.00019141681
200	0x3bb2458f	0.005440421
201	0x3bd66ff8	0.0065441094
202	0x3b2f96cb	0.002679276
203	0xbbf9d8ff	-0.007624745
204	0x3b600caa	0.0034187236
205	0x3bdb5a9d	0.0066941516
206	0xbc35533b	-0.011067207
207	0x3c1510b5	0.009098222
208	0xbc4b8192	-0.012421029
209	0x3b82fdae	0.003997526
210	0x3ba04712	0.0048912847
211	0xbc817c0a	-0.015806217
212	0xbb84934a	-0.0040458785
213	0xbbc1c79e	-0.005913689
214	0x3b7e8c3a	0.0038840906
215	0xbc4d0152	-0.012512522
216	0xbbfb46d3	-0.007668355
217	0xbb7bcd2b	-0.003842185
218	0xb9b066d9	-0.00033645963
219	0xbc46b019	-0.012126946
220	0x3a945c86	0.0011319078
221	0x3a656815	0.0008751166
222	0xbba32ffd	-0.004980086
223	0xbc338a99	-0.010958337
224	0xbc21be18	-0.009871982
225	0xbb766557	-0.0037597024
226	0x3ac108c3	0.0014727343
227	0xbb3a96b8	-0.0028471183
228	0xbc5f3409	-0.013623246
229	0xbc236fc8	-0.009975381
230	0xbb8037d8	-0.003912907
231	0x3b695a79	0.0035606904
232	0x3b332a51	0.0027338455
233	0xbc369337	-0.011143497
234	0x3b7e74ac	0.0038826866
235	0x3c0a5195	0.008442302
236	0xbc122132	-0.008919047
237	0xbc0306e9	-0.007997253
238	0x3bd001e9	0.006347884
239	0xbc5761e8	-0.013145901
240	0x3b9f1033	0.004854226
241	0xbbaf8381	-0.0053562527
242	0xbbeb84f8	-0.007187482
243	0xbc110b30	-0.008852765
244	0xbc4d2cac	-0.012522858
245	0x3bd013fc	0.0063500386
246	0xbc37d414	-0.011219997
247	0xbc3a3e03	-0.011367324
248	0xbc19b40e	-0.009381307
249	0xbbca067d	-0.0061653242
250	0x3b4cdcc0	0.0031259507
251	0x3c3d3d7a	0.011550302
252	0xbb8b7087	-0.0042553577
253	0xbc77701f	-0.015102415
254	0xbc041615	-0.008061905
255	0xbc2acaee	-0.010424359
