ConvLSTM/Sequence/0.82_86_A_S.pt (torch, 84919 bytes, 7 tensors)

conv_lstm.conv.weight f4 [40, 13, 3, 3]
000000 d0 4a 10 bd ac 22 2f 3c cb 16 0a bd fc 59 dc bb
       -0.035227597 0.010689419 -0.033713143 -0.006724594
000010 c0 da 63 bd 7b ca 87 3d ee d0 13 bd 7f f0 f4 3c
       -0.055628538 0.06630417 -0.036087923 0.029899834
000020 c8 20 b3 3d 10 7f 61 bb 5b ac 83 3c fd 0a 94 bd
       0.08746487 -0.003440801 0.016073396 -0.07228658
000030 80 43 0d 3d a4 9f 2f bc e2 82 d4 3d 60 a9 0e bc
       0.0344882 -0.010719214 0.103765264 -0.008707374
000040 c8 24 a9 3d d5 ce d9 3c 3d ee c9 3d 26 d8 84 3d
       0.082589686 0.026587883 0.098598935 0.064865395
000050 7a 64 9c bc 32 cf 8c bd a6 6d 05 bd 26 4b 7b bd
       -0.01909088 -0.06875457 -0.032575272 -0.061350964
000060 4b ad 61 bd b4 4a 91 bd 82 0f 96 3d da d2 a8 bd
       -0.055096906 -0.070943266 0.07327177 -0.08243342
000070 50 99 88 bd 3d 0d 5e bd c5 03 98 bd 50 42 4f bd
       -0.06669867 -0.054211844 -0.07422594 -0.05060035
000080 ed 71 2c bb f2 33 a9 bd ba 14 22 bc 6b e9 86 3c
       -0.0026313022 -0.08261861 -0.009892637 0.016468724
000090 55 66 91 bd 98 88 cf bd d8 7c 71 bd 57 ab 98 bd
       -0.070995964 -0.10133475 -0.05895695 -0.074545555
0000a0 b4 20 8f 3d 95 39 56 bd 82 d1 bf bb b1 b3 8b bd
       0.069886595 -0.05230101 -0.0058538327 -0.06821383
0000b0 e2 61 54 bd 4c 1c a1 bd 6c 18 1d bd 66 83 86 bd
       -0.05185116 -0.07866725 -0.03835337 -0.06568031
0000c0 62 c2 78 3d ce 71 63 bc 01 fb a1 bc a3 a4 c1 3d
       0.060732253 -0.013882114 -0.019773008 0.0945523
0000d0 0f 45 24 3d cd 92 7a bd e5 ca 01 3d df eb 50 3c
       0.040104922 -0.061175156 0.031687636 0.012751549
0000e0 94 1a a4 3c 49 78 68 3c 3e 8b c6 3d e3 f8 be 3d
       0.020032205 0.0141888345 0.09694527 0.09324815
0000f0 73 d9 07 bc 66 23 ca 3d de c1 25 3d af 3a ba 3d
       -0.00829159 0.09870033 0.04046809 0.09093224
000100 63 20 ac 3d d3 30 bd 3c e9 2e 7f 3d c8 a4 e0 3d
       0.08404615 0.02309457 0.062300596 0.109689295
000110 30 97 d7 3c 86 b1 4c 3d 94 22 02 bd 00 d8 de 3c
       0.026317209 0.049973987 -0.031771258 0.027202606
000120 05 9a 10 3d 00 f9 5c bd 41 67 62 3c 63 69 da bc
       0.035303134 -0.053948402 0.013818563 -0.02666158
000130 86 c4 b4 bd 84 16 ba bd 78 78 45 3c b2 9b 5e bd
       -0.08826546 -0.09086326 0.012052648 -0.0543477
000140 d7 cb 09 3d 33 13 a8 3c 97 81 bf bd b3 fa 90 bd
       0.033641662 0.020516967 -0.09350889 -0.07079067
000150 f1 ac 99 bd c9 0f 36 3d 53 84 0e bc 4d c8 b9 bc
       -0.07503689 0.044448648 -0.008698541 -0.022678519
000160 fa c9 fe 3c d5 c6 5a 3a c0 ec cd 3d fc 93 98 3d
       0.03110217 0.00083456683 0.10054922 0.07450101
000170 5a bf 58 3d 73 01 04 3c c7 7a 79 bd 53 64 25 3d
       0.052916862 0.008056986 -0.060908105 0.04037888
000180 d3 66 82 bc 77 01 35 3d 26 3a 96 bd b7 7f 64 bd
       -0.015918171 0.04419085 -0.0733531 -0.05578586
000190 14 e8 f2 3d 04 b2 f3 bc 15 53 88 bc b8 9b a7 3d
       0.11860672 -0.02974797 -0.01664118 0.08183998
0001a0 85 4b 57 bd ab 52 1c bd bd b7 bb 3d 75 f2 1a 3d
       -0.052562255 -0.038164776 0.09165905 0.03782888
0001b0 32 7f 6a bc 21 df b3 3d b0 e5 f8 3a af 82 38 bd
       -0.014312552 0.08782793 0.0018989351 -0.045046505
0001c0 c5 6a 8d 3c d9 32 dd bc a1 6b a7 bd 64 8d 8f bd
       0.017262826 -0.027001785 -0.081748255 -0.0700939
0001d0 e6 3b 28 bd c1 50 17 3c d8 5c 8b bc 21 31 49 3d
       -0.04107275 0.009235562 -0.017012045 0.04911912
0001e0 5d 94 9e 3d 62 ae 2a 3d 37 a8 ef 3c 09 55 85 3d
       0.07743142 0.04167021 0.029255016 0.0651036
0001f0 d7 a6 08 3d 8d 9e 90 bd 4a 41 c2 3d 32 c0 7f 3d
       0.033362236 -0.07061491 0.09485109 0.06243915
000200 e4 a5 8b bd 2b ff 4f 3d 47 3f 4c bd 29 dc 98 3d
       -0.068187505 0.050780457 -0.049865033 0.07463867
000210 33 dd b8 3d 21 97 2a 3c b9 ce 1f bd 37 a1 c8 bc
       0.090265654 0.0104120085 -0.039015505 -0.024490936
000220 a0 d2 22 bc 7d 9c e2 bc 07 e1 b7 3d 3e 25 ab 3d
       -0.009937912 -0.02766251 0.089784674 0.08356713
000230 b8 c3 2f bc 44 0d ae bd 20 b8 c0 39 02 ac 8d 3c
       -0.010727815 -0.08498624 0.00036758278 0.017293934
000240 54 41 6f 3d d0 6a 52 3a 5a 1d a5 3c 68 87 84 bd
       0.05841191 0.00080267806 0.020155597 -0.06471139
000250 38 28 5d bd bc 1c 16 3d 21 e3 66 3d e6 52 4c bc
       -0.053993434 0.036648497 0.05636895 -0.012470936
000260 7f 5d 58 3c fc 0e 67 bd 0d 5c 7e bd d9 b8 ff 3c
       0.013205885 -0.056410775 -0.062099505 0.031216072
000270 c1 ac 38 bd 31 8e c6 bb 46 cf e6 3c 67 f3 a2 3d
       -0.045086626 -0.006059431 0.028175008 0.079565816
000280 17 c8 33 bd c9 00 5e bd e6 ee 83 bd 78 cd 64 3d
       -0.043891992 -0.054199968 -0.06442051 0.055860013
000290 69 34 df ba 61 50 ba bc 02 d9 09 bd 2d 17 1c bd
       -0.0017029169 -0.022743406 -0.03365422 -0.03810804
0002a0 03 c9 b2 3d 8d 6a 25 3d aa ff 34 bc fb c0 66 3d
       0.08729746 0.040384818 -0.011047283 0.056336384
0002b0 0e b2 a1 3b b4 58 a8 3d e4 05 b9 3c cb 13 71 3c
       0.004934556 0.08220044 0.022585817 0.014714192
0002c0 b8 00 ae 3c 7c b9 d0 3c 4a a3 c2 3d d8 5a 1a 3d
       0.021240577 0.02547907 0.09503801 0.03768429
0002d0 c9 aa 69 3c df 7b 6a bd b9 d1 3a bd dd 81 86 3d
       0.01426191 -0.05724704 -0.045610163 0.06567738
0002e0 d2 e8 ce 3d 3f a1 e8 3d 28 27 66 3b a6 84 63 3d
       0.10103001 0.1135888 0.0035118554 0.055546425
0002f0 f3 da 7d 3d cf 41 a1 bd 48 95 93 3d a0 48 3c 3d
       0.061976384 -0.0787388 0.072062075 0.045967698
000300 81 86 38 3c 95 25 59 3c 25 a4 5e 3d 10 ef 93 3d
       0.011262537 0.013253589 0.05435576 0.07223332
000310 05 fa 66 3d da da c9 3c ed d2 02 3d 22 e9 75 3d
       0.05639078 0.02464049 0.031939436 0.060036786
000320 fe 27 89 3c 43 e4 02 bd ca 57 e1 bc b0 88 9f bc
       0.016742703 -0.03195597 -0.027507681 -0.019474357
000330 f2 94 8f 3d 79 dd 5e 3d ac 14 f7 3c 58 61 10 3c
       0.07010831 0.05441043 0.030161224 0.008812271
000340 6b a2 da 3c 24 5a c1 3c 06 ec 89 bd 1a df 7e 3d
       0.026688775 0.023602553 -0.06734471 0.062224485
000350 da ac e6 3b db 2f 79 bd a9 05 d2 3c f9 30 6b bd
       0.0070396485 -0.060836654 0.025637465 -0.05741975
000360 c2 7c 00 bd b6 a6 f0 3c 94 5b d7 3b 17 63 84 bc
       -0.03136898 0.029376369 0.0065721963 -0.016160531
000370 d6 77 65 bd c1 24 d2 38 bb 10 e9 ba 1d 4b 61 3d
       -0.056022488 0.00010020426 -0.0017781475 0.055003274
000380 0d 54 8d 3d 95 ae 55 bb 9c bb d2 3c a5 0e 10 3b
       0.06900797 -0.003260528 0.025724225 0.0021981385
000390 a5 40 d8 bd 63 46 7e bd 67 e7 0d 3d 52 93 fe 3c
       -0.10559205 -0.062078845 0.03464451 0.031076107
0003a0 f2 a3 35 bd 29 65 8b 3d 27 e6 27 bd ff eb 8e bd
       -0.044345804 0.06806404 -0.040990975 -0.069786064
0003b0 9e e8 ec 3c 16 84 a9 bd 22 f0 b7 3d 29 cd c9 3d
       0.028919514 -0.082771465 0.089813486 0.09853584
0003c0 42 ff e8 3c 4b 6d f1 3c 73 5a 73 3d 29 d4 af bc
       0.028442029 0.02947106 0.05941243 -0.02146347
0003d0 0c cb 35 3d d8 64 9d bd 3d 6d 29 bd 59 8b f0 bc
       0.044383094 -0.0768525 -0.041363943 -0.029363321
0003e0 f0 ea e2 bc 25 cc cf 3d f8 db e7 3c eb a1 77 3d
       -0.027699918 0.10146359 0.028303131 0.06045715
0003f0 52 a5 92 3d 84 30 8e bd 5d 10 95 3d 7f 20 8c bd
       0.071604386 -0.06942847 0.07278512 -0.06842136

conv_lstm.conv.bias f4 [40]
000000 44 0b fd 3c fe 1e 4a 3d 04 84 c3 3b 19 84 32 bc
       0.03088916 0.049345963 0.005966665 -0.010895752
000010 9b ac d3 ba 4a 5c 52 bd 81 1b ed 3b 06 23 13 3d
       -0.0016149463 -0.051357545 0.0072359447 0.035922073
000020 f8 7f 07 3d e7 92 31 3b cb 3e 99 3d f9 0f e6 bc
       0.033081025 0.0027095617 0.0748268 -0.028083788
000030 93 6c a6 bd 9c d4 91 3d 7e eb 65 bc ad f3 88 3d
       -0.08126178 0.0712063 -0.0140331965 0.066871025
000040 2f 49 a1 3d 82 27 11 3c 0a 62 c5 3c 9f 5c 6f bc
       0.07875287 0.008859517 0.0240946 -0.014609485
000050 52 52 a1 bd 10 d1 3b 3d 7e 93 00 bd 91 1b b4 3d
       -0.078770295 0.045853674 -0.03139066 0.087943204
000060 f3 de 77 3c d6 12 f7 3c e6 4d 99 bd ca 24 f3 3a
       0.015128839 0.030160349 -0.07485561 0.0018550393
000070 9e ec cc 3d 80 e5 98 bc ca 51 de bb 16 a6 f4 bc
       0.10006069 -0.018664122 -0.0067846524 -0.029864352
000080 92 15 97 3d 6e 90 aa bd 55 80 a7 bd 8c 9c bb 3c
       0.07377161 -0.08328329 -0.08178774 0.022901796
000090 4c 16 ea bd 7a 56 22 bd bb 53 0b bd d3 ce 46 3d
       -0.11430034 -0.03963325 -0.0340154 0.048537087

conv1.weight f4 [20, 10, 3, 3]
000000 58 e7 93 bd f5 b2 98 3d a6 22 47 3d 02 af ac 3c
       -0.0722186 0.07456008 0.048617028 0.021079544
000010 4b 7e 10 bc 90 4b a9 bd 42 64 c3 bd 37 77 9c bd
       -0.008819173 -0.082663655 -0.09540607 -0.07639926
000020 1d cf c6 bd 64 73 18 3d 33 fc d5 bd 96 a6 a0 bd
       -0.097074725 0.03721942 -0.10448494 -0.07844274
000030 f1 56 83 bd f8 73 71 bd d4 9a 8b 3d 18 b8 a3 3c
       -0.06413067 -0.058948487 0.068166405 0.019985244
000040 da 90 83 bd d6 4f fc bc 1b ac 3c bd 5f 8f c9 3c
       -0.064241126 -0.030799787 -0.04606257 0.024604497
000050 62 4d d5 3c 2f c1 02 bd e7 33 97 bd e0 b0 8f bd
       0.026037876 -0.031922515 -0.073829465 -0.07016158
000060 5d 9b 9a bd 8c 31 bd 3d 04 23 39 bc e1 f7 73 bd
       -0.075491644 0.09237966 -0.011299852 -0.059562568
000070 36 fa ea 3c ab 96 dc 3d 9b 48 d7 3d 64 b2 08 3d
       0.028683763 0.10770925 0.10511895 0.03337325
000080 9b 45 f7 3d 73 b0 6b 3d 9d 0f 9f bd c4 ec 68 bd
       0.12073823 0.057541322 -0.0776665 -0.056866422
000090 df 18 b8 bd 6c 75 e3 3d a7 97 ce 3c 56 7c 3d bd
       -0.08989119 0.11106381 0.025218798 -0.046261154
0000a0 27 97 d9 3b 57 a8 1e 3d 68 fb 49 bc ff 65 63 bd
       0.006640333 0.03873476 -0.012328006 -0.055517193
0000b0 5d de 00 3d 7d ef b8 3d 33 0b 37 bd df 9a df bc
       0.031462062 0.09030054 -0.044688415 -0.027295528
0000c0 6c 5b c4 3d a5 8e 04 3a ca 33 65 3d 6d d6 80 bd
       0.0958775 0.0005056656 0.055957593 -0.062908985
0000d0 88 f7 d7 bd f8 c5 14 bd e9 af 8d 3c 27 3e 91 3d
       -0.1054526 -0.03632161 0.017295795 0.07091933
0000e0 5f ef c3 3d 0a 39 ac 3c 6e b7 92 3d ce 43 18 3d
       0.09567141 0.021023292 0.07163893 0.03717404
0000f0 ea 02 82 3a 30 ef f0 bc a4 33 ce bd 51 72 d4 3d
       0.0009919081 -0.029410928 -0.100684434 0.103733666
000100 ee 27 47 bd ae 39 80 bd 4b de a7 3d e3 e9 14 3c
       -0.048622064 -0.062610015 0.08196696 0.009088966
000110 67 3e aa bd 05 05 87 3d dc 45 93 bd 26 0e c7 3d
       -0.083126836 0.06592754 -0.07191059 0.097194955
000120 b4 3f a1 3c 46 ae 99 bd 13 7f da 3b 13 99 5a bd
       0.019683696 -0.07503943 0.0066679805 -0.05336864
000130 d2 fe c7 3d 6d 39 2f 3d 12 4e f3 3d fb cb e3 3d
       0.097654 0.042779375 0.11880125 0.111228906
000140 a0 15 f1 3d 10 e9 9f bd 70 bc e8 bd 54 a1 05 3d
       0.11771703 -0.07808125 -0.113640666 0.032624558
000150 aa 6c c6 bd 8d b1 d9 bd 16 d6 01 bd f6 f7 55 bc
       -0.09688695 -0.10629568 -0.03169831 -0.013059607
000160 aa 95 c2 bd fd 62 be bd 0e a5 47 bd 72 52 5b bc
       -0.095012024 -0.09296224 -0.048741393 -0.013386356
000170 ff 7c 5d bd 38 d1 d2 3d e4 38 99 bd 0a a2 8d bd
       -0.054074284 0.102938116 -0.07481554 -0.06915672
000180 c2 8f 4c bd 31 03 8d 3d d1 35 aa 3d d2 51 b8 3d
       -0.049941786 0.06885374 0.08311046 0.08999981
000190 ff cf 05 bd 4e bf c3 3c ac 97 52 bd 8e f1 b5 bb
       -0.032669064 0.023894932 -0.051414177 -0.005552477
0001a0 da fa 23 3d 80 b4 28 3d 84 cb 3a bb de 1e 82 3d
       0.040034153 0.041187763 -0.0028502652 0.06353544
0001b0 82 f1 ec 3c 01 cd 7c bd 80 1e 8c 3d 62 ef b1 bd
       0.028923754 -0.061718944 0.06841755 -0.08688237
0001c0 08 0f d8 bb 67 e0 8b 3d 6b d1 86 bd 9f 66 35 bc
       -0.0065935887 0.06829911 -0.06582912 -0.01107183
0001d0 8b 8c 4a bd f6 71 c6 bd 23 3f 53 3c 7a ec 55 bd
       -0.04945044 -0.09689705 0.012893471 -0.052227475
0001e0 da a3 b8 bb 17 09 93 bd 14 a3 8b ba f4 bc f7 3c
       -0.005634767 -0.07179468 -0.001065346 0.030241467
0001f0 43 9f 53 3d f9 1b a6 3c 97 2c f2 3c d8 69 b1 3d
       0.051665556 0.02027701 0.029562278 0.08662766
000200 e0 05 81 bb 03 a1 64 3d c1 bb 2f 3d 8f 95 bc bd
       -0.003937468 0.055817615 0.042903665 -0.092082135
000210 80 25 10 bd 79 17 8d 3d 4a 35 1f bc 72 8d 8b bd
       -0.035192013 0.06889243 -0.009717295 -0.06814088
000220 1a 4a 85 3c 7f ce a2 3d 6a 9f 64 bd 90 df 7b bd
       0.016270686 0.07949542 -0.05581609 -0.061492503
000230 de 15 8c bd cc 08 94 bd 20 4a c2 3d 02 c3 3b bd
       -0.06840108 -0.0722824 0.094867945 -0.04584027
000240 00 12 f5 bc 70 23 ec 3c fc 45 4e bd db 60 d0 bd
       -0.02991581 0.028825492 -0.05035971 -0.10174724
000250 0c c9 d6 bc 51 7c 9c bd d0 6f ab bd 5e f4 8e bd
       -0.026218913 -0.07640899 -0.08370936 -0.06980203
000260 db d0 6f bd 57 a2 15 3d f5 38 bf 3d 80 d2 e6 3c
       -0.05854879 0.036531772 0.093370356 0.028176546
000270 91 f0 b4 bd 0c f7 11 bd 92 b3 6a 3d 01 7b 1d bd
       -0.08834947 -0.035635993 0.057300158 -0.038447384
000280 fa 32 94 bd 26 61 96 bd e9 76 ee bd cf 59 be bc
       -0.072362855 -0.07342748 -0.11643774 -0.023236183
000290 19 6b 4a bd d8 32 6e 3d 7b ea bb bc f4 2d a1 3d
       -0.049418543 0.058153957 -0.022938957 0.07870093
0002a0 b3 83 ee bc 96 06 8b 3d 00 7b a8 bd 47 9f 06 3e
       -0.029115533 0.067883655 -0.082265854 0.13146697
0002b0 89 8a 56 3c b8 e5 6f bd ad 36 87 bd 1c fa 56 3d
       0.013094553 -0.058568686 -0.066022255 0.052484617
0002c0 32 f8 8b 3d 92 fb 10 bd 68 ba d8 3d b7 31 0b 3d
       0.06834449 -0.035396166 0.10582429 0.03398296
0002d0 4f ad c3 bc 0a a7 b2 bc b6 dc 8b 3d 35 34 1e 3c
       -0.02388635 -0.021808166 0.06829207 0.009656002
0002e0 fe d8 d5 bd 58 12 c7 3d ff 44 c3 3d 83 55 18 bc
       -0.104417786 0.09720296 0.09534644 -0.009297731
0002f0 4f 08 ba 3c a5 c9 80 bd 8e 24 de 3c 44 e2 7e 3d
       0.02270904 -0.06288461 0.02711704 0.062227502
000300 1d 58 ab bd a4 ee 3e bd 55 f2 9c 3d 36 67 b3 3c
       -0.08366416 -0.046614304 0.07663409 0.0218998
000310 4b 5e 2c bd e0 6a 3b 3d 0a 8f 60 bd 1f b1 a4 3d
       -0.042082112 0.04575622 -0.054823913 0.08041596
000320 ca f9 58 3d 41 37 78 bd e7 17 cc 3d 28 50 2a bd
       0.052972592 -0.06059957 0.099654965 -0.04158035
000330 6a 36 85 3d f9 ad bb bd 88 99 e7 3c 68 9b 0e bd
       0.06504519 -0.09164042 0.028271452 -0.034816176
000340 8b 5e b5 bb c4 49 95 3b 08 61 8c 3d 50 a3 ca bd
       -0.005534952 0.0045559127 0.06854445 -0.09894431
000350 3c a4 47 bd 1e 02 b5 bd 10 de 80 bd 66 0c 2b bd
       -0.04874061 -0.088382944 -0.06292355 -0.04175987
000360 59 be c9 bd 11 b8 e1 3c 30 b7 c9 bd 12 98 c5 bd
       -0.09850759 0.02755359 -0.09849393 -0.09648146
000370 1c a9 db 3d 83 bd c4 3d 4e b3 b3 3d 85 8a c1 3d
       0.107256144 0.09606459 0.08774434 0.09450249
000380 10 63 c4 3d d9 01 56 3d 6b b6 15 bd 86 9f 82 3d
       0.09589207 0.052247856 -0.03655092 0.06378083
000390 56 52 d3 bd b3 8f 83 bc 68 72 51 ba 8f 51 a6 3d
       -0.10318439 -0.016059732 -0.0007989765 0.08121025
0003a0 ff 26 bb bd ca 27 ba bd ca 55 bb 3c a4 e9 c0 bd
       -0.09138297 -0.090896204 0.022868056 -0.094195634
0003b0 ab aa aa bc a3 84 10 bd 24 f7 9f bb 54 f4 5a bc
       -0.020833334 -0.035282742 -0.0048817564 -0.013363916
0003c0 da c3 79 3c 75 f4 04 3c ad 95 ed bd d4 31 c8 bb
       0.015244449 0.008114924 -0.11600814 -0.0061094556
0003d0 c1 c3 fd ba f9 1d 1c bd 97 7c aa 3d e3 a0 98 bd
       -0.0019360707 -0.03811452 0.08324545 -0.07452562
0003e0 c0 e5 26 3d 98 68 92 bd 77 c7 d1 3b 78 ee 86 3b
       0.04074645 -0.07148856 0.006401952 0.004117783
0003f0 bc c0 b1 3c 1f f5 7e 3d 9e a7 17 bd 9d 0f 17 bd
       0.021698348 0.062245484 -0.037025087 -0.036880124

conv1.bias f4 [20]
000000 45 dd 86 3d ba 4c 06 3d be 96 80 3d 3c 29 21 3c
       0.065851726 0.032788016 0.06278752 0.009836491
000010 d4 dd 90 bd 72 30 c8 3a 4e b1 a5 3d 20 56 d2 3d
       -0.0707356 0.0015273227 0.08090459 0.10270333
000020 7a 89 79 bd f1 74 ba bd c1 72 8e 3c 7c e4 c3 3d
       -0.060922123 -0.09104336 0.017388703 0.09565064
000030 40 17 be 3d 66 19 88 3d b3 37 eb 3d 21 e7 6c 3c
       0.09281778 0.06645469 0.11485233 0.014459402
000040 95 2c d6 3b a3 15 49 3d 12 1b 07 bd c8 12 e6 3d
       0.0065360763 0.0490929 -0.0329848 0.11234051

conv2.weight f4 [40, 20, 3, 3]
000000 ee 32 0d bc 1c be fe 3c f4 ff 68 3d a4 31 16 bd
       -0.0086181 0.03109651 0.05688472 -0.036668435
000010 ee 6b 66 bc 36 1e 3f bd 15 8f d6 bc e7 48 a3 bc
       -0.014063818 -0.04665967 -0.026191274 -0.019932223
000020 4f 14 4c 3d c7 f6 55 3d 5c f7 c5 bc 7c 42 4f 3d
       0.049824055 0.0522373 -0.024165802 0.050600514
000030 0a c1 bc 3c 62 42 60 bc f7 a3 27 3c 22 9c 89 3d
       0.023041267 -0.013687702 0.010231963 0.06719233
000040 80 33 b9 bb e6 05 ad bc c6 4f 19 3d e8 d3 75 3d
       -0.005651891 -0.021120977 0.037429594 0.060016543
000050 d1 7a 27 3d 99 b4 f2 3b 70 c1 28 3d bf 17 9f 3b
       0.04088861 0.007406783 0.0412001 0.0048551257
000060 a9 7b 2a 3c 31 b2 f3 bc 46 ea 5e 3d ef bb 87 3d
       0.010405459 -0.029748054 0.05442264 0.06627642
000070 1d 1d 07 3d ac c1 41 bd a6 c1 0b 3c d4 81 57 3d
       0.03298675 -0.04730384 0.008530056 0.052614048
000080 c7 79 62 3c bd 57 8f bd 43 b1 77 bc 0a f1 9e 3c
       0.013822979 -0.069991566 -0.015117946 0.019402046
000090 21 51 87 bd 3f ee 3a bd 22 bc 63 3c 7d 82 06 3c
       -0.06607271 -0.045637365 0.013899835 0.008209822
0000a0 22 9f 64 bd 76 92 fb 3c 02 bb 5a bd 73 b7 6f bd
       -0.055815823 0.030709486 -0.053401 -0.05852456
0000b0 88 36 7b bc af 54 87 3d c2 99 95 3c c9 fa 48 bd
       -0.0153328255 0.06607949 0.018261794 -0.049067292
0000c0 14 95 65 bd 88 fb 1d ba f3 83 11 bd bf 96 2f bd
       -0.056050375 -0.0006026556 -0.035526227 -0.042868372
0000d0 80 92 d0 bb e9 b4 bb bc fd 5e 02 bd 70 09 5d bd
       -0.0063651204 -0.022913413 -0.03182887 -0.05396408
0000e0 66 f8 86 3d 3b 00 be 3c 97 89 7a 3a 2f ac 18 bd
       0.06590347 0.02319347 0.00095572456 -0.037273582
0000f0 61 42 44 bd 91 a0 1c 3d 06 16 c1 3a 81 2b 3a 3d
       -0.047914866 0.038239066 0.0014731295 0.045451645
000100 f1 2a 4d bc 73 3a b1 3c 81 47 1d 3d c2 5f 7a 3d
       -0.012522445 0.021634316 0.03839827 0.061126478
000110 c9 9a 54 bd 14 e5 2d 3d fa 53 d7 3c 2c c7 7e 3a
       -0.051905427 0.042454794 0.02628516 0.000971901
000120 64 e5 80 bd 0b 8f 5f bd 95 4b 33 3c d2 1b 50 3d
       -0.06293753 -0.054579776 0.010943313 0.05080778
000130 18 4b c5 bc fc 08 24 3c aa b7 83 3c 3c 6e 48 bd
       -0.024083659 0.010011908 0.016078789 -0.048933253
000140 2a c0 74 3d dc f2 8e bd bb ba 4f 3c 2a 37 21 3d
       0.059753574 -0.069799155 0.012678797 0.03935925
000150 09 a9 2b bc 17 67 59 3d a6 66 e1 3c 0b 93 24 3d
       -0.010477313 0.05307683 0.027514767 0.040179294
000160 20 a0 56 bd 73 e3 1f 3c 38 a1 45 3d 28 de 84 3b
       -0.0523988 0.009758818 0.048249453 0.0040548034
000170 a1 9e af 3b 10 3b e9 bc 81 b8 73 3b 05 3e 48 bd
       0.005359486 -0.028470546 0.003718883 -0.04888727
000180 9d 32 5f 3b b9 64 0d bc 7d 18 bd bc df c6 96 3d
       0.0034057267 -0.008629971 -0.023082966 0.073621504
000190 26 86 13 bd e4 d5 ae bc 72 ed a4 3d 82 13 b2 3c
       -0.036016606 -0.021342225 0.080531016 0.021737818
0001a0 5d 5e ca 3c 87 5d 1b 3d ee e6 2a bc 45 15 30 3d
       0.024703199 0.03793099 -0.0104310345 0.042989034
0001b0 21 46 0f 3d 2f 3a 38 bd cb 5d 43 bd 9b 77 20 bc
       0.03497899 -0.044977363 -0.04769687 -0.009794141
0001c0 98 f7 39 bd fe 1e ab 3c a1 7d 3d bd c1 24 87 bd
       -0.04540214 0.020888802 -0.046262387 -0.06598807
0001d0 16 ad b6 bc 73 bf 35 3d e7 42 a0 bc 74 5b bf 3c
       -0.02229933 0.044372033 -0.019563152 0.023359038
0001e0 dc e7 98 3d 61 c7 da bc d3 43 22 3d c3 84 62 3d
       0.07466099 -0.0267064 0.039615463 0.055302393
0001f0 52 80 f8 3c 03 8c 12 3d 99 bf d2 3c 73 f7 3d 3c
       0.030334625 0.035778057 0.025726127 0.011594641
000200 e2 c7 66 bd a1 a8 a8 3b f5 a9 17 bd d8 68 55 3d
       -0.056342967 0.0051470553 -0.037027318 0.05210194
000210 eb 9a 0a 3d fc c3 6f 3d 1c 0b a7 3d 01 fa b9 bc
       0.033839148 0.058536515 0.08156416 -0.022702219
000220 ec 89 e5 bc 65 d4 7e 3d 9e 9e d8 3c d8 15 37 3c
       -0.028019868 0.062214274 0.026442822 0.011174642
000230 31 0e 7e 3d 03 ad 46 3d 06 90 a9 bc 25 b7 62 bd
       0.062025253 0.04850484 -0.020698559 -0.05535044
000240 c3 54 89 bc 14 7e 52 3d 03 6f 36 3d c5 a9 1f bc
       -0.01676405 0.05138977 0.044539463 -0.009745066
000250 1d 06 7e bd fd c0 46 bd b3 0b 51 3d 91 4e a2 3c
       -0.06201755 -0.04852389 0.051036548 0.019812854
000260 d0 ec 16 3d bb a6 9e 3b 42 4c c7 3c fa f0 42 bd
       0.036846936 0.004841653 0.024328355 -0.047593094
000270 b5 ea b5 3d ca 3c 9b bb 22 8c a6 3b 13 40 a0 bb
       0.088826574 -0.004737471 0.005082623 -0.0048904507
000280 a7 f2 c9 3c 8a 7e 03 bd c8 74 81 bc 88 6d 74 ba
       0.024651838 -0.0321031 -0.015802756 -0.0009324183
000290 e8 3d 48 3d c0 ad 8a bd 32 2b 56 3a aa f4 0e 3d
       0.048887163 -0.067714214 0.0008169889 0.0349013
0002a0 7a 66 b2 3c 06 12 76 bc 20 a8 d5 bc 54 b8 6f 3d
       0.02177738 -0.015018946 -0.026081145 0.0585254
0002b0 f6 63 20 3d 36 8b 65 3d 35 5c db bc 01 03 8e 3d
       0.03915783 0.056040965 -0.026777366 0.06934167
0002c0 8d 15 1b 3d 68 da a0 3d c4 9a 2f 3d 56 73 21 3c
       0.03786235 0.07854158 0.042872205 0.009854158
0002d0 b3 95 3e bd 02 1d 95 bc 73 13 71 3d 28 3b ee 3c
       -0.046529483 -0.018202309 0.05885644 0.029080942
0002e0 15 97 1c bd 51 17 65 bd 09 0d 8a 3d 45 51 9c 3d
       -0.03823002 -0.05593044 0.067407675 0.076326884
0002f0 67 af e2 3c 5a 16 94 3a c1 aa 0d 3d 97 4a b2 3c
       0.027671529 0.0011298165 0.03458667 0.021764083
000300 e0 4e a1 3d 09 bb ef 3c f7 ab 79 3d 9b 38 aa 3d
       0.07876372 0.02926399 0.060955014 0.08311578
000310 57 28 23 3d 7e 29 88 bc d3 da 08 bc d7 29 20 3d
       0.039833393 -0.016621348 -0.008352953 0.0391024
000320 76 be 82 3d e2 30 a4 bc a7 16 b6 bc 21 25 27 ba
       0.06383984 -0.02004284 -0.022227598 -0.0006376077
000330 fe af b4 bc c7 22 a7 3d fd 1d 83 3d fc e2 44 3c
       -0.022056576 0.0816093 0.06402204 0.012017008
000340 c8 e1 92 3d 53 f3 81 bb 60 f9 f2 3c 16 52 25 3d
       0.071719706 -0.003965774 0.029659927 0.040361486
000350 0b 47 df bc d1 de 8e bd bd 2d 80 3d f6 fd 45 3c
       -0.027255556 -0.069760926 0.06258724 0.012084475
000360 f6 42 52 b9 63 ed 32 bd ac 96 b1 bd 12 8b 5d 3d
       -0.00020052106 -0.04368342 -0.086713165 0.054087706
000370 fc a4 b8 bd 49 8e f7 3b ae 81 1f 3d 0d 1f 3d bc
       -0.09015843 0.0075548035 0.03894203 -0.011543048
000380 8e 6b 5f 3d 3a a2 1f bd 9b 3f f4 bb 8a a3 47 bd
       0.05454593 -0.03897307 -0.0074538714 -0.048739947
000390 d4 63 08 bd d0 72 df 3c c1 90 a3 bc 13 65 30 bc
       -0.03329833 0.027276427 -0.019966485 -0.0107662855
0003a0 7f a1 b1 3c 30 c4 4f 3d d4 11 c7 3c 80 70 fc 3c
       0.021683453 0.05072421 0.024300493 0.030815363
0003b0 d9 5d 55 3d 17 0e 85 bd 30 ae 47 3d d9 c2 1e 3d
       0.052091453 -0.06496828 0.048750103 0.03876004
0003c0 84 df 31 3d 82 84 15 3b 11 78 fd bc ff 0f 01 3c
       0.04342605 0.0022814577 -0.030941041 0.007877349
0003d0 ea 49 80 bd 0b e9 4c bd 42 dc 94 3d 85 e5 0e 3d
       -0.06264098 -0.050026935 0.07268573 0.034886856
0003e0 bd 2c 38 3d a5 e5 0a 3d d0 e6 61 bd 29 fd 64 3d
       0.04496454 0.033910412 -0.05515176 0.055905495
0003f0 a5 21 55 bd e8 c9 92 bc 45 2b 8e 3d 52 bd 7e bc
       -0.05203404 -0.017918542 0.06941847 -0.015548067

conv2.bias f4 [40]
000000 c1 ba 60 3d 26 a7 4c 3d ff b7 1f bb 29 75 32 bd
       0.054865602 0.049964093 -0.0024371145 -0.043568764
000010 14 89 3b bd 2c ae b0 3c 69 a8 d6 bc a1 f6 b4 bc
       -0.045785025 0.021567427 -0.026203351 -0.022090258
000020 21 e2 07 bb 84 e5 7e ba 53 8d 85 bd ea 49 e3 bc
       -0.0020734149 -0.00097235315 -0.06521096 -0.027745206
000030 f0 92 4e 3d ab 88 ab 3c 0f c2 0b bc 79 08 02 bd
       0.0504331 0.020939192 -0.008530154 -0.03174636
000040 c3 26 29 3d 51 c3 86 bd cf bd f7 3c 99 aa 87 bd
       0.04129673 -0.065802224 0.030241875 -0.06624336
000050 06 9b 30 3c da ae 77 3b 6f d9 a6 ba 8b 86 f2 bb
       0.010779148 0.0037793429 -0.0012729595 -0.0074012927
000060 24 ec 51 bd 3f 80 2f bc b3 f3 3f 3d 91 9d 6c 3d
       -0.051250592 -0.010711729 0.04686327 0.057767455
000070 4d 44 17 3c b5 00 b8 bc 67 25 20 3d 9f 41 f0 38
       0.009232593 -0.022461275 0.03909817 0.00011456315
000080 5c 7a 4b bd b3 e0 38 bc 44 cc 4f 3d ef d1 8e bb
       -0.049677238 -0.011284041 0.050731912 -0.004358522
000090 ef e4 a5 3d da 1b e9 3c 4a 95 a7 3c a9 86 9a bc
       0.08100306 0.028455663 0.020456929 -0.01886304

fc1.weight f4 [1, 6760]
000000 ea 76 e0 bb 1f 7f af bb 54 57 30 bc df 34 80 bb
       -0.006850113 -0.00535573 -0.010763008 -0.0039125527
000010 6f 7f 5e bc ce 8b 0d bc 94 fd b5 bc 13 7e 91 bc
       -0.013580187 -0.008639289 -0.022215642 -0.017760312
000020 4c 0b 49 bb 76 34 4d bb ce 66 69 bc c5 1f 8b bc
       -0.00306769 -0.0031311787 -0.014245702 -0.016982922
000030 61 96 f0 bb 43 a2 7e bc 6d e2 63 bc 0f bb 99 bc
       -0.0073421453 -0.015541616 -0.013908965 -0.018765954
000040 87 d1 be bc b1 a3 84 bb 8b c3 80 bc 88 c8 28 bc
       -0.02329327 -0.004047834 -0.015718242 -0.010301717
000050 e8 3a 8f bc ad 30 04 bc ad 0b 1f bc 04 72 8e 3a
       -0.017484143 -0.008068246 -0.009707374 0.001086772
000060 d5 ba 99 bc 8d 50 85 bc fd 07 ea bb 27 50 87 bc
       -0.018765846 -0.016273761 -0.0071420656 -0.016517712
000070 f3 6c b3 bc 77 3d 32 bc 1c 97 cd bc 34 05 bd bc
       -0.021902537 -0.010878912 -0.025096469 -0.02307377
000080 9d fa b0 bb 14 3b fd bb 10 27 8e bc 69 fe 27 bb
       -0.005400969 -0.00772799 -0.01735261 -0.0025633818
000090 4f 6d 3b bc 5a 67 a3 ba f5 f6 90 bc da a3 f4 bb
       -0.011439635 -0.0012466714 -0.017695883 -0.0074658217
0000a0 3f c2 48 bc 93 3b e4 bb a0 d1 ad bc c4 2e fb bb
       -0.012253343 -0.0069651096 -0.021218121 -0.007665487
0000b0 aa 37 ae bc a0 42 84 bc 34 a2 d0 bc b1 79 6a bb
       -0.021266777 -0.01614505 -0.02546797 -0.00357781
0000c0 be 4b c4 bc b2 0a b6 bc cf 9e 8f bc 4d 1d db bb
       -0.023961898 -0.022221897 -0.01753178 -0.0066868425
0000d0 b3 bc a6 bc 42 37 67 ba 72 6f 20 bc 4f 7a 44 bc
       -0.02035365 -0.0008820185 -0.009792196 -0.011992051
0000e0 45 78 a7 bc 89 40 39 bb 1e 2e 38 bc e4 66 9f bc
       -0.020443091 -0.0028267226 -0.011241464 -0.019458242
0000f0 77 85 b1 bc 3b 30 19 bc bc 4f 84 bc 42 61 67 bb
       -0.021670086 -0.009349878 -0.016151302 -0.0035305773
000100 83 e3 5a bc 09 78 ad bc ce 81 09 3b 69 ab 92 bc
       -0.013359907 -0.021175401 0.002098191 -0.017904
000110 28 e9 1d b9 b9 2e e5 b9 a6 38 85 bc df f0 82 bb
       -0.00015059544 -0.00043713095 -0.016262364 -0.003995999
000120 18 52 be bc 97 69 09 bc 9b 01 5a bc 16 7e 62 bc
       -0.023232505 -0.008386991 -0.013306047 -0.013824007
000130 88 5c 93 bc 14 9d 75 bc 72 0f 9e bc b9 12 9a bc
       -0.017988458 -0.014991064 -0.019294474 -0.018807756
000140 af 1b 4f bc 57 7d 96 bc 68 54 73 bb bf 10 a4 bc
       -0.012640878 -0.018370314 -0.0037129167 -0.020027516
000150 69 9d aa bb 93 09 b6 bb 12 9b 25 3b e3 78 c0 b8
       -0.005206753 -0.0055553406 0.002526943 -9.17779e-05
000160 81 01 bf bc bc bc 0f bc 9a f9 49 bb 43 22 cf bb
       -0.023316147 -0.008773025 -0.003081894 -0.006321223
000170 aa ec a4 ba a8 1d 3d bc 1d 87 8a bc 71 43 36 bc
       -0.0012582738 -0.011542715 -0.01691013 -0.011124478
000180 ca 72 e5 bb c0 0b fb 3a 2d 4e 18 3b 89 a2 51 bc
       -0.0070022093 0.0019153282 0.0023239956 -0.012795099
000190 c3 82 b2 ba ea b0 d5 bb a5 3f 46 bc 36 77 72 bc
       -0.0013619292 -0.006521334 -0.012100135 -0.01479893
0001a0 5a 0a 63 bc 42 1d 66 bc be f6 dd bb 20 d4 2a 3b
       -0.0138574485 -0.014045062 -0.0067737987 0.0026066378
0001b0 52 b5 b4 ba 23 c9 ab bc d9 ec 9f bc 6c f0 01 bc
       -0.0013786948 -0.020969933 -0.019522117 -0.007930856
0001c0 af 8b 2f bc 5a a2 f1 3a 57 b0 07 3a b0 84 50 b9
       -0.0107144555 0.0018435225 0.0005176118 -0.00019885856
0001d0 88 52 9c bb fd 1a 4b bc ac 90 95 3a da cd 51 3b
       -0.0047705807 -0.012396571 0.0011410913 0.0032013566
0001e0 82 5d 6e bc 10 45 30 bc 6a 26 9a bc c2 23 94 bc
       -0.014548661 -0.010758653 -0.018817145 -0.018083457
0001f0 ad 34 9a bb c7 01 39 3b 21 41 5e bc 18 f9 80 bc
       -0.0047059865 0.002822982 -0.013565333 -0.015743777
000200 7f 5a 88 bc 83 c0 aa bc 6f 6e 44 bc 18 40 82 bc
       -0.016644714 -0.02084375 -0.01198922 -0.015899703
000210 a3 50 79 3b 71 a9 7e bb a6 34 01 bc 7e c9 94 bc
       0.0038042448 -0.003885832 -0.0078860875 -0.018162485
000220 38 f0 5a bc fe 53 2a 39 6e c9 84 bc a2 a3 39 bc
       -0.013362937 0.00016243753 -0.01620933 -0.011330517
000230 20 de 24 bc b5 55 96 bc 55 09 8a bc 1c e0 11 bb
       -0.010062724 -0.018351415 -0.016850153 -0.0022258824
000240 d1 e9 4c bc 79 22 f6 bb 0c 61 82 bc c8 25 ef bb
       -0.012506918 -0.0075114337 -0.015915416 -0.007298205
000250 ba dc 7d bb 24 73 06 bb 10 67 d9 bb 6c 49 2e bc
       -0.00387363 -0.0020515407 -0.0066346005 -0.010637622
000260 76 db d5 bb 3b cd 2d bc fc 46 88 bc f6 de 1f bc
       -0.006526406 -0.010608013 -0.01663541 -0.009757748
000270 ba 7a a0 bc 04 3b a3 bc 1f 07 5c bc 21 86 af 3a
       -0.01958977 -0.019925602 -0.013429432 0.0013391414
000280 60 d3 a6 bb 30 cb 89 3a 42 cf 74 bc ec 5b 8a bc
       -0.005091116 0.0010512825 -0.014941992 -0.016889535
000290 ab c0 f0 bb 19 07 91 ba 5c a6 7d bc 94 68 14 bb
       -0.0073471866 -0.0011064737 -0.015481558 -0.0022645341
0002a0 e8 85 fb 39 30 bf 14 bc 56 69 ac bc 7e 08 2a bc
       0.0004797422 -0.009078786 -0.021046322 -0.010378001
0002b0 d3 43 ee 38 fe 78 ad bb 97 26 06 bc cd 3b f1 ba
       0.000113613576 -0.0052939644 -0.0081879115 -0.0018404663
0002c0 6f 0c a3 bc be 0f 5e bc 6b 5c 30 bc 50 ec 94 bc
       -0.01990339 -0.013553558 -0.010764222 -0.018179089
0002d0 d1 bb b7 bc 4a b2 b5 bc aa c3 44 bb 38 3c b7 bc
       -0.022428425 -0.022179741 -0.0030023851 -0.022367582
0002e0 34 d8 79 3a e4 0d 3e bc ea 63 b4 bb ee 0d b1 bb
       0.0009530813 -0.0115999915 -0.0055050747 -0.005403272
0002f0 8b bc 4b bc 71 e0 cc 39 36 8b aa ba 67 15 ad bc
       -0.012435089 0.00039077134 -0.0013011459 -0.02112837
000300 69 5a 70 bc c8 4b 3f bb 43 79 de bb 92 ec ad bc
       -0.014669993 -0.0029189456 -0.006789358 -0.02123097
000310 eb 4e b3 bc 87 b6 c9 ba 87 62 51 bc 32 b2 3b bc
       -0.021888217 -0.001538948 -0.012779838 -0.011456059
000320 72 17 b9 bc bd 69 e3 bb e4 84 36 bb 47 75 c4 bb
       -0.022594187 -0.006940095 -0.0027850205 -0.005995426
000330 49 b3 ea bb 22 5a fd 3a e0 87 3b bc 4b 77 4c bc
       -0.0071624857 0.001932923 -0.011445969 -0.012479614
000340 12 ce 35 bc e6 79 22 bc 5f 24 34 bc d1 0e 83 bc
       -0.011096494 -0.009916758 -0.010995 -0.015998276
000350 97 85 b2 bc 6d ab 95 ba 84 6e 5c ba 48 06 a9 bc
       -0.021792216 -0.0011418887 -0.0008408802 -0.020632878
000360 76 b7 79 bc 9e 7a 02 bc 5a e8 ac bc e5 e3 ce bb
       -0.015241494 -0.0079638045 -0.021106888 -0.0063137882
000370 90 b4 83 bb 4c 62 5a bc 46 45 6e bc 92 9e 8e bc
       -0.0040193275 -0.0133291 -0.014542883 -0.017409597
000380 48 a5 24 bb 55 6e 41 bc 76 fa 13 bc f1 04 0d bc
       -0.002512293 -0.01180609 -0.0090318825 -0.008607135
000390 0b 6b 30 bb 6f e2 8b bb cc f2 a5 bc a0 5f b5 ba
       -0.0026919271 -0.0042689363 -0.020257376 -0.0013837703
0003a0 2b 81 8d bc ec 36 cb ba 8b f2 5b bc 26 46 17 ba
       -0.017273506 -0.0015504039 -0.013424526 -0.0005770646
0003b0 e8 da fc bb c1 53 f2 ba bc 0f 28 bc c1 84 34 bc
       -0.0077165253 -0.0018488095 -0.010257658 -0.011017979
0003c0 71 95 de bb 35 db 45 ba 83 b5 42 bc 50 fd 83 bc
       -0.006792717 -0.0007547618 -0.011884096 -0.016112
0003d0 57 4a a2 bb 47 4b 0c bc 0c 08 3d bc c2 d8 5a bc
       -0.0049527097 -0.008562869 -0.011537563 -0.013357343
0003e0 ec 23 c6 bb f9 64 1e bc d8 ca 8c bc 6c 79 0d bc
       -0.0060467627 -0.009667628 -0.017186567 -0.008634906
0003f0 82 19 13 bc 76 b7 1b bc 19 52 2e bb ed ca 69 bc
       -0.0089782495 -0.00950419 -0.0026599227 -0.014269573
