ConvLSTM/Sequence/0.82_56_A_S.pt (torch, 84919 bytes, 7 tensors)

conv_lstm.conv.weight f4 [40, 13, 3, 3]
0.027279759 0.05964633 -0.025791718 -0.0034329784 -0.0194805 0.036975607 0.06724372 -0.011057155
0.013170567 0.04639837 0.012865284 0.070908375 0.059017953 0.075916156 -0.024269113 -0.06365932
0.04630328 -0.08681073 0.057980258 0.0056244214 0.03199462 -0.07891484 0.0851452 0.036256243
0.054469123 -0.0260207 0.00056776 0.009892761 -0.018662022 0.05553451 -0.013597529 -0.035897173
-0.059305396 -0.048148435 -0.050261214 0.05275376 -0.06876176 0.009655332 -0.034694962 0.014062401
-0.08372992 0.0429829 0.01737649 0.009584387 0.059040997 0.060624696 0.02709316 0.04261269
-0.06920197 0.084812924 -0.07045848 -0.021331562 -0.088325426 0.016024895 -0.05758764 -0.070463814
-0.07818161 0.061149843 -0.02916171 -0.09001033 0.04395346 0.068216234 0.078647815 0.081129886
-0.030751834 -0.066049285 -0.007060794 -0.087491915 -0.04944685 0.010199569 0.017400067 0.090611935
0.052868024 0.020071512 0.02734014 -0.057178464 0.023822287 -0.010107527 -0.045319296 0.03845975
0.091831766 -0.075319126 -0.07200699 -0.005241114 -0.012602222 0.07952063 0.020975793 0.056328684
0.0034772875 0.01914954 -0.09189794 -0.088856116 -0.048882157 0.08039928 -0.041243836 0.05141869
0.02419571 0.027362075 -0.05104496 -0.027949693 -0.011120426 0.016564358 -0.0190833 0.08748729
0.015511367 -0.067892864 0.058473144 -0.0060282946 -0.074212216 0.0010223592 -0.03245064 -0.0046863267
0.0070020957 0.0866555 0.025760017 -0.09155287 -0.047907084 0.13973857 0.01071521 0.043183085
0.00014553306 -0.010709952 0.036822915 0.054560516 -0.03293869 0.1217433 0.049850285 0.093710825
0.04455955 0.12164528 0.055029072 0.110655785 0.018731633 -0.013696525 -0.022785535 0.122631304
0.054295957 -0.008062703 -0.008389823 -0.026094904 0.044742506 0.10178889 0.112202354 0.09795297
0.058221854 0.13746232 0.12799148 0.13933526 -0.00022711526 0.07192631 0.11414364 0.09726487
0.038476516 0.10563531 0.06795924 -0.05203192 -0.029158289 0.1280547 0.12556112 0.06301487
0.07504053 -0.011543953 -0.08242375 -0.022382595 -0.004743459 -0.11664561 -0.10920201 -0.013742884
-0.0005828781 0.033499777 0.004742962 0.016121788 -0.057167303 0.02685776 -0.14169836 -0.07368939
0.023027113 -0.11784292 -0.15032175 -0.12550922 -0.031795077 -0.12076106 -0.050328206 -0.123861685
0.021796321 -0.0536896 -0.042462997 -0.0392231 -0.027896693 0.12450214 0.067509204 0.00964526
0.02901991 0.031524483 0.030345047 0.12619378 -0.004023857 0.08890469 -0.009518872 -0.11164235
-0.02839817 -0.023156466 0.041117437 -0.07751017 0.020557454 -0.056071553 -0.06663444 -0.087485276
-0.038997613 0.019829616 -0.019299826 -0.08140554 -0.09582638 -0.061701268 -0.04157262 0.029472858
-0.0116168875 0.057931487 -0.005537306 -0.012327764 0.13589045 0.06767642 0.12713751 0.054339048
0.12719022 -0.0071501723 -0.051678713 0.006615939 0.019795107 -0.11716018 0.008269315 -0.12991038
0.032103844 -0.0035498831 -0.06165013 0.10211808 0.10683092 -0.051430915 -0.031638883 0.09912592
-0.058170933 0.033331018 0.073671475 -0.07335866 0.029225964 0.02772869 0.058168273 0.06416719
0.07527117 -0.07253772 0.09466766 0.07723902 0.038671523 0.020441748 0.0874279 0.10252545
00000000: cd79 df3c b64f 743d 2749 d3bc d2fb 60bb
00000010: 9295 9fbc bc73 173d 13b7 893d 1229 35bc
00000020: 5dc9 573c 380c 3e3d eac8 523c 6938 913d
00000030: cfbc 713d ee79 9b3d 05d0 c6bc d15f 82bd
00000040: 82a8 3d3d d3c9 b1bd b57c 6d3d 114d b83b
00000050: ca0c 033d 1b9e a1bd 9b60 ae3d 6d81 143d
00000060: 041b 5f3d 5d29 d5bc bbd5 143a 3f15 223c
00000070: 19e1 98bc 2878 633d 2cc8 5ebc ea08 13bd
00000080: 37ea 72bd 4b37 45bd b4de 4dbd 5414 583d
00000090: f7d2 8cbd 6631 1e3c 4e1c 0ebd fc65 663c
000000a0: 987a abbd d60e 303d 2459 8e3c d507 1d3c
000000b0: f9d4 713d 9a51 783d 7af2 dd3c a58a 2e3d
000000c0: c3b9 8dbd 66b2 ad3d 894c 90bd 87bf aebc
000000d0: f6e3 b4bd a446 833c 04e1 6bbd 554f 90bd
000000e0: ae1d a0bd 4278 7a3d 8ae4 eebc 5657 b8bd
000000f0: 8b08 343d f4b4 8b3d 1b12 a13d 6d27 a63d
00000100: 45eb fbbc d944 87bd 3c5e e7bb f62e b3bd
00000110: c888 4abd 181c 273c 968a 8e3c c092 b93d
00000120: 248c 583d 036d a43c 6ef8 df3c f733 6abd
00000130: f526 c33c 0a9a 25bc baa0 39bd f987 1d3d
00000140: 4b12 bc3d ea40 9abd 6778 93bd a7bd abbb
00000150: 8d79 4ebc b6db a23d 6dd5 ab3c e8b8 663d
00000160: 34e3 633b 7fdf 9c3c fd34 bcbd 32fa b5bd
00000170: a838 48bd 61a8 a43d 4cef 28bd 679c 523d
00000180: 1536 c63c 6e26 e03c 8514 51bd c1f6 e4bc
00000190: 7232 36bc fab1 873c 9554 9cbc 892c b33d
000001a0: 6323 7e3c 6a0b 8bbd 8981 6f3d 0089 c5bb
000001b0: 93fc 97bd af00 863a f6ea 04bd c28f 99bb
000001c0: d671 e53b 7078 b13d ac06 d33c 1280 bbbd
000001d0: 383a 44bd a117 0f3e d98e 2f3c bfe0 303d
000001e0: 3c9a 1839 cb78 2fbc a0d3 163d d97a 5f3d
000001f0: b8ea 06bd 8d54 f93d d02f 4c3d 76eb bf3d
00000200: 1384 363d 2921 f93d 2a66 613d 809f e23d
00000210: 1573 993c 6467 60bc bba8 babc 1f26 fb3d
00000220: 7065 5e3d 6d19 04bc 7875 09bc fbc4 d5bc
00000230: eb43 373d b276 d03d 59ca e53d 919b c83d
00000240: 0a7a 6e3d ecc2 0c3e 3310 033e e7ad 0e3e
00000250: ca25 6eb9 1a4e 933d 24c4 e93d ce32 c73d
00000260: 8d99 1d3d 5357 d83d 372e 8b3d 6c1f 55bd
00000270: 5ddd eebc c520 033e 1893 003e f10d 813d
00000280: d9ae 993d d922 3dbc c8cd a8bd b45b b7bc
00000290: 056f 9bbb e5e3 eebd 4ea5 dfbd d529 61bc
000002a0: 4acc 18ba 1037 093d d96a 9b3b d711 843c
000002b0: 4328 6abd ce04 dc3c 6019 11be 77ea 96bd
000002c0: 5ba3 bc3c a157 f1bd f2ed 19be 7d85 00be
000002d0: 8e3b 02bd 9351 f7bd f324 4ebd 32ab fdbd
000002e0: 338e b23c a0e9 5bbd aeed 2dbd 67a8 20bd
000002f0: 9b87 e4bc fafa fe3d 4442 8a3d 2707 1e3c
00000300: 2abb ed3c d11f 013d 2d96 f83c f138 013e
00000310: 8fda 83bb aa13 b63d 0bf5 1bbc bfa4 e4bd
00000320: 47a3 e8bc a1b2 bdbc c26a 283d a7bd 9ebd
00000330: 1b68 a83c 49ab 65bd a377 88bd 7b2b b3bd
00000340: f6bb 1fbd b871 a23c ab1a 9ebc f3b7 a6bd
00000350: 9f40 c4bd 78ba 7cbd 0d48 2abd 1071 f13c
00000360: c254 3ebc 9149 6d3d 4a72 b5bb 64fa 49bc
00000370: de26 0b3e ef99 8a3d 5630 023e 9f92 5e3d
00000380: 273e 023e fe4b eabb 0fad 53bd 85ca d83b
00000390: 5929 a23c adf1 efbd 057c 073c 3a07 05be
000003a0: 527f 033d 28a5 68bb d984 7cbd 4923 d13d
000003b0: 2bca da3d 39a9 52bd c697 01bd 8802 cb3d
000003c0: a544 6ebd 1b86 083d 12e1 963d 113d 96bd
000003d0: 4a6b ef3c 4727 e33c db41 6e3d 166a 833d
000003e0: c527 9a3d a88e 94bd 1ee1 c13d 7e2f 9e3d
000003f0: 0866 1e3d 7475 a73c 660d b33d ddf8 d13d

conv_lstm.conv.bias f4 [40]
-0.0026698443 0.044334542 0.030661853 0.076267205 0.07367935 0.0698161 -0.0050830664 0.055253636
-0.07499037 -0.006102247 -0.020892309 0.112310685 -0.07417037 0.03470532 0.036586493 0.08245424
-0.08147016 -0.047734495 -0.046303257 0.04760916 -0.059785105 0.03551989 -0.052655175 -0.010045252
-0.06299534 0.006169266 -0.048054595 0.028492218 -0.018958572 -0.0054502496 0.089310065 -0.07219122
-0.0844989 0.0026380157 -0.073981985 0.09238229 -0.036052126 0.042986054 0.01886424 -0.0914936
00000000: 8ef8 2ebb 2398 353d 912e fb3c fb31 9c3d
00000010: 33e5 963d befb 8e3d da8f a6bb a351 623d
00000020: 8d94 99bd 5cf5 c7bb 5926 abbc 2503 e63d
00000030: a3e6 97bd 2a27 0e3d b8db 153d c5dd a83d
00000040: d4d9 a6bd 3f85 43bd 7ca8 3dbd d301 433d
00000050: 3ae1 74bd 4e7d 113d f4ac 57bd d794 24bc
00000060: b303 81bd 8e27 ca3b e5d4 44bd 8368 e93c
00000070: 024f 9bbc 0298 b2bb 32e8 b63d fed8 93bd
00000080: c20d adbd 8fe2 2c3b de83 97bd ed32 bd3d
00000090: 65ab 13bd 2512 303d 2e89 9a3c ff60 bbbd

conv1.weight f4 [20, 10, 3, 3]
0.06705314 0.04428052 -0.026589202 -0.10515526 -0.04315745 -0.09985492 0.048559193 -0.023406735
-0.066955596 0.098073035 -0.0026005234 0.063252285 0.11568518 -0.05188977 0.04983235 0.10231309
0.06598381 -0.059388135 0.06890348 0.007539892 0.019027434 -0.036696754 -0.045142807 0.111373484
-0.053020425 0.10154411 -0.050540008 -0.10620805 0.055835173 -0.052492183 0.07388714 -0.09184064
-0.052655544 0.05027171 0.0641216 0.025134273 0.016563626 0.06838672 -0.027406555 -0.04393277
-0.007733299 0.08094828 0.11316465 -0.06247793 0.041825086 -0.10453487 0.063080624 -0.005397725
0.017235031 0.052976932 0.06221811 0.08671445 -0.111812696 0.05039378 -0.041148067 0.032580867
-0.03436805 0.07615763 0.069400735 0.13375919 -0.038770728 0.040524546 0.02735531 -0.005755441
0.072960936 -0.13181023 -0.017213037 -0.042570177 -0.12057229 -0.029892532 -0.12624882 -0.036481217
0.09250794 0.115923174 0.07570017 0.05344072 0.081297554 -0.05913134 0.011868475 0.082785495
0.007846629 -0.07395246 0.10552417 -0.019552503 0.10001591 0.11763951 0.045089904 -0.0017580725
-0.034691002 -0.035349242 0.0053761355 -0.07663874 0.06380876 0.045069233 -0.07591533 0.037967287
-0.02761353 0.059994195 0.08352711 0.08242996 0.07198932 0.11811425 0.048099153 0.12196924
0.10710587 0.020279653 -0.032138478 0.03085912 0.0017490814 0.120387375 0.07797154 0.01674342
-0.0737422 0.050873365 0.10479033 0.020981677 0.10646735 -0.10028182 0.020547181 -0.036557604
0.02256593 0.07836764 -0.11603795 -0.109664455 -0.0056309127 -0.088406704 0.0712347 0.08688691
0.0035680456 0.09975742 0.065154985 0.1060086 0.08401361 -0.055485748 -0.087039776 -0.06398832
0.09090362 -0.07557191 -0.08867006 -0.0028277778 -0.057692107 0.036976956 0.08884888 -0.04453105
-0.043518655 0.056899656 -0.00092591834 0.049018 -0.0009337692 0.030632563 0.031972636 0.010756914
0.092544645 -0.090657875 -0.09017631 -0.10366378 -0.043880224 -0.10684063 -0.054233976 -0.09010937
0.033344306 -0.08047216 0.09868043 -0.028847435 0.018862685 -0.0036974002 -0.08285913 0.09751148
-0.05214972 0.027534824 0.08651261 -0.044730816 -0.061135206 0.07860194 0.10384447 0.07505711
0.11502814 0.06800493 0.1132646 -0.07345942 -0.05210934 0.081140906 0.09828456 0.090933084
0.03000317 -0.00514347 -0.037416946 -0.031392824 -0.051880315 0.09921265 0.07003399 -0.02962496
-0.019177953 0.02784083 0.056873154 0.07313714 0.073703915 -0.046415478 0.11903566 0.096405774
0.0025209235 0.11511312 0.0039260644 0.08068251 0.010486792 0.020624213 -0.07892002 0.022948993
-0.050080873 0.028412964 -0.050578333 -0.07419589 -0.042972255 -0.018610798 -0.06513081 -0.12117791
-0.091253825 -0.014557737 0.05717887 -0.046637654 -0.0075628357 0.09560958 -0.068042725 0.10038434
-0.044634875 -0.00995838 -0.013728682 0.039627355 0.03532944 -0.043266688 0.063146494 -0.0031952078
-0.06809308 -0.061718106 -0.02663223 0.012386424 -0.00094258436 -0.00016724781 -0.020812612 0.09514278
0.12902848 0.03450161 0.040750142 0.049130116 -0.12164718 -0.11365038 -0.04185988 0.07590501
-0.11435214 -0.017541355 -0.015066856 0.0016836174 -0.0542094 0.020827847 0.088176794 0.085794955
00000000: 2853 893d 7e5f 353d 99d1 d9bc a45b d7bd
00000010: dec5 30bd bc80 ccbd 01e6 463d 7bbf bfbc
00000020: 0420 89bd 84da c83d 8b6d 2abb 6a8a 813d
00000030: 5aec ec3d 5e8a 54bd 021d 4c3d 8689 d13d
00000040: 8522 873d f940 73bd 451d 8d3d 3311 f73b
00000050: 6cdf 9b3c 564f 16bd aae7 38bd c817 e43d
00000060: f22b 59bd 5cf6 cf3d 0a03 4fbd 9b83 d9bd
00000070: 6cb3 643d 0b02 57bd 2452 973d f216 bcbd
00000080: 57ad 57bd b5e9 4d3d 2f52 833d 64e6 cd3c
00000090: 71b0 873c 560e 8c3d b683 e0bc d9f2 33bd
000000a0: 9d67 fdbb 36c8 a53d dec2 e73d dce8 7fbd
000000b0: c850 2b3d 6116 d6bd 6a30 813d 66df b0bb
000000c0: 7b30 8d3c 57fe 583d 6bd8 7e3d 5897 b13d
000000d0: 0efe e4bd b569 4e3d e08a 28bd 8473 053d
000000e0: 83c5 0cbd 88f8 9b3d f921 8e3d 2bf8 083e
000000f0: 0ece 1ebd 11fd 253d 3e18 e03c 2398 bcbb
00000100: 8b6c 953d 43f9 06be 5b02 8dbc 115e 2ebd
00000110: 9bee f6bd 2fe1 f4bc 5f47 01be 546d 15bd
00000120: ce74 bd3d 2169 ed3d b108 9b3d a8e4 5a3d
00000130: 557f a63d b433 72bd fe73 423c 718b a93d
00000140: 268f 003c 6374 97bd 0e1d d83d 922c a0bc
00000150: 24d5 cc3d fcec f03d 31b0 383d 206f e6ba
00000160: 2718 0ebd 5eca 10bd 4b2a b03b c6f4 9cbd
00000170: 2bae 823d 849a 383d 7f79 9bbd 9683 1b3d
00000180: c535 e2bc 79bc 753d 4310 ab3d 0ad1 a83d
00000190: 236f 933d e2e5 f13d 9e03 453d 02cb f93d
000001a0: 535a db3d 8421 a63c a3a3 03bd 44cc fc3c
000001b0: 6f41 e53a a88d f63d 8baf 9f3d 7f29 893c
000001c0: 2706 97bd 9760 503d 509c d63d c4e1 ab3c
000001d0: 8e0b da3d 8e60 cdbd 9052 a83c 6dbd 15bd
000001e0: 2fdc b83c 377f a03d 4ea5 edbd c297 e0bd
000001f0: 8583 b8bb 930e b5bd 80e3 913d c4f1 b13d
00000200: dfd5 693b 9e4d cc3d fa6f 853d 091b d93d
00000210: 540f ac3d 0645 63bd e941 b2bd 4f0c 83bd
00000220: ad2b ba3d 72c5 9abd a698 b5bd 3d52 39bb
00000230: 8f4e 6cbd 2675 173d 67f6 b53d 3166 36bd
00000240: 9e40 32bd 9d0f 693d 54b9 72ba 19c7 483d
00000250: 31c8 74ba 24f1 fa3c bdf5 023d c43d 303c
00000260: 0c88 bd3d d6aa b9bd 5bae b8bd ad4d d4bd
00000270: c0bb 33bd 43cf dabd 7224 5ebd 438b b8bd
00000280: 0a94 083d 96ce a4bd f718 ca3d 7551 ecbc
00000290: eb85 9a3c 1550 72bb 0cb2 a9bd 19b4 c73d
000002a0: f29a 55bd b690 e13c 862d b13d a937 37bd
000002b0: e968 7abd 0efa a03d 69ac d43d 8bb7 993d
000002c0: e093 eb3d 2b46 8b3d 45f7 e73d e471 96bd
000002d0: 9a70 55bd 342d a63d 6a49 c93d 203b ba3d
000002e0: 35c9 f53c 8e8a a8bb 8342 19bd c395 00bd
000002f0: 7480 54bd 0030 cb3d fb6d 8f3d 0bb0 f2bc
00000300: 151b 9dbc 7412 e43c d3f3 683d edc8 953d
00000310: 14f2 963d 281e 3ebd f8c8 f33d 6470 c53d
00000320: 1436 253b 6dc0 eb3d 37a6 803b df3c a53d
00000330: cbd0 2b3c 1cf4 a83c d2a0 a1bd 87ff bb3c
00000340: 9a21 4dbd 4ec2 e83c 3a2b 4fbd 04f4 97bd
00000350: ad03 30bd ac75 98bc 4d63 85bd 202c f8bd
00000360: 49e3 babd 9383 6ebc 6434 6a3d 2007 3fbd
00000370: aad1 f7bb f5ce c33d fc59 8bbd 4e96 cd3d
00000380: 0fd3 36bd 7928 23bc 44ee 60bc 4b50 223d
00000390: 9ab5 103d 6938 31bd f352 813d b166 51bb
000003a0: 6274 8bbd 20cc 7cbd d62b dabc 6df0 4a3c
000003b0: c417 77ba 3e5f 2fb9 367f aabc 38da c23d
000003c0: 0b20 043e 8f51 0d3d 9fe9 263d a93c 493d
000003d0: 2822 f9bd 88c1 e8bd 4475 2bbd 1674 9b3d
000003e0: 7431 eabd e3b2 8fbc f9da 76bc d3ac dc3a
000003f0: ad0a 5ebd 299f aa3c 0996 b43d 44b5 af3d

conv1.bias f4 [20]
0.05734644 0.013321165 -0.062374216 0.031959053 0.023674686 0.06352694 0.00968475 -0.020470819
0.06977369 0.10426785 -0.022366267 -0.03634513 0.035508595 0.056870755 -0.028294176 -0.050035074
0.06902689 -0.049759958 -0.04295322 -0.03491553
00000000: 1ae4 6a3d 0441 5a3c 1b7c 7fbd 7fe7 023d
00000010: 6af1 c13c 6a1a 823d c9ac 1e3c 6bb2 a7bc
00000020: 82e5 8e3d 628a d53d 7639 b7bc a2de 14bd
00000030: 7671 113d 4ff1 683d 30c9 e7bc 94f1 4cbd
00000040: f85d 8d3d 19d1 4bbd b7ef 2fbd 9603 0fbd

conv2.weight f4 [40, 20, 3, 3]
0.02312082 0.011203224 0.034672286 -0.05488786 0.06731597 -0.000566187 -0.026934452 0.042102855
-0.036888234 0.07723766 0.009353932 0.059541475 -0.05326566 0.06653636 0.051389165 -0.05375439
-0.05439925 0.0050723753 0.08822455 -0.019490866 -0.015624494 0.04832753 -0.0049965647 -0.0045515224
0.037992433 0.016073663 0.016640343 -0.02156454 -0.021609182 -0.07582641 -0.05518932 -0.05265417
-0.016875425 0.015062307 -0.047148164 -0.07388332 0.028382445 0.060553093 -0.022573499 0.02533946
-0.038731635 -0.008617334 -0.01955198 0.018049939 0.064844385 0.07562766 0.027065903 0.02315009
-0.016787644 0.08082155 0.0039995825 -0.05020954 -0.01234522 0.07907449 0.06402128 0.027802529
0.0463461 -0.00037161715 -0.035858598 0.0053258226 0.05889946 -0.051934887 0.0732757 0.013750931
-0.01666387 -0.08277708 -0.04265314 0.034665484 -0.061824907 -0.038584553 -0.056646973 -0.06110391
-0.023550196 -0.043497004 -0.073499076 -0.06301049 0.020795131 -0.05773012 -0.06878572 -0.08703891
-0.039203625 -0.023870597 0.024723623 -0.056250356 -0.012042635 0.012758771 -0.011404223 0.018760767
-0.066049285 -0.06444446 0.040785186 0.005199814 0.00060771254 0.009868632 -0.032586847 0.019164914
0.042229034 0.025516517 -0.007496167 0.02168273 -0.042095497 -0.017447973 0.093329154 0.06813568
-0.005281143 0.013213567 0.09519424 0.038462207 0.036981083 0.032100935 -0.076503895 0.02789834
-0.04527227 0.047380697 0.02339754 0.048317004 0.03541742 -0.016665678 -0.06470598 -0.03791145
-0.02940415 -0.050369505 -0.07897357 0.018784693 -0.03429654 -0.012594442 0.018789733 0.025472812
-0.014892668 -0.061736092 -0.029259585 -0.05552438 -0.043852706 -0.00044287494 -0.0146804955 0.030325977
-0.04958046 0.037041835 -0.030113362 -0.05283531 0.025181549 -0.011136289 -0.00034177196 0.042867217
-0.035722055 -0.013778448 0.05532545 -0.03567785 -0.03646532 0.04127789 -0.040397793 -0.05202681
-0.07466779 0.06396826 0.05134687 -0.030683782 -0.055694323 -0.05363189 -0.0617592 0.02328138
0.040583204 -0.028986512 -0.03707217 0.010526715 -0.0021374743 -0.0321292 0.033447303 -0.014003752
0.015842235 -0.05096506 0.036761977 0.0038021775 0.00525947 -0.031376626 0.023111833 0.017385475
0.0074087796 0.016696248 -0.059386317 0.022150218 -0.049273692 -0.043445215 0.025305633 -0.050376948
-0.066061325 0.056715198 -0.02832065 -0.013293707 -0.022853626 -0.05905198 -0.07206572 0.047680285
-0.038246866 -0.033531908 -0.0610165 -0.01708077 0.0064789206 0.019339059 -0.07052698 -0.011229323
0.047802974 0.020361716 0.042141896 -0.018209022 -0.044556264 -0.07401687 -0.06755906 0.032601185
-0.073133454 0.047661785 0.020030685 0.0020992495 0.007820802 -0.03337263 0.031557232 -0.052220196
0.06173326 -0.0003982674 -0.018265603 0.015376438 -0.05065992 0.029100489 0.052689962 0.0699442
0.01383693 -0.048149876 -0.022360979 0.022532964 -0.03201832 -0.062534705 0.06229212 -0.057181146
0.060756426 -0.0676278 -0.050187282 -0.040427037 -0.061224256 -0.00013913547 -0.02486252 0.009682999
-0.04279719 0.054553173 -0.060747575 0.06041984 -0.0047446364 0.024394495 -0.045730256 0.043755036
-0.029986117 0.00480662 0.027053032 -0.018767953 0.0023382562 0.070140995 -0.0116013875 -0.03828486
00000000: e067 bd3c ba8d 373c 8704 0e3d 18d2 60bd
00000010: f5dc 893d 2b6c 14ba a4a5 dcbc 0b74 2c3d
00000020: 1e18 17bd c72e 9e3d 3c41 193c c3e1 733d
00000030: 182d 5abd 3744 883d 727d 523d 902d 5cbd
00000040: bfd1 5ebd 2b36 a63b 13af b43d 4fab 9fbc
00000050: e1fd 7fbc 17f3 453d 39ba a3bb f024 95bb
00000060: f49d 1b3d eaac 833c 5451 883c 1ea8 b0bc
00000070: bd05 b1bc e04a 9bbd 320e 62bd e6ab 57bd
00000080: 553e 8abc e5c7 763c 6f1e 41bd 2350 97bd
00000090: 4d82 e83c 8506 783d 0fec b8bc b394 cf3c
000000a0: 10a5 1ebd b82f 0dbc 792b a0bc 77dd 933c
000000b0: 22cd 843d ade2 9a3d 50b9 dd3c 42a5 bd3c
000000c0: 3e86 89bc c585 a53d ee0e 833b 85a8 4dbd
000000d0: 9b43 4abc cef1 a13d 971d 833d 21c2 e33c
000000e0: 68d5 3d3d 9cd5 c2b9 77e0 12bd 3d84 ae3b
000000f0: 8f40 713d adb9 54bd 9211 963d 964b 613c
00000100: ab82 88bc 0887 a9bd 0fb5 2ebd 65fd 0d3d
00000110: 1d3c 7dbd d60a 1ebd a806 68bd 1848 7abd
00000120: 57ec c0bc ea29 32bd af86 96bd a50b 81bd
00000130: 8d5a aa3c 6b76 6cbd 87df 8cbd 7541 b2bd
00000140: fb93 20bd 458c c3bc 3289 ca3c c666 66bd
00000150: 794e 45bc 2a0a 513c c7d8 3abc 2eb0 993c
00000160: d944 87bd 75fb 83bd 5e0e 273d 3463 aa3b
00000170: e64e 1f3a 0bb0 213c c979 05bd bdff 9c3c
00000180: 5af8 2c3d 0408 d13c 68a2 f5bb fb9f b13c
00000190: 546c 2cbd 0def 8ebc 5b23 bf3d b88a 8b3d
000001a0: 700d adbb b87d 583c 33f5 c23d 8c8a 1d3d
000001b0: 7a79 173d 457c 033d 13ae 9cbd 0f8b e43c
000001c0: 6a6f 39bd 4312 423d 33ac bf3c 0de8 453d
000001d0: db11 113d 7686 88bc 9284 84bd 0949 1bbd
000001e0: f9e0 f0bc 4150 4ebd e5bc a1bd 5be2 993c
000001f0: 877a 0cbd eb58 4ebc edec 993c 5cac d03c
00000200: 6100 74bc fcde 7cbd ccb1 efbc 886d 63bd
00000210: e59e 33bd ab31 e8b9 7686 70bc 2f6e f83c
00000220: e114 4bbd 2eb9 173d 4cb0 f6bc d769 58bd
00000230: 8949 ce3c fb74 36bc db2f b3b9 8995 2f3d
00000240: 4a51 12bd 00bf 61bc f09c 623d f022 12bd
00000250: a95c 15bd 0113 293d 2878 25bd 101a 55bd
00000260: 6deb 98bd cb01 833d 1851 523d 8e5c fbbc
00000270: bb1f 64bd 1dad 5bbd 37f7 7cbd 98b8 be3c
00000280: 933a 263d 1f75 edbc fdd8 17bd 3e78 2c3c
00000290: de14 0cbb e899 03bd 0a00 093d fe6f 65bc
000002a0: 93c7 813c bdc0 50bd ba93 163d f42d 793b
000002b0: a257 ac3b c784 00bd 0755 bd3c fc6b 8e3c
000002c0: 59c5 f23b 92c6 883c 113f 73bd 6074 b53c
000002d0: 36d3 49bd 9cf3 31bd c24d cf3c 0f58 4ebd
000002e0: 294b 87bd 324e 683d b500 e8bc d9cd 59bc
000002f0: 8737 bbbc 7de0 71bd 3197 93bd 674c 433d
00000300: bfa8 1cbd c158 09bd 70ec 79bd f9ec 8bbc
00000310: 204d d43b f26c 9e3c 7370 90bd 32fb 37bc
00000320: 0dcd 433d 9dcd a63c fb9c 2c3d 162b 95bc
00000330: a180 36bd 2896 97bd 685c 8abd d288 053d
00000340: fec6 95bd 0139 433d 6417 a43c 9093 093b
00000350: d222 003c bdb1 08bd 2842 013d d8e4 55bd
00000360: 04dc 7c3d 8cce d0b9 bfa1 95bc 75ed 7b3c
00000370: c780 4fbd 2664 ee3c 6ed1 573d e83e 8f3d
00000380: 4ab4 623c ce38 45bd 5f2e b7bc 0d97 b83c
00000390: a425 03bd 3212 80bd 0626 7f3d c736 6abd
000003a0: bbdb 783d 7280 8abd 2e91 4dbd d296 25bd
000003b0: 49c6 7abd e5e4 11b9 7cac cbbc 71a5 1e3c
000003c0: 1b4c 2fbd 2673 5f3d 73d2 78bd cb7a 773d
000003d0: e578 9bbb f7d6 c73c a64f 3bbd 7b38 333d
000003e0: 72a5 f5bc da80 9d3b 529e dd3c 40bf 99bc
000003f0: 6e3d 193b 15a6 8f3d bf13 3ebc 96d0 1cbd

conv2.bias f4 [40]
0.049715452 -0.050841793 0.041475307 0.01645841 -0.029294964 -0.00024882396 -0.014473507 -0.056641974
-0.034407318 0.017886769 -0.07297627 0.02998406 -0.05286384 0.018673714 -0.011762753 -0.072318226
0.02773735 0.043846324 -0.028409826 -0.07107288 -0.006288775 -0.033461757 -0.032896463 0.057011988
0.07821137 -0.041541368 0.015597077 0.06422378 0.06659759 0.019265372 0.030063411 -0.07222876
0.07318284 0.008453496 0.066021584 0.07188132 -0.01682147 0.045267966 0.049713343 -0.057159286
00000000: 6ea2 4b3d 7c3f 50bd 03e2 293d cad3 863c
00000010: fefb efbc 9674 82b9 4a22 6dbc 6a01 68bd
00000020: b0ee 0cbd 4687 923c 9574 95bd 22a1 f53c
00000030: c187 58bd 9ef9 983c 90b8 40bc 941b 94bd
00000040: 7039 e33c 3498 333d b9bb e8bc a88e 91bd
00000050: 1112 cebb 320f 09bd 71be 06bd 6785 693d
00000060: 482d a03d 4827 2abd e28a 7f3c c287 833d
00000070: 5164 883d 6ad2 9d3c 8b47 f63c acec 93bd
00000080: e3e0 953d 8880 0a3c 5336 873d 8336 933d
00000090: 2ecd 89bc e76a 393d 38a0 4b3d db1f 6abd

fc1.weight f4 [1, 6760]
0.023592394 0.015605063 0.026413916 0.011558556 0.023270627 0.019925388 0.01455211 0.022473486
0.026976686 0.00934417 0.016427295 0.0006205528 0.007871646 0.0060628317 0.026042016 0.023098543
0.018493952 0.01687866 0.02548859 0.038001247 0.031887952 0.025799688 0.025119932 1.6301173e-06
0.0017056147 -0.0011171893 0.0024500743 0.009933243 0.03477581 0.022632577 0.020998646 0.022928875
0.030979803 0.039139677 0.017364673 0.024868209 0.0028246995 0.006565539 0.01253103 0.012822436
0.0144196125 0.016984144 0.018493911 0.012053925 0.019242508 0.031713374 0.024492165 0.027208088
0.010840958 0.011777004 0.007375092 0.008181321 0.003776521 0.0043983543 0.029515877 0.02662056
0.0139282495 0.03448553 0.037298135 0.024634225 0.010929164 0.016844712 0.022659793 0.012215041
0.023851933 0.0058710617 0.017173808 0.024630547 0.015830617 0.034716252 0.014476401 0.025089467
0.012209803 0.013977096 0.02677508 0.031511836 0.030192293 0.030414106 0.01504196 0.02028925
0.02007785 0.017700441 0.013179784 0.011711888 0.02747528 0.010288089 0.007317187 0.023837047
0.019002428 0.028595226 0.023788702 0.01388294 0.0014538121 0.01922821 0.011660764 0.0076958523
0.01569733 0.009127457 0.01727754 0.016609 0.014814044 0.02339922 0.03622989 0.034433927
0.020966748 -0.0015502102 0.0052891043 -0.0020327284 0.01953079 0.00479936 0.004003956 0.011641852
0.00931474 0.004744323 0.016757965 0.022694588 0.021192694 0.006793985 0.014372039 -0.0027067538
-0.002306752 0.008745251 0.016955096 0.009544166 0.010822244 -0.002676224 0.004773948 0.019376928
0.01076416 0.018785361 0.0121229235 0.008776544 0.012543516 -0.0005493912 0.022032114 0.004185486
0.013322839 0.009607219 0.009879346 -7.227345e-05 0.014858386 0.017014151 0.020604063 0.00997894
0.018760622 0.013047894 0.003124866 0.00782688 0.002442463 0.014190717 0.01201582 0.015866783
0.010080755 0.008531217 0.0137398355 0.019622467 0.018987285 0.010189279 0.021926323 0.0067159794
0.008008254 0.012157806 0.010207389 0.010352562 0.011256718 0.021687647 0.027158491 0.0045784134
0.014110083 0.0021665993 0.0017365791 -0.00808414 -0.009853453 -0.0049576485 -0.001523968 -0.005395826
-0.009343403 0.00097528973 0.004901075 0.0040908763 -0.009877306 0.0075191576 0.011110405 0.009404519
-0.01157302 0.009625421 0.007616953 -0.0061847935 -0.007644179 0.00417028 0.004932068 0.004038483
-0.009790377 0.0035654455 -0.00087829167 0.011331999 0.008143947 0.0012461259 0.01093655 0.007657151
0.00024744065 0.011777617 0.004217923 0.0065780343 -0.0008953207 0.0014787907 0.011974117 0.004860971
0.0026727435 0.0038366255 -0.0021873359 -0.006707899 0.008674364 0.012069477 0.004655338 -0.0028544834
0.009571108 -0.007756285 -0.011598713 -0.01012794 -0.0072131874 0.0010504524 -0.007170085 -0.00013282639
0.0065585524 -0.011782358 -0.010827063 -0.0115033155 0.008388288 0.0049092076 0.0049385186 0.00083831226
-0.006639339 0.0022440078 0.011988052 0.0039712163 -0.0052597993 0.010174711 -0.005435218 0.0006214673
-0.0010421821 -0.003922071 0.011761052 0.0025667707 0.011634915 0.0045761997 0.004948092 0.0054874825
0.0071068304 0.007958168 -0.008966659 -0.011545387 -0.0024601365 -0.0004984132 -0.009499084 -0.010482441
00000000: d644 c13c 61ac 7f3c ff61 d83c 1960 3d3c
00000010: 0ba2 be3c 913a a33c f96b 6e3c 511a b83c
00000020: 36fe dc3c 4a18 193c 8992 863c 98ac 223a
00000030: 14f8 003c b8aa c63b 1156 d53c 2839 bd3c
00000040: a180 973c 1e45 8a3c 73cd d03c 32a7 1b3d
00000050: f19c 023d de59 d33c 51c8 cd3c 67ca da35
00000060: ef8e df3a a76e 92ba 6d91 203b 0abf 223c
00000070: 1471 0e3d f467 b93c 5a05 ac3c 56d5 bb3c
00000080: 5bc9 fd3c ed50 203d 5c40 8e3c 6ab8 cb3c
00000090: 981e 393b bc23 d73b f34e 4d3c 3215 523c
000000a0: 3d40 6c3c 5522 8b3c 8b80 973c d37d 453c
000000b0: 77a2 9d3c e2e5 013d cba3 c83c 7fe3 de3c
000000c0: 469e 313c 56f4 403c c1aa f13b f30a 063c
000000d0: 827f 773b 1220 903b 48cb f13c 5c13 da3c
000000e0: 5033 643c b340 0d3d eec5 183d b7cd c93c
000000f0: 3c10 333c ecfd 893c 08a1 b93c 9821 483c
00000100: 2165 c33c 0962 c03b 16b0 8c3c 00c6 c93c
00000110: 36af 813c a132 0e3d 6d2e 6d3c 6d88 cd3c
00000120: a00b 483c 3100 653c 6a57 db3c 8e12 013d
00000130: d455 f73c 0127 f93c 8e72 763c a435 a63c
00000140: 4e7a a43c 8400 913c 05f0 573c 38e3 3f3c
00000150: d713 e13c 5f8f 283c 03c5 ef3b e945 c33c
00000160: fbaa 9b3c 8940 ea3c 86e0 c23c 4575 633c
00000170: d78d be3a 7b84 9d3c ca0c 3f3c 7d2d fc3b
00000180: b097 803c 548b 153c a189 8d3c 990f 883c
00000190: 9bb6 723c b9af bf3c cb65 143d 970a 0d3d
000001a0: 75c2 ab3c 6c30 cbba 3950 ad3b 8637 05bb
000001b0: 09ff 9f3c f343 9d3b 9e33 833b 77bd 3e3c
000001c0: da9c 183c 4476 9b3b 0048 893c 00ea b93c
000001d0: 4d9c ad3c 14a0 de3b b378 6b3c cb63 31bb
000001e0: e02c 17bb 3e48 0f3c 6ae5 8a3c 225f 1c3c
000001f0: c84f 313c 9763 2fbb c76e 9c3b 5dbc 9e3c
00000200: 295c 303c c2e3 993c 3a9f 463c 7ecb 0f3c
00000210: 5283 4d3c 0505 10ba b17c b43c 6726 893b
00000220: 0948 5a3c 9967 1d3c fbdc 213c 8391 97b8
00000230: 9670 733c 4361 8b3c dac9 a83c b57e 233c
00000240: e0af 993c d6c6 553c 8dca 4c3b 503c 003c
00000250: bb11 203b 2e80 683c 00de 443c 0efb 813c
00000260: c029 253c 85c6 0b3c 0c1d 613c 4cbf a03c
00000270: 398b 9b3c eff0 263c d59e b33c b811 dc3b
00000280: 0d35 033c 8931 473c e43c 273c cb9d 293c
00000290: 196e 383c 4baa b13c 7c7b de3c 8406 963b
000002a0: fa2d 673c 81fd 0d3b ed9d e33a 5773 04bc
000002b0: 6170 21bc c573 a2bb e1bf c7ba 78cf b0bb
000002c0: 1315 19bc 96aa 7f3a 3299 a03b c20c 863b
000002d0: 6dd4 21bc 4463 f63b 6b08 363c 6915 1a3c
000002e0: c49c 3dbc f1b3 1d3c a297 f93b cfa9 cabb
000002f0: 057c fabb d8a6 883b 2f9d a13b 4055 843b
00000300: d167 20bc 40aa 693b 283d 66ba d9a9 393c
00000310: 316e 053c 0c55 a33a 372f 333c d7e8 fa3b
00000320: ecba 8139 e8f6 403c 8136 8a3b 8d8c d73b
00000330: f5b3 6aba fbd3 c13a 162f 443c c848 9f3b
00000340: 3229 2f3b e56f 7b3b 6859 0fbb efcd dbbb
00000350: eb1e 0e3c 0ebf 453c ce8b 983b 4912 3bbb
00000360: 23d0 1c3c 6f28 febb 8708 3ebc a9ef 25bc
00000370: 9a5c ecbb 55af 893a 08f3 eabb 5047 0bb9
00000380: 20e9 d63b cb0a 41bc fe63 31bc 6778 3cbc
00000390: 086f 093c 6bdd a03b 4cd3 a13b 2fc2 5b3a
000003a0: d08e d9bb 3410 133b 8969 443c fa20 823b
000003b0: 655a acbb d5b3 263c ea19 b2bb f7e9 223a
000003c0: d499 88ba b784 80bb 6db1 403c 4437 283b
000003d0: 5fa0 3e3c f2f3 953b 9b23 a23b 57d0 b33b
000003e0: 6ae0 e83b fa62 023c e5e8 12bc dd28 3dbc
000003f0: 3e3a 21bb f2a7 02ba 0ca2 1bbc 8bbe 2bbc
